python/results/minion_walk_003/Minion/checkpoint.pt (torch, 464859 bytes, 36 tensors)

network_body._body_endoder.seq_layers.0.weight f4 [128, 15]
0	0x3ebe7606	0.3719942
1	0x3dc54294	0.096318394
2	0xbe3f09b3	-0.18656044
3	0x3d5e30eb	0.05424587
4	0xbe217ea0	-0.1577096
5	0x3daa2f21	0.083097704
6	0x3dda2138	0.10650867
7	0x3e217137	0.15765844
8	0xbdfff95e	-0.12498735
9	0x3dd9ce26	0.10635023
10	0x3e301ab4	0.17197686
11	0x3dd80a94	0.105488926
12	0x3e2cdddd	0.16881509
13	0x3ee9b092	0.45642525
14	0xbee2b1fd	-0.4427642
15	0x3ecff52f	0.40616748
16	0xbf0ce6cd	-0.55039674
17	0xbe4c9643	-0.19979195
18	0x3ee47037	0.44616863
19	0x3edaba50	0.4272027
20	0x3e8fa32e	0.28054184
21	0xbf1cd065	-0.61255485
22	0x3edcc2e3	0.43117437
23	0x3e7df9b8	0.24802291
24	0xbe6c2588	-0.23061192
25	0x3dc8bc49	0.098015375
26	0xbe7eaf2c	-0.2487151
27	0x3cbe80b3	0.023254728
28	0xbe6141b5	-0.21997721
29	0x3ea03464	0.3128997
30	0xbd1c9aa1	-0.038233403
31	0x3b86ba94	0.0041115973
32	0xbe04f3d9	-0.12983645
33	0x3dd98c5e	0.10622476
34	0xbe4ae05c	-0.19812149
35	0x3df9d1e5	0.12198237
36	0xbe43393f	-0.19064806
37	0xbb7f5e27	-0.0038966031
38	0xbf0a98ec	-0.5413959
39	0x3ddde7f3	0.108352564
40	0xbe8d3e95	-0.2758681
41	0x3e8f4c30	0.27987814
42	0xbea372d2	-0.31923538
43	0xbe3879c4	-0.180152
44	0xbe40386f	-0.18771528
45	0xbe70b8b7	-0.23507963
46	0xbda2f353	-0.07956567
47	0x3e14da24	0.14536339
48	0x3d1cbb9b	0.038264852
49	0x3da32a32	0.079670325
50	0xbd31eb55	-0.04343732
51	0xbd3b72dc	-0.045763835
52	0x3ed01eba	0.40648443
53	0x3eb4f0f1	0.35340074
54	0x3dd332d4	0.10312429
55	0xbde4d8f3	-0.11174192
56	0x3e363c80	0.17796516
57	0x3e4819fa	0.1954116
58	0xbe2c573f	-0.16830157
59	0x3dba07b5	0.09083501
60	0x3dba753a	0.091043904
61	0xbdbf24d9	-0.093332
62	0x3c063beb	0.0081929965
63	0x3d725a5f	0.059168216
64	0x3d3decba	0.04636834
65	0xbe48e30e	-0.19617864
66	0x3e608d5a	0.21928921
67	0x3f0074a0	0.50177956
68	0xbdacf11d	-0.08444426
69	0x3e60dbaa	0.21958795
70	0x3e203fa4	0.15649277
71	0xbebc5fe1	-0.367919
72	0xbe3ef925	-0.18649729
73	0x3db0e563	0.08637502
74	0x3e17092f	0.14749597
75	0x3ec00c24	0.37509263
76	0x3e398828	0.18118346
77	0x3dab6594	0.08368984
78	0xbb3f714e	-0.0029211822
79	0x3e65b271	0.22431351
80	0xbec03b41	-0.37545207
81	0x3ebc9f1b	0.36840138
82	0xbdfe6f2f	-0.1242355
83	0xbe789588	-0.24275792
84	0x3e36ef75	0.17864783
85	0xbf10a3cb	-0.5649993
86	0xbe43c235	-0.19117053
87	0xbde249f3	-0.11049261
88	0xbc77ebcb	-0.015131901
89	0x3dac7ed6	0.084226295
90	0xbc05b6b3	-0.008161235
91	0xbe184415	-0.14869721
92	0x3db9cbaa	0.09072049
93	0x3e79e688	0.24404347
94	0xbeb009d4	-0.34382498
95	0x3eab5e6f	0.33470485
96	0x3c66cd5d	0.014087048
97	0xbcc9474c	-0.02457013
98	0xbd996252	-0.07489456
99	0x3d1677a6	0.0367352
100	0xbe5a6921	-0.21329166
101	0x3e247a9f	0.16062401
102	0x3eb22e0f	0.34800765
103	0x3ddf84b4	0.10913983
104	0xbe5dc704	-0.2165795
105	0xbe5fb3f8	-0.21845996
106	0xbe89de82	-0.26927572
107	0xbed4f5dd	-0.4159383
108	0xbd33b897	-0.04387721
109	0x3e0add3e	0.1356096
110	0xbd8bbe1b	-0.06823369
111	0x3e2afda6	0.16698322
112	0x3de82fcd	0.11337242
113	0x3eb4d4f1	0.3531871
114	0x3eb7aa3c	0.35872066
115	0xbecb5a50	-0.3971734
116	0xbe326691	-0.17421938
117	0x3e5d1b61	0.21592475
118	0xbe1e81f6	-0.15479264
119	0x3eee5754	0.46551
120	0xbdd40d1e	-0.103540644
121	0x3cd24c4a	0.025671143
122	0xbf13d82d	-0.57751733
123	0x3e0e4f0a	0.13897339
124	0xbf0045ae	-0.5010632
125	0xbe07c666	-0.13259277
126	0x3ec7b467	0.39004824
127	0x3de2b594	0.110697895
128	0xbc044555	-0.008073171
129	0x3cee8a37	0.02911864
130	0xbdf71afb	-0.12065693
131	0x3e77337c	0.24140733
132	0xbe47274a	-0.19448581
133	0x3e0a1b08	0.13486874
134	0x3efc6c02	0.49301153
135	0x3e930f03	0.2872239
136	0xbcd45ad0	-0.025922209
137	0xbe2ec23c	-0.17066282
138	0x3e3c61e0	0.18396711
139	0x3e551295	0.2080787
140	0xbd779e43	-0.060453665
141	0xbe1de8b2	-0.15420797
142	0xbf42841a	-0.7598282
143	0x3e581958	0.21103418
144	0xbe922d2e	-0.28550094
145	0xbe53ece6	-0.20695838
146	0x3d1c9c8c	0.038235232
147	0x3e07ee65	0.13274534
148	0x3e814223	0.2524577
149	0xbda41c98	-0.08013266
150	0x3d2cf849	0.04222897
151	0xbe736cbb	-0.23771946
152	0x3e2d3d16	0.16917834
153	0x3cb429bb	0.021992555
154	0xbef0023c	-0.46876705
155	0x3e7734d8	0.24141252
156	0xbeeeb6ae	-0.4662375
157	0xbedc869a	-0.43071443
158	0xbe740e64	-0.23833615
159	0x3e259b99	0.16172637
160	0xbc8fbd1a	-0.017546225
161	0xbd747407	-0.059680965
162	0x3e54ca6f	0.20780347
163	0xbb52c831	-0.003216278
164	0x3dedf1c7	0.11618381
165	0x3e459f99	0.19299163
166	0x3f1242a2	0.57132924
167	0xbed3ba24	-0.41352952
168	0xbe95ae30	-0.29234457
169	0x3eb5a237	0.35475323
170	0x3c0719d0	0.0082459
171	0x3cb03670	0.021510333
172	0xbd171a09	-0.036890063
173	0xbd1091a4	-0.035295144
174	0x3ec3fbb9	0.38277987
175	0xbda4d6a5	-0.08048753
176	0x3e28ff72	0.16503695
177	0x3ec4c95b	0.38434872
178	0x3e9fbce7	0.3119881
179	0x3df30496	0.11866109
180	0xbc43c8f7	-0.011949769
181	0xbeb09545	-0.34488884
182	0xbe2ca216	-0.16858706
183	0xbcb1bdfa	-0.021697033
184	0xbd79c344	-0.060977235
185	0x3dd9d0af	0.10635506
186	0x3e70eb96	0.23527369
187	0x3de92387	0.113837294
188	0x3e321198	0.17389524
189	0xbe4f7467	-0.20259248
190	0xbea57405	-0.32315078
191	0xbe8aba7e	-0.27095407
192	0xbd32a44b	-0.043613713
193	0x3e91b78e	0.28460354
194	0xbeaffea5	-0.34373966
195	0x3eb1697f	0.346508
196	0x3cc9dee8	0.024642423
197	0xbd621f49	-0.055205617
198	0xbeb4439d	-0.35207835
199	0xbd27d3a7	-0.04097333
200	0xbf0ee08e	-0.55811393
201	0x3e925603	0.28581247
202	0x3e28a78a	0.16470161
203	0xbdf05e7d	-0.11736772
204	0x3e0bbe28	0.13646758
205	0x3eb84acd	0.35994568
206	0xbe88b3d9	-0.26699713
207	0x3df8ba86	0.121449515
208	0xbe7da6da	-0.2477068
209	0xbe98ad31	-0.29819635
210	0xbb8f972d	-0.004382035
211	0xbe0d9663	-0.13826899
212	0x3e1d7ef1	0.15380456
213	0x3cecd977	0.028912289
214	0x3df19371	0.117957
215	0x3d029d0f	0.031888064
216	0xbb33ae45	-0.0027417105
217	0x3dd43cd5	0.10363165
218	0xbd83428e	-0.06409179
219	0x3e9db34e	0.3080086
220	0xbc242865	-0.010019396
221	0x3ecb2b1d	0.3968133
222	0x3da7d3be	0.081946835
223	0x3de99ba7	0.114066415
224	0x3dad12e9	0.084508725
225	0xbd857edc	-0.06518337
226	0xbea02117	-0.31275246
227	0x3e37e09b	0.17956774
228	0x3e0bc6f8	0.1365012
229	0xbd9534fa	-0.07285495
230	0x3d342cd4	0.043988064
231	0x3e4b594d	0.19858284
232	0xbecbfeef	-0.39842936
233	0x3b9afd75	0.0047299215
234	0x3e1f093a	0.15530863
235	0x3d81ea60	0.063435316
236	0xbaa011be	-0.0012212319
237	0x3dbfb5ec	0.09360871
238	0x3dad9c77	0.08477109
239	0xbe44eb16	-0.19230303
240	0xbea93186	-0.33045596
241	0x3e2c3d2b	0.16820209
242	0x3e38dd31	0.18053128
243	0xbe37ba6d	-0.1794221
244	0xbe40796a	-0.18796316
245	0xbd5f5db6	-0.05453273
246	0xbe0378d8	-0.12839067
247	0x3b9f5458	0.0048623495
248	0xbdc0ea54	-0.094196945
249	0x3ed6d7af	0.4196143
250	0x3e0939c8	0.13400948
251	0xbe9defd0	-0.30847025
252	0xbe8feaef	-0.28108928
253	0xbeea9142	-0.45813948
254	0xbed4825e	-0.41505712
255	0xbf1760c5	-0.59132034

network_body._body_endoder.seq_layers.0.bias f4 [128]
0	0x3b23c4ce	0.002498913
1	0xb97570e4	-0.00023407076
2	0xbb430ef0	-0.0029763542
3	0x3b08c1fb	0.0020867574
4	0x3b377010	0.0027990378
5	0x398336e3	0.0002502716
6	0xbb24130d	-0.002503577
7	0xbb5035f5	-0.0031770442
8	0xbb8000cc	-0.003906345
9	0xb9b81a9c	-0.0003511504
10	0x3b7cd447	0.0038578676
11	0x3b9abde5	0.004722344
12	0xb9be64db	-0.00036314767
13	0x3b7bb9e5	0.0038410362
14	0xbb52d174	-0.00321683
15	0x3b5e69dd	0.003393761
16	0xbb7133c7	-0.0036804543
17	0xbacc69d8	-0.0015595509
18	0x3b94b510	0.004538186
19	0x3b9c6680	0.004772961
20	0x3b561580	0.0032666624
21	0xbaec45c7	-0.0018026166
22	0x3ace5838	0.0015742844
23	0x3a9d72ac	0.0012012324
24	0x3ab20a2f	0.0013583357
25	0x3b0e62c2	0.0021726345
26	0xbaae5192	-0.0013299456
27	0x3b510259	0.0031892268
28	0xba5a4839	-0.0008326802
29	0x3b92f417	0.004484664
30	0xbb556ac5	-0.003256486
31	0xbb86fc89	-0.00411946
32	0xbb9c0db6	-0.0047623767
33	0x3b9ae690	0.004727192
34	0x3b5ef382	0.0034019654
35	0xbb87a0a3	-0.0041390224
36	0x3b399325	0.0028316465
37	0x3b4e3cf3	0.0031469434
38	0xb907ac71	-0.00012938843
39	0x3b2bad12	0.0026195687
40	0x3a96bb25	0.0011499865
41	0xbb303bfc	-0.0026891222
42	0xbb4b4a9d	-0.0031019815
43	0x3b52b7cf	0.0032153015
44	0xba93cc39	-0.0011276073
45	0x3872470b	5.776346e-05
46	0xba455490	-0.00075275544
47	0x3af3fb5d	0.0018614341
48	0xbb83030e	-0.003998167
49	0x3b513abc	0.0031925878
50	0x3bbecdfc	0.005822895
51	0xbb464744	-0.003025488
52	0x3b1b1de9	0.002366895
53	0xbaa554b2	-0.0012613742
54	0x3a547018	0.00081038615
55	0xbadef600	-0.001701057
56	0x3c072536	0.008248618
57	0xbb7fc017	-0.0039024407
58	0x3b694f2d	0.003560017
59	0xba9d2bbe	-0.0011991186
60	0x39e0b181	0.0004285686
61	0xbb6e9cd5	-0.0036409397
62	0xb9d96b49	-0.000414694
63	0xbae4c814	-0.0017454647
64	0x3b9f7092	0.0048657143
65	0xbb020e04	-0.001984478
66	0xba9d0dd9	-0.0011982276
67	0xb9a18bbc	-0.00030812423
68	0xba84cf6c	-0.0010132617
69	0xbb2bcbf2	-0.002621409
70	0xbb853a20	-0.004065767
71	0xbad6ccec	-0.0016387976
72	0xbb05c734	-0.0020412924
73	0xbb64203b	-0.003480925
74	0x3bcd9210	0.0062735155
75	0x3b640d2e	0.0034797895
76	0x3b281a6b	0.0025650512
77	0xbb0fbc46	-0.0021932288
78	0x3b906896	0.004406999
79	0x3a913222	0.0011077563
80	0xbb8938df	-0.0041876878
81	0xbb61cf76	-0.0034455932
82	0x3a617c8f	0.00086016295
83	0x3b3b3182	0.0028563445
84	0xbb3dfd81	-0.0028990211
85	0x3b94e009	0.0045433086
86	0xba81a9a8	-0.000989248
87	0x3add96b3	0.0016905874
88	0x3aa96739	0.001292444
89	0xbaa3c19d	-0.0012493614
90	0x3b606f52	0.003424604
91	0x3b9b1f2f	0.004733942
92	0xbb532490	-0.0032217838
93	0x393c10c1	0.00017935318
94	0xbb36ed27	-0.002791235
95	0xbaf53589	-0.0018707971
96	0x3aba4373	0.0014210775
97	0x3b6e0336	0.0036317832
98	0xbbb5f43c	-0.0055527966
99	0x3af2a118	0.0018511144
100	0x3b33d4b9	0.0027440025
101	0x3af4f247	0.0018687927
102	0xbb6f8bed	-0.0036551908
103	0xbad87497	-0.0016514239
104	0x3b6d8645	0.003624336
105	0xbb4a2cf0	-0.0030849539
106	0xbaa144b1	-0.0012303797
107	0x3b2e3937	0.0026584396
108	0x3b1f62f4	0.0024320455
109	0x3b29837e	0.002586573
110	0x39e051cf	0.00042785562
111	0xbb00bdff	-0.0019644496
112	0x3b8a2b95	0.004216621
113	0xbb830fb8	-0.0039996766
114	0x3ab3c26c	0.0013714558
115	0x3b4f7945	0.0031657976
116	0xbb7ae68f	-0.0038284396
117	0xbb6157c3	-0.0034384585
118	0x3b4ad2c6	0.0030948385
119	0xbb8d9d77	-0.00432175
120	0xbb5d29e0	-0.0033746883
121	0xbb201fd0	-0.0024433024
122	0xba2a5ad7	-0.00064985215
123	0xb8f49388	-0.000116623065
124	0xbb8bdb28	-0.004268069
125	0x3a704973	0.0009166218
126	0x3bd418a7	0.0064726654
127	0xbb57e003	-0.0032939918

network_body._body_endoder.seq_layers.2.weight f4 [128, 128]
0	0x3c060cb7	0.008181742
1	0xbc3eac82	-0.011637809
2	0x3d04bc50	0.03240615
3	0xbdc4e88c	-0.09614667
4	0x3d6d5979	0.057946656
5	0x3d78343a	0.060596682
6	0x3da120c4	0.07867578
7	0x3e1d37bf	0.15353297
8	0x3e6c27d3	0.23062067
9	0xbcb64ecf	-0.022254376
10	0x3deb4b4a	0.114889696
11	0x3e1af983	0.15134244
12	0x3da69185	0.081332244
13	0xbd10e621	-0.035375718
14	0xbe040ab2	-0.12894705
15	0x3ccd9248	0.025094166
16	0xbc265388	-0.010151751
17	0x3d2af4e2	0.041737445
18	0x3dd7b55b	0.10532638
19	0xbe1df216	-0.1542438
20	0xbd85be89	-0.06530482
21	0xbd059f24	-0.03262247
22	0x3c4b13b7	0.012394837
23	0x3dba3523	0.09092166
24	0xbc6e6713	-0.014550942
25	0x3d8a9769	0.067671604
26	0x3d046979	0.03232715
27	0x3d548ab7	0.0518901
28	0x3c142708	0.009042509
29	0xbe04b3d1	-0.1295922
30	0x3e36081e	0.17776534
31	0xbd9e9af1	-0.077443965
32	0x3d2afe85	0.041746635
33	0xbdb7232a	-0.08942254
34	0x3d6bad5c	0.057538375
35	0xbd339f75	-0.043853242
36	0x3c6fb627	0.014630831
37	0xbd2fff5f	-0.04296815
38	0xbba6e256	-0.0050928993
39	0x3d80383b	0.06260725
40	0x3dff28fb	0.12458988
41	0x3bfa9b0a	0.0076478766
42	0xbd65d908	-0.05611518
43	0x3dfe8e72	0.12429513
44	0xbd56c888	-0.052437335
45	0xbe0f8ee2	-0.14019349
46	0x3d94890e	0.072527036
47	0x3d50160a	0.050802268
48	0xbd82ce71	-0.06387032
49	0x3caa7b65	0.020810792
50	0xbd9b0f09	-0.07571227
51	0x3e1a539b	0.15070955
52	0xbd8d485e	-0.068985686
53	0x3dfddc34	0.12395516
54	0xbdc2c891	-0.09510911
55	0x3dd48e25	0.103786744
56	0x3da84d50	0.08217871
57	0xbe010339	-0.12598886
58	0x3da4995a	0.08037062
59	0x3d800c33	0.06252327
60	0xbd434a4c	-0.047678277
61	0x3d993de9	0.074825116
62	0xbc948724	-0.018130846
63	0xbd8109d0	-0.063007
64	0x3d9355fe	0.07194136
65	0x3d7772d4	0.060412243
66	0x3db2e5ab	0.08735212
67	0xbd9c89ba	-0.07643457
68	0xbd99a493	-0.07502093
69	0xbd135251	-0.035967175
70	0x3dfc55bb	0.12321039
71	0x3d450118	0.048096746
72	0x3daef5c9	0.085429735
73	0x3d1d37f5	0.038383443
74	0xbd0da42c	-0.034580395
75	0x3e1846ff	0.14870833
76	0x3d2dff65	0.04247989
77	0x3c7e788c	0.01553167
78	0xbbf8d87e	-0.0075941673
79	0xbd48ffa4	-0.049071923
80	0x3e0be4e7	0.13661538
81	0xbc7cfdac	-0.015441339
82	0x3d0fefcc	0.035140797
83	0xbd5ba45b	-0.05362354
84	0xbe1a4137	-0.1506394
85	0xbd88d7ab	-0.066817604
86	0x3c9f815c	0.019470863
87	0x3bc9a29e	0.0061534187
88	0x3d244ecb	0.040114205
89	0xbd13e794	-0.036109522
90	0xbdd69288	-0.10477167
91	0xbd159641	-0.036520246
92	0xbe29a4b8	-0.16566741
93	0xbe407c32	-0.18797377
94	0x3c6732ec	0.014111262
95	0x3c0eada9	0.008708396
96	0xbd6dfa46	-0.058100007
97	0xbd0eabc9	-0.034831796
98	0x3cd1d1bc	0.025612704
99	0xbdd99086	-0.10623269
100	0x3d859611	0.065227635
101	0xbdfa26d8	-0.1221444
102	0xbd606eb1	-0.054793064
103	0x3d39e181	0.045381073
104	0x3e5674bb	0.20942967
105	0x3d966d34	0.073450476
106	0x3b43310c	0.0029783873
107	0xbe15a89d	-0.14615102
108	0xbda41602	-0.0801201
109	0xbd1474e8	-0.036244303
110	0xbd11776a	-0.035514273
111	0x3ccd1f70	0.025039405
112	0xbd654c25	-0.05598082
113	0x3dc71700	0.09721184
114	0x3ca6a2c3	0.020341283
115	0xbc8481c3	-0.016175156
116	0x3c8203b2	0.015870903
117	0xbe0aa9b0	-0.13541293
118	0x3d4f0a81	0.050547127
119	0x3dac19d3	0.08403363
120	0x3d533ebf	0.05157351
121	0x3d9f9605	0.07792286
122	0xbce4be0e	-0.027922656
123	0xbd39d132	-0.04536552
124	0x3d582aca	0.05277518
125	0xbd59b247	-0.053148534
126	0xbe25c752	-0.16189316
127	0x3d065c0f	0.032802638
128	0x3dd49979	0.10380835
129	0x3d289164	0.04115428
130	0xbd7bc63a	-0.06146834
131	0xbd3ab497	-0.04558238
132	0xbd34105a	-0.043960907
133	0xbd8b3875	-0.06797878
134	0xbd995596	-0.07487027
135	0xbd7b6236	-0.061372958
136	0x3dd42f4e	0.10360585
137	0x3dcedf62	0.10101201
138	0x3d0f69f8	0.03501317
139	0xbc902a44	-0.017598279
140	0xbde51c86	-0.11187081
141	0x3c98d2ec	0.018655263
142	0xbe0e3e80	-0.1389103
143	0x3d41eb4d	0.04734354
144	0xbde33fdc	-0.110961646
145	0xbd554a3d	-0.052072752
146	0xbe0bf344	-0.13667017
147	0x3daf41a1	0.085574396
148	0x3dc5a7ec	0.09651169
149	0xbcb73952	-0.0223662
150	0x3e80e01e	0.25170988
151	0x3dfd99cd	0.12382851
152	0x3e2856fd	0.16439433
153	0xbc9ecd0c	-0.019384883
154	0xbdb50fcf	-0.08840906
155	0xbcf79a9a	-0.030225087
156	0x3d97f36b	0.07419475
157	0xbda44010	-0.080200315
158	0xbd8f4784	-0.069960624
159	0x3e29cbf7	0.16581713
160	0x3c8f1a87	0.017468704
161	0x3c914d3e	0.017737027
162	0xbc0f40ad	-0.008743447
163	0xbcd70953	-0.026249563
164	0xbdc7ca25	-0.09755353
165	0xbd0f240d	-0.03494649
166	0x3d06a451	0.032871548
167	0xbc9b5c8d	-0.01896503
168	0x3dbddfec	0.09271225
169	0x3d42439e	0.047427766
170	0x3d0a2455	0.033726055
171	0xbe065b34	-0.13120729
172	0x3db79029	0.08963043
173	0x3cf3ba3b	0.029751888
174	0xba51b95e	-0.0008000339
175	0xbe5f6a41	-0.21817876
176	0x3e08f25e	0.13373706
177	0xbd0dfa2e	-0.034662418
178	0xbdd5d373	-0.10440721
179	0xbddd71e8	-0.108127415
180	0xbd0f55f6	-0.034994088
181	0xbc5d2e2e	-0.01349978
182	0xbd3625d0	-0.044469655
183	0x3e260edc	0.16216606
184	0x3cf3b75e	0.029750522
185	0x3d0523e4	0.03250493
186	0xbda6c66d	-0.081433155
187	0x3dfddf52	0.123961106
188	0xbda71402	-0.08158113
189	0x3d79585b	0.060875278
190	0x3dff8aab	0.12477621
191	0x3e16afd9	0.14715518
192	0xbde2e9fe	-0.11079787
193	0x3d53913e	0.051652186
194	0x3d2038f2	0.039116807
195	0xbcfada39	-0.030621635
196	0xbd568bd1	-0.052379433
197	0xbd11b792	-0.035575457
198	0x3e087a13	0.13327818
199	0x3b9429f3	0.0045216023
200	0xbdbd54a8	-0.092446625
201	0x3d97fb1a	0.07420941
202	0x3d3acb84	0.045604244
203	0xbd7e36ae	-0.062063865
204	0xbc6cb22d	-0.014446777
205	0xbe0a53cd	-0.1350853
206	0x3d8be7e0	0.06831336
207	0x3cbafe80	0.022826433
208	0xbc292c29	-0.01032547
209	0xbddee9df	-0.10884451
210	0x3afad7a4	0.0019137752
211	0x3d2559e9	0.040368948
212	0xbceb4971	-0.028721543
213	0xbd40c298	-0.04706058
214	0x3d1bf6d3	0.038077187
215	0x3cf141eb	0.029450377
216	0xbd253860	-0.040336967
217	0xbac5341b	-0.0015045436
218	0x3dae8442	0.0852132
219	0x3da2ba18	0.07945651
220	0x3cca95df	0.024729667
221	0xbd192edd	-0.037398208
222	0x3daf7c7b	0.08568665
223	0x3d4f838a	0.050662555
224	0x3e09cc3f	0.1345682
225	0x3d81a709	0.063306876
226	0x3dbff0f5	0.09372131
227	0x3d445b62	0.047938712
228	0x3e51551a	0.2044262
229	0x3ca46d72	0.020071719
230	0x3cda06d2	0.02661458
231	0xbb3b6a19	-0.0028597175
232	0x3d7140c4	0.058899656
233	0x3d9f1902	0.07768442
234	0x3ac26c03	0.0014833215
235	0xbd886a42	-0.06660892
236	0x3d265c3c	0.040615305
237	0xbdd5740d	-0.104225256
238	0x3e7b1ae7	0.24521981
239	0x3e136067	0.14392243
240	0x3da9e003	0.0829468
241	0x3e817d66	0.25290984
242	0xbd0099dc	-0.03139673
243	0xbc3766e3	-0.011193964
244	0x3e49ec2e	0.19719002
245	0x3e4d084e	0.20022699
246	0xbe52e1e1	-0.20593978
247	0xbc0efc7f	-0.008727192
248	0x3a1eb664	0.00060544
249	0x3cd2432b	0.025666794
250	0xbd17e1d1	-0.03708059
251	0x3ae0d419	0.0017153054
252	0xbdc0ccdb	-0.09414073
253	0x3ceec9a3	0.029148882
254	0xbd073b4a	-0.033015527
255	0x3cbae348	0.022813454

network_body._body_endoder.seq_layers.2.bias f4 [128]
0	0xbb6211e8	-0.0034495536
1	0xbb8c6532	-0.0042845244
2	0x3af9df52	0.0019063747
3	0xbb37b16c	-0.0028029336
4	0xbb12d8bb	-0.0022407013
5	0xb9875976	-0.0002581586
6	0xbadbd933	-0.0016773104
7	0xbb1b6126	-0.0023709028
8	0x3b5fe625	0.0034164276
9	0x3aec2712	0.0018017015
10	0xbb8257ff	-0.003977775
11	0x3b2c858a	0.0026324713
12	0xba9c48b7	-0.0011923526
13	0x3ba29772	0.0049619013
14	0xbb11d360	-0.0022251233
15	0x3b57609c	0.003286398
16	0xbaea1928	-0.001786028
17	0x3a9ff4d9	0.0012203708
18	0xbb3e7b11	-0.0029065053
19	0xbb5bc144	-0.0033531943
20	0x3a641ca0	0.0008701775
21	0xbb879127	-0.0041371766
22	0x3965827c	0.00021887751
23	0x3a510e30	0.00079748314
24	0xba955064	-0.0011391756
25	0x3a7f7c58	0.00097460067
26	0xbb8c4f93	-0.004281947
27	0x3b909cbd	0.004413216
28	0x3b76561d	0.0037587949
29	0xbb51d676	-0.0032018698
30	0xbb4ffd8e	-0.0031736824
31	0xbabf5aa8	-0.0014599161
32	0x3a921937	0.0011146431
33	0x3aae962a	0.0013319899
34	0xbb79641e	-0.003805406
35	0x3b5f6fc7	0.0034093724
36	0xbba31a5d	-0.004977508
37	0x3b80a96e	0.0039264476
38	0xbb634e10	-0.003468398
39	0xbaffbe4d	-0.001951167
40	0x3b871ad5	0.0041230717
41	0xbb809fcc	-0.0039252993
42	0xbb68a7ad	-0.0035500333
43	0xbb6ca123	-0.0036106787
44	0x3a96efe8	0.001151559
45	0xbb8ade70	-0.0042379424
46	0x39d9dd81	0.000415545
47	0xbb9c8373	-0.004776412
48	0x3b2cd5a6	0.0026372462
49	0x3ad54263	0.0016270395
50	0x3a6a1ad1	0.00089303876
51	0x3b907ae6	0.004409182
52	0xbb8a07d4	-0.004212359
53	0x3b79a60a	0.0038093352
54	0xbb4a48e2	-0.0030866195
55	0xba73fecc	-0.0009307682
56	0xbb68928c	-0.003548774
57	0xbb635dd6	-0.0034693382
58	0x3b42d6ba	0.0029730038
59	0xbb83eb8d	-0.0040258826
60	0xbb7f7ffd	-0.00389862
61	0x3b9f9994	0.004870603
62	0xbb435204	-0.0029803524
63	0xbb2a985c	-0.0026030755
64	0xbb298bac	-0.0025870604
65	0x3b086149	0.002080994
66	0x3b8ce12f	0.004299305
67	0xbb676da4	-0.0035313154
68	0x3a8be700	0.0010673702
69	0xbb2ebd12	-0.0026662988
70	0xbb896d41	-0.0041939323
71	0xba84beeb	-0.0010127699
72	0x38c5263e	9.400815e-05
73	0x3b815c49	0.003947769
74	0x3ade8a6b	0.0016978508
75	0xbaef4dd1	-0.0018257444
76	0x3b7ad767	0.0038275362
77	0xbb3048ac	-0.0026898785
78	0xbb774a9e	-0.0037733684
79	0xbb852c56	-0.004064123
80	0x3b848083	0.00404364
81	0x3b82cbdb	0.0039915866
82	0x3b020b4a	0.0019843155
83	0xbad9a1a8	-0.0016603963
84	0xbb64b325	-0.0034896818
85	0xbad84c2d	-0.0016502194
86	0x3b34d450	0.0027592368
87	0x3b410db9	0.0029457642
88	0x3b4852b4	0.0030566873
89	0xbaf60031	-0.0018768368
90	0xbb6068ec	-0.0034242226
91	0x3ac7c753	0.0015241898
92	0xbb709903	-0.0036712296
93	0x3b328e8f	0.0027245616
94	0xbb1bdd9a	-0.0023783208
95	0xbb5612e9	-0.003266508
96	0xbadbed4e	-0.0016779096
97	0xbb84f1d4	-0.0040571485
98	0xbae55821	-0.0017497578
99	0xbaa29636	-0.0012404385
100	0xb9be1040	-0.0003625173
101	0x3b7e6e7c	0.0038823178
102	0x3abea282	0.0014544281
103	0xbab556b3	-0.0013835042
104	0xbab51e87	-0.0013818302
105	0xbab9b91f	-0.001416955
106	0xba0b7169	-0.00053193286
107	0xbb8b228f	-0.004246063
108	0xba339df1	-0.0006851843
109	0xbb27edd2	-0.002562393
110	0x3a212227	0.00061467517
111	0xbae23968	-0.001725954
112	0x3b04bd74	0.0020254524
113	0xbb8f9b85	-0.004382553
114	0xbb1f3e3c	-0.002429857
115	0xbb13e227	-0.0022565217
116	0xbb185cda	-0.0023248703
117	0x3b24fccb	0.002517509
118	0x3b781916	0.003785675
119	0xbb82e372	-0.0039943988
120	0x3a30f0ff	0.00067497784
121	0xbb863cf9	-0.004096624
122	0xbb7aad04	-0.0038250098
123	0xbac73837	-0.0015199248
124	0x3b7ab100	0.0038252473
125	0x3b613f94	0.003437017
126	0xba5ebf69	-0.000849715
127	0xba3df024	-0.00072455616

action_model._continuous_distribution.log_sigma f4 [1, 2]
0	0xbb63250e	-0.0034659537
1	0x3b3387a8	0.002739409

action_model._continuous_distribution.mu.weight f4 [2, 128]
0	0x3c3b4f06	0.011432415
1	0x3c735c3f	0.014853536
2	0x3c09e720	0.008416921
3	0x3c8fe41a	0.017564822
4	0x3c86a0d9	0.01643412
5	0x3c675868	0.014120199
6	0x3d222d74	0.03959413
7	0x3c96c838	0.018406019
8	0xbc9afa10	-0.018918067
9	0xb96ba968	-0.00022474455
10	0x3cc52dab	0.024069628
11	0xbbc6185d	-0.006045385
12	0x3c58f6bd	0.013242421
13	0xbbc091d0	-0.005876757
14	0x3d325807	0.04354098
15	0xbd0c6a46	-0.034281038
16	0xbc1d634d	-0.009606195
17	0xb907938c	-0.00012929569
18	0x3d3c11d3	0.045915436
19	0x3ce12acf	0.027486233
20	0xbc2b4e54	-0.010455687
21	0x3a8454c5	0.0010096064
22	0x3c583336	0.013195803
23	0xbcb7b709	-0.022426145
24	0x3c2a46fd	0.0103929015
25	0xbce9a9c7	-0.028523339
26	0x3ae07283	0.0017123971
27	0xbc9f9d87	-0.019484295
28	0xbc34a5db	-0.011025871
29	0x3b3b99dc	0.0028625643
30	0x3d1d35d9	0.03838143
31	0x3cda7f30	0.026671976
32	0x3ba21619	0.004946482
33	0x3c48eab2	0.012262987
34	0x3c76d510	0.0150654465
35	0xbbae569a	-0.0053203823
36	0x3c81019f	0.015747843
37	0xbca289df	-0.019841133
38	0x3c330460	0.010926336
39	0x3c84ad3f	0.016195891
40	0xbc9311fb	-0.01795291
41	0x3c68c30c	0.014206659
42	0x3c2fd479	0.01073181
43	0x3c189d74	0.0093148835
44	0x3b43ad16	0.0029857806
45	0x3cd6ae19	0.026206063
46	0x3ca466e9	0.020068603
47	0x3b6ef9d3	0.0036464825
48	0xbc410607	-0.011781222
49	0x3c3d1490	0.011540547
50	0x3b945fb2	0.0045280093
51	0xbcc3e2e6	-0.023911905
52	0x3b8bbb96	0.0042643053
53	0xbb922556	-0.004460017
54	0x3b96f8b8	0.0046072863
55	0x3addd88a	0.0016925496
56	0x3bd14ffc	0.0063877087
57	0x3cc4a7ee	0.024005856
58	0xbc816326	-0.015794348
59	0x3c04e9eb	0.008112411
60	0x3c806cc4	0.015676863
61	0xbcbc62d0	-0.022996336
62	0x3cd00038	0.02539073
63	0x3ba04ed2	0.0048922086
64	0x3cd548dd	0.02603572
65	0x35b53040	1.3499593e-06
66	0xbb6df426	-0.0036308854
67	0x3ca712e7	0.020394756
68	0xbcbc06ac	-0.0229524
69	0xbb99f242	-0.004698069
70	0x3b75db2a	0.0037514665
71	0x3b565377	0.0032703558
72	0x3b6b30bb	0.00358872
73	0xbc6f2fc9	-0.014598795
74	0xbcd32802	-0.025775913
75	0xbbad827b	-0.0052950955
76	0xbad5d442	-0.0016313868
77	0x3c80a585	0.015703926
78	0x3c22ae64	0.009929273
79	0x3d116c50	0.035503685
80	0xbc863bd8	-0.016385958
81	0xbbf29a14	-0.0074036215
82	0x3b7e9b87	0.0038850026
83	0x3c497d13	0.012297886
84	0xbb0b24d1	-0.002123166
85	0x3cb3640b	0.02189829
86	0xbd1df4c1	-0.038563494
87	0xbad3559a	-0.0016123534
88	0xbba5561f	-0.005045667
89	0x3bec5e84	0.0072134156
90	0x3cb6408a	0.022247571
91	0xbc11455a	-0.008866632
92	0x3c1d9e5a	0.0096202735
93	0xbcb2f34b	-0.021844527
94	0x3cf4dc93	0.029890334
95	0x3b1235b8	0.002230985
96	0xbc1ebf48	-0.00968916
97	0x3c835627	0.016032292
98	0x3cafc298	0.021455094
99	0xbc07166c	-0.008245092
100	0x3cacc5d6	0.02109043
101	0xbcec3637	-0.028834445
102	0xbc65bc0b	-0.014021884
103	0x3c8f3ec6	0.017485987
104	0x3cd00b85	0.025396118
105	0x3c891dcd	0.016737843
106	0xbc41ace3	-0.011821005
107	0x3c0b6796	0.0085085835
108	0x3d215562	0.039388068
109	0x3cdec00c	0.027191184
110	0xbc541089	-0.012943395
111	0xbb6d93c8	-0.0036251415
112	0xbc9902ba	-0.018678058
113	0xba42d9fe	-0.0007432996
114	0xbafe94ca	-0.0019423005
115	0x3c9a7b01	0.018857481
116	0x3c0db29a	0.008648539
117	0xbadee6a3	-0.0017005991
118	0xbcbfdaaa	-0.023419697
119	0x3cb94486	0.022615682
120	0xbc57eb5f	-0.013178675
121	0x3c439f3e	0.011939822
122	0x3cd17996	0.025570672
123	0xbbe69bca	-0.0070376145
124	0xbc17d2f5	-0.009266605
125	0xbc457be5	-0.012053465
126	0xbb804e6e	-0.0039155995
127	0xbc2aea18	-0.010431789
128	0x3a7d076d	0.00096522906
129	0x3caf16d1	0.021373184
130	0xbd0758fc	-0.033043846
131	0xb9e40517	-0.0004349134
132	0xbc03454f	-0.00801213
133	0xbc2ee570	-0.010674819
134	0xbc711b57	-0.014715991
135	0xbc0691b8	-0.008213453
136	0xbbc4baa3	-0.006003694
137	0xbcb57543	-0.022150641
138	0x3ce55d61	0.027998628
139	0xba8ab3e6	-0.0010582178
140	0xbcd94c62	-0.02652568
141	0xbc48f138	-0.012264542
142	0xbca069f8	-0.01958178
143	0x3a1e707b	0.00060439826
144	0x3cd834d9	0.026392387
145	0xbc023cb4	-0.007949043
146	0x3cd56a19	0.026051568
147	0x3c069f09	0.008216628
148	0x3c379e52	0.01120718
149	0x3c1ec76e	0.009691102
150	0xbcee2c6a	-0.029073913
151	0x3cdb1f1e	0.026748236
152	0xbc833a0e	-0.016018894
153	0x3cf47aa3	0.029843634
154	0x3c302376	0.010750642
155	0xbc44eb08	-0.012018926
156	0xbcd7b872	-0.026333068
157	0x3c7e8c60	0.015536398
158	0xbbd04acf	-0.006356574
159	0xbc83f774	-0.016109206
160	0xbc3d79b0	-0.011564657
161	0xbcc013ee	-0.023447003
162	0x3c31ce26	0.010852372
163	0xbd16e353	-0.036837887
164	0x3c640660	0.013917536
165	0xbc70baca	-0.0146929715
166	0x3c06ffb6	0.008239677
167	0xbbbe6ef0	-0.0058115646
168	0xbcbe5e2f	-0.02323827
169	0x3c7b62a3	0.015343341
170	0x3c0b30db	0.008495535
171	0x3cbe2895	0.02321271
172	0xbcdfc8f1	-0.027317496
173	0x3d0d3bbd	0.0344808
174	0xbd026d52	-0.031842537
175	0x3c0056be	0.007833181
176	0xbaf77858	-0.001888047
177	0xbd2376b1	-0.039908115
178	0xbcb2a50f	-0.021807222
179	0xbcc77e22	-0.024352137
180	0x3c95ee37	0.018302066
181	0xba7c330b	-0.0009620643
182	0x3c703967	0.014662123
183	0xbc35da14	-0.011099357
184	0x3cdeafe9	0.02718349
185	0x3c219806	0.009862905
186	0xbbebdfe6	-0.0071983216
187	0x3d12f3da	0.035877086
188	0x3c9edf4d	0.019393587
189	0xbceb28b2	-0.028705928
190	0x3b445aca	0.002996134
191	0xbaff6313	-0.0019484482
192	0xbb971cee	-0.004611603
193	0xbd1a1cbc	-0.03762506
194	0xbc7f854e	-0.015595747
195	0x3c52c728	0.012864865
196	0x3d0a96fe	0.033835404
197	0x3d0909fe	0.033456795
198	0x3b2b92cf	0.0026180034
199	0xbbe2d9ba	-0.0069229277
200	0x3b15bfa9	0.0022849834
201	0xbc741194	-0.014896769
202	0x3cd152d2	0.025552187
203	0x3be1b95e	0.0068885526
204	0xbc5d2632	-0.013497876
205	0x3bb14a79	0.005410489
206	0x3c9ad274	0.01889918
207	0x3d27f5c6	0.041005872
208	0xbc8b7a28	-0.017026022
209	0xba69e0fe	-0.0008921771
210	0xbbc78ebf	-0.0060900147
211	0xbc842cc9	-0.016134636
212	0x35277060	6.2375875e-07
213	0xbcfc1168	-0.030770019
214	0xbcab6c15	-0.020925561
215	0xbd2f521b	-0.04280291
216	0xbc061942	-0.008184733
217	0xbbcbd97d	-0.006220995
218	0x3c242733	0.010019111
219	0x3c04fc2f	0.008116766
220	0x3c107da2	0.008819016
221	0x3a89a704	0.0010502045
222	0x3b61a8ab	0.003443281
223	0x3bdbaf1e	0.006704225
224	0x3cb201de	0.021729406
225	0x3cce19c7	0.025158776
226	0xbbfcdb53	-0.007716575
227	0x3c8102af	0.01574835
228	0xbabc855d	-0.0014383007
229	0xbc9386ec	-0.018008672
230	0x3c70e5ee	0.014703257
231	0xbaf796fa	-0.0018889599
232	0xbc6bf2c9	-0.014401146
233	0xba2f0333	-0.0006676197
234	0x3d007606	0.031362556
235	0x3cb0c0af	0.021576254
236	0xbd0ef1f7	-0.034898724
237	0xbae635dd	-0.001756366
238	0x3c52d1ba	0.0128673855
239	0x3c81af23	0.015830582
240	0x3bcef23a	0.0063154968
241	0x3b6111aa	0.0034342804
242	0x3c9f5a6e	0.0194523
243	0xbc2bfa95	-0.010496755
244	0xbbcb3f90	-0.0062026456
245	0xbccf7cec	-0.025328122
246	0xbc690ee4	-0.014224742
247	0x3d4b173f	0.049582716
248	0x3c6bd771	0.014394627
249	0x3c8bd7ee	0.017070737
250	0x3cb83e06	0.022490513
251	0x3c50b937	0.012739471
252	0xbc6b2c94	-0.01435389
253	0xbc7247ea	-0.014787653
254	0x3c5f469e	0.013627676
255	0x3c608a08	0.013704784

action_model._continuous_distribution.mu.bias f4 [2]
0	0xbb3d8517	-0.002891844
1	0xbb474022	-0.0030403216

exp_avg f4 [128, 15]
0	0xac4227b5	-2.75911e-12
1	0x3921bdd5	0.00015424874
2	0xada9d8a0	-1.9309276e-11
3	0xa6a2bedd	-1.1292742e-15
4	0x00000000	0.0
5	0x278c78a9	3.8988626e-15
6	0xac48c756	-2.8532363e-12
7	0x3921b389	0.00015421039
8	0xadab6248	-1.9484095e-11
9	0x38bc2a35	8.9724e-05
10	0x2d99ffe9	1.7507733e-11
11	0x3903858f	0.00012542888
12	0xa81df197	-8.767637e-15
13	0x9c1b9c30	-5.1487066e-22
14	0x289ec30f	1.7626117e-14
15	0x2bf251e1	1.721786e-12
16	0xb8ca8553	-9.656944e-05
17	0x2d546905	1.2074124e-11
18	0xa7b58fa4	-5.0393327e-15
19	0x00000000	0.0
20	0xa689b661	-9.555719e-16
21	0x2bfa986d	1.7805875e-12
22	0xb8caee73	-9.676525e-05
23	0x2d565557	1.2183441e-11
24	0xb86b53b7	-5.610633e-05
25	0xad4097e1	-1.094766e-11
26	0xb8a53007	-7.876759e-05
27	0x27eded9a	6.6038322e-15
28	0x9c1b453f	-5.1374696e-22
29	0xa7ac3ba9	-4.7804274e-15
30	0x2ae1d781	4.0117565e-13
31	0xb7bbe541	-2.2398892e-05
32	0x2c45b891	2.8097839e-12
33	0x272927f9	2.347513e-15
34	0x00000000	0.0
35	0xa78f30eb	-3.974351e-15
36	0x2ae98c7a	4.148659e-13
37	0xb7bb7691	-2.2347349e-05
38	0x2c4782bb	2.835217e-12
39	0xb75ad8ad	-1.3044261e-05
40	0xac334277	-2.5474325e-12
41	0xb7985cd0	-1.8163031e-05
42	0x280dfebe	7.882311e-15
43	0x1c4d7dfa	6.799163e-22
44	0xa8a05575	-1.780063e-14
45	0xac969d5d	-4.2807272e-12
46	0x397b942d	0.00023992425
47	0xae04049c	-3.001742e-11
48	0x285238bf	1.1669647e-14
49	0x00000000	0.0
50	0x279b55ea	4.311429e-15
51	0xac9bc21c	-4.4269154e-12
52	0x397be9e1	0.00024024352
53	0xae053699	-3.028919e-11
54	0x3912409f	0.00013947718
55	0x2def66c3	2.721679e-11
56	0x394cffbe	0.00019550227
57	0xa8c714e3	-2.2102496e-14
58	0x1cb4ad8c	1.1956262e-21
59	0x28cc36c3	2.2672299e-14
60	0xac1d611d	-2.236495e-12
61	0x390311fc	0.00012499833
62	0xad89b359	-1.5654743e-11
63	0x25833061	2.275766e-16
64	0x00000000	0.0
65	0x2814c7cb	8.2589736e-15
66	0xac22bf9c	-2.312795e-12
67	0x3902fba8	0.00012491515
68	0xad8af27b	-1.5796467e-11
69	0x38988304	7.2723284e-05
70	0x2d79b367	1.4193847e-11
71	0x38d50b28	0.000101587095
72	0xa8a91ed7	-1.8776144e-14
73	0x9c9f55a1	-1.0543872e-21
74	0x291d7ed6	3.4971016e-14
75	0x2adafc3c	3.8899602e-13
76	0xb7b3e5c4	-2.1445456e-05
77	0x2c3d8114	2.6930168e-12
78	0x27e053d7	6.226339e-15
79	0x00000000	0.0
80	0xa7ddf284	-6.160276e-15
81	0x2ae2690b	4.0218553e-13
82	0xb7b237fe	-2.1245327e-05
83	0x2c3f3804	2.7173827e-12
84	0xb751af07	-1.24981225e-05
85	0xac2bcdd0	-2.441481e-12
86	0xb7909680	-1.723622e-05
87	0x2804d240	7.373063e-15
88	0x1d01ac3b	1.7162049e-21
89	0xa8d6ff29	-2.386943e-14
90	0x2bbde31c	1.3492293e-12
91	0xb89ed06f	-7.572851e-05
92	0x2d26a10e	9.471769e-12
93	0xa7d4c948	-5.906005e-15
94	0x00000000	0.0
95	0xa74fc3bc	-2.8833129e-15
96	0x2bc4601d	1.3953314e-12
97	0xb89f281e	-7.589183e-05
98	0x2d28233f	9.557521e-12
99	0xb8389041	-4.4003365e-05
100	0xad17149d	-8.587933e-12
101	0xb8818e06	-6.177653e-05
102	0x28639d8d	1.2635195e-14
103	0x9c17ee1e	-5.026947e-22
104	0xa88092c8	-1.4274511e-14
105	0x2c03e835	1.874512e-12
106	0xb8dc32e9	-0.000104999
107	0x2d67212e	1.3138197e-11
108	0xa7c5b6ab	-5.4876533e-15
109	0x00000000	0.0
110	0xa7621c8a	-3.1379272e-15
111	0x2c086910	1.9385084e-12
112	0xb8dc6919	-0.000105099934
113	0x2d6938de	1.3257144e-11
114	0xb88003d2	-6.104227e-05
115	0xad519050	-1.1912318e-11
116	0xb8b3589e	-8.5518914e-05
117	0x28662028	1.27745376e-14
118	0x9bf73332	-4.0895806e-22
119	0xa888f078	-1.520332e-14
120	0x2a3d76be	1.6827769e-13
121	0xb720eb50	-9.591531e-06
122	0x2ba89c85	1.1980561e-12
123	0xa7a1db42	-4.4924197e-15
124	0x00000000	0.0
125	0xa5af748e	-3.0436641e-16
126	0x2a43fc2c	1.7406969e-13
127	0xb7229e81	-9.692857e-06
128	0x2baa234a	1.2089021e-12
129	0xb6baaa06	-5.5630253e-06
130	0xab98df76	-1.0862272e-12
131	0xb704ae2c	-7.908366e-06
132	0x27b374af	4.980899e-15
133	0x9c280f0f	-5.5606e-22
134	0xa72ac369	-2.3698171e-15
135	0x2a91f531	2.592731e-13
136	0xb774ec2d	-1.4598522e-05
137	0x2c005ede	1.8242556e-12
138	0xa6f7d716	-1.7197367e-15
139	0x00000000	0.0
140	0x24ce8b30	8.957405e-17
141	0x2a96f396	2.6814374e-13
142	0xb775f8d4	-1.4661073e-05
143	0x2c018869	1.8407725e-12
144	0xb70e3a0d	-8.477376e-06
145	0xabe8ca1b	-1.6540687e-12
146	0xb7485946	-1.1941715e-05
147	0x2695a876	1.0384613e-15
148	0x9b602135	-1.8539575e-22
149	0x260de559	4.9230026e-16
150	0x289a7b7f	1.7150992e-14
151	0xb58190aa	-9.653352e-07
152	0x2a0665cd	1.193691e-13
153	0x25fc929a	4.3814373e-16
154	0x00000000	0.0
155	0x26c8cb69	1.3932922e-15
156	0x289fc0a9	1.7736099e-14
157	0xb58306e1	-9.762263e-07
158	0x2a079e4e	1.2045332e-13
159	0xb5165a0e	-5.60104e-07
160	0xa9f3eb6a	-1.08322056e-13
161	0xb555d339	-7.965605e-07
162	0xa76d25ab	-3.2910777e-15
163	0x9b3a2e7c	-1.5400579e-22
164	0x27cbd86e	5.657847e-15
165	0xacaa2fcd	-4.8369976e-12
166	0x398dd87d	0.00027054912
167	0xae14f22c	-3.3866396e-11
168	0x2720ba8b	2.2305586e-15
169	0x00000000	0.0
170	0x28073640	7.505769e-15
171	0xacaffe71	-5.002048e-12
172	0x398dd9a6	0.00027055776
173	0xae164b65	-3.4173015e-11
174	0x39250131	0.0001573607
175	0x2e070c90	3.0706604e-11
176	0x3966c53e	0.00022007988
177	0xa8b8657f	-2.047212e-14
178	0x9c1426b6	-4.9019125e-22
179	0x2919fbeb	3.419133e-14
180	0x2b9882c7	1.0836548e-12
181	0xb87f2a3f	-6.0836082e-05
182	0x2d05c63d	7.6041924e-12
183	0xa7997c08	-4.2600506e-15
184	0x00000000	0.0
185	0xa571c6f4	-2.0970826e-16
186	0x2b9db89f	1.1206764e-12
187	0xb87fd7d0	-6.099773e-05
188	0x2d06fc4d	7.67304e-12
189	0xb814359e	-3.5335885e-05
190	0xacf2968a	-6.894767e-12
191	0xb8504cfb	-4.9662758e-05
192	0x279c2c4a	4.3346716e-15
193	0x9c1da2a7	-5.2157166e-22
194	0xa6ec1a9b	-1.6383001e-15
195	0xac7f5355	-3.6283938e-12
196	0x3955476f	0.00020339874
197	0xaddfe1f9	-2.5452517e-11
198	0x28789a79	1.3800261e-14
199	0x00000000	0.0
200	0x27999d53	4.26366e-15
201	0xac8405f1	-3.7523253e-12
202	0x39558ffc	0.00020366901
203	0xade1e8dd	-2.568295e-11
204	0x38f80275	0.00011826019
205	0x2dcafe5f	2.3077705e-11
206	0x392dc8ce	0.00016573371
207	0xa8db5394	-2.435013e-14
208	0x1ce53570	1.5167762e-21
209	0x28d2bf49	2.339764e-14
210	0x2c986fef	4.332527e-12
211	0xb97ec481	-0.00024296531
212	0x2e05b663	3.040269e-11
213	0xa8990d97	-1.6992306e-14
214	0x00000000	0.0
215	0xa8210ba8	-8.939823e-15
216	0x2c9da511	4.4805344e-12
217	0xb97f26fe	-0.00024333221
218	0x2e06ec48	3.0677932e-11
219	0xb9141b78	-0.00014124613
220	0xadf2789c	-2.7565776e-11
221	0xb94fa489	-0.00019802352
222	0x29288ce9	3.7425714e-14
223	0x9cc17f33	-1.2804549e-21
224	0xa9430459	-4.330247e-14
225	0xab051774	-4.728364e-13
226	0x37de5a72	2.650658e-05
227	0xac696228	-3.316578e-12
228	0x273089ab	2.4499536e-15
229	0x00000000	0.0
230	0x2725baf0	2.2999689e-15
231	0xab09a2f7	-4.8898337e-13
232	0x37dea48c	2.6541085e-05
233	0xac6b7eff	-3.3466006e-12
234	0x3781359f	1.5402968e-05
235	0x2c53999e	3.0070178e-12
236	0x37b531f7	2.1600148e-05
237	0xa807b924	-7.534151e-15
238	0x1a6c339e	4.8845352e-23
239	0x283a4f3b	1.03422545e-14
240	0x2a9985f0	2.7271197e-13
241	0xb78170f1	-1.543059e-05
242	0x2c07e7fb	1.9313429e-12
243	0xa7c07c6b	-5.34256e-15
244	0x00000000	0.0
245	0xa6f77a09	-1.7172146e-15
246	0x2a9ecabd	2.8207116e-13
247	0xb7822d85	-1.5518404e-05
248	0x2c0922e6	1.9488243e-12
249	0xb71663b9	-8.963915e-06
250	0xabf66e73	-1.7510007e-12
251	0xb7541d32	-1.2642982e-05
252	0x2837f0e9	1.021078e-14
253	0x9c4e28d4	-6.821245e-22
254	0xa8371ba4	-1.0164534e-14
255	0xa9a6ad5a	-7.4019526e-14

exp_avg_sq f4 [128, 15]
0	0x18bf5255	4.9455477e-24
1	0x3276af9e	1.4359015e-08
2	0x1b806c42	2.1245784e-22
3	0x1843a42f	2.528605e-24
4	0x00000000	0.0
5	0x17243233	5.305462e-25
6	0x18cbc0cd	5.266895e-24
7	0x328012b8	1.4909673e-08
8	0x1b82c216	2.163212e-22
9	0x319dc081	4.5911865e-09
10	0x1b53229b	1.7464693e-22
11	0x323186e5	1.03334274e-08
12	0x189bb79a	4.025195e-24
13	0x0178ad18	4.5674595e-38
14	0x1922bda1	8.413499e-24
15	0x182d6041	2.2408322e-24
16	0x32016788	7.5323285e-09
17	0x1ab62efd	7.534935e-23
18	0x17ddbe2a	1.4329794e-24
19	0x00000000	0.0
20	0x16a3a080	2.643536e-25
21	0x18375407	2.3694619e-24
22	0x32832762	1.5268316e-08
23	0x1ab97f98	7.6720345e-23
24	0x30e08bee	1.6337915e-09
25	0x1a95cdfd	6.195775e-23
26	0x326d1d48	1.3801873e-08
27	0x17dc49a3	1.4235755e-24
28	0x011a460c	2.833559e-38
29	0x18832531	3.390026e-24
30	0x18a6447a	4.2979138e-24
31	0x3238ec43	1.0763929e-08
32	0x1b319fc1	1.4692716e-22
33	0x188995d9	3.5564977e-24
34	0x00000000	0.0
35	0x175fc9c9	7.2309875e-25
36	0x18aff27e	4.5481294e-24
37	0x3241d38a	1.1282177e-08
38	0x1b34da62	1.4959814e-22
39	0x315a8efb	3.180445e-09
40	0x1b120187	1.207733e-22
41	0x320bad78	8.130307e-09
42	0x18cfae61	5.3684324e-24
43	0x01d6643a	7.8755e-38
44	0x195bebbb	1.136964e-23
45	0x198aa314	1.4334732e-23
46	0x33287730	3.922395e-08
47	0x1c0bce9a	4.625827e-22
48	0x1939e76c	9.611011e-24
49	0x00000000	0.0
50	0x187cfc19	3.2697513e-24
51	0x19925b5b	1.5132944e-23
52	0x338a6b8c	6.4456884e-08
53	0x1c0e5a3e	4.7100494e-22
54	0x322d631b	1.0092459e-08
55	0x1be5fed2	3.8049546e-22
56	0x336d7107	5.528366e-08
57	0x19cb930c	2.10491e-23
58	0x0283f2a1	1.9387982e-37
59	0x1a3fc867	3.9659758e-23
60	0x19712dca	1.2468655e-23
61	0x33134a59	3.4293723e-08
62	0x1c15a145	4.95084e-22
63	0x1950f57d	1.0802924e-23
64	0x00000000	0.0
65	0x18871935	3.4922135e-24
66	0x19802194	1.3248452e-23
67	0x3318869e	3.551269e-08
68	0x1c1859c5	5.0408606e-22
69	0x3238baf6	1.075272e-08
70	0x1bf6052e	4.0700633e-22
71	0x32d5333b	2.481976e-08
72	0x1a08507f	2.8189165e-23
73	0x028f58e6	2.1062987e-37
74	0x1a7db7fc	5.2467795e-23
75	0x19899f36	1.4229773e-23
76	0x3331773c	4.1319467e-08
77	0x1c2b56a5	5.669114e-22
78	0x194a973c	1.0473697e-23
79	0x00000000	0.0
80	0x17fd4a13	1.6368441e-24
81	0x1992423c	1.5122798e-23
82	0x33559225	4.9725845e-08
83	0x1c2e7406	5.7721727e-22
84	0x32522069	1.2230978e-08
85	0x1c0cd470	4.6596683e-22
86	0x3322d6f6	3.791407e-08
87	0x190b02ca	7.186695e-24
88	0x03092068	4.029788e-37
89	0x19bf511b	1.9781695e-23
90	0x1866dff4	2.983987e-24
91	0x31fec345	7.4145725e-09
92	0x1ac06b45	7.958264e-23
93	0x184d076f	2.6499382e-24
94	0x00000000	0.0
95	0x17a2a5c7	1.0510853e-24
96	0x1872a25f	3.1359743e-24
97	0x3263cc19	1.32595455e-08
98	0x1ac3ecb4	8.1032524e-23
99	0x30f0e6de	1.7527915e-09
100	0x1a9e5616	6.548635e-23
101	0x324933c7	1.1711513e-08
102	0x19157ba0	7.728085e-24
103	0x011f087a	2.920977e-38
104	0x1986c31d	1.3934081e-23
105	0x183126da	2.2896329e-24
106	0x31e17cc2	6.562545e-09
107	0x1ad94706	8.986384e-23
108	0x180cfa60	1.8220983e-24
109	0x00000000	0.0
110	0x17936f0f	9.527687e-25
111	0x183c0271	2.4299663e-24
112	0x321a7b94	8.992078e-09
113	0x1add3bd5	9.150012e-23
114	0x31074f84	1.9690285e-09
115	0x1ab2bcc0	7.3924017e-23
116	0x31f54b1b	7.138977e-09
117	0x190a9287	7.164024e-24
118	0x00f7349c	2.270224e-38
119	0x196e49bd	1.2319203e-23
120	0x17f5ce26	1.5884793e-24
121	0x318bea9f	4.0721058e-09
122	0x1a6c75d0	4.8898824e-23
123	0x17be8e89	1.2314443e-24
124	0x00000000	0.0
125	0x16a49154	2.6587344e-25
126	0x18019db4	1.6752479e-24
127	0x31d1415a	6.09013e-09
128	0x1a70c3e0	4.9789063e-23
129	0x309253e8	1.0646746e-09
130	0x1a427ea9	4.0220575e-23
131	0x31b0433c	5.129918e-09
132	0x17c34bfe	1.2620763e-24
133	0x0121fad4	2.975099e-38
134	0x18616114	2.912958e-24
135	0x16a013bf	2.5861856e-25
136	0x304a2a37	7.3547163e-10
137	0x18c94163	5.2023306e-24
138	0x16c05244	3.107119e-25
139	0x00000000	0.0
140	0x14b427fe	1.819113e-26
141	0x16a7a203	2.708255e-25
142	0x30e69c92	1.6779202e-09
143	0x18cceaa6	5.29697e-24
144	0x2ef79214	1.1258208e-10
145	0x18a57986	4.2774208e-24
146	0x30d9fbe1	1.5860416e-09
147	0x1537aaa4	3.7091167e-26
148	0x00327e29	4.637033e-39
149	0x16d37481	3.4162413e-25
150	0x1694f947	2.4068006e-25
151	0x30376865	6.6723366e-10
152	0x193b8da6	9.696279e-24
153	0x16a01587	2.586298e-25
154	0x00000000	0.0
155	0x1603a7ee	1.0635085e-25
156	0x169e598c	2.5582789e-25
157	0x303f8a30	6.968177e-10
158	0x193ef691	9.8725635e-24
159	0x2f685972	2.1132054e-10
160	0x191a308c	7.971417e-24
161	0x30060ce7	4.876725e-10
162	0x178638bf	8.673872e-25
163	0x003b0b33	5.422312e-39
164	0x17eedc8c	1.5436063e-24
165	0x197cadfa	1.3063229e-23
166	0x33199fbb	3.5768362e-08
167	0x1c208af5	5.3119157e-22
168	0x192db54f	8.980505e-24
169	0x00000000	0.0
170	0x1864a2cc	2.95505e-24
171	0x19864ecb	1.38871e-23
172	0x331a6ce1	3.5954944e-08
173	0x1c237658	5.408513e-22
174	0x32460154	1.1525419e-08
175	0x1c03fc0e	4.3670037e-22
176	0x32d20b60	2.445239e-08
177	0x19edcc0f	2.4587644e-23
178	0x02185e91	1.1194336e-37
179	0x1a5beb57	4.5478245e-23
180	0x17f6ede7	1.5957432e-24
181	0x31b879d1	5.3689537e-09
182	0x1a785067	5.1350146e-23
183	0x17b9377a	1.1969349e-24
184	0x00000000	0.0
185	0x1662f253	1.8332599e-25
186	0x18026763	1.6854303e-24
187	0x323f4558	1.113343e-08
188	0x1a7cd51f	5.2284536e-23
189	0x30990301	1.1133069e-09
190	0x1a4c308c	4.2225427e-23
191	0x322e84de	1.01583435e-08
192	0x1752edeb	6.8154954e-25
193	0x012e1380	3.1972743e-38
194	0x181d8961	2.0361133e-24
195	0x19a04dfa	1.6575107e-23
196	0x333dc5ab	4.418477e-08
197	0x1c2ee927	5.7873113e-22
198	0x196203aa	1.1684666e-23
199	0x00000000	0.0
200	0x18ba9a1a	4.8235476e-24
201	0x19a98a29	1.7529993e-23
202	0x338485a1	6.171036e-08
203	0x1c3218bb	5.8927223e-22
204	0x3259ad22	1.2670428e-08
205	0x1c0fe7f4	4.7614523e-22
206	0x3356e3e8	5.0033037e-08
207	0x1a150c2b	3.0822307e-23
208	0x02b78d87	2.6970666e-37
209	0x1a867d5c	5.562363e-23
210	0x19fef5f5	2.6362326e-23
211	0x33887521	6.354299e-08
212	0x1c62ba68	7.501805e-22
213	0x19e5ce50	2.3761374e-23
214	0x00000000	0.0
215	0x194161bb	9.997603e-24
216	0x1a06262a	2.774138e-23
217	0x33d3d01e	9.8633095e-08
218	0x1c66dc08	7.6385e-22
219	0x328e1d10	1.6544192e-08
220	0x1c3a95fa	6.173608e-22
221	0x33b3830a	8.359173e-08
222	0x1ab47209	7.463049e-23
223	0x029eeb88	2.3351202e-37
224	0x1b20c605	1.3298873e-22
225	0x1712ab83	4.7391623e-25
226	0x30a69a39	1.2121922e-09
227	0x199c5412	1.6163978e-23
228	0x177721dd	7.9852746e-25
229	0x00000000	0.0
230	0x1703e959	4.262291e-25
231	0x171b136f	5.010773e-25
232	0x30d999ba	1.583252e-09
233	0x199f2d80	1.6458592e-23
234	0x2fc7024e	3.6199527e-10
235	0x1980b1d3	1.3306712e-23
236	0x30a9da7f	1.2358469e-09
237	0x18897f95	3.5542495e-24
238	0x001ea977	2.815857e-39
239	0x18eb58b9	6.0835663e-24
240	0x181d4a18	2.0329182e-24
241	0x31a8953e	4.9064104e-09
242	0x1a8caaf7	5.817885e-23
243	0x18290837	2.1846885e-24
244	0x00000000	0.0
245	0x17912af2	9.381246e-25
246	0x18257276	2.1383538e-24
247	0x3205a363	7.778769e-09
248	0x1a8f3bcc	5.924002e-23
249	0x30b1143b	1.2884195e-09
250	0x1a67a29a	4.790103e-23
251	0x31e5c892	6.6875794e-09
252	0x18cd3d6d	5.3053282e-24
253	0x01e13919	8.273388e-38
254	0x19390862	9.565969e-24
255	0x1920f0dd	8.320448e-24

exp_avg f4 [128]
0	0x3921b38a	0.0001542104
1	0xb8caee74	-9.676526e-05
2	0xb7bb7693	-2.2347353e-05
3	0x397be9e2	0.00024024353
4	0x3902fba8	0.00012491515
5	0xb7b237ff	-2.1245329e-05
6	0xb89f281e	-7.589183e-05
7	0xb8dc6919	-0.000105099934
8	0xb7229e8a	-9.692865e-06
9	0xb775f8d4	-1.4661073e-05
10	0xb5830715	-9.762322e-07
11	0x398dd9a6	0.00027055776
12	0xb87fd7d5	-6.0997747e-05
13	0x39558ffa	0.00020366898
14	0xb97f26fe	-0.00024333221
15	0x37dea48d	2.6541087e-05
16	0xb7822d89	-1.5518412e-05
17	0x3670525a	3.5810722e-06
18	0x3983801a	0.0002508171
19	0x398376b1	0.000250747
20	0x36a83bd3	5.0137546e-06
21	0xb903c11f	-0.00012565077
22	0x38911546	6.918101e-05
23	0x389b8f28	7.417641e-05
24	0x394a80ec	0.00019312248
25	0x388c77a6	6.6980065e-05
26	0x38261194	3.9593855e-05
27	0x38fdf0ef	0.000121088575
28	0xb8ede327	-0.00011343351
29	0x3857980e	5.1401606e-05
30	0x379c1c8b	1.860994e-05
31	0xb8a81381	-8.014497e-05
32	0xb91e7899	-0.0001511298
33	0x38ce57cd	9.8391996e-05
34	0x383cac09	4.4982913e-05
35	0xb7a850a8	-2.006472e-05
36	0x3966d096	0.00022012214
37	0x396b702f	0.00022453138
38	0xb7be4a72	-2.2684431e-05
39	0x38e6236e	0.00010973854
40	0x3626624b	2.4793142e-06
41	0xb8b6ad7b	-8.7107495e-05
42	0xb9277ad2	-0.00015972115
43	0x39a0d4ee	0.00030676223
44	0x3782b4d7	1.5581418e-05
45	0x38222209	3.8655508e-05
46	0x38f746f1	0.00011791092
47	0x38dca5e1	0.00010521315
48	0xb9143e06	-0.00014137485
49	0x389f6d23	7.602039e-05
50	0x381013b7	3.4350636e-05
51	0x3818aeb5	3.6402333e-05
52	0x3952175e	0.00020035866
53	0x39474d0b	0.0001900682
54	0xb79aa4d7	-1.843499e-05
55	0xb931b9e5	-0.00016949287
56	0x37d5126c	2.5400157e-05
57	0xb8b1ee32	-8.484385e-05
58	0x37ae3219	2.0765745e-05
59	0x3875a5cb	5.856696e-05
60	0x38074632	3.2251883e-05
61	0xb886c587	-6.42641e-05
62	0xb83a8ec6	-4.4478824e-05
63	0x3832c2be	4.2619875e-05
64	0x3807ab3c	3.2345983e-05
65	0xb915a6a7	-0.0001427183
66	0xb43615f9	-1.6958064e-07
67	0x36d12124	6.2325435e-06
68	0xb895ae20	-7.137307e-05
69	0xb833539c	-4.2754793e-05
70	0xb90625f8	-0.0001279338
71	0xb88f0be6	-6.8209876e-05
72	0x38c2a762	9.281818e-05
73	0xb78379f2	-1.5673202e-05
74	0x38151168	3.554058e-05
75	0x37b2fa34	2.1335763e-05
76	0x38cfc4c4	9.9071796e-05
77	0xb8a84efe	-8.025578e-05
78	0x38c7ebe8	9.5330004e-05
79	0xb5d73c27	-1.6036255e-06
80	0xb6a9dce3	-5.062307e-06
81	0xb938e8d1	-0.00017634338
82	0xb867d98f	-5.527731e-05
83	0x388ac016	6.6161316e-05
84	0xb7c61d9d	-2.3617229e-05
85	0x39bb8bef	0.00035771678
86	0xb8807d64	-6.1268714e-05
87	0x394c2f95	0.00019472682
88	0x385bc486	5.2396696e-05
89	0xb83f3b37	-4.5593097e-05
90	0x36409c7f	2.8701322e-06
91	0x39bcbf09	0.00036000487
92	0xb8c82301	-9.543263e-05
93	0x38982b2b	7.2559655e-05
94	0xb8c15e3f	-9.220512e-05
95	0xb89073f4	-6.888053e-05
96	0x393d8640	0.00018074457
97	0x39d0edf5	0.00039850143
98	0xb801d9d9	-3.0958883e-05
99	0xb810ca4c	-3.452068e-05
100	0x378fc78f	1.7139855e-05
101	0x38182b1c	3.6279773e-05
102	0xb93117fe	-0.00016888973
103	0xb7876210	-1.6138918e-05
104	0x39b5580d	0.00034588613
105	0xb83f0496	-4.554222e-05
106	0xb89b5d8a	-7.408399e-05
107	0x37b6c9c3	2.1790043e-05
108	0x38ce2d63	9.8312994e-05
109	0x3959098a	0.00020698286
110	0x357968bc	9.2912137e-07
111	0xb7e9902c	-2.78429e-05
112	0x38c7d6c7	9.529065e-05
113	0xb8b66f87	-8.69921e-05
114	0x392b9992	0.0001636504
115	0x391125a9	0.00013842307
116	0x38538f40	5.0439732e-05
117	0xb8252712	-3.9375453e-05
118	0x3899044f	7.296411e-05
119	0xb8df44e7	-0.00010646303
120	0xb8096781	-3.275974e-05
121	0x38b49928	8.6115964e-05
122	0x394eec7b	0.00019733787
123	0xb843753a	-4.66008e-05
124	0xb939b075	-0.0001770871
125	0x392de1a2	0.0001658262
126	0x36a67dfd	4.9618525e-06
127	0xb8152005	-3.555419e-05

exp_avg_sq f4 [128]
0	0x328012b7	1.4909672e-08
1	0x32832764	1.526832e-08
2	0x3241d38b	1.1282178e-08
3	0x338a6b8e	6.44569e-08
4	0x3318869e	3.551269e-08
5	0x33559225	4.9725845e-08
6	0x3263cc1b	1.3259547e-08
7	0x321a7b94	8.992078e-09
8	0x31d1415a	6.09013e-09
9	0x30e69c92	1.6779202e-09
10	0x303f8a2f	6.9681766e-10
11	0x331a6ce0	3.595494e-08
12	0x323f4558	1.113343e-08
13	0x338485a0	6.171035e-08
14	0x33d3d01e	9.8633095e-08
15	0x30d999ba	1.583252e-09
16	0x3205a362	7.778768e-09
17	0x330a3bcd	3.2185017e-08
18	0x33183bfa	3.5444806e-08
19	0x3313413e	3.4285442e-08
20	0x30d3c7dd	1.5409075e-09
21	0x32adc108	2.0227631e-08
22	0x3100c5bd	1.8738853e-09
23	0x31b957f0	5.394206e-09
24	0x3243ed74	1.14044845e-08
25	0x3210d324	8.429911e-09
26	0x3271e82d	1.4080837e-08
27	0x32acf4ba	2.0134724e-08
28	0x330f3758	3.3345117e-08
29	0x31937147	4.291141e-09
30	0x3108a203	1.9882698e-09
31	0x32c0d9c7	2.2450775e-08
32	0x33986236	7.095916e-08
33	0x32863e23	1.562791e-08
34	0x31d78046	6.2719065e-09
35	0x3144614a	2.8577056e-09
36	0x3371161d	5.6132297e-08
37	0x330f6ed0	3.3395565e-08
38	0x319c17fd	4.5429247e-09
39	0x32a845a1	1.9589438e-08
40	0x3220e3c3	9.365013e-09
41	0x3204511c	7.701853e-09
42	0x3374ff8e	5.7043103e-08
43	0x33a5d09c	7.721357e-08
44	0x32d67a42	2.4968475e-08
45	0x32c14180	2.2497943e-08
46	0x31ee0aab	6.9279245e-09
47	0x33503426	4.8476203e-08
48	0x32c2ed79	2.2692562e-08
49	0x3295fe18	1.7461431e-08
50	0x31032aa2	1.9087243e-09
51	0x309e5945	1.1521385e-09
52	0x338dc323	6.601319e-08
53	0x34085932	1.2698436e-07
54	0x32052b36	7.751444e-09
55	0x33497461	4.6904805e-08
56	0x30887b86	9.93041e-10
57	0x31e190a0	6.564804e-09
58	0x309b142b	1.1283466e-09
59	0x33096ea6	3.1998432e-08
60	0x3373340c	5.6625183e-08
61	0x31fe21a2	7.3961965e-09
62	0x31aaf791	4.975796e-09
63	0x32e667a6	2.6822658e-08
64	0x312ef842	2.546145e-09
65	0x32c6fada	2.3164308e-08
66	0x31fbb989	7.3261543e-09
67	0x326c3b48	1.3750487e-08
68	0x32ef995d	2.7893003e-08
69	0x32e4d458	2.6639256e-08
70	0x331a231a	3.5887844e-08
71	0x31a977ed	4.9321813e-09
72	0x32fa6d4c	2.9153533e-08
73	0x314eab44	3.0074299e-09
74	0x31010709	1.877597e-09
75	0x314074d5	2.8006089e-09
76	0x32bb0119	2.1770164e-08
77	0x31121911	2.1260045e-09
78	0x324a54e4	1.1777249e-08
79	0x31ef1bbb	6.958968e-09
80	0x325e3c5d	1.2935826e-08
81	0x330f1cab	3.3320855e-08
82	0x32b18f41	2.0670656e-08
83	0x32cc91f5	2.38151e-08
84	0x324c66a2	1.1897699e-08
85	0x33eb95b7	1.0970273e-07
86	0x3339ef27	4.3291177e-08
87	0x32ade7cc	2.024526e-08
88	0x318459fa	3.8519348e-09
89	0x3280f7a8	1.5013782e-08
90	0x3108b2f6	1.9892332e-09
91	0x33eaa187	1.0925856e-07
92	0x31f8ae63	7.2375754e-09
93	0x3304b2cf	3.089627e-08
94	0x3292edeb	1.710483e-08
95	0x32513f2e	1.21797665e-08
96	0x33b175f9	8.263664e-08
97	0x34077eef	1.2619033e-07
98	0x32228874	9.460667e-09
99	0x31599a03	3.1665202e-09
100	0x30b8561b	1.3412235e-09
101	0x30e50559	1.6663463e-09
102	0x33c1bd77	9.021726e-08
103	0x30bebf0b	1.3878617e-09
104	0x338fbf5b	6.693764e-08
105	0x32ee7510	2.776008e-08
106	0x32201fbd	9.320442e-09
107	0x32135496	8.575759e-09
108	0x3280aa18	1.497851e-08
109	0x33d269fc	9.7981655e-08
110	0x32849061	1.5432478e-08
111	0x3230d808	1.0293668e-08
112	0x3258d7e9	1.2621947e-08
113	0x3203a460	7.662578e-09
114	0x3427413a	1.5576816e-07
115	0x33017ccc	3.0148655e-08
116	0x32a8d649	1.965522e-08
117	0x3319df0c	3.582595e-08
118	0x3259d73a	1.2679999e-08
119	0x326855bb	1.352367e-08
120	0x32f7b808	2.8838272e-08
121	0x3211674e	8.4636e-09
122	0x34450dad	1.835203e-07
123	0x31b5a3e3	5.286425e-09
124	0x32f13297	2.8079098e-08
125	0x3361e33c	5.2593563e-08
126	0x2fc732b9	3.623393e-10
127	0x31b42667	5.2430553e-09
