python/results/minion_walk_003/Minion/Minion-1216.pt (torch, 464859 bytes, 36 tensors)

network_body._body_endoder.seq_layers.0.weight f4 [128, 15]
000000 3c 22 cc 3e c9 db 3c be 5e df e4 be 1c ab 7c 3e
       0.3986987 -0.18443216 -0.44701666 0.24674648
000010 f7 7e cc 3d 3d 45 f0 bb d4 0b b2 3e 4c c0 3d 3e
       0.09985154 -0.0073324726 0.3477465 0.18530387
000020 47 dd 7d bb 58 e0 8c 3e d4 9e 53 bd 4a 54 58 be
       -0.0038736628 0.2751491 -0.051665142 -0.21125904
000030 29 c4 e7 bd 8f 18 0f be 64 59 d5 3e 7c de 04 3b
       -0.113167115 -0.13974212 0.41669762 0.0020274213
000040 fd a2 b4 3d e5 92 cd be 06 31 1c 3d cf 96 b2 be
       0.0882015 -0.40151134 0.03813269 -0.34880683
000050 96 eb ea 3e 19 e6 43 be 7e 7b 04 be ac af 3a 3e
       0.45882863 -0.19130744 -0.12937734 0.18231076
000060 ec 94 c5 3e c2 1b 9a be 7c fc 84 be e5 d1 60 bd
       0.3859018 -0.30099303 -0.2597388 -0.05488767
000070 62 3d bd bc 77 a8 ca be 18 89 78 be ec de 19 bd
       -0.023100559 -0.39581653 -0.24271047 -0.03756611
000080 6b b5 15 3e 2f 3e 5d be 4f 0f 7b be 7b c1 a4 bd
       0.14619987 -0.21605752 -0.24517559 -0.08044716
000090 dd c6 04 3f 81 1d 0f 3e 27 22 a7 3e d6 6d c3 3e
       0.5186594 0.13976099 0.32643244 0.38169736
0000a0 8e 45 47 be 6a 9c 1a 3f a6 99 94 be fb f7 88 3e
       -0.19460127 0.6039492 -0.29023474 0.26751694
0000b0 34 ff d5 3e 6c 88 a2 3e 7d 6f 7b 3e 86 bc 26 3e
       0.41796267 0.31744707 0.24554248 0.16282853
0000c0 f2 e7 33 be 63 cf 75 be 20 11 78 3d 1a 8d 1b 3e
       -0.17568949 -0.24004893 0.060563207 0.15190545
0000d0 fc 60 ae bd 73 7a 74 be 3d f7 b4 3e df e9 23 be
       -0.08514592 -0.23874836 0.35344878 -0.16007183
0000e0 71 d0 5b be a6 4c 0e be 14 1b c4 3d 0c fb a8 3d
       -0.21466233 -0.13896427 0.09575477 0.082510084
0000f0 74 af 47 be db ba 50 be 60 10 15 3d 6b f5 9d be
       -0.19500524 -0.2038378 0.03639257 -0.30851302
000100 78 4d bc 3d 45 d6 b3 3e 55 ec 55 be f8 f3 b6 be
       0.091944635 0.35124412 -0.20890935 -0.35733008
000110 04 1d 66 be 3d 2a 0a be cd 12 bf 3d bb d9 ed 3d
       -0.22472006 -0.13492675 0.09329758 0.116137944
000120 a5 7f 4a 3d 9a 36 5d 3e 5b ee 8e 3e 95 b4 57 be
       0.049438138 0.2160286 0.27916226 -0.2106498
000130 10 7c 28 3f bb e1 5c be e5 c7 9f be 3b 36 71 be
       0.65814304 -0.21570484 -0.31207195 -0.23555844
000140 93 36 50 3e f3 16 08 bc 75 31 01 3e 9c 65 63 3e
       0.20333318 -0.008306253 0.12616523 0.2220673
000150 bf b6 df bc 49 0c 99 bc 53 bc 15 3c f1 6d a0 3e
       -0.02730882 -0.018682616 0.009139138 0.3133388
000160 2d 63 ff 3c 24 07 41 3f 72 3f b6 3e 04 6b aa 3d
       0.03117522 0.7540152 0.3559528 0.08321193
000170 1e c5 54 3e 98 ce a1 be 7f 6b 25 bf b0 b2 b1 be
       0.20778319 -0.3160293 -0.6461715 -0.3470664
000180 c7 38 42 3d 01 84 99 be e4 d9 21 3e 49 76 91 3e
       0.04741743 -0.29983523 0.15805775 0.28410557
000190 2f 22 9e bd 8c 72 c0 3d 55 66 f4 bd 3d 0b 10 3f
       -0.07721364 0.09396848 -0.11933581 0.5626715
0001a0 6a 8d 61 3d 80 c7 07 3f e7 37 92 3e f3 e2 16 bd
       0.055066504 0.5303879 0.28558275 -0.03683753
0001b0 25 84 35 3d 5c 72 a3 bd 15 4c fd 3d ce 4f 6a 3e
       0.044315476 -0.07980797 0.12368027 0.22882006
0001c0 e1 15 b6 3d ec 7e d9 be b7 7b 9c be 36 77 53 3e
       0.08890892 -0.42479646 -0.30563137 0.20650944
0001d0 c1 45 a6 3e ff 25 39 3d f1 36 25 3f 63 b9 e7 be
       0.32475093 0.04520225 0.6453696 -0.45258626
0001e0 54 0a 4d be 61 7c ab bd 49 0e 77 bd 65 34 2a 3f
       -0.20023471 -0.08373333 -0.060316358 0.664862
0001f0 55 1a d1 bd 56 c6 6a be c6 e1 bb 3e 77 5b fb 3e
       -0.102101006 -0.22927222 0.3669569 0.4909322
000200 29 8a 49 be 0d 72 51 bc 60 2b 49 3c 59 53 87 be
       -0.1968161 -0.0127835395 0.012278408 -0.26430777
000210 a4 07 84 3e c9 41 73 3e c2 54 36 be f0 4d 14 3e
       0.2578708 0.23755564 -0.1780577 0.14482856
000220 11 c0 ca bd b3 0a a5 3d 7c f9 ba 3e 76 fa a2 be
       -0.09899915 0.08058681 0.36518466 -0.31831712
000230 f6 0f 41 3e b0 91 90 3e b6 c5 84 3d dd 94 28 3d
       0.18853745 0.2823615 0.06483023 0.041157592
000240 af ba a4 be 3e b1 d1 3e 77 2c 73 3d 6c 61 6f be
       -0.32173678 0.40955538 0.059368577 -0.23377007
000250 35 fc be be f5 39 6a be c8 65 28 be fb 40 77 3e
       -0.37301794 -0.22873671 -0.16445076 0.24145882
000260 ca 64 95 bd 8d 9f ac 3c 43 47 aa be 54 5f f9 3d
       -0.072946146 0.021072173 -0.33257493 0.121763855
000270 15 c9 64 3c 9e 83 ae be c5 6e 24 3e 6d 34 7c be
       0.013963957 -0.3408479 0.1605788 -0.24629374
000280 0b f2 ca be 45 8b 9a 3e cb 22 3a be 98 8a 6d 3d
       -0.3963779 0.3018438 -0.18177335 0.0579935
000290 80 e2 b1 3c 4f 9a 90 be 2f a5 0f bd 38 e1 c0 be
       0.021714449 -0.28242728 -0.03506964 -0.37671828
0002a0 ed 06 43 3e fd 68 44 3d 16 9c a7 be 2a bf 09 3e
       0.1904561 0.047951687 -0.32736272 0.1345183
0002b0 32 3e 5d be 6e 0f 23 3d f8 c9 99 bd 16 5f 20 bd
       -0.21605757 0.039809637 -0.075092256 -0.03915318
0002c0 70 1a 04 be 4b 0f a0 3d c0 32 86 3a c5 7e 5d 3e
       -0.1290071 0.07815417 0.0010238513 0.2163039
0002d0 f1 b9 8d bc ee 19 e5 3d 81 85 a2 3e 84 00 44 be
       -0.017300578 0.11186586 0.3174248 -0.19140822
0002e0 81 27 3d 3d dd 07 c3 be f5 94 0d be 88 af 54 3b
       0.046180252 -0.38091937 -0.13826354 0.0032453258
0002f0 01 f4 80 3d 8c 2a a2 3d 02 7c 4e 3f e8 e5 f2 bd
       0.0629654 0.079182714 0.8065797 -0.118602574
000300 84 9c 50 3e 64 03 45 bd 74 73 ac 3d 37 51 2e be
       0.20372206 -0.048098937 0.084204584 -0.17023169
000310 5f d0 b2 3e f4 31 ca 3e 97 91 6a be e5 86 b9 3e
       0.349246 0.39491236 -0.229071 0.3623573
000320 d3 51 51 be 09 44 00 bf 64 5f d9 3e c3 ca 8d be
       -0.2044137 -0.50103813 0.4245559 -0.27693757
000330 18 cd 62 be 17 fd 25 be 7d d1 d6 3e 70 5c 34 3e
       -0.2214855 -0.16209827 0.41956702 0.17613387
000340 68 95 61 bd 09 95 4b be dc ba 8b be 62 1d 2f be
       -0.055074126 -0.19881071 -0.27291 -0.17101052
000350 0e 1a 08 3d d2 03 f1 bd ee 14 90 be 11 db 11 be
       0.033227973 -0.11768307 -0.28140968 -0.14243723
000360 04 5e 86 be 46 2d 7b 3d 53 28 0f 3e a5 ba 9f bd
       -0.26243603 0.061322473 0.13980226 -0.077992715
000370 27 88 02 3d 4b 5a 5f bc 41 1b 6f 3e 8d 07 bc 3b
       0.031868126 -0.013632367 0.2335024 0.005738205
000380 5e 4b be 3d 9b 8e cb 3e 08 44 d2 3d dc c2 f4 bd
       0.09291719 0.39757237 0.10266882 -0.11951229
000390 20 ee 22 be 07 8b 36 be fe cf 38 bf 78 d2 07 3e
       -0.1591115 -0.17826472 -0.7219237 0.13263881
0003a0 a2 16 61 be ba 59 8c be 1d 23 6d 3e 0b e0 47 bd
       -0.2198129 -0.27412206 0.23157926 -0.04879765
0003b0 63 3c e4 bd 84 07 fb bc 0d 3a 19 3d b3 30 7e 3e
       -0.1114433 -0.030643232 0.037408877 0.24823265
0003c0 17 eb 94 3e bb a4 ef 3d aa 4d 78 3e cb d8 d3 3e
       0.2908561 0.11701342 0.24248376 0.41376337
0003d0 73 45 92 be 16 67 0e bf b0 a5 a8 bd 39 e0 9c 3e
       -0.2856861 -0.55626047 -0.082347274 0.30639818
0003e0 cb de e8 3c ac bf f0 be 7f a9 e2 bd ad e8 47 bd
       0.028426548 -0.47021234 -0.11067485 -0.04880588
0003f0 9e 3d 86 3e 9b a8 c2 3e cd 52 d1 bd 28 f5 0b be
       0.26218885 0.3801926 -0.10220871 -0.13667738

network_body._body_endoder.seq_layers.0.bias f4 [128]
000000 1a f4 6e 3b bc f8 59 3b 25 f3 37 3b d9 da 88 3a
       0.0036461414 0.003325983 0.002806851 0.0010441198
000010 e6 31 c9 ba d9 8a 1e bb 78 54 f9 39 82 3c 26 3b
       -0.0015349954 -0.0024191646 0.00047555915 0.0025365655
000020 f6 fc 53 3b ec 78 38 3b 37 26 01 3b b4 49 44 3a
       0.0032346821 0.0028148247 0.0019706616 0.0007487789
000030 0d 82 25 bb df 1f 2e bb 9c e5 25 bb 49 84 2b 3b
       -0.0025254518 -0.002656929 -0.002531386 0.0026171377
000040 c1 87 10 bb 7c 95 71 ba b4 7b 0a 3b 16 16 18 3b
       -0.0022053572 -0.00092156953 0.0021130862 0.0023206524
000050 31 bf 48 3b 22 ce 21 bb ea 17 2c 39 49 71 5f 3a
       0.0030631537 -0.0024689515 0.00016412107 0.00085236557
000060 ef 4e 13 3b 26 dc 5e 3b 47 d1 9d 3a c5 42 51 3a
       0.0022477468 0.003400573 0.0012040519 0.0007982667
000070 d3 21 de 3a 32 53 d8 3a c2 06 35 3b b2 91 3d bb
       0.0016947336 0.0016504286 0.0027622436 -0.0028925953
000080 5c de 5f b8 2b bf d7 3a 8f fa da ba b2 d4 9f 3a
       -5.337443e-05 0.0016460171 -0.0016706752 0.0012194125
000090 0c 0e 09 bb ec 80 f6 ba e2 27 d6 b9 04 73 43 3b
       -0.0020912914 -0.0018806732 -0.00040846976 0.0029823193
0000a0 f2 b9 b3 b9 11 3f 89 ba 17 23 73 bb e0 dd 37 3b
       -0.0003428008 -0.0010471066 -0.0037099773 0.0028055832
0000b0 ef 1d c5 3a 7e 7e db b9 6b 94 10 bb 94 6f 25 3b
       0.0015038828 -0.0004186518 -0.002206112 0.0025243508
0000c0 45 90 4d bb 67 79 2c 3b 98 04 20 bb db 14 26 3b
       -0.003136651 0.0026317479 -0.00244168 0.002534202
0000d0 6a 7c 27 3b 4b 6c c4 3a 82 9e 2e bb 02 de 1b 3b
       0.0025556334 0.0014985887 -0.002664477 0.002378345
0000e0 88 55 85 ba 1a be bb 37 23 45 9c 3b 44 1f e1 ba
       -0.0010172585 2.238066e-05 0.004768984 -0.0017175456
0000f0 82 32 79 3a bf ae ff ba 31 5e ff b9 8f e8 52 3b
       0.00095061224 -0.0019507034 -0.00048707568 0.0032182073
000100 08 46 b2 39 1e cd 75 3a 98 a3 ae 3a 75 59 29 3b
       0.00034002983 0.0009376573 0.0013323901 0.0025840674
000110 76 77 a5 3a 81 63 f0 ba b0 4b e0 ba aa 6b 9e 3b
       0.0012624103 -0.0018340201 -0.00171124 0.004834612
000120 07 69 24 bb e9 b5 1b bb 99 52 23 bb 13 18 82 bb
       -0.0025087015 -0.002375955 -0.0024921058 -0.003970155
000130 df 43 e8 ba 7a 5b 19 3b 99 60 18 bb 57 05 3b 38
       -0.0017720422 0.0023400472 -0.0023250936 4.4589247e-05
000140 01 bf 41 bb e6 7a d6 ba 06 9e 48 bb 23 7f 27 3b
       -0.002956331 -0.0016363531 -0.0030611767 0.0025557957
000150 aa 3b 45 bb b6 ad 9a ba cf 36 14 bb fc ad 33 bb
       -0.0030095377 -0.0011801037 -0.0022615676 -0.0027416935
000160 00 df 3a 3b 5b f6 4d bb 9c 78 cf ba 57 dc 91 3a
       0.0028514266 -0.0031427357 -0.0015828791 0.0011128288
000170 f0 13 dc ba b8 5f 2c 3b 40 18 3d bb b7 f0 32 bb
       -0.001679061 0.002630217 -0.0028853565 -0.0027304122
000180 bb a6 39 bb c8 4a 1e 3b 09 46 c2 ba b6 22 67 3a
       -0.002832814 0.002415346 -0.0014821897 0.0008817123
000190 43 a3 be ba a9 67 4d 3b bb 77 4a bb ea 29 28 3b
       -0.0014544505 0.0031342304 -0.0030894119 0.0025659748
0001a0 b2 eb 23 bb eb 26 a8 39 18 f3 d5 39 00 c9 31 bb
       -0.0025012312 0.00032072453 0.00040807645 -0.0027127862
0001b0 13 2c 8e ba cc 7a 15 bb 61 8e c6 b9 91 26 9d 3a
       -0.0010846875 -0.0022808788 -0.00037871583 0.0011989643
0001c0 bd dd 32 bb 27 2e d5 ba 53 56 ca 3a a1 a2 27 3b
       -0.002729281 -0.0016264365 0.0015437104 0.0025579112
0001d0 5e ba b9 3a 71 9a 23 bb 55 fc fd 3a b5 e6 39 3b
       0.0014169922 -0.002496388 0.0019377569 0.0028366272
0001e0 da 14 40 bb fc cc b6 ba b1 4e 9f ba 0a 9d 43 3b
       -0.0029309303 -0.0013946588 -0.0012154189 0.0029848241
0001f0 eb 64 53 bb 7c f5 ce ba c6 1c 29 bb 9c 06 e9 3a
       -0.0032256197 -0.0015789713 -0.0025804504 0.0017778459

network_body._body_endoder.seq_layers.2.weight f4 [128, 128]
000000 16 2b 58 bd 1a 08 ac bd b9 25 46 be 9e f7 05 3e
       -0.052775465 -0.08399983 -0.19350328 0.1308274
000010 48 c1 21 be 19 63 27 3d bd 8b 02 3b 57 7e c4 3d
       -0.15796387 0.04086599 0.0019919716 0.0959441
000020 46 47 90 bd 4e bf e1 bd d3 b1 54 3e 1c c1 83 3d
       -0.07044844 -0.110228166 0.2077096 0.06433317
000030 5e ed 9d bd 2f 0d 73 bc d2 54 9c 3d d3 db bb 3d
       -0.0771129 -0.014834686 0.07633366 0.091727875
000040 e1 cb ed ba 55 b6 7b bc ec dd b2 3d b6 a5 08 bd
       -0.0018142426 -0.015363296 0.087337345 -0.03336116
000050 00 34 d8 bc 6c 76 17 be 40 0a 17 3d 64 ca 99 bc
       -0.026391983 -0.14791268 0.03687501 -0.018773265
000060 e3 51 e1 3d 38 3c d3 bc ba e5 23 be 62 fd b0 bc
       0.11001947 -0.02578555 -0.16005602 -0.021605197
000070 56 b6 83 3e 47 73 4a 3d 5c 10 ca 3d 4f d6 20 be
       0.2572505 0.049426343 0.098664016 -0.15706752
000080 94 37 7f 3d 42 66 85 bd 5a 66 14 3e 2a 8f b3 3d
       0.062308863 -0.06513645 0.14492169 0.08767541
000090 2a 80 61 bc 4d 9f ac bd 3a d5 b2 ba 02 68 5f bc
       -0.013763467 -0.08428822 -0.0013643869 -0.013635637
0000a0 85 70 35 be 7d a7 98 bb 60 3b 93 bd c3 97 72 bd
       -0.17718704 -0.004658638 -0.07189059 -0.059226763
0000b0 40 e9 ac bd c1 60 e8 bd a5 11 75 bd ee c9 ff 3d
       -0.084429264 -0.11346579 -0.05983128 0.12489687
0000c0 6e f2 65 bd 1c 0c 13 3d 59 99 e8 3c d7 63 a9 bd
       -0.056139402 0.03590022 0.028393434 -0.08270996
0000d0 b8 c8 4a 3d 0a 5c 03 bd bf 5e cb 3d 25 d8 98 bd
       0.049507827 -0.032070197 0.09930181 -0.07463101
0000e0 2c 65 76 bd c6 d4 2f be c9 c8 5d bd 51 57 2a 3d
       -0.06015508 -0.1717101 -0.05414656 0.041587178
0000f0 98 47 7a 3e 97 31 e1 bd 60 09 ac bc 44 41 3a 3d
       0.24441373 -0.10995787 -0.021000564 0.0454724
000100 c3 e1 47 bb b7 74 bf bd 3f db 27 3c 10 2e 80 3e
       -0.0030499555 -0.093484335 0.010245143 0.25035143
000110 81 e3 8e 3d fc 3d 8c bd 15 d4 86 bd 46 78 c7 bc
       0.06976987 -0.0684776 -0.0658342 -0.024349343
000120 65 af 89 bc dc bc 86 b9 c8 f2 9d bd eb ef 0f 3d
       -0.016807267 -0.00025699183 -0.077123225 0.035140913
000130 50 de b7 bc 63 44 96 bd fa b5 ab 3c 86 1b f5 3d
       -0.022444874 -0.073372625 0.020960797 0.1196814
000140 5e 4f a1 bc 93 b1 ee 3d 3d 3c 22 3d 53 48 4d bd
       -0.019691166 0.11654963 0.03960823 -0.050117802
000150 fc 22 31 3c ca 2c 13 be 56 42 0c bd 31 8b af 3d
       0.010811564 -0.14372554 -0.03424295 0.085714705
000160 c9 78 32 3d 8d 90 c2 3a aa 01 a4 bd dd f3 bb 3b
       0.04357222 0.0014844105 -0.0800813 0.005735858
000170 91 c3 81 bb d2 26 d5 3d b2 0c e0 3d 57 8e 55 3c
       -0.003960081 0.10407795 0.109399214 0.013034425
000180 fb 7b 1e bd 80 a8 8a 3d 25 dc d3 3d b0 c6 0d 3e
       -0.038692456 0.0677042 0.103447236 0.13845325
000190 bb 9e aa 3d c3 ac 1f bd 72 1a 3d 3e 3c 24 3e be
       0.08331057 -0.038983118 0.1846712 -0.1856851
0001a0 c4 51 9e 3d 46 42 ff bc 5e de 3d bd 4b 09 1d bd
       0.07730439 -0.031159531 -0.046354644 -0.03833894
0001b0 5c 68 b4 bd 20 52 5f bd 2b 9e e0 bb 1a b3 64 3c
       -0.088089675 -0.05452168 -0.0068547926 0.013958717
0001c0 fb 55 80 3d 4b a7 9c 3d e9 8e 29 3d ba f2 89 bd
       0.062663995 0.07649096 0.041396055 -0.067357495
0001d0 bf ef 77 bd ee 88 68 3c 97 21 ac 3d 52 2f f7 3a
       -0.060531374 0.014192803 0.08404844 0.0018858707
0001e0 20 05 8c bd bd 35 9d bd a1 c1 57 bd df 87 79 bc
       -0.06836915 -0.076762654 -0.052674893 -0.015230148
0001f0 cd 0e 0a bd 86 05 db bb 8f d3 44 3d 66 5d e4 3d
       -0.03370552 -0.006684008 0.04805332 0.11150627
000200 3e ef b7 3d d2 20 fb 3c 2b d3 13 be 7f e9 68 bd
       0.08981179 0.030655298 -0.14436023 -0.056863304
000210 f6 e2 92 bd 20 d4 81 bd 01 da 6a bc 94 cf b2 3d
       -0.071721956 -0.06339288 -0.014334203 0.08730999
000220 3f 9c 01 3c 30 90 92 bd 27 c0 1f 3e 9d 96 9a 3d
       0.007910787 -0.07156408 0.15600644 0.075482585
000230 c9 0c 95 bd d2 d5 b5 bd ec 9b 67 3c 02 64 51 b9
       -0.07277829 -0.088786736 0.014136296 -0.00019969049
000240 be 19 e0 bc 0a 2e 9d 3d 14 1d 96 bd f7 a5 dd bd
       -0.027356025 0.07674797 -0.07329765 -0.10822671
000250 40 20 64 bd b2 47 ed bb b1 19 e8 bc e4 cd cb 3c
       -0.05569482 -0.0072412128 -0.028332563 0.02487845
000260 46 ee 1b 3e 1b ee e8 3d d5 95 cc bd e5 e8 d5 bb
       0.15227613 0.1137354 -0.09989516 -0.0065280073
000270 52 7a a4 3d 01 07 03 be 81 e6 c0 bd 81 f2 06 be
       0.08031143 -0.1279564 -0.09418965 -0.13178445
000280 e6 e8 a3 3d eb 1f 82 bd 63 40 8f 3d fe be 61 bd
       0.08003406 -0.06353744 0.06994703 -0.055113785
000290 a8 23 fd bc 91 3d 57 3e d1 01 b5 bc 80 06 51 bd
       -0.030900791 0.2101958 -0.022095593 -0.05103159
0002a0 10 83 82 bd 9b e9 7f 38 68 94 0d 3c 9a a9 e7 bc
       -0.063726544 6.10143e-05 0.00864134 -0.028279115
0002b0 10 11 d3 bc 01 d7 23 be 0b 96 49 bd 86 66 5f bc
       -0.025764972 -0.15999986 -0.049215358 -0.013635283
0002c0 05 a5 0e bc b6 54 95 3d 5e 24 cc 3c 43 1e 9f bc
       -0.008706336 0.07291548 0.024919685 -0.01942361
0002d0 22 4c 9e 3d 48 57 1d bd 75 8d 68 bb b8 e3 64 3c
       0.07729365 -0.038413316 -0.0035484706 0.013970308
0002e0 8d d2 c6 bd 90 11 8a bd 08 b0 49 3d 6e 25 56 3d
       -0.09708128 -0.06741631 0.049240142 0.05228179
0002f0 48 00 f2 bd 75 bc cd 3d 8b 91 46 3d 13 e8 ed 3c
       -0.1181646 0.10045711 0.048478644 0.029041326
000300 08 88 13 be 2d 98 00 3e 3e 1c 1c 3d e5 b2 06 3d
       -0.1440736 0.1255805 0.03811287 0.03288545
000310 a5 f3 cf bd 20 4d 05 3e 9b 5d a5 bc 52 97 2f 3e
       -0.101538934 0.13017702 -0.020186236 0.17147568
000320 06 b8 4b be d3 82 75 3c 56 38 e9 bb f0 7e 61 3d
       -0.19894418 0.014984804 -0.0071173115 0.055052698
000330 6b fa 3e bc 2b 43 09 be 68 05 21 3e f4 74 c1 bc
       -0.011656384 -0.13404529 0.15724719 -0.023615338
000340 7d a6 a1 bc 7b d2 0c be b3 89 20 3e d1 85 c7 bd
       -0.019732708 -0.13752167 0.15677528 -0.0974232
000350 d9 39 12 3e cf 32 0a be e7 ea b0 3d d7 61 8d 3c
       0.1427988 -0.13495944 0.08638554 0.017258568
000360 76 67 12 be e8 43 70 3c fd b6 13 be 9e 1c 46 be
       -0.1429728 0.014664628 -0.14425273 -0.19346854
000370 3b ea 37 3d 5d 1b 25 3d c9 52 30 bc 4c f4 d4 3d
       0.044901114 0.0403093 -0.010761925 0.103981584
000380 5b 80 36 bd 55 b5 bc bd 15 73 de 3d b5 10 dd bd
       -0.044556003 -0.09214274 0.10861794 -0.10794202
000390 35 e9 9e bd 1e 40 04 3e 6d af e8 3d 13 20 2a bd
       -0.077593245 0.12915084 0.11361585 -0.041534495
0003a0 12 29 b8 bd ac 47 87 bd 36 5d 06 be 80 7a 1c bc
       -0.089922085 -0.06605467 -0.13121495 -0.009550691
0003b0 d8 55 01 3e 4c 31 c6 bd b8 d6 35 3a 61 cf 27 be
       0.12630403 -0.096773714 0.00069365976 -0.16387703
0003c0 dc 69 68 bc f9 96 d6 39 c4 93 c4 3d fc 21 89 3d
       -0.014185395 0.00040929744 0.095984966 0.06695935
0003d0 f0 a0 58 bd 11 6c da bd 10 5f 11 3e 20 1b 93 3d
       -0.052887857 -0.10665143 0.1419642 0.07182908
0003e0 bd 37 bd 3c 84 a2 f9 3c de 23 e2 3d d9 6a 11 3b
       0.023097867 0.030473001 0.110419974 0.002218893
0003f0 ca 8a 54 3d 70 44 2b 3d e3 b9 5e bd 51 f7 15 3e
       0.051890172 0.041813314 -0.054376494 0.14645125

network_body._body_endoder.seq_layers.2.bias f4 [128]
000000 07 ab 32 bb 2b 60 0a bb 7a ff 1e 3b 95 9c c1 3a
       -0.0027262585 -0.002111445 0.0024261163 0.0014771397
000010 2d 7d 25 3b 5a 60 67 3a fd ec 0d 3b 4f b3 2d bb
       0.0025251613 0.0008826308 0.0021656149 -0.0026504581
000020 40 54 1a 3b e9 09 19 bb f5 b5 17 bb a7 1a 27 3b
       0.0023548752 -0.0023351854 -0.0023149226 0.0025498064
000030 66 ee 13 bb 6e d0 33 3b ee c8 41 3b a1 46 f9 ba
       -0.0022572516 0.0027437466 0.0029569226 -0.0019018241
000040 bc 14 ab 3a f5 b1 48 ba 7c ce dd 3a 86 1d 32 3b
       0.0013052444 -0.0007655912 0.0016922499 0.0027178242
000050 1b 86 ab b9 5f 61 21 b9 5a 98 bb b9 7f ec 17 3b
       -0.00032715578 -0.0001539043 -0.0003578093 0.0023181734
000060 3c 45 08 bb af 41 22 bb 29 d7 28 3b 90 da db ba
       -0.002079322 -0.0024758389 0.002576301 -0.0016773511
000070 08 b8 01 bb f7 18 92 ba d1 9b 02 bb ac 1d f5 ba
       -0.001979353 -0.0011146356 -0.00199293 -0.001870086
000080 06 98 40 bb 70 ca 1a bb 8c 6e 2d bb 98 c0 13 3b
       -0.0029387488 -0.0023619197 -0.0026463596 0.0022545215
000090 f1 a4 17 bb 8c 86 10 bb a1 56 21 bb a6 c3 20 3b
       -0.0023139084 -0.0022052852 -0.0024618285 0.0024530678
0000a0 69 f5 28 3b 58 ec 3c bb 4e 92 02 bb 1e d0 61 3a
       0.0025781041 -0.0028827395 -0.001992363 0.0008614081
0000b0 18 73 cc 38 9c e9 0a 3b f8 77 31 3b 06 2b f5 ba
       9.748916e-05 0.002119637 0.0027079564 -0.0018704839
0000c0 c8 5a 14 3b 8e 5f be b9 8b 7f 72 3a 11 d7 3c bb
       0.0022637118 -0.00036310818 0.0009250573 -0.0028814713
0000d0 c9 c8 0d 3b 92 42 24 bb 26 f5 b1 38 03 b6 2e bb
       0.002163457 -0.0025064093 8.48568e-05 -0.002665878
0000e0 61 bc 19 bb ba 0d 39 bb 25 d0 bd ba eb 37 23 bb
       -0.002345823 -0.0028236941 -0.0014481588 -0.0024905156
0000f0 f0 f9 18 bb 08 1f 09 3b fd 1a 0e 3b 1a 3a c5 39
       -0.0023342334 0.0020923037 0.0021683567 0.00037618057
000100 7b 16 78 ba 4e 4f 89 ba f3 44 2f bb 37 29 21 3b
       -0.0009463799 -0.0010475905 -0.0026743978 0.0024591216
000110 62 3e ee ba 3b 7d 2e 3b 11 34 60 ba a2 15 31 3b
       -0.001817655 0.0026624936 -0.00085526804 0.002702095
000120 06 f4 42 bb 2d 33 04 bb c6 ef 33 3b 51 e6 00 bb
       -0.00297475 -0.0020172105 0.0027456149 -0.001966853
000130 20 d6 0c 3b 5e 7e 24 bb 3d 5e 21 3b 08 f9 31 3b
       0.0021489933 -0.0025099735 0.002462282 0.002715649
000140 c6 dd af 3a 12 da 03 3b 14 3a 24 bb dc 6b 21 bb
       0.0013417534 0.0020118994 -0.0025059031 -0.002463094
000150 56 87 06 bb e2 f5 02 bb 63 8b 0c 3b 2e 1a 24 bb
       -0.0020527444 -0.0019982983 0.0021445386 -0.0025040018
000160 3d a8 3c bb ce dc 3e b9 1b 80 2e bb 2d 00 be 3a
       -0.0028786801 -0.00018202068 -0.002662665 0.0014495902
000170 b3 da 4a 3b f9 0d 2b bb d1 d0 11 3b 75 f0 18 3b
       0.0030953109 -0.0026100858 0.0022249708 0.0023336683
000180 fb 55 c7 ba 9e 35 f2 3a ea 51 47 bb 95 d8 32 3b
       -0.0015208119 0.0018479114 -0.0030413815 0.0027289737
000190 61 06 14 bb f5 16 db ba 9b 38 23 bb f9 da b4 ba
       -0.002258681 -0.0016715216 -0.0024905566 -0.0013798169
0001a0 89 7a 0e bb 33 35 c9 ba 0f cb 30 3b 07 4f a8 ba
       -0.0021740517 -0.0015350938 0.00269765 -0.0012840935
0001b0 4a 78 17 3b 0f 1c 21 3b 18 bf e7 ba da 03 2a 3b
       0.002311247 0.0024583375 -0.0017680852 0.0025942237
0001c0 e2 ce 34 bb ee ea fa ba 9f dd 0b bb 7e 48 26 bb
       -0.0027589132 -0.0019143501 -0.0021341813 -0.0025372799
0001d0 00 b0 20 bb e8 fa 2a 3b cb 5a c4 3a a9 86 1f bb
       -0.0024518967 0.0026089493 0.0014980672 -0.0024341738
0001e0 5d 31 1b bb f1 71 2a 3b 95 3a 00 bb 10 e2 ff 3a
       -0.0023680546 0.0026007856 -0.0019566168 0.0019522328
0001f0 05 be 19 bb be ea 27 3b 2e 9f 31 3b 17 9f e4 ba
       -0.0023459208 0.0025622095 0.0027102935 -0.0017442432

action_model._continuous_distribution.log_sigma f4 [1, 2]
000000 40 8b 86 bb cb bc c1 bb
       -0.0041059554 -0.0059123985

action_model._continuous_distribution.mu.weight f4 [2, 128]
000000 af ad f4 3b 7c 07 a4 3b 0e 79 a7 bb 9b 99 ac bc
       0.0074669938 0.005005775 -0.0051108664 -0.021069339
000010 33 23 c7 bc 82 04 99 3a d6 99 d3 bc 70 bd f5 3c
       -0.024308776 0.0011674317 -0.02583019 0.029997557
000020 c6 9d af bb 7d 99 84 3c 62 cc 3a 3d bc a5 13 bd
       -0.005359384 0.01618647 0.04560507 -0.03604673
000030 c8 d0 8f 3c 5d f5 96 bc c4 f0 92 bc 47 b5 03 bb
       0.01755561 -0.018427545 -0.017937072 -0.0020097063
000040 61 72 df bb 47 4b 90 3c cc 7d cd 3a bb 62 34 bc
       -0.006819055 0.01761402 0.0015677749 -0.011009867
000050 9a 93 e2 3c 47 d7 5d bb 7d 0c 9b 3c 88 a4 a3 bc
       0.027658273 -0.003385024 0.018926853 -0.019975916
000060 83 1f 0e 3d 96 f8 c8 3c 6e 44 1b bd 87 db 02 3b
       0.03469802 0.024532598 -0.037907057 0.0019967274
000070 ff dd f8 3b bf 1e e7 3c c5 ee 1e 3c a8 ff 42 bb
       0.0075948234 0.028212903 0.009700482 -0.0029754434
000080 c7 a7 aa 3c 65 e0 4f 3b b0 3b 32 3b 29 84 89 bb
       0.020831956 0.0031719443 0.002719622 -0.004196663
000090 ad bb a8 3c 72 de 26 3d d5 f1 d3 3c 71 2c 11 bd
       0.020597303 0.040739484 0.02587215 -0.035442773
0000a0 02 6a ac bc c0 db 04 3d 9c f8 a4 3b 5e d7 63 bc
       -0.021046642 0.032436132 0.0050345194 -0.013906328
0000b0 b1 41 4a 3c 9f df e2 bb 19 1a 73 bc c2 fc 96 3b
       0.012344764 -0.0069236304 -0.014837765 0.004607768
0000c0 71 29 69 bc 44 99 38 3c aa 89 f8 3b d2 d9 c5 3b
       -0.014231072 0.01126701 0.00758477 0.006037929
0000d0 f6 1c bd bc 83 2e 11 3d 9d e9 a9 3b 97 7c 25 3d
       -0.023085099 0.035444748 0.0051853196 0.04040202
0000e0 f3 1a f8 3c 97 49 2f 3c 77 f8 5d 3c 74 e7 09 3d
       0.030286288 0.0106986975 0.013548008 0.033667997
0000f0 ac 8a 66 3c 00 e2 f7 3a 70 73 a1 bc dc d8 8e bc
       0.014071148 0.0018911958 -0.019708365 -0.017437391
000100 52 20 89 3b 24 4c 88 3c 9f 71 b4 3c 4a 0d 4a bb
       0.004184761 0.01663787 0.022026835 -0.0030830675
000110 5c 94 96 39 fa 40 9b bb 61 0b a5 bb d3 40 05 bd
       0.00028720766 -0.0047379704 -0.005036757 -0.032532524
000120 e7 d7 46 3c 37 fb 9f 3b 02 43 4d bc 4f 79 24 3b
       0.012136436 0.004882242 -0.012528183 0.002509672
000130 da f9 90 bc 69 e6 0b 3d ee d6 0b bc 15 ff 3c bc
       -0.017697264 0.034155283 -0.00853513 -0.011535426
000140 fd 1b 76 3b 5e 1e 13 bc a1 6d 8d 3c 81 bc 96 3b
       0.0037553303 -0.008979408 0.01726419 0.004600108
000150 9c 46 3b 3c 71 39 4e 3c de 7f 60 bd 1b 23 53 3b
       0.011430409 0.012586937 -0.054809444 0.003221697
000160 6b 73 14 3c 95 f9 c3 3b 00 f3 c7 3c 11 13 a0 3c
       0.009060721 0.00598068 0.024407864 0.019540342
000170 92 45 d0 bc c7 60 bc 3c 54 29 e6 bc d5 08 b5 bc
       -0.025423799 0.022995366 -0.028095879 -0.022098938
000180 65 20 95 3c 3c 73 14 bc bc da 00 3d e7 84 01 bd
       0.018203923 -0.009060677 0.0314586 -0.031620886
000190 90 a7 13 3c 19 c1 01 3d 53 27 cb 3b 38 4f d8 39
       0.009012118 0.031678293 0.006199756 0.00041257753
0001a0 da 0f 9b 3b 00 0f 8c bb 22 04 fb bc 73 80 d0 bb
       0.0047321143 -0.004274249 -0.03064162 -0.0063629686
0001b0 c4 98 28 bd e3 22 c0 3b a8 30 58 3b 2f c2 3a bc
       -0.041161314 0.005863534 0.0032987986 -0.011398836
0001c0 49 24 07 3d f8 55 80 bb 97 3d d8 3c f8 5a 03 3d
       0.03299359 -0.0039164983 0.026396556 0.032069176
0001d0 68 c8 75 3c 23 8c f0 bb 15 51 b4 bc 43 63 cc 3c
       0.015001394 -0.0073409243 -0.02201132 0.024949675
0001e0 59 94 20 3c f8 0e 14 bc dc 56 0d 3c e5 74 a4 bb
       0.009800994 -0.009036772 0.008626666 -0.0050188177
0001f0 68 2e 3a 3c 5a 92 86 bb cc e2 81 bc 96 6c 78 3c
       0.011363603 -0.004106802 -0.015855215 0.015162608
000200 93 19 fe ba 2a 73 a9 bc 05 56 d9 3c 14 2d c5 bc
       -0.0019386284 -0.020684797 0.026530275 -0.024069346
000210 66 37 01 bc 82 18 aa 3c 73 71 6f 3b 8e 8b a4 b8
       -0.007886743 0.02076364 0.0036536127 -7.8461235e-05
000220 2e e2 2a 3c 69 43 65 bb 4d 00 97 3c e5 29 37 bc
       0.010429902 -0.0034982807 0.01843276 -0.011179422
000230 57 cd 54 bb d1 22 00 3a a9 7d bb bb fd a3 46 bb
       -0.0032471025 0.00048880005 -0.005721767 -0.0030310147
000240 7b 81 0f bc 3c 6f e4 3c f1 73 75 3c e3 79 8a 3b
       -0.008758898 0.027885072 0.014981256 0.004225956
000250 f9 35 4b 3d e2 5e 38 bc bf d8 14 3d 6d 78 ff bb
       0.04961202 -0.011253091 0.036339518 -0.0077963383
000260 f6 a2 95 3c 0f 98 5e bc d8 c7 a6 3b f5 46 c7 bb
       0.018266182 -0.013586058 0.005089741 -0.006081457
000270 17 83 0c bd 5a 8c 95 3c 1d 28 81 3b 0b 87 d9 bc
       -0.034304705 0.018255401 0.0039415495 -0.026553651
000280 91 24 d1 3b 6f 7f 31 bd 47 2a e4 bc 39 8f 83 3c
       0.006382533 -0.04333442 -0.02785219 0.016059505
000290 15 c7 2a 3b f8 c7 6e 38 86 c8 5d bc 66 20 0d bc
       0.0026058604 5.6929857e-05 -0.013536578 -0.008613681
0002a0 f5 24 9f ba 1d 24 3a 3c 01 88 44 3b c3 94 fd bc
       -0.0012141751 0.011361149 0.0029988291 -0.030954724
0002b0 81 9f d4 3c f9 35 0a 3b 19 9a 8d 3c 35 50 6f bc
       0.025954964 0.00210893 0.017285394 -0.014606525
0002c0 28 f5 58 3a 15 69 b2 3c fe 77 d0 3c bc ea 8e ba
       0.0008276277 0.021778623 0.025447842 -0.0010903697
0002d0 a9 ff cc bb 87 5d 41 bd 9a 73 01 3c 02 c2 4b 3c
       -0.006256063 -0.047208335 0.007901097 0.012436392
0002e0 fd b0 93 3a e2 18 45 bc 9f 82 85 3c 22 d7 aa bc
       0.0011267957 -0.012029858 0.016297637 -0.020854536
0002f0 9b e7 b7 bb e9 30 ff 3c 2f 3d 9c bc 8c 9d e4 bc
       -0.0056123263 0.031151252 -0.019072143 -0.027907155
000300 71 6e 07 3c 24 67 b4 3c 70 fe 8b bc 41 92 4d 3c
       0.008266077 0.022021838 -0.017089099 0.012547077
000310 0c ee 0a bd 37 70 0c 3c 67 e6 80 bb 2b 95 e9 3c
       -0.033918425 0.008571676 -0.003933716 0.028513512
000320 e8 15 f6 b9 7c fa a0 bc 67 b2 82 3c d9 3e ef bc
       -0.00046937098 -0.01965069 0.01595421 -0.029204773
000330 36 5a 64 bc b5 d4 82 bc eb 43 af 3a 2e 3d e2 3c
       -0.013937524 -0.015970567 0.0013371682 0.027617063
000340 1e cb 9a 3c 12 64 50 3b 17 c3 b4 3b 19 35 94 bc
       0.018895682 0.0031797928 0.0055164206 -0.018091725
000350 2d 79 8d 3b 67 24 aa 3b 6c 5b 16 bc 76 75 fc bc
       0.004317424 0.005192328 -0.00917707 -0.030817728
000360 d5 3b 04 3c aa 13 4a 3c df 47 99 bc 11 2c 1f 3d
       0.008070906 0.01233379 -0.018711029 0.038860384
000370 d3 a0 eb bb a4 19 b4 bc 0b 91 8b bc a1 85 a6 3b
       -0.0071908026 -0.021984883 -0.017036935 0.005081848
000380 83 3c 8c 3c 38 9c 9d 3b 6a 9c 00 3c 97 39 59 3d
       0.017118698 0.0048098825 0.007849792 0.053033438
000390 8a b4 9b bc bb 2f 03 3d 07 31 94 bb ee 03 9f bc
       -0.019006986 0.03202794 -0.004522446 -0.019411054
0003a0 37 30 93 bc 04 ad de bc a7 ab 25 3c 71 03 85 bc
       -0.017967327 -0.02718211 0.010111726 -0.016236993
0003b0 1e 05 49 3c a3 40 50 3c 65 b8 ca bb 0d 90 17 3d
       0.012269286 0.012710723 -0.0061865323 0.037002612
0003c0 0f 1b c6 3b 5f a3 e6 bc 18 3a fc 3b ad d3 a2 bc
       0.006045706 -0.028154073 0.007697355 -0.019876326
0003d0 eb b5 dc bb f1 c9 a3 3c 2e b9 92 bc b5 02 67 bb
       -0.0067355535 0.019993754 -0.017910566 -0.0035249416
0003e0 a2 6f 0f bb 72 7d 1b 3b 9d 61 06 3c 29 f1 09 3d
       -0.0021886607 0.0023725894 0.008201984 0.033677254
0003f0 c3 4f 81 ba 2f 5a 5f 3c 32 a8 8e 3c d6 dd dd 3b
       -0.000986569 0.013632341 0.017414186 0.0067708297

action_model._continuous_distribution.mu.bias f4 [2]
000000 d5 ba 1c bb 1b f9 ee 3a
       -0.0023915072 0.0018232198

exp_avg f4 [128, 15]
000000 40 5c 08 ac 6a 16 45 b8 bc c2 83 2d d6 c0 26 ac
       -1.9377971e-12 -4.6989335e-05 1.4979455e-11 -2.3697064e-12
000010 00 00 00 00 80 58 47 ac 06 6f 08 ac 22 27 61 b8
       0.0 -2.8328728e-12 -1.9388393e-12 -5.3680626e-05
000020 e2 07 85 2d aa 3b 92 b8 e8 c8 20 2c 80 e6 c6 37
       1.512385e-11 -6.972936e-05 2.2848893e-12 2.3710774e-05
000030 c1 43 7d 2c 90 a4 be 21 b0 a9 28 ab 63 5e fe ab
       3.5991073e-12 1.291846e-18 -5.992108e-13 -1.8073983e-12
000040 9c f3 39 b8 55 3e 77 2d 26 b2 64 ac 00 00 00 00
       -4.4334316e-05 1.4054165e-11 -3.249964e-12 0.0
000050 c1 1f 8f ac 3f 61 fe ab ef 79 4c b8 6f 98 79 2d
       -4.06783e-12 -1.8074777e-12 -4.875095e-05 1.4187858e-11
000060 5a 05 86 b8 1b ad 18 2c 83 09 ba 37 3a 3d 80 2c
       -6.390615e-05 2.1696592e-12 2.2177357e-05 3.6447763e-12
000070 fe 07 ca 21 8f 2b 86 aa 0d 58 d4 ac 04 b5 ea b7
       1.3690168e-18 -2.3833406e-13 -6.035178e-12 -2.7979266e-05
000080 31 d6 ea 2d 4f 15 3a ad 00 00 00 00 f5 08 d2 ac
       2.669784e-11 -1.0577607e-11 0.0 -5.9695534e-12
000090 33 b2 d5 ac e5 43 52 b8 8d 17 ed 2d 50 62 01 b9
       -6.073608e-12 -5.0131133e-05 2.695424e-11 -0.00012339023
0000a0 df cc 8f 2c d1 11 b6 38 f0 d5 e7 2c a5 a7 2d 22
       4.0870497e-12 8.681755e-05 6.5891667e-12 2.3534622e-18
0000b0 1a 67 af 2c 33 f5 bf a9 17 49 90 36 ae 83 4d ab
       4.9852457e-12 -8.524639e-14 4.300043e-06 -7.301337e-13
0000c0 6d b9 94 ab 00 00 00 00 d6 6c 37 ab 87 d9 c4 a9
       -1.0567498e-12 0.0 -6.51657e-13 -8.7418835e-14
0000d0 b7 f0 4a 36 34 de 4f ab 78 20 99 36 44 f6 cb a9
       3.024046e-06 -7.384954e-13 4.563535e-06 -9.057731e-14
0000e0 23 f7 08 b6 4c 68 d7 2a 9e 04 7c 1f 76 75 30 2b
       -2.0409432e-06 3.8264043e-13 5.3366895e-20 6.269077e-13
0000f0 63 a9 a7 ab 0a 55 26 36 c5 46 99 2c 87 7b ce aa
       -1.1913078e-12 2.4785427e-06 4.3563785e-12 -3.6678665e-13
000100 00 00 00 00 46 53 06 ab ac 31 a9 ab 8d cd 2f b6
       0.0 -4.772193e-13 -1.2021959e-12 -2.6196678e-06
000110 a4 c5 9a 2c 3e d3 ad b7 b4 da 38 2b 3c f3 aa 37
       4.3988858e-12 -2.0721574e-05 6.5673443e-13 2.0378844e-05
000120 e8 81 7b 2b 99 b0 c2 20 22 09 c5 aa ba 21 cb 2b
       8.9353394e-13 3.298174e-19 -3.5000567e-13 1.4433379e-12
000130 08 34 b1 37 d9 76 01 ad e1 4b b6 2c 00 00 00 00
       2.1124273e-05 -7.3591905e-12 5.1811754e-12 0.0
000140 27 f2 77 2c ac a6 cb 2b e6 42 e8 37 da ab 02 ad
       3.5235233e-12 1.4470278e-12 2.7687707e-05 -7.427803e-12
000150 59 74 07 38 d5 90 a2 ab 07 d5 08 b7 1b 35 fa ab
       3.2294865e-05 -1.1550991e-12 -8.155831e-06 -1.7778308e-12
000160 12 a6 75 a1 65 2e 51 ac d4 af 06 2c d3 4d c6 37
       -8.322902e-19 -2.972644e-12 1.914015e-12 2.3639679e-05
000170 61 99 56 ad 0c 3b f3 2a 00 00 00 00 23 08 55 2b
       -1.2198549e-11 4.3206443e-13 0.0 7.5684093e-13
000180 c8 37 07 2c d4 26 e6 37 96 b5 58 ad 7c 28 77 38
       1.9215619e-12 2.7436217e-05 -1.2318499e-11 5.8927093e-05
000190 fa 46 00 ac a2 3d 1f b8 8a 95 05 ac 9c 4f 81 a1
       -1.8229294e-12 -3.7965954e-05 -1.8983448e-12 -8.762452e-19
0001a0 e5 7a 7f 2b 26 50 18 2b 59 c5 09 b7 bd 4b 86 ab
       9.076475e-13 5.4112476e-13 -8.211785e-06 -9.542294e-13
0001b0 5c 52 3a ab 00 00 00 00 48 51 a1 aa 9b 6a 1a 2b
       -6.619477e-13 0.0 -2.8655745e-13 5.4859735e-13
0001c0 af 2d b2 b6 c8 ae 87 ab b5 84 aa 36 25 4e 17 aa
       -5.3101317e-06 -9.640838e-13 5.081844e-06 -1.3438606e-13
0001d0 8a b7 37 b7 fd 42 1d 2a e2 a6 70 9f 44 67 23 2b
       -1.09503835e-05 1.3967642e-13 -5.096002e-20 5.8052543e-13
0001e0 15 d1 fc 28 93 6e 9f b6 95 d9 b4 aa 37 d4 3f ac
       2.8068295e-14 -4.751442e-06 -3.21254e-13 -2.7260535e-12
0001f0 00 00 00 00 f0 a1 e4 ab 62 7f 06 29 64 89 d1 b6
       0.0 -1.6245321e-12 2.9864464e-14 -6.2446798e-06
000200 5e 0a b8 aa 23 fa 80 36 6a bc 08 a8 e7 57 30 b7
       -3.269216e-13 3.843817e-06 -7.590372e-15 -1.0510884e-05
000210 73 0b 99 2b bb 0f 3c 20 8d d3 e7 2b 19 66 ad 2b
       1.0874482e-12 1.5929424e-19 1.6472254e-12 1.2320727e-12
000220 98 28 24 b6 08 47 c9 ac 20 b7 13 ac 00 00 00 00
       -2.4461533e-06 -5.7206496e-12 -2.0991611e-12 0.0
000230 dc 86 a7 aa 55 0a af 2b bb 73 30 35 b0 48 cb ac
       -2.9758737e-13 1.2437366e-12 6.573352e-07 -5.777677e-12
000240 a7 6f ed 37 be 6f 6d ab 8e 01 01 b8 60 82 5e ab
       2.8304594e-05 -8.435439e-13 -3.0757445e-05 -7.9051175e-13
000250 87 81 cc a0 74 e2 35 2c e3 d8 d5 ab fc 2c b8 35
       -3.4644658e-19 2.5847354e-12 -1.5194758e-12 1.372216e-06
000260 de 5b b4 2c 50 0e 4f ac 00 00 00 00 c6 e6 a1 ab
       5.126107e-12 -2.9424414e-12 0.0 -1.150379e-12
000270 25 84 d7 ab c4 53 93 b6 a2 18 b6 2c 33 26 c8 b7
       -1.5313346e-12 -4.390693e-06 5.175486e-12 -2.3859646e-05
000280 d9 f3 5b 2b 74 4f b9 37 ef d5 8d 2b 6e 43 04 21
       7.8142836e-13 2.2090717e-05 1.0078031e-12 4.481258e-19
000290 50 f4 0e 2c e7 75 d2 aa 01 96 8b b6 55 fd 1b 2c
       2.0315034e-12 -3.7385305e-13 -4.1599856e-06 2.2167452e-12
0002a0 98 8d 4a aa 00 00 00 00 a3 d6 04 ab 8c 77 d3 aa
       -1.7990329e-13 0.0 -4.719369e-13 -3.7564082e-13
0002b0 d2 13 b2 b6 9b 7d 1d 2c 41 bb 2c b7 57 87 be 2a
       -5.307121e-06 2.2380767e-12 -1.0295597e-05 3.384469e-13
0002c0 8e 58 cd 36 5f cb 0a 2b d4 8e 67 20 bd 95 a1 aa
       6.119785e-06 4.9309683e-13 1.9613719e-19 -2.8703247e-13
0002d0 d5 e1 c6 aa d3 69 63 35 2d 32 02 2c b2 fa 99 2b
       -3.5328568e-13 8.4718084e-07 1.8501964e-12 1.0940886e-12
0002e0 00 00 00 00 22 28 71 2b b8 d7 c8 aa b1 d4 cf 33
       0.0 8.5676095e-13 -3.5676822e-13 9.677877e-08
0002f0 4d 8e 03 2c b5 1a 27 b7 e6 ec 91 2a ff 16 3b 37
       1.8695212e-12 -9.960194e-06 2.5921555e-13 1.1151423e-05
000300 f5 40 33 29 f2 75 85 1f 2d 5d 69 ab fc 91 ca aa
       3.9802326e-14 5.6522815e-20 -8.2907536e-13 -3.5983705e-13
000310 3b f8 52 37 a8 48 92 aa c2 8b 2d ab 00 00 00 00
       1.2574771e-05 -2.5985225e-13 -6.16559e-13 0.0
000320 ef 62 6a aa 4c 32 ce aa 60 f4 59 37 62 ec 93 aa
       -2.08177e-13 -3.6627851e-13 1.2991106e-05 -2.627647e-13
000330 c4 d7 dc 35 39 b8 0f a9 d6 50 3b 37 90 71 aa 2a
       1.6454073e-06 -3.1912166e-14 1.116489e-05 3.0276866e-13
000340 29 17 90 9e 04 d3 e3 2a 9f d5 04 ab 27 22 ef b6
       -1.5256172e-20 4.0469722e-13 -4.719228e-13 -7.126731e-06
000350 68 21 82 2c dc 42 ba 2b 00 00 00 00 94 15 a3 2a
       3.698531e-12 1.3234652e-12 0.0 2.896959e-13
000360 5e 5a 05 ab 68 49 00 b7 30 6f 83 2c 4d 28 9b b7
       -4.73765e-13 -7.646486e-06 3.7355882e-12 -1.8496206e-05
000370 fb 81 18 2b 5e 20 58 37 1b 84 ba 2a 6e 06 81 20
       5.418163e-13 1.2882139e-05 3.3131904e-13 2.1857705e-19
000380 2b 12 cf ab 7c 28 9b ab 46 38 90 b7 80 5b f7 2c
       -1.4713277e-12 -1.1024649e-12 -1.7192342e-05 7.0303208e-12
000390 ac cb d5 ab 00 00 00 00 6c 1c b7 ab 96 97 9b ab
       -1.5191091e-12 0.0 -1.3010821e-12 -1.1055486e-12
0003a0 88 de aa b7 78 bf f9 2c b0 3e 0a b8 16 4d 96 2b
       -2.0369203e-05 7.098263e-12 -3.2960146e-05 1.0679537e-12
0003b0 81 00 88 37 8f ba b9 2b 58 47 36 21 9f 48 b4 2a
       1.6212698e-05 1.3196821e-12 6.175842e-19 3.2024814e-13
0003c0 d5 d4 db 2b 00 55 c1 b6 94 86 7e ac ef 4f 9d 2c
       1.5619959e-12 -5.7617435e-06 -3.6170277e-12 4.471083e-12
0003d0 00 00 00 00 0f 1e f5 2b d5 d7 dd 2b b5 b1 80 36
       0.0 1.741664e-12 1.57629e-12 3.835385e-06
0003e0 e8 70 80 ac 6c 32 83 37 56 18 21 ab f7 e0 62 b7
       -3.650514e-12 1.5639896e-05 -5.7232463e-13 -1.3523028e-05
0003f0 26 ac a4 ab ba 9a fc a0 c6 eb 65 ac f9 3d 52 2c
       -1.1700682e-12 -4.279285e-19 -3.2673738e-12 2.9877197e-12

exp_avg_sq f4 [128, 15]
000000 de 7a 8b 18 26 00 e3 31 5d ec 81 1b 77 c8 6d 19
       3.6054722e-24 6.6065864e-09 2.1494006e-22 1.2293096e-23
000010 00 00 00 00 f0 f8 80 18 f8 c8 8d 18 8d b1 ec 31
       0.0 3.3338587e-24 3.6650572e-24 6.888689e-09
000020 ac 95 84 1b c9 25 bf 31 5a c9 ad 18 4f 34 55 31
       2.1934291e-22 5.5631273e-09 4.4922765e-24 3.1025313e-09
000030 e7 8f c0 19 9c f5 02 04 3d 4a 45 19 3c 2e bd 18
       1.9910456e-23 1.5394205e-36 1.01996536e-23 4.890204e-24
000040 24 7b 38 32 a4 04 d1 1b f7 ce 9f 19 00 00 00 00
       1.07382085e-08 3.4579149e-22 1.6523807e-23 0.0
000050 84 66 0b 19 b8 74 c0 18 ff 0e 3c 32 88 4e d5 1b
       7.2068344e-24 4.9748693e-24 1.094645e-08 3.5288644e-22
000060 77 1a 1a 32 6c 6b 0b 19 7d cf 8d 31 1a c7 0f 1a
       8.969997e-09 7.207825e-24 4.127229e-09 2.973254e-23
000070 b1 e3 e0 03 af 4c 73 19 f2 4b 68 1a aa a4 61 33
       1.3217812e-36 1.2578292e-23 4.8037824e-23 5.2536656e-08
000080 c5 45 88 1c 6a e0 62 1b 00 00 00 00 98 2e 9a 19
       9.01776e-22 1.8766794e-22 0.0 1.5942046e-23
000090 c6 65 6e 1a 96 e8 71 33 1b 10 8b 1c 33 cd c8 32
       4.9299458e-23 5.632372e-08 9.202412e-22 2.3376378e-08
0000a0 32 2c b6 19 b8 c8 42 33 8e d5 d6 1a 67 37 05 05
       1.883621e-23 4.5351698e-08 8.885334e-23 6.263806e-36
0000b0 76 ba 3c 1b 00 3e 96 17 2a 34 c6 30 6e 54 11 1a
       1.5611244e-22 9.709174e-25 1.4421222e-09 3.00535e-23
0000c0 d7 7a b1 17 00 00 00 00 fc 36 15 17 ac 4b 9a 17
       1.1469366e-24 0.0 4.8213897e-25 9.971119e-25
0000d0 a0 f9 c5 30 2f 4e 14 1a 47 e4 55 30 ca e7 41 17
       1.4404584e-09 3.066884e-23 7.781335e-10 6.265422e-25
0000e0 cb 5b 6c 30 1f a9 89 17 58 61 72 02 b7 33 a3 17
       8.5986746e-10 8.89611e-25 1.7807288e-37 1.0546683e-24
0000f0 a7 d5 73 18 c6 07 44 31 cf ef e2 19 3a 4a 83 18
       3.151488e-24 2.8526173e-09 2.346471e-23 3.3937656e-24
000100 00 00 00 00 f7 6b ba 16 f1 ce 7a 18 9f 02 4e 31
       0.0 3.0118056e-25 3.2416221e-24 2.9978435e-09
000110 58 95 e7 19 3d a2 27 30 08 50 17 17 ae eb 3a 31
       2.394516e-23 6.09848e-10 4.8891745e-25 2.720053e-09
000120 e7 9c e8 17 4a b4 85 02 94 4e 83 18 ac 54 0e 1a
       1.5032256e-24 1.9646074e-37 3.394205e-24 2.943331e-23
000130 61 98 32 33 e2 e9 1d 1c 72 d6 cc 1a 00 00 00 00
       4.1582442e-08 5.224923e-22 8.471888e-23 0.0
000140 34 c1 6a 19 50 d1 12 1a cb 23 39 33 a7 29 21 1c
       1.21365335e-23 3.0361174e-23 4.3106223e-08 5.3324266e-22
000150 87 4a 6b 32 ee e8 50 19 31 33 f5 32 4d 33 2c 1a
       1.3695746e-08 1.0800388e-23 2.8545033e-08 3.5610207e-23
000160 c0 7f 84 03 51 44 b0 1a 79 37 0b 19 e7 a5 33 32
       7.787593e-37 7.2902265e-23 7.197334e-24 1.0456893e-08
000170 41 b3 8c 1b 72 23 92 18 00 00 00 00 28 f9 3e 18
       2.3276897e-22 3.7775906e-24 0.0 2.4682716e-24
000180 3b a4 0e 19 d9 61 34 32 b5 94 8f 1b 57 66 cf 31
       7.374394e-24 1.0499627e-08 2.3753465e-22 6.0361276e-09
000190 a3 94 bb 18 2c aa c3 31 e2 b4 f4 18 d5 ea 11 04
       4.848845e-24 5.6945932e-09 6.3255167e-24 1.7152498e-36
0001a0 83 d0 b2 18 60 70 16 18 eb 0e 01 31 27 1b 94 18
       4.6222465e-24 1.944378e-24 1.878045e-09 3.828452e-24
0001b0 d0 65 19 18 00 00 00 00 a3 2b 04 16 1e 55 1b 18
       1.9826189e-24 0.0 1.0676644e-25 2.0076254e-24
0001c0 09 78 04 31 17 2c 97 18 e7 44 df 2e 6e 5a c2 15
       1.927676e-09 3.9077105e-24 1.01531054e-10 7.849865e-26
0001d0 fd 14 fa 30 b2 a4 73 16 6a d2 93 00 ff 6a 18 18
       1.8195859e-09 1.9681352e-25 1.35753e-38 1.9699559e-24
0001e0 cc a3 0d 19 e6 5e 0f 32 89 c6 c6 1a 69 aa 04 19
       7.322608e-24 8.345273e-09 8.221163e-23 6.858654e-24
0001f0 00 00 00 00 14 04 18 18 90 18 12 19 66 77 0f 32
       0.0 1.9647598e-24 7.5529834e-24 8.350844e-09
000200 4f dc ca 1a f0 ed 12 31 d4 14 04 18 43 fc e5 31
       8.390117e-23 2.1381048e-09 1.7071116e-24 6.693456e-09
000210 7d 28 85 18 00 27 5e 02 5a ea c4 18 6d fe 9d 19
       3.4420577e-24 1.6321177e-37 5.0901447e-24 1.6336181e-23
000220 a2 e7 91 32 b0 a3 ec 1a d2 9e 3f 19 00 00 00 00
       1.6985556e-08 9.7871764e-23 9.906542e-24 0.0
000230 79 44 f0 17 3d 10 a3 19 b4 fe 91 32 4d 80 f1 1a
       1.5526921e-24 1.6860364e-23 1.6996047e-08 9.9882545e-23
000240 fe 61 2f 31 72 e4 1c 18 ae d9 7c 32 73 ba f7 17
       2.5521554e-09 2.0277863e-24 1.4717825e-08 1.6009067e-24
000250 e9 b2 04 03 bb e9 37 19 2f 7f e3 18 0d 0c ce 31
       3.8996692e-37 9.50808e-24 5.8806547e-24 5.996759e-09
000260 68 55 6d 1a fd 5b e1 19 00 00 00 00 5e 92 83 17
       4.9079442e-23 2.3301608e-23 0.0 8.502625e-25
000270 a9 4b ea 18 26 17 de 31 ea 32 72 1a 4b 02 b0 30
       6.056398e-24 6.463682e-09 5.0085555e-23 1.2806337e-09
000280 fb ed 9d 17 f3 c2 c2 31 ac 65 a5 18 8d e1 e5 02
       1.0205962e-24 5.6683063e-09 4.2754163e-24 3.3777986e-37
000290 24 57 ce 19 dc 30 77 16 f4 33 86 2f 90 b0 e5 18
       2.1335097e-23 1.9967918e-25 2.4411373e-10 5.9373395e-24
0002a0 40 8f 89 16 00 00 00 00 f1 53 f7 15 5c a7 7c 16
       2.2223947e-25 0.0 9.989494e-26 2.0409207e-25
0002b0 b3 2e 89 2f a0 65 ea 18 48 89 29 2f 99 47 19 16
       2.4953337e-10 6.0590197e-24 1.5419233e-10 1.2381834e-25
0002c0 c3 ca 30 2f d1 8d 28 17 ae 4d 4f 01 1e 92 9a 16
       1.6079142e-10 5.4462725e-25 3.8075628e-38 2.4972255e-25
0002d0 e7 83 6b 18 17 71 a8 31 10 44 b5 1a 33 b0 85 18
       3.0439632e-24 4.9023003e-09 7.4969806e-23 3.455761e-24
0002e0 00 00 00 00 fa 79 01 18 43 e0 72 18 94 51 aa 31
       0.0 1.6734442e-24 3.139099e-24 4.9569255e-09
0002f0 f5 ff b8 1a 58 2c 07 31 13 55 ef 17 ee f5 40 31
       7.651414e-23 1.9670292e-09 1.5466489e-24 2.8079472e-09
000300 91 0b 63 18 dc 91 08 02 1b 7b 59 18 8b 19 bb 17
       2.9344902e-24 1.0033562e-37 2.8108745e-24 1.209104e-24
000310 c8 b7 b5 30 91 36 0a 19 ab 35 d4 17 00 00 00 00
       1.3221717e-09 7.145452e-24 1.3713727e-24 0.0
000320 64 81 01 16 10 39 c1 17 26 bd b8 30 b4 09 0d 19
       1.0461365e-25 1.2486737e-24 1.3441521e-09 7.291489e-24
000330 50 90 4a 2f d0 86 38 16 fa bf 9a 30 f7 e4 3a 16
       1.8423063e-10 1.4905941e-25 1.1259538e-09 1.5097209e-25
000340 34 fa 17 01 f4 8f d0 17 d1 a4 89 18 db c4 8d 31
       2.7913832e-38 1.3478024e-24 3.5580092e-24 4.12602e-09
000350 1a dc 3c 1a f1 02 2f 18 00 00 00 00 20 7a 47 17
       3.9055285e-23 2.2619705e-24 0.0 6.445451e-25
000360 3d fb 8d 18 ac c3 8d 31 1b be 40 1a 67 34 8c 30
       3.670133e-24 4.1258854e-09 3.9858235e-23 1.0201234e-09
000370 70 2e 7a 17 82 dd 5d 31 4b 5a 48 17 fa 28 5b 02
       8.083797e-25 3.2285645e-09 6.473745e-25 1.6101339e-37
000380 54 13 27 18 72 23 ff 17 b4 24 1c 31 3e 2d 82 1a
       2.1594002e-24 1.6487936e-24 2.272185e-09 5.383983e-23
000390 d2 3f eb 18 00 00 00 00 35 c2 69 17 d4 90 02 18
       6.081052e-24 0.0 7.5531484e-25 1.6875226e-24
0003a0 22 f9 22 31 6f d8 84 1a f9 f1 bf 30 b3 b4 ad 17
       2.3715718e-09 5.494359e-23 1.3965852e-09 1.1225478e-24
0003b0 b8 6a c7 30 8f b2 90 18 b6 33 ea 02 f8 35 c2 18
       1.4509487e-09 3.7403426e-24 3.441289e-37 5.020232e-24
0003c0 68 39 90 19 ce b0 88 32 4a c1 e5 1a a3 63 60 1a
       1.4912437e-23 1.5912885e-08 9.5024455e-23 4.64026e-23
0003d0 00 00 00 00 9c 0c 29 18 47 e2 94 19 eb fe 8f 32
       0.0 2.1849104e-24 1.5394234e-23 1.6763314e-08
0003e0 7c 7a ea 1a e2 62 2a 31 64 66 18 18 32 47 81 32
       9.6978016e-23 2.4794464e-09 1.9697234e-24 1.5049952e-08
0003f0 93 7d ee 18 3d 01 27 02 d1 95 45 1a ce 2a 4b 19
       6.1648356e-24 1.2269578e-37 4.0859666e-23 1.0503498e-23

exp_avg f4 [128]
000000 21 27 61 b8 f3 79 4c b8 e6 43 52 b8 a0 f0 4a 36
       -5.3680622e-05 -4.8750964e-05 -5.0131137e-05 3.0240408e-06
000010 8b cd 2f b6 ea 42 e8 37 cd 26 e6 37 8b 2d b2 b6
       -2.6196674e-06 2.7687714e-05 2.7436205e-05 -5.3101153e-06
000020 82 89 d1 b6 6b 74 30 35 c0 53 93 b6 d3 13 b2 b6
       -6.2446934e-06 6.573452e-07 -4.390691e-06 -5.3071212e-06
000030 64 d6 cf 33 61 f4 59 37 6f 49 00 b7 88 de aa b7
       9.678186e-08 1.2991107e-05 -7.646492e-06 -2.0369203e-05
000040 f2 b1 80 36 42 03 72 37 97 b8 f6 b6 df b5 1c 37
       3.835413e-06 1.4425083e-05 -7.3528604e-06 9.34067e-06
000050 f7 b0 d5 b6 fb cd fd 37 82 e6 14 b7 0a 09 cd 36
       -6.368496e-06 3.0255867e-05 -8.875157e-06 6.1105284e-06
000060 ac cf ae b7 93 b4 39 b5 64 c7 72 37 6f 63 07 b7
       -2.0839121e-05 -6.918064e-07 1.4470748e-05 -8.069778e-06
000070 89 b7 28 37 13 24 52 37 34 c7 3b 37 0d 5b f5 36
       1.0056313e-05 1.2525375e-05 1.1192449e-05 7.3121687e-06
000080 0c ca fe 35 42 84 6d 38 c4 41 6a 36 bd 3e 4a 37
       1.8983278e-06 5.6628378e-05 3.4906998e-06 1.2054746e-05
000090 23 8e 3f 38 ed a6 0e 37 88 3f ec 37 68 17 14 b8
       4.5670324e-05 8.502725e-06 2.8162976e-05 -3.530775e-05
0000a0 96 ea e7 36 2e a8 0e b7 ed 76 1b 38 dc 9a 81 b6
       6.911646e-06 -8.503017e-06 3.7065638e-05 -3.8625276e-06
0000b0 40 11 c2 37 ac f1 fd b7 4d 4a 41 38 5f 1b 7d b5
       2.3134635e-05 -3.0272487e-05 4.6083984e-05 -9.4289675e-07
0000c0 eb 1d b1 36 a5 2e f8 b7 6a cc 2b 37 6a 17 5f 35
       5.278494e-06 -2.9585624e-05 1.0239988e-05 8.3108046e-07
0000d0 47 f5 55 b8 19 fd 89 37 10 bf 87 35 76 a2 f1 b5
       -5.101159e-05 1.644953e-05 1.011389e-06 -1.8003182e-06
0000e0 3b eb f3 b5 6d 10 9f b7 ea d2 30 b6 db 91 3d b7
       -1.8173372e-06 -1.8961926e-05 -2.6348812e-06 -1.12992375e-05
0000f0 ed 2f e3 37 58 7e 71 b6 93 a6 bc 37 f6 d3 29 36
       2.7082826e-05 -3.598534e-06 2.2488914e-05 2.530634e-06
000100 70 28 90 37 06 3a cf b7 e3 15 8a 35 ef 88 2f b7
       1.7184968e-05 -2.4703342e-05 1.0288171e-06 -1.0462695e-05
000110 be b1 62 37 a1 16 81 b7 85 f3 89 37 1e 9e d8 b7
       1.3512034e-05 -1.5388536e-05 1.644507e-05 -2.5822836e-05
000120 d7 b9 8d 37 64 d6 06 b5 14 db 37 b7 f9 a2 e4 36
       1.6895048e-05 -5.023087e-07 -1.0958658e-05 6.813902e-06
000130 8b 0e bc 36 35 2f 8d 36 cc 63 ba 37 f6 d7 e4 b5
       5.6045296e-06 4.207623e-06 2.22194e-05 -1.7050177e-06
000140 3f aa 94 37 b5 36 6b 37 a8 d2 95 35 cc cb 5d b7
       1.7722252e-05 1.4019829e-05 1.1162674e-06 -1.3220077e-05
000150 98 b1 be 37 02 72 1a b8 dc b5 3b 37 ab 23 c0 37
       2.2732464e-05 -3.682264e-05 1.1188411e-05 2.2904793e-05
000160 99 e9 41 37 83 0d d2 36 b7 1f 07 38 54 ad 57 38
       1.1558085e-05 6.2600607e-06 3.2216045e-05 5.142142e-05
000170 ec 28 eb 37 87 d6 6c b7 44 53 93 35 d4 a2 59 b6
       2.8033239e-05 -1.4116645e-05 1.0976587e-06 -3.2430298e-06
000180 75 c6 45 38 18 64 23 37 fc 3a 2a b7 ad ea 31 b5
       4.7153288e-05 9.738862e-06 -1.0146523e-05 -6.6279136e-07
000190 15 a0 07 37 a1 49 04 b7 b6 9d a4 35 01 22 9b b6
       8.083899e-06 -7.884956e-06 1.2264852e-06 -4.6233185e-06
0001a0 66 63 92 b6 75 8c f8 b6 7a 8e dc b6 2a ed 61 36
       -4.3627106e-06 -7.4073273e-06 -6.5730974e-06 3.366566e-06
0001b0 0e b6 8a b6 06 8c f6 37 7c bd 5a b6 0a 47 46 37
       -4.1339144e-06 2.9390689e-05 -3.2594826e-06 1.181826e-05
0001c0 87 ba 09 38 f9 be ed b5 dd 59 9d 37 30 3a 91 36
       3.2837062e-05 -1.7713456e-06 1.8757704e-05 4.3281107e-06
0001d0 df 4f a1 37 ca 88 86 37 a9 89 86 b7 63 bb 4d b7
       1.9229888e-05 1.6037742e-05 -1.6038148e-05 -1.2262582e-05
0001e0 de 95 4d 38 f4 83 db 36 87 93 08 37 66 d2 9e 36
       4.9015383e-05 6.54207e-06 8.140581e-06 4.7332605e-06
0001f0 f3 42 40 37 36 d8 c2 36 6f 9d f4 37 97 74 13 b7
       1.145968e-05 5.806821e-06 2.9160377e-05 -8.7890285e-06
