python/results/minion_walk_003/Minion/Minion-48261.pt (torch, 464859 bytes, 36 tensors)

network_body._body_endoder.seq_layers.0.weight f4 [128, 15]
0	0xbd3ed4c8	-0.046589643
1	0xbf362ec3	-0.711651
2	0xbdbad0f5	-0.09121887
3	0xbdbd162e	-0.09232746
4	0xbeea677e	-0.45782083
5	0xbe86a5bb	-0.26298317
6	0xbc665bd7	-0.014059982
7	0xbd83bc29	-0.06432373
8	0x3db1f66b	0.086895786
9	0xbdd07fc3	-0.101806186
10	0x3d35de2d	0.044401336
11	0xbe733424	-0.23750359
12	0xbe2435d6	-0.16036162
13	0x3c687c9b	0.0141898645
14	0x3e74bbee	0.23899814
15	0xbe36e5ee	-0.17861149
16	0xbde9362e	-0.11387287
17	0x3da75e7b	0.081723176
18	0xbe96cb48	-0.29451966
19	0x3e22a5bb	0.15883534
20	0x3ed508de	0.41608328
21	0x3cdb77c9	0.026790516
22	0x3d9d4029	0.07678253
23	0xbec33f41	-0.38134196
24	0x3e3451fb	0.17609398
25	0x3ef34ca0	0.47519398
26	0x3ea71ff8	0.32641578
27	0x3f04e1f8	0.519073
28	0xbd01dcde	-0.031704776
29	0xbd75fa48	-0.06005314
30	0x3f11c6d3	0.56944007
31	0x3e32efb5	0.17474253
32	0xbed173c0	-0.40908623
33	0x3e762f0f	0.24041389
34	0x3e8377e2	0.256774
35	0xbec436bd	-0.38323012
36	0xbd77e45f	-0.060520526
37	0x3eac6d9a	0.3367737
38	0x3dde3a15	0.10850922
39	0xbd859a9b	-0.06523629
40	0xbef4f594	-0.4784361
41	0xbe7b9edd	-0.2457232
42	0xbcfe6b0c	-0.031056903
43	0xbd9c81f9	-0.07641978
44	0x3da180b6	0.07885878
45	0x3cd90df1	0.026495906
46	0xbc1cfcd1	-0.0095817605
47	0xbefbeeb8	-0.49205565
48	0x3c9996cc	0.018748663
49	0xbe11fb4b	-0.14256017
50	0xba56c4a8	-0.0008192756
51	0xbea75cca	-0.3268798
52	0xbed2bd99	-0.41160277
53	0x3e3e2710	0.18569589
54	0xbd0be2b5	-0.03415175
55	0xbed8116b	-0.4220079
56	0x3e07dce6	0.1326786
57	0xbd3266f6	-0.043555222
58	0xbf02059e	-0.5078982
59	0xbf179b1f	-0.5922107
60	0x3e207086	0.15667924
61	0x3e99820e	0.29982036
62	0x3f4fe924	0.8121512
63	0xbe411848	-0.18856919
64	0x3e0bf367	0.1366707
65	0x3e079116	0.1323894
66	0x3e062a74	0.13102132
67	0x3d9efd92	0.077632084
68	0xbf05fc59	-0.52338177
69	0x3ef63d89	0.48093823
70	0x3efa56f4	0.48894465
71	0x3eaf0302	0.34181982
72	0xbeb4359d	-0.35197154
73	0x3e9b230e	0.30300182
74	0xbba90c1b	-0.005158914
75	0xbdebd419	-0.11515064
76	0x3e644690	0.22292542
77	0xbd45f79f	-0.048331853
78	0x3e61d8a7	0.22055303
79	0x3e250a4b	0.16117208
80	0x3e01a7fd	0.12661739
81	0xbea86e93	-0.3289686
82	0xbde229f0	-0.11043155
83	0x3da83b04	0.08214381
84	0x3e101848	0.14071763
85	0x3ef53d83	0.47898492
86	0x3dbf5654	0.09342638
87	0xbde7703b	-0.11300703
88	0x3e750287	0.23926745
89	0xbe5d9433	-0.21638565
90	0xbdec1c99	-0.11528892
91	0x3f05f1e0	0.52322197
92	0x3db07338	0.08615726
93	0xbead4cc3	-0.33847627
94	0x3e9b1aba	0.30293828
95	0xbdd50634	-0.10401574
96	0xbe694b32	-0.22782591
97	0x3ec53042	0.3851338
98	0x3d88bd31	0.066767104
99	0x3e20c5bd	0.15700431
100	0x3b5e5308	0.0033924002
101	0xbf0076b1	-0.5018111
102	0x3d9ea3e9	0.07746107
103	0xbdafd5ef	-0.085857265
104	0x3dc3bde9	0.09557707
105	0xbdc78d98	-0.09743804
106	0x3d6d931a	0.058001615
107	0x3e84d8a6	0.2594654
108	0x3e3c769e	0.18404624
109	0xbe8b5fa6	-0.2722141
110	0xbda106f8	-0.07862657
111	0x3ee96694	0.45586073
112	0xbe6e56c2	-0.23275283
113	0x3e446b43	0.19181542
114	0x3d2e9f50	0.0426324
115	0xbeade67c	-0.33964908
116	0xbd7e12ea	-0.062029757
117	0xbe84992d	-0.25898114
118	0x3f199a80	0.60001373
119	0x3e943ea6	0.28954047
120	0x3d4db42b	0.05022065
121	0x3ea532f2	0.3226543
122	0xbc9fbf08	-0.01950027
123	0xbe87a2db	-0.26491436
124	0xbede120a	-0.43373138
125	0x3df4b57e	0.119486794
126	0x3bf905d9	0.007599574
127	0x3ea164dc	0.31522262
128	0x3ee7542e	0.45181412
129	0x3df1a17e	0.1179838
130	0x3e2abf0b	0.1667444
131	0xbd56703d	-0.052353133
132	0x3e27839c	0.16358799
133	0x3e8d2e87	0.2757456
134	0x3e480587	0.19533359
135	0x3f0e308e	0.5554284
136	0xbe42f8dd	-0.19040246
137	0xbe650c8b	-0.22368066
138	0xbe365f33	-0.17809753
139	0xbda9c7e0	-0.08290076
140	0x3ef75f3e	0.48314852
141	0x3eb26153	0.34839877
142	0x3e7489c0	0.23880672
143	0x3d65ae0e	0.056074195
144	0x3e8e2412	0.27761894
145	0x3ef7a4e7	0.48367998
146	0x3e59629e	0.21229026
147	0x3dd73a55	0.10509173
148	0x3ea609ee	0.3242945
149	0xbeeacd7f	-0.45859906
150	0xbe902f0c	-0.28160894
151	0xbf1a952e	-0.6038388
152	0x3e6cca6a	0.2312409
153	0xbedea168	-0.43482518
154	0xbc6e7d51	-0.014556245
155	0x3dfa34b7	0.12217086
156	0x3eafd791	0.34344152
157	0x3d90ab9e	0.070639834
158	0xbea9c440	-0.3315754
159	0xbf260831	-0.6485625
160	0xbe6a1bf5	-0.22862227
161	0xbd8c186c	-0.068405956
162	0xbe3ef3bc	-0.18647665
163	0xbebfe125	-0.3747646
164	0xbe38419b	-0.17993777
165	0xbdeecd8e	-0.116603
166	0xbdabfa39	-0.083973356
167	0xbd0ae37d	-0.033908356
168	0xbf08eaa1	-0.53483015
169	0x3e5ac8f0	0.21365714
170	0x3e204923	0.156529
171	0x3e2981b4	0.16553384
172	0xbd4b2ba0	-0.04960215
173	0x3e3d215b	0.18469755
174	0xbe0bbd90	-0.13646531
175	0xbe5618d4	-0.20907909
176	0xbdf4f41c	-0.11960623
177	0xbdaffa5e	-0.085926756
178	0x3e2caae2	0.16862062
179	0x3cc1681e	0.023609217
180	0x3ea9b39a	0.33144838
181	0x3e3e436b	0.18580405
182	0xbe24b6ef	-0.16085409
183	0x3e94868e	0.29008907
184	0xbe8d2b93	-0.27572307
185	0xbc23c2c4	-0.009995166
186	0xbdbcc060	-0.0921638
187	0x3e6a48ae	0.22879288
188	0x3ca5bcca	0.020231623
189	0xbdb4e1dd	-0.088321425
190	0xbd083868	-0.03325692
191	0x3cd71b43	0.026258117
192	0x3e862917	0.26203224
193	0xbedd66d6	-0.4324252
194	0x3ebcfc59	0.36911276
195	0x3f14a725	0.5806754
196	0xbafb62e5	-0.0019179253
197	0xbe793722	-0.24337438
198	0x3e758874	0.23977834
199	0x3eb76b1b	0.35823902
200	0xbef3ef6b	-0.476436
201	0x3cbf3f96	0.02334575
202	0xbe57e480	-0.2108326
203	0xbe7ba4c5	-0.24574573
204	0x3ed4c2a9	0.41554764
205	0x3ed6441f	0.41848847
206	0xbe012f54	-0.1261571
207	0xbb0e2695	-0.0021690477
208	0xbe8e1a08	-0.27754235
209	0xbee74a0a	-0.45173675
210	0x3e245947	0.16049682
211	0xbe174bbd	-0.14774986
212	0xbc549e05	-0.012977128
213	0x3f1f2454	0.6216481
214	0x3e8d398e	0.27582973
215	0xbe4addd4	-0.19811183
216	0x3dfadd0c	0.122491926
217	0xbe4bb61b	-0.19893686
218	0x3e20eb3c	0.15714735
219	0xbe9c21a2	-0.3049441
220	0x3ebd849f	0.37015244
221	0xbea8ab50	-0.329432
222	0xbe26ae3b	-0.16277401
223	0x3e1688c3	0.14700608
224	0xbdcc041b	-0.099617206
225	0xbec44197	-0.3833129
226	0x3eea3ecc	0.45751035
227	0xbe6edc58	-0.23326242
228	0x3d70b3a1	0.058765057
229	0x3f00be06	0.5028995
230	0xbe0ae9ab	-0.135657
231	0x3c230a19	0.009951138
232	0x3e8a5587	0.27018377
233	0x3ea185c3	0.31547365
234	0x3e762783	0.2403851
235	0x3d04a735	0.032386024
236	0xbd201b9c	-0.03908883
237	0xbe898ba2	-0.26864344
238	0xbe3eee2d	-0.18645544
239	0x3e323e12	0.1740649
240	0xbce06449	-0.02739157
241	0x3c6ea176	0.0145648625
242	0x3d567e89	0.052366767
243	0xbe5f4551	-0.21803786
244	0x3e094916	0.13406786
245	0x3e82ee58	0.25572467
246	0x3e848492	0.25882393
247	0x3e932472	0.28738743
248	0xbd4e347e	-0.05034303
249	0xbe1e3016	-0.15448031
250	0xbdd577fd	-0.104232766
251	0x3eb2eef7	0.3494794
252	0xbe583092	-0.21112278
253	0xbcf1aaff	-0.029500483
254	0x3d9e1c55	0.07720248
255	0xbecbdf7a	-0.39818937

network_body._body_endoder.seq_layers.0.bias f4 [128]
0	0xbc168fa4	-0.00918952
1	0x3cae603d	0.021286124
2	0x3cefea72	0.029286597
3	0x3b50c039	0.0031852855
4	0xbc562e31	-0.013072536
5	0x3c9e042e	0.019289102
6	0xbca45af9	-0.02006291
7	0x3b6a9ac0	0.0035797805
8	0x3c8e0e4b	0.0173408
9	0x3c698027	0.014251745
10	0xbcb95d90	-0.022627622
11	0xbc2a832d	-0.010407251
12	0xbc02c078	-0.007980458
13	0x3cf82efb	0.03029584
14	0xbc89560e	-0.016764667
15	0x3be7da0e	0.0070755547
16	0xbb8086bd	-0.003922312
17	0xbbaecedf	-0.0053347195
18	0x3c2337d3	0.00996204
19	0x3c9c62cb	0.019090077
20	0x3b4f03a1	0.0031587856
21	0x3c440d6f	0.011966093
22	0xbc582be7	-0.013194061
23	0xb9958730	-0.00028520217
24	0xbc598a9d	-0.013277677
25	0x3d0d1498	0.034443468
26	0x3c3fe939	0.011713319
27	0x3c5db441	0.013531745
28	0x3b31a9ec	0.0027109338
29	0xbbb3f6cd	-0.0054920674
30	0x3c4acc92	0.012377875
31	0xbc3fcd04	-0.011706594
32	0x3c11d41d	0.008900669
33	0xbbb09f7f	-0.005390107
34	0xbb8dd46e	-0.004328302
35	0x3c39ca15	0.011339684
36	0x3c94b5de	0.018153127
37	0x3c850345	0.01623691
38	0x3c820fd7	0.015876694
39	0xba668531	-0.0008793651
40	0x3b84429a	0.00403626
41	0x3bcc0fe1	0.006227479
42	0xb9b1f324	-0.00033941225
43	0x3cf35974	0.02970574
44	0x3c7831b3	0.015148568
45	0x3c78224e	0.015144898
46	0x3c1d734f	0.009610011
47	0xbb95330f	-0.004553206
48	0x3bad4879	0.0052881804
49	0x3b9691c6	0.0045950143
50	0x3c013a97	0.007887504
51	0x3ca24a0d	0.0198107
52	0x3c957a05	0.01824666
53	0x3c89d821	0.016826691
54	0x3cbd838c	0.023134016
55	0x3c39394d	0.0113051655
56	0x3a9bf24a	0.0011897769
57	0x3c5a8025	0.013336216
58	0x3c27c25b	0.010239209
59	0x3bf07097	0.0073376405
60	0x399e9060	0.00030243676
61	0x3caa7a9e	0.020810422
62	0x3b92b526	0.004477161
63	0xbc49ad24	-0.012309346
64	0x3c2801d3	0.010254341
65	0xbcb80c7c	-0.02246689
66	0xbc2d62bc	-0.010582622
67	0x3b08adb5	0.002085549
68	0xbb155b2d	-0.002278994
69	0x3b2ef332	0.0026695249
70	0x3c552516	0.01300933
71	0x3c97677f	0.018481968
72	0xbbf7ad07	-0.0075584683
73	0xbc13cd17	-0.009021065
74	0xbc97b10a	-0.018517036
75	0xbae3ab67	-0.0017369807
76	0x3ca5530e	0.020181205
77	0x3b9d93c5	0.0048088753
78	0x3b0d7f93	0.0021590933
79	0x3a480f46	0.00076316705
80	0xbc482198	-0.012215041
81	0xbcb3eea0	-0.021964371
82	0x3bf3d9b0	0.007441722
83	0x3c51a3b9	0.012795382
84	0x3bd2713a	0.006422189
85	0xba3940ff	-0.0007066875
86	0x3c71f3de	0.014767615
87	0x3a82ab00	0.0009969175
88	0xbc4097f5	-0.011754979
89	0x3b509c8c	0.003183159
90	0xba6eb638	-0.0009106132
91	0x3c1774d3	0.009244162
92	0x3c91f0dc	0.017815046
93	0x3c80ffe5	0.01574702
94	0x3caa71ce	0.02080622
95	0xbb757990	-0.003745649
96	0x3be572a2	0.0070021907
97	0x3c9357cd	0.017986203
98	0xbc9f4c37	-0.019445522
99	0xbc31f848	-0.0108624175
100	0x3d1b9c3e	0.0379908
101	0xbc65d3cc	-0.014027547
102	0x3c195884	0.009359483
103	0x3bc928e5	0.006138908
104	0xbb880a62	-0.0041516284
105	0x3caf8437	0.02142535
106	0x3c096772	0.00838648
107	0xbc1bc96c	-0.009508472
108	0x3cbe9bd0	0.023267657
109	0x3b938984	0.004502477
110	0xbb8e76c7	-0.0043476555
111	0x3cae4878	0.02127479
112	0x3bcc29fc	0.006230591
113	0xbc2d4599	-0.010575675
114	0x3b3f79e9	0.0029216951
115	0x3c3a37fd	0.011365888
116	0x3c051e26	0.008124864
117	0x3b6479fc	0.0034862747
118	0x3c897f4e	0.016784336
119	0xbbc187de	-0.005906089
120	0x3ac43284	0.0014968668
121	0x3d177cd7	0.03698429
122	0xbbeba957	-0.0071918177
123	0xbbbba1cb	-0.0057260743
124	0xbbc90195	-0.006134222
125	0x3b67aebe	0.0035351957
126	0x3b98a091	0.004657813
127	0xbbd0bcea	-0.0063701766

network_body._body_endoder.seq_layers.2.weight f4 [128, 128]
0	0x3dd91a98	0.106007755
1	0xbe13d440	-0.14436436
2	0xbdc2a2ca	-0.09503706
3	0xbd930af2	-0.07179822
4	0xbd73a6fd	-0.059485424
5	0xbe2c1123	-0.16803412
6	0xbd0695e5	-0.032857794
7	0xbd87ed52	-0.06637062
8	0xbda3aeac	-0.079923004
9	0xbca73fd0	-0.02041617
10	0xbe247def	-0.16063665
11	0x3d9440ce	0.07238923
12	0x3cbb6ebf	0.022879956
13	0x3ceee250	0.029160649
14	0xbd20df0b	-0.03927521
15	0x3defde58	0.117123306
16	0xbdf3a111	-0.11895955
17	0x3a48e5e3	0.00076636503
18	0xbda2faae	-0.079579696
19	0xbd0fd954	-0.03511937
20	0xbe3f309c	-0.18670887
21	0x3daf543b	0.085609876
22	0xbd5c2cc6	-0.053753637
23	0xbe1fdf66	-0.15612563
24	0xbd90f3df	-0.07077765
25	0x3e1885e4	0.14894825
26	0x3dad8110	0.08471882
27	0x3d702cd2	0.058636494
28	0xbd6db713	-0.05803592
29	0x3cc9088a	0.024540205
30	0x3c8999ed	0.01679703
31	0x3d6ac557	0.057317104
32	0x3d8367b1	0.06416262
33	0x3da45a82	0.080250755
34	0x3e00e629	0.12587799
35	0x3d27118f	0.04078823
36	0xbdd12937	-0.10212939
37	0xbe8d5679	-0.27605036
38	0x3d98e7ed	0.07466111
39	0x3db88cd4	0.09011236
40	0x3e02b32f	0.12763666
41	0x3e10fa1a	0.14157906
42	0xbcde391c	-0.027126841
43	0x3ddadab7	0.10686248
44	0x3c2448b5	0.0100271
45	0x3cac7ebe	0.02105653
46	0xbac56a67	-0.0015061618
47	0x3e0bf91f	0.13669251
48	0x3cddc4ba	0.027071346
49	0x3e3b949b	0.18318407
50	0x3e202f95	0.15643151
51	0x3e0972da	0.13422719
52	0xbe34ea1a	-0.17667428
53	0x3dd4a571	0.10383118
54	0xbde4d40b	-0.111732565
55	0xbd0b3cc5	-0.0339935
56	0xbe0e9251	-0.13923003
57	0x3da33d73	0.07970705
58	0x3d0ef663	0.03490294
59	0x3dc7948d	0.09745131
60	0x3e05d8b6	0.1307095
61	0x3e76a1c5	0.24085148
62	0xbddd5393	-0.10806956
63	0xbda9512d	-0.08267436
64	0x3e404830	0.18777537
65	0x3d87d941	0.06633235
66	0xbcbd6314	-0.023118533
67	0xbdd4f854	-0.10398927
68	0x3dbe8525	0.09302739
69	0xbdb8950a	-0.09012802
70	0x3cb3d832	0.021953676
71	0xbda7d69f	-0.081952326
72	0xbce9acb8	-0.028524742
73	0xbde55cae	-0.11199318
74	0x3d4eee1c	0.050520048
75	0xbda9bbdf	-0.08287787
76	0x3db534ba	0.088479474
77	0x3def04b0	0.11670816
78	0xbc4c692b	-0.012476246
79	0xbcf3a6cf	-0.029742626
80	0x3dea955e	0.11454271
81	0xbc0d484c	-0.008623194
82	0xbd21886e	-0.03943675
83	0x3ded7d88	0.11596209
84	0x3debb151	0.1150843
85	0x3c22b276	0.009930244
86	0x3d67e43f	0.056614157
87	0x3de19094	0.11013904
88	0x3b98c319	0.0046619293
89	0x3d94577c	0.07243249
90	0x3d6a6c89	0.057232413
91	0x3c3e3421	0.011609108
92	0x3dc0c8a2	0.09413268
93	0x3cb4ac04	0.02205468
94	0xbd80cd55	-0.06289164
95	0xbab26b82	-0.0013612362
96	0x3ce1be4c	0.027556561
97	0xbda545e4	-0.08069971
98	0x3d821087	0.063508086
99	0xbdcefb88	-0.101065695
100	0x3e1b37c4	0.15157992
101	0x3ce44135	0.027863124
102	0xbda2649b	-0.07929345
103	0xbca42e1b	-0.020041516
104	0xbc8aad0e	-0.016928222
105	0xbcb02fac	-0.021507107
106	0x3e6a8c46	0.22905073
107	0xbd6634e7	-0.056202795
108	0x3bc0cc2f	0.0058837156
109	0xbdd511a1	-0.10403753
110	0x3cbf5420	0.023355544
111	0x3c8860ee	0.016647782
112	0x3e1d3a2d	0.15354224
113	0xbd5f3f05	-0.05450346
114	0xbe00027a	-0.12500945
115	0x3dabdc26	0.08391599
116	0x3d033320	0.03203118
117	0xbe4c0cf7	-0.1992682
118	0xbe38b2d0	-0.18036962
119	0x3de5274a	0.111891344
120	0x3d04651d	0.03232299
121	0x3d455281	0.048174385
122	0xb8ed0fb0	-0.00011303963
123	0x3d593143	0.053025495
124	0xbd8498f1	-0.06474484
125	0xbc5420c7	-0.012947268
126	0x3d702cd1	0.05863649
127	0x3db38ba2	0.08766867
128	0x3da74764	0.081679136
129	0xbcdaebca	-0.026723761
130	0xbc0e930d	-0.008702052
131	0x3dd0cc61	0.10195232
132	0xbdae3059	-0.08505315
133	0x3d26fe39	0.04076979
134	0x3c89a1f9	0.016800867
135	0xbd67e2d7	-0.056612816
136	0x3d8eeab9	0.069783635
137	0xbced7cdd	-0.028990204
138	0x3cbb12ce	0.022836115
139	0x3cb71299	0.022347735
140	0x3e085421	0.13313343
141	0xbdb35f63	-0.08758428
142	0x3c96b5c0	0.018397212
143	0xbd862dc8	-0.06551701
144	0xbd542d6e	-0.051801138
145	0x3d9780c3	0.07397606
146	0xbdf651e3	-0.120273374
147	0x3ddbb82c	0.10728487
148	0x3e3bc41c	0.18336529
149	0xbdd34114	-0.10315147
150	0xbcb23c29	-0.021757202
151	0xbe343369	-0.17597736
152	0x3d6c355d	0.05766808
153	0xbd09d7ae	-0.033652954
154	0x3da0ba39	0.07848019
155	0xbd2fc684	-0.04291393
156	0x3d5e965b	0.05434261
157	0xbd2e7c79	-0.042599175
158	0x3e11cb7c	0.1423778
159	0xbc9315cd	-0.017954731
160	0x3e0390f5	0.12848265
161	0x3d459fae	0.048247986
162	0x3d410e9f	0.047133084
163	0x3e22af2e	0.15887138
164	0x3d76214b	0.060090344
165	0xbd808fd9	-0.06277437
166	0xbbd30fb9	-0.0064410833
167	0x3e1e6a6d	0.15470286
168	0xbdd8e9e9	-0.1059149
169	0xbc891ccc	-0.016737364
170	0x3db2151d	0.08695433
171	0x3c575da2	0.013144882
172	0xbdc25c50	-0.094902635
173	0x3db39e0d	0.0877038
174	0xbc8e947e	-0.017404791
175	0x3d001e83	0.0312791
176	0x3df00893	0.117203854
177	0x3d8b0147	0.06787353
178	0x39aed296	0.00033344765
179	0xbdcf02be	-0.10107945
180	0xbd1a4528	-0.03766361
181	0xbcfe99af	-0.031079141
182	0xbafd9e85	-0.0019349611
183	0xbbcaba1d	-0.006186737
184	0x3c6ba3ea	0.014382342
185	0xbc3233f4	-0.010876644
186	0xbc0bd056	-0.008533558
187	0xbbdc9ce0	-0.006732568
188	0x3da16863	0.07881238
189	0x3cba51c1	0.022744061
190	0x3aead288	0.0017915526
191	0xbdb38e51	-0.08767379
192	0x3d9276a2	0.07151534
193	0xbd21ffa2	-0.03955043
194	0xbc37c51f	-0.011216431
195	0x3d15b200	0.036546707
196	0x3d92d3d0	0.07169306
197	0x3dd46095	0.10369984
198	0x3df86573	0.12128725
199	0xbd8e0526	-0.06934576
200	0xbbb78648	-0.0056007244
201	0x3daa7ec1	0.08324958
202	0xbc656bd2	-0.014002757
203	0x3e12ffde	0.14355418
204	0xbe3b04b7	-0.18263517
205	0x3ddd1f5d	0.10796998
206	0x3d8eeb19	0.06978435
207	0x3d50ac1d	0.05094539
208	0x3e763e0e	0.2404711
209	0x3e003e8e	0.12523863
210	0x3d77e15f	0.060517665
211	0xbe135d4b	-0.14391057
212	0xbd945b00	-0.072439194
213	0x3d528e44	0.051405206
214	0xbdebc32c	-0.115118355
215	0xbd7ce945	-0.0617459
216	0xbda0732c	-0.07834467
217	0xbc1368be	-0.00899714
218	0xbc858fab	-0.016303858
219	0x3e1cef39	0.15325631
220	0x3e5bcf8d	0.21465893
221	0x3c98035e	0.018556293
222	0xbde3a718	-0.11115855
223	0xbe86aab7	-0.2630212
224	0x3dbc7956	0.092028305
225	0x3c8b469f	0.017001448
226	0xbd57c4cd	-0.05267792
227	0xbd846ded	-0.06466279
228	0xbda44716	-0.08021371
229	0x3e0a7ca6	0.13524112
230	0x3c95a222	0.018265788
231	0xbe0b4086	-0.13598832
232	0x3b7cb30f	0.0038558876
233	0xbdddede5	-0.108363904
234	0x3c95a72a	0.018268187
235	0xbd697b2e	-0.05700224
236	0xbdbcd30e	-0.09219943
237	0xbe0e560d	-0.13900013
238	0x3a52d168	0.0008042068
239	0x3d3d9449	0.046283994
240	0xbcee0b78	-0.029058203
241	0xbdd400ef	-0.103517406
242	0x3e467b20	0.19382906
243	0xbdb58f01	-0.088651665
244	0x3d23b076	0.03996321
245	0x3dc977ee	0.09837328
246	0xbdd627ee	-0.10456835
247	0x3d13a18b	0.03604273
248	0x3de05a99	0.1095478
249	0xbccfe9fe	-0.02538013
250	0x3e80513f	0.25061986
251	0x3dacb4b0	0.08432901
252	0x3c36bc98	0.011153363
253	0xbcc1b6eb	-0.023646792
254	0xbe02c51f	-0.12770508
255	0x3c14dd55	0.009085973

network_body._body_endoder.seq_layers.2.bias f4 [128]
0	0x3c17e8ca	0.00927181
1	0xbb2bf417	-0.0026238018
2	0xbc063a67	-0.008192635
3	0xbc3d7c3f	-0.011565267
4	0x398da23a	0.00027014484
5	0x3c8d9cea	0.017286737
6	0x3cb80957	0.022465391
7	0x3c151d22	0.009101184
8	0xbc7b7ff5	-0.015350332
9	0x3c9b9a91	0.018994601
10	0xbbff1341	-0.0077842777
11	0x3ccb35c7	0.024805916
12	0xbc71c95d	-0.014757481
13	0xbc1a99b9	-0.009436064
14	0x3be7aa2a	0.0070698457
15	0x3c0bcf90	0.0085333735
16	0x3b845963	0.004038976
17	0x3c319cdf	0.010840624
18	0x3be4afb1	0.006978952
19	0x3c2dc9c4	0.010607187
20	0x3bb747e9	0.005593289
21	0xbac24e89	-0.0014824431
22	0x3ce25e7d	0.027632946
23	0x3c77c37f	0.0151222935
24	0x3c87fdd9	0.016600536
25	0xbc25b619	-0.010114216
26	0x3bd42dc6	0.006475183
27	0x3cbd50a3	0.02310974
28	0x3bc3e1bc	0.0059778374
29	0x3c2673c7	0.010159439
30	0x3c4a2609	0.01233817
31	0x3b38dc9a	0.002820766
32	0x3c87e010	0.016586334
33	0xbb7a37f5	-0.0038180326
34	0xbc174d65	-0.009234761
35	0xbc07aadb	-0.008280481
36	0xbc179722	-0.009252341
37	0x3b9cecf1	0.004788988
38	0xbc33d29b	-0.010975505
39	0x3c1dda8a	0.009634623
40	0xbba81326	-0.005129236
41	0x3b894e8a	0.004190271
42	0x3d07aa76	0.03312155
43	0x3c0e593b	0.008688266
44	0xbbed2f4d	-0.0072383047
45	0x3c70f688	0.014707215
46	0xbbc80eea	-0.0061052935
47	0x3c8522db	0.016251972
48	0x3cd5f56a	0.026118
49	0xbb3d2317	-0.0028860027
50	0x3c6de5a6	0.0145200845
51	0xbd0cd033	-0.03437824
52	0x3ca239de	0.019802984
53	0x3c4ad7f9	0.012380593
54	0x3c194ef3	0.009357202
55	0x3c62d972	0.013845788
56	0x3ca34473	0.0199301
57	0xbb4b1b7c	-0.0030991724
58	0xbba400bb	-0.00500497
59	0x3cb516a3	0.02210552
60	0x3c0dc244	0.008652274
61	0x3bc0f17c	0.005888162
62	0x3c31f213	0.010860938
63	0x3beafbe9	0.0071711433
64	0x3cc08792	0.023502145
65	0x3bd6182d	0.0065336437
66	0x3c20cacf	0.009813978
67	0xba48ddf5	-0.00076624687
68	0x3cf48eb6	0.029853206
69	0xbc147cd3	-0.009062964
70	0xbba94752	-0.0051659727
71	0xbc41a31c	-0.011818673
72	0xbcde8c8c	-0.027166627
73	0x3afc36c2	0.0019242393
74	0x3ceedaae	0.029157009
75	0x3cbc2e16	0.022971194
76	0xbc0c4bac	-0.008562963
77	0xbc49f8d4	-0.012327392
78	0xbbf032fe	-0.0073302975
79	0xbaba46fc	-0.0014211829
80	0x3bcbebe7	0.00622319
81	0xba9aace1	-0.001180079
82	0xbadd9c0d	-0.0016907469
83	0x3c2c4211	0.010513798
84	0xbc0327bd	-0.00800508
85	0xbc0dfce8	-0.008666255
86	0x3c664dfc	0.014056679
87	0x3c4ea202	0.012611868
88	0xbc30f57a	-0.010800714
89	0x3cad7c55	0.02117745
90	0xbb620d64	-0.0034492845
91	0xbb9c7ebc	-0.00477585
92	0xbb861de2	-0.004092918
93	0x3ab30255	0.0013657311
94	0x3c0156cb	0.007894228
95	0x3c64efb8	0.013973169
96	0x3b3b3b5b	0.0028569314
97	0x3c0bcfcd	0.00853343
98	0x3cae685d	0.021289999
99	0xbbee90ae	-0.0072804308
100	0x3cab92f8	0.020944104
101	0x3bb692d2	0.0055717016
102	0xbb65f533	-0.0035088777
103	0x3c0b4965	0.008501385
104	0xbc00bab4	-0.0078570135
105	0xbc430ea5	-0.011905347
106	0xbc3c312b	-0.011486332
107	0x3ae04b8e	0.0017112361
108	0x3c3b2e77	0.011424652
109	0x3cf54057	0.029937906
110	0x3c49dd96	0.012320897
111	0x3cbdf2b8	0.023187026
112	0xbcb181f3	-0.02166841
113	0xbbbf5ab2	-0.005839669
114	0x3bc67733	0.00605669
115	0x3b7c29fc	0.0038477173
116	0xbb7a4ef2	-0.0038194028
117	0xbbd5e9ad	-0.0065281005
118	0x3ba00462	0.004883335
119	0xbc701604	-0.014653686
120	0x3c53f703	0.01293731
121	0xbc22f817	-0.009946845
122	0x3c72c8fa	0.014818424
123	0xbb92fcb9	-0.0044856933
124	0xbc42aff7	-0.011882774
125	0x3c3c9698	0.011510514
126	0xbb826b66	-0.003980088
127	0xbc17555d	-0.009236661

action_model._continuous_distribution.log_sigma f4 [1, 2]
0	0xbdd1354b	-0.10215243
1	0xbd0bcc74	-0.03413053

action_model._continuous_distribution.mu.weight f4 [2, 128]
0	0xbd124c5a	-0.035717346
1	0x3ce64f4d	0.028113985
2	0x3d09abbe	0.03361105
3	0x3ba70e30	0.005098127
4	0x3cd1ec50	0.025625378
5	0xbcba9525	-0.022776196
6	0xbd36eb3a	-0.044657923
7	0xbd15a3f8	-0.036533326
8	0x3c7d2a5f	0.015451997
9	0x3d0683bd	0.03284048
10	0x3d6c8f4a	0.05775384
11	0xbce51042	-0.027961854
12	0x3bd5e967	0.006528068
13	0xbbf6e1db	-0.0075342483
14	0x3c61abe4	0.013773892
15	0xbcdb79a4	-0.026791401
16	0xba695ffa	-0.0008902546
17	0xbcf229f4	-0.02956102
18	0x3cb06104	0.021530636
19	0x3d2beb75	0.041972596
20	0x3a8f22b1	0.0010920373
21	0x3bcc82d8	0.0062411837
22	0x3d1a9c37	0.037746634
23	0x3d13d568	0.036092192
24	0xbb776059	-0.0037746637
25	0x3c7a1172	0.015262948
26	0x3bafd81d	0.005366339
27	0x3d0c45ca	0.034246244
28	0xbced3e01	-0.02896023
29	0x3c175ce6	0.009238457
30	0xbca8d412	-0.020608936
31	0x3b6c3407	0.0036041753
32	0xbc9fb2e9	-0.01949449
33	0xbb98e951	-0.0046664854
34	0x3c8bc732	0.017062757
35	0xbc2a53bc	-0.01039594
36	0x3d91b5ba	0.0711474
37	0x3c80c123	0.015717095
38	0x3d098829	0.033577118
39	0xbc5e0e8e	-0.013553275
40	0x3cda7e93	0.026671683
41	0xbc9f0313	-0.019410646
42	0xbd34ec6d	-0.044170786
43	0x3cfd586d	0.030925954
44	0xbb5faa6d	-0.0034128681
45	0xbc930194	-0.017945088
46	0x3d42e53d	0.0475819
47	0xbc006497	-0.0078364825
48	0x3ce90454	0.028444447
49	0xbc8d43ae	-0.017244186
50	0x3cc85dc9	0.024458783
51	0x3b50a0de	0.0031834166
52	0xbbdad7e4	-0.006678568
53	0xbcf7402f	-0.030181972
54	0xbc1f8c43	-0.009738031
55	0xbc254c88	-0.010089047
56	0xbbbb9e0a	-0.005725627
57	0xbbd9b429	-0.006643791
58	0x3b98e22c	0.0046656337
59	0x3c16484c	0.00917251
60	0x3b29e074	0.0025921138
61	0xbcb0cb39	-0.02158128
62	0xbca7c09e	-0.02047759
63	0xbb66fd8a	-0.0035246336
64	0x3d1b44f7	0.037907567
65	0xbbdae600	-0.00668025
66	0x3c245c82	0.010031821
67	0xbc37db8b	-0.011221777
68	0xbcbd72c0	-0.023126006
69	0x3d2c1b0f	0.042017993
70	0x3bef7949	0.0073081595
71	0x3c6c1c4c	0.014411043
72	0x3bb3c602	0.005486251
73	0xbc097aa9	-0.008391061
74	0xbcd14cce	-0.025549319
75	0xbcc9bf55	-0.024627367
76	0xbb2acbd0	-0.0026061423
77	0xbba257ea	-0.004954328
78	0x3ab5aba8	0.0013860362
79	0x3b01b23f	0.001979008
80	0xbc001959	-0.007818543
81	0xbc568742	-0.013093771
82	0x3cee4042	0.029083375
83	0xbc49ebe3	-0.012324306
84	0x3d1bf48d	0.03807502
85	0x3b638a72	0.003471997
86	0x3c73af2e	0.014873309
87	0xbd018307	-0.031619098
88	0x3d153ed5	0.036436874
89	0xbd364b18	-0.04450521
90	0xbc8e2aa9	-0.017354326
91	0x3be98276	0.007126148
92	0x3d092297	0.033480253
93	0x3ce02cb1	0.02736506
94	0xbc8354d7	-0.016031666
95	0xbd348f2c	-0.04408185
96	0x3ce1e88c	0.027576707
97	0xbd06df2e	-0.032927684
98	0x3ca2157a	0.019785631
99	0x3cbe7570	0.023249358
100	0xbd0d7100	-0.034531593
101	0xbb818a1f	-0.003953233
102	0x3d7468f9	0.059670422
103	0xbcc11a8d	-0.02357223
104	0xbc3daafe	-0.011576412
105	0x3d1f17e9	0.038841162
106	0x3cd6a1aa	0.026200134
107	0x3d08c380	0.03338957
108	0xbd0c749b	-0.03429089
109	0xbd9478e0	-0.072496176
110	0xbc956352	-0.018235836
111	0xbcc2dbeb	-0.023786506
112	0x3c7a2e65	0.01526985
113	0x3b1fe013	0.0024395033
114	0xbba488ca	-0.0050211893
115	0xbc1a86c0	-0.009431541
116	0xbbaf60f3	-0.0053521334
117	0xbba1351f	-0.0049196626
118	0xbcda4c6c	-0.026647769
119	0x3cd28e54	0.025702633
120	0xbca16882	-0.019703154
121	0x3c0bd98e	0.008535756
122	0x3c77d388	0.015126117
123	0x3ce5cb57	0.028051062
124	0x3c58e76c	0.013238769
125	0x3d45a924	0.04825701
126	0xbd050bcf	-0.032481965
127	0x3c5a5d9d	0.013327983
128	0x3c052b6a	0.0081280265
129	0x3b101b88	0.0021989066
130	0xbcd5d2ec	-0.026101552
131	0xbcf9d8df	-0.03049892
132	0x3be08600	0.0068519115
133	0x3c9c81bd	0.019104833
134	0xbc8b9a38	-0.01704131
135	0xbd03424c	-0.032045648
136	0x3c3ee8ea	0.011652211
137	0x3d03a25b	0.032137256
138	0xbcb480f7	-0.022034151
139	0x3c4f6928	0.012659349
140	0xbd004230	-0.03131312
141	0xbcc5228a	-0.024064321
142	0x3c2325a3	0.009957704
143	0x3d271f2b	0.04080121
144	0xbcaec39a	-0.021333504
145	0xbcd70734	-0.026248552
146	0x3c7dfcdd	0.015502182
147	0x3d0e2f3b	0.03471301
148	0x3c3bab67	0.01145444
149	0xbcec35f3	-0.028834319
150	0x3cc5c808	0.024143234
151	0x3d1c97b4	0.038230613
152	0x3d07c042	0.033142336
153	0xbcf16d38	-0.029471025
154	0x3c7cd5d5	0.015431841
155	0x3c7f1b6c	0.015570503
156	0xbd4e1dca	-0.050321378
157	0x3c4ee648	0.0126281455
158	0x3cb49dc8	0.022047892
159	0x3d2077e5	0.03917684
160	0x3c93a593	0.018023288
161	0xbd0ae1d5	-0.033906776
162	0xbc9e66d3	-0.01933614
163	0xbce6b3ac	-0.028161846
164	0xbbaaeebd	-0.005216448
165	0x3c0c7c5e	0.008574573
166	0xbce33654	-0.027735867
167	0xbc6a5732	-0.014303016
168	0x3c450434	0.012024928
169	0xbc99522b	-0.018715939
170	0xbcd48353	-0.025941527
171	0x3cab65f7	0.020922644
172	0xbc259b60	-0.010107845
173	0xbc9c5b58	-0.019086525
174	0xbc88df6f	-0.016708104
175	0x3d094f6d	0.033523012
176	0x3cad5a88	0.021161333
177	0xbcb7254f	-0.022356657
178	0x3cda0f74	0.026618697
179	0x3bda44e2	0.0066610435
180	0x3bf45a8d	0.0074570836
181	0x3cbfd17c	0.02341532
182	0x3bb58b38	0.005540278
183	0x3d46f24d	0.04857092
184	0xbd471195	-0.048600752
185	0xbb90025b	-0.004394812
186	0xbcc1b9d3	-0.023648178
187	0x3d01aee3	0.031660926
188	0x3c6bbb4a	0.014387915
189	0xbcefb2a2	-0.029259983
190	0x3c9a619e	0.018845376
191	0x3ccdcd17	0.025122209
192	0x3d0a05b0	0.03369683
193	0x3d1020e8	0.03518763
194	0x3cbf85e0	0.023379266
195	0xbbd090af	-0.006364904
196	0xbc997fd8	-0.018737718
197	0xbc6a5210	-0.014301792
198	0xbc311a10	-0.010809436
199	0xbcc42d70	-0.023947448
200	0xbbeded5a	-0.0072609605
201	0x3c1f981b	0.009740855
202	0x3c69697e	0.014246343
203	0x3c49ae62	0.0123096425
204	0x3c501007	0.012699134
205	0xba8bee96	-0.0010675963
206	0xbd1a5d8a	-0.037686862
207	0x3cad5eda	0.021163393
208	0xba035061	-0.0005009231
209	0xbb94ed11	-0.004544862
210	0x3c2ff1f3	0.0107388375
211	0x3d6298ec	0.05532162
212	0x3c2de8f6	0.010614624
213	0xbc543f28	-0.012954511
214	0x3c80b402	0.015710834
215	0x3b9e89cb	0.0048382035
216	0xbced74c2	-0.028986339
217	0xbd3486d5	-0.0440739
218	0xbca5bf51	-0.020232828
219	0xbc173da5	-0.009231006
220	0x3b1c9ef5	0.0023898457
221	0x3b840632	0.004029059
222	0x3cba3868	0.022731975
223	0xbc827c25	-0.015928337
224	0x3c4817dc	0.01221272
225	0xbb87c0bd	-0.0041428492
226	0x3d26a910	0.040688574
227	0xbcbefbd4	-0.02331344
228	0x3c76d695	0.015065809
229	0xbb939d86	-0.0045048622
230	0x3c88eba7	0.01671393
231	0xbbdd5966	-0.006755042
232	0xbcb6d81f	-0.022319851
233	0x3c52b662	0.012860866
234	0xbbee8f38	-0.0072802566
235	0x3b685d11	0.0035455863
236	0x3c848376	0.016175967
237	0xbd110fe0	-0.03541553
238	0x3c33462c	0.010942023
239	0xbc05df40	-0.008170903
240	0xbc2494b5	-0.01004522
241	0xbbc90e2c	-0.0061357226
242	0xbc04fb32	-0.00811653
243	0x3c175a97	0.009237907
244	0xbcb65dc8	-0.022261515
245	0xbd0fe1ee	-0.035127573
246	0xbc1d3c5b	-0.009596909
247	0x3a834df8	0.0010017743
248	0xbcb6b72f	-0.022304146
249	0xbc4f7934	-0.012663174
250	0x3cdf1bce	0.027234938
251	0xbcd950df	-0.02652782
252	0xbcfeac52	-0.031088028
253	0x3d17dcb9	0.037075732
254	0xbbe9d603	-0.007136108
255	0xbd014a4d	-0.031565

action_model._continuous_distribution.mu.bias f4 [2]
0	0xbc4579ca	-0.012052963
1	0x3c0d5da6	0.008628285

exp_avg f4 [128, 15]
0	0x389d905d	7.513233e-05
1	0xb75e7ae9	-1.3260848e-05
2	0x37487c18	1.1949822e-05
3	0x38a29641	7.752749e-05
4	0x350a75f1	5.1580633e-07
5	0xb7ba765f	-2.2228049e-05
6	0x36f95d27	7.4316226e-06
7	0xb3dca550	-1.02746185e-07
8	0x37d5f050	2.5503483e-05
9	0x387dbdad	6.049655e-05
10	0xb93aa66d	-0.0001780034
11	0xb79305df	-1.75265e-05
12	0xb83a5c2f	-4.443171e-05
13	0xb4898539	-2.561517e-07
14	0xb922f98a	-0.00015542484
15	0x38bdb61c	9.046143e-05
16	0xb88b711d	-6.6491055e-05
17	0x39150379	0.00014211041
18	0x38be7fd5	9.0837166e-05
19	0x352f8376	6.538388e-07
20	0xb7d45d44	-2.53158e-05
21	0x38196988	3.6576326e-05
22	0xb3df6ee3	-1.0404417e-07
23	0x390617cd	0.00012788102
24	0xb7e43bc8	-2.7207556e-05
25	0xb9538447	-0.00020171805
26	0x3704983d	7.903259e-06
27	0xb8558512	-5.090709e-05
28	0xb56bf42d	-8.7899645e-07
29	0xb93faf49	-0.00018280478
30	0xb80141a7	-3.081714e-05
31	0xb865b6e3	-5.476818e-05
32	0x3918bd3d	0.00014566346
33	0xb865dac1	-5.4801585e-05
34	0xb5902027	-1.0738194e-06
35	0x3789c4ad	1.6423257e-05
36	0x37fc44e5	3.0072822e-05
37	0x336c5760	5.50275e-08
38	0x38dcc7ae	0.00010527611
39	0xb99baba0	-0.00029691774
40	0x398960ef	0.00026202897
41	0x38b454ad	8.598841e-05
42	0x3808e547	3.2638458e-05
43	0xb41c6487	-1.4565204e-07
44	0x38e5678a	0.000109388566
45	0x3795ed71	1.7872751e-05
46	0xb79b3d56	-1.8506002e-05
47	0x382b2cc4	4.081127e-05
48	0x38091c3c	3.268964e-05
49	0x34b5e832	3.3882822e-07
50	0xb72309b1	-9.717814e-06
51	0x372df29d	1.0368091e-05
52	0x335e37e6	5.1739242e-08
53	0x3814e866	3.5502388e-05
54	0xb8da6529	-0.000104138926
55	0x38d2e0f8	0.00010055484
56	0x37fbe1d8	3.0026698e-05
57	0xb7a2ce63	-1.9408011e-05
58	0x342b0c57	1.5930105e-07
59	0xb888b6a2	-6.519003e-05
60	0xb7cb35e3	-2.4224579e-05
61	0x38141311	3.5303707e-05
62	0xb8aaadbc	-8.138592e-05
63	0xb707ed84	-8.101928e-06
64	0xb4571580	-2.0031257e-07
65	0x360b21a7	2.0732202e-06
66	0xb7a37294	-1.9484469e-05
67	0xb27f2b45	-1.4852792e-08
68	0xb88e4ade	-6.785033e-05
69	0x3815535e	3.560201e-05
70	0x381897f9	3.638116e-05
71	0xb72d56ed	-1.03318425e-05
72	0x368f94f6	4.2790734e-06
73	0x34656095	2.1362423e-07
74	0x378a4886	1.6484653e-05
75	0x38133485	3.5096444e-05
76	0xb8ade157	-8.291256e-05
77	0x394eee5a	0.00019734484
78	0xb69f3a35	-4.7453454e-06
79	0x320a9d86	8.068474e-09
80	0x3616fcff	2.2499005e-06
81	0x383dee89	4.5283265e-05
82	0x3413972e	1.374544e-07
83	0x39273781	0.00015947038
84	0xb921cc61	-0.00015430294
85	0x3759a47d	1.2972506e-05
86	0x383ce431	4.5035213e-05
87	0x3684b0df	3.954497e-06
88	0xb53b5b04	-6.9795374e-07
89	0x370f1cf5	8.530206e-06
90	0x38c52855	9.4012044e-05
91	0x37d4011f	2.5272891e-05
92	0xb8bd15d9	-9.016292e-05
93	0x3823fb61	3.9096343e-05
94	0x3481c105	2.4168563e-07
95	0xb73d6f13	-1.1291139e-05
96	0xb7699e8e	-1.3924799e-05
97	0xb2cdccf6	-2.3958346e-08
98	0xb84bc054	-4.857809e-05
99	0x38634ba7	5.4191474e-05
100	0xb8cf2d69	-9.8789875e-05
101	0xb782f7bc	-1.5612568e-05
102	0xb7bd442f	-2.2562306e-05
103	0xb2c1292d	-2.2486882e-08
104	0xb8a41346	-7.823719e-05
105	0xb6298e75	-2.5265883e-06
106	0x3761eea3	1.3466607e-05
107	0xb80d8fd2	-3.3750963e-05
108	0x3710c17e	8.62812e-06
109	0x34beb525	3.5522058e-07
110	0xb64315bb	-2.9069913e-06
111	0xb6f5b733	-7.322896e-06
112	0x33615f8d	5.2473798e-08
113	0xb7d97865	-2.5924479e-05
114	0x383d57f1	4.5143013e-05
115	0x371691cc	8.974643e-06
116	0xb75b3fdb	-1.3068285e-05
117	0xb6bf8bfc	-5.70854e-06
118	0x3490c532	2.696557e-07
119	0xb78e345b	-1.6952099e-05
120	0x375730d4	1.2826367e-05
121	0xb6fc4155	-7.517791e-06
122	0x3785ad51	1.5935542e-05
123	0x38499089	4.8056743e-05
124	0xb3b3d4ca	-8.374043e-08
125	0xb764541a	-1.360944e-05
126	0x368742a8	4.0310733e-06
127	0x31236cd8	2.3781492e-09
128	0x3772c999	1.4471262e-05
129	0x3745a232	1.1779879e-05
130	0xb8261eec	-3.9606282e-05
131	0xb666bfd4	-3.438433e-06
132	0xb7e4c771	-2.727259e-05
133	0xb46ecab5	-2.2239222e-07
134	0xb8ca00e8	-9.6322794e-05
135	0xb81d5157	-3.750747e-05
136	0xb7acf22a	-2.0616764e-05
137	0x38808a9a	6.129332e-05
138	0xb874c06b	-5.8353336e-05
139	0xb537dc6d	-6.8493574e-07
140	0x378bf37d	1.6683474e-05
141	0x373c6c59	1.12309e-05
142	0x34398303	1.727713e-07
143	0x3826183f	3.9600065e-05
144	0xb98095ed	-0.00024525766
145	0x39a86666	0.0003211975
146	0x3894f56e	7.102905e-05
147	0x380bb90d	3.3312524e-05
148	0x34c28a70	3.6236042e-07
149	0x38f585ae	0.0001170741
150	0xb70bf6d6	-8.342517e-06
151	0x3506a4bf	5.0158627e-07
152	0x35919efd	1.0849614e-06
153	0x36bd0de4	5.634256e-06
154	0xb2b8a3fc	-2.149499e-08
155	0xb5d73eb9	-1.6037003e-06
156	0xb4859847	-2.4883977e-07
157	0xb2052d0d	-7.751862e-09
158	0xb5823359	-9.700699e-07
159	0xb70f1406	-8.528126e-06
160	0x336b351b	5.47635e-08
161	0x36240146	2.4438646e-06
162	0xb656875c	-3.1967274e-06
163	0xb2228c75	-9.461577e-09
164	0xb73d2ef5	-1.1276211e-05
165	0x38af4305	8.3571336e-05
166	0x38026541	3.1088715e-05
167	0xb8d614b5	-0.00010208172
168	0x381104d3	3.4575187e-05
169	0x3468b480	2.1672349e-07
170	0xb7284683	-1.0029998e-05
171	0xb78fb611	-1.713171e-05
172	0xb339d150	-4.3264038e-08
173	0xb87a9949	-5.9747403e-05
174	0x38b9c902	8.858928e-05
175	0xb8f25e17	-0.00011556985
176	0xb7d68e1b	-2.5576961e-05
177	0xb7a7a17e	-1.9983152e-05
178	0x32c0f89d	2.2464798e-08
179	0xb8910d95	-6.916669e-05
180	0x396c75a3	0.00022550537
181	0xb8108322	-3.4454402e-05
182	0x37caa2c9	2.415608e-05
183	0xb7a7f1f3	-2.0020618e-05
184	0xb6016272	-1.92798e-06
185	0x3706d87f	8.037429e-06
186	0x3795c09b	1.7851873e-05
187	0x3329be01	3.9521186e-08
188	0x388b8452	6.652683e-05
189	0xb9ad019f	-0.0003299834
190	0x38c4814c	9.370092e-05
191	0x38c9407e	9.5964395e-05
192	0x37825193	1.5535194e-05
193	0xb5792bdf	-9.282357e-07
194	0x382236b5	3.867476e-05
195	0xb9805795	-0.00024479316
196	0xb89c3d5f	-7.450091e-05
197	0x39860a69	0.00025566228
198	0x36982b96	4.535027e-06
199	0xb4869078	-2.506456e-07
200	0xb60fd373	-2.143174e-06
201	0x382eec65	4.1704992e-05
202	0x33cd20b7	9.552007e-08
203	0x3915e934	0.00014296622
204	0xb9914173	-0.0002770532
205	0x39e90d80	0.0004445128
206	0x38a740b1	7.97523e-05
207	0xb688baf3	-4.0748796e-06
208	0x35228d66	6.0555465e-07
209	0xb70ad581	-8.275151e-06
210	0xb815a439	-3.5677313e-05
211	0xb68a1dc5	-4.116186e-06
212	0x37ae8083	2.080226e-05
213	0x378d6fa2	1.6860493e-05
214	0x33c8622d	9.331084e-08
215	0xb6a9c4b8	-5.0594936e-06
216	0x3626356e	2.4767028e-06
217	0xb390317c	-6.714524e-08
218	0x3703f783	7.865837e-06
219	0xb7ccd1ab	-2.441633e-05
220	0x3793081e	1.7527545e-05
221	0x36e86df9	6.9269413e-06
222	0xb728745b	-1.0040671e-05
223	0x3078b2a0	9.0475716e-10
224	0xb80d2439	-3.3650755e-05
225	0x36e508dc	6.825763e-06
226	0xb81585fc	-3.564915e-05
227	0x38b84f92	8.788625e-05
228	0x3817da36	3.620443e-05
229	0x34ace79b	3.2206012e-07
230	0xb72a3c05	-1.0146764e-05
231	0x37a4bdcb	1.9638703e-05
232	0xb286b033	-1.567978e-08
233	0x388fb9fc	6.853414e-05
234	0xb816cd2b	-3.5953864e-05
235	0xb8872524	-6.4442196e-05
236	0x372ef228	1.042759e-05
237	0xb7abae5b	-2.046598e-05
238	0xb4d0a08c	-3.8859832e-07
239	0xb898cdb4	-7.28624e-05
240	0x3853820f	5.0427447e-05
241	0x36a9da09	5.061975e-06
242	0xb7e1ce50	-2.6918162e-05
243	0xb70f0c2b	-8.526297e-06
244	0xb40d4ccb	-1.3159585e-07
245	0x363989f7	2.7647454e-06
246	0xb648ecc5	-2.994014e-06
247	0x3261e001	1.3147656e-08
248	0xb722485f	-9.672803e-06
249	0xb7901c64	-1.7179358e-05
250	0xb81013dc	-3.435077e-05
251	0x36aba63e	5.1155503e-06
252	0x36b76d3a	5.4665406e-06
253	0xb3afd736	-8.188219e-08
254	0x378da224	1.6884012e-05
255	0xb82aa1da	-4.0681894e-05

exp_avg_sq f4 [128, 15]
0	0x3782521e	1.5535446e-05
1	0x341d0ec0	1.462713e-07
2	0x35ba865c	1.3897184e-06
3	0x34cbaddf	3.7938204e-07
4	0x33b89817	8.595833e-08
5	0x33838875	6.124984e-08
6	0x338fca17	6.695716e-08
7	0x3107afda	1.9745046e-09
8	0x3511534e	5.4137934e-07
9	0x34a3b756	3.049451e-07
10	0x3492b341	2.7325044e-07
11	0x332d56d4	4.035867e-08
12	0x346d44a8	2.2097322e-07
13	0x2f93e1a3	2.689947e-10
14	0x35cd5594	1.5298597e-06
15	0x37b36192	2.1383898e-05
16	0x34cf29f1	3.858727e-07
17	0x35e91c61	1.7368112e-06
18	0x35d5a036	1.5916364e-06
19	0x31fd071b	7.364077e-09
20	0x34867d87	2.5050778e-07
21	0x344364f3	1.8197515e-07
22	0x326d3fe4	1.3809743e-08
23	0x35b0917d	1.3155365e-06
24	0x3544111e	7.30406e-07
25	0x3529e2e8	6.32876e-07
26	0x33f5f197	1.14526465e-07
27	0x35868bc5	1.0024456e-06
28	0x2e000f00	2.9117153e-11
29	0x36d51fa9	6.3515804e-06
30	0x362eb079	2.603074e-06
31	0x33a86a31	7.842426e-08
32	0x35c4128b	1.4608535e-06
33	0x3401ddbd	1.2094729e-07
34	0x30c52800	1.4345005e-09
35	0x32c4d5e8	2.2914676e-08
36	0x32df20c2	2.5975513e-08
37	0x322661ce	9.68471e-09
38	0x3487cf82	2.529669e-07
39	0x34246ec3	1.5313985e-07
40	0x3418550c	1.4187043e-07
41	0x32d3501a	2.4600059e-08
42	0x33983257	7.087208e-08
43	0x2c56c774	3.0521948e-12
44	0x34fe82ff	4.74065e-07
45	0x371f5e63	9.499115e-06
46	0x3426bae4	1.5527945e-07
47	0x35b1f513	1.3258854e-06
48	0x35a6fb5d	1.244112e-06
49	0x3086c30a	9.805217e-10
50	0x34585260	2.0146535e-07
51	0x33a9671f	7.8884334e-08
52	0x302b5a22	6.2337524e-10
53	0x35124e9d	5.4503636e-07
54	0x3498df1f	2.8474548e-07
55	0x34a94a74	3.1532875e-07
56	0x3334e7f7	4.2120487e-08
57	0x35578038	8.0280324e-07
58	0x2ca36836	4.6443084e-12
59	0x36a6f45f	4.975634e-06
60	0x35854e03	9.931977e-07
61	0x3339a429	4.3222972e-08
62	0x3510354f	5.3721755e-07
63	0x3490ab38	2.6946668e-07
64	0x3101b523	1.8874935e-09
65	0x334b7bc7	4.7377196e-08
66	0x32a05a21	1.8667437e-08
67	0x319541dc	4.343958e-09
68	0x3418c501	1.4227773e-07
69	0x338ee7dc	6.654565e-08
70	0x33badc00	8.701318e-08
71	0x325b8110	1.2776823e-08
72	0x343c5b23	1.754202e-07
73	0x2ca2f83c	4.6318765e-12
74	0x35904684	1.0749359e-06
75	0x38383b3e	4.3924192e-05
76	0x353f81a0	7.1341674e-07
77	0x365fc9c0	3.3347023e-06
78	0x362e315a	2.5956747e-06
79	0x33bbdb1f	8.747724e-08
80	0x34debe32	4.1489108e-07
81	0x34b277b1	3.324217e-07
82	0x32a761fc	1.9485917e-08
83	0x362029a3	2.3866094e-06
84	0x35aab2e8	1.2718056e-06
85	0x35a43cdc	1.2236665e-06
86	0x344faa94	1.9340433e-07
87	0x35db018a	1.631722e-06
88	0x2f7de8d5	2.3092935e-10
89	0x372e3dea	1.0385624e-05
90	0x376e49b6	1.4203068e-05
91	0x3453fd0d	1.9742966e-07
92	0x35a7a140	1.24894e-06
93	0x346558a5	2.1359536e-07
94	0x31814e9f	3.7633323e-09
95	0x330f6bb9	3.3392755e-08
96	0x33d50700	9.919859e-08
97	0x318900eb	3.987329e-09
98	0x35362f2d	6.7868933e-07
99	0x34cddbd3	3.834417e-07
100	0x3499b7ab	2.8632107e-07
101	0x338104e4	6.00792e-08
102	0x34087a67	1.2710517e-07
103	0x2d308f5c	1.0036274e-11
104	0x35657e58	8.5493e-07
105	0x3753d54c	1.2626242e-05
106	0x346f94d5	2.2312754e-07
107	0x35c4dcbd	1.4667381e-06
108	0x350c621b	5.2296826e-07
109	0x32ac8218	2.0082595e-08
110	0x33b52386	8.434931e-08
111	0x33e3c0da	1.0605591e-07
112	0x32499977	1.1734634e-08
113	0x35466527	7.3907944e-07
114	0x34e9d5b2	4.3555116e-07
115	0x34b1942d	3.307663e-07
116	0x339c1afd	7.269225e-08
117	0x34a61022	3.0931648e-07
118	0x2e52c2cc	4.7921486e-11
119	0x360bfe1d	2.0860527e-06
120	0x366ccc08	3.5285502e-06
121	0x340fe79c	1.3402172e-07
122	0x35b0ddaf	1.317754e-06
123	0x346afb95	2.1884473e-07
124	0x327565e4	1.4284044e-08
125	0x330444e0	3.0796286e-08
126	0x33909f98	6.7345525e-08
127	0x30d2a301	1.532584e-09
128	0x34f582f5	4.573009e-07
129	0x34834f40	2.4458313e-07
130	0x348038d5	2.388321e-07
131	0x3321c880	3.7668087e-08
132	0x3401af0d	1.2077744e-07
133	0x2e2ab934	3.8818018e-11
134	0x356b6ded	8.7704285e-07
135	0x36a5c6de	4.9405344e-06
136	0x3427c44a	1.5624497e-07
137	0x36324001	2.6561322e-06
138	0x3511bb70	5.4289467e-07
139	0x306ab962	8.539215e-10
140	0x33b89e49	8.5969596e-08
141	0x33771696	5.752971e-08
142	0x31d86923	6.29838e-09
143	0x350f056f	5.327956e-07
144	0x349ab190	2.881393e-07
145	0x349c305f	2.909246e-07
146	0x3314a05d	3.4604785e-08
147	0x34b6b661	3.403284e-07
148	0x2c5382b2	3.0057454e-12
149	0x36115189	2.1654143e-06
150	0x36e693f5	6.8717586e-06
151	0x336fe0f1	5.5851107e-08
152	0x34a8b288	3.1422337e-07
153	0x33adc064	8.090936e-08
154	0x310dfd6e	2.0662259e-09
155	0x324be796	1.1868812e-08
156	0x32f48c8e	2.8469255e-08
157	0x2f25222a	1.50188e-10
158	0x3451a9e2	1.9526445e-07
159	0x33d34a3b	9.8389556e-08
160	0x33d00000	9.685755e-08
161	0x327b7c7c	1.4638427e-08
162	0x3349854b	4.692019e-08
163	0x2d0dbf7b	8.057439e-12
164	0x34ade372	3.238925e-07
165	0x380dda28	3.3820193e-05
166	0x348f9c52	2.6749564e-07
167	0x361ab213	2.305144e-06
168	0x34a9420a	3.1526753e-07
169	0x3397c493	7.067242e-08
170	0x336311e9	5.2868845e-08
171	0x340efa74	1.3315895e-07
172	0x309678de	1.0948289e-09
173	0x357c6050	9.401747e-07
174	0x35082c9b	5.072886e-07
175	0x34e6228d	4.2865977e-07
176	0x339d9cc4	7.339398e-08
177	0x3462db57	2.1127686e-07
178	0x2f5fb582	2.0346216e-10
179	0x35aa5ce4	1.2693022e-06
180	0x37b7ca53	2.1909515e-05
181	0x34d2d94f	3.927366e-07
182	0x370ec5ca	8.509911e-06
183	0x3521cecb	6.02781e-07
184	0x30d59054	1.553881e-09
185	0x33b710c1	8.524649e-08
186	0x340a0e02	1.2857348e-07
187	0x331241e0	3.4053187e-08
188	0x35a747fe	1.2463422e-06
189	0x35272d0d	6.2277905e-07
190	0x3526bcc4	6.211451e-07
191	0x33c694ea	9.247181e-08
192	0x34a2c5ea	3.0318853e-07
193	0x2cfe91d4	7.2353044e-12
194	0x3620a9b8	2.3940647e-06
195	0x379bc2fc	1.8568237e-05
196	0x34f4b724	4.5581794e-07
197	0x3717bd29	9.044344e-06
198	0x36330df1	2.6681194e-06
199	0x31147efb	2.1609015e-09
200	0x34e5f84f	4.2835242e-07
201	0x343f2daa	1.7804874e-07
202	0x30f65e1c	1.7925603e-09
203	0x35d689f6	1.5984394e-06
204	0x355806e7	8.0476315e-07
205	0x356db424	8.855152e-07
206	0x33bbf417	8.752266e-08
207	0x35e515c6	1.7068166e-06
208	0x2d228be0	9.239692e-12
209	0x37331817	1.067484e-05
210	0x36268d8a	2.4818314e-06
211	0x34271612	1.5561116e-07
212	0x36040a50	1.9675535e-06
213	0x35570f8f	8.011638e-07
214	0x2ff9620f	4.536251e-10
215	0x340cc28e	1.3109295e-07
216	0x33b1bb9c	8.276331e-08
217	0x2f323d1e	1.6210719e-10
218	0x35118b54	5.421946e-07
219	0x34b0e8cc	3.2951937e-07
220	0x348df3d4	2.6440705e-07
221	0x335a5478	5.0833904e-08
222	0x350c970f	5.2373883e-07
223	0x2c8abd18	3.9431895e-12
224	0x3657102c	3.204691e-06
225	0x379d5f10	1.8760125e-05
226	0x34408c8a	1.7932521e-07
227	0x356437ee	8.501801e-07
228	0x3448b013	1.8690507e-07
229	0x334d51aa	4.7804555e-08
230	0x33122296	3.402473e-08
231	0x33c289e2	9.05891e-08
232	0x2fa75892	3.0440056e-10
233	0x35284577	6.268596e-07
234	0x34bb7d08	3.4922436e-07
235	0x349d9a26	2.9355687e-07
236	0x3358f9b3	5.051852e-08
237	0x34115131	1.3533715e-07
238	0x2f06517b	1.2216177e-10
239	0x35497975	7.505508e-07
240	0x37637498	1.3557401e-05
241	0x3420bc1f	1.4969599e-07
242	0x35aca1e7	1.2862118e-06
243	0x3474ffe8	2.2817369e-07
244	0x33d57051	9.939016e-08
245	0x3314ab6c	3.4614843e-08
246	0x339942e4	7.136785e-08
247	0x31c846f3	5.828832e-09
248	0x3506c911	5.021148e-07
249	0x349d79ab	2.9332054e-07
250	0x3476e97c	2.2995476e-07
251	0x334bc00d	4.743929e-08
252	0x34066de4	1.25197e-07
253	0x2fae0c9a	3.165937e-10
254	0x35772fc7	9.2084196e-07
255	0x381ff4e3	3.8136623e-05

exp_avg f4 [128]
0	0xb7ded59a	-2.6563928e-05
1	0xb90b7808	-0.00013300788
2	0xb8e59c32	-0.000109486646
3	0xb81b20f8	-3.6985584e-05
4	0x38940b08	7.059245e-05
5	0xb92dd35b	-0.00016577302
6	0x3853f4ed	5.0534425e-05
7	0x37e1f969	2.693823e-05
8	0xb77c0487	-1.5021425e-05
9	0xb82ca50f	-4.116172e-05
10	0x35865b08	1.0010272e-06
11	0x38825943	6.215509e-05
12	0xb8906c6e	-6.886652e-05
13	0xb91c28f1	-0.00014892571
14	0xb70a5171	-8.244403e-06
15	0xb89582ac	-7.129213e-05
16	0x3729da6a	1.0124038e-05
17	0xb918baa9	-0.00014565386
18	0xb8738bad	-5.8065798e-05
19	0x382672d8	3.968444e-05
20	0x374c0337	1.2160096e-05
21	0xb97014fc	-0.00022896001
22	0x36270cf4	2.489248e-06
23	0x38fd561b	0.000120800185
24	0x38df07b3	0.00010634903
25	0xb7d26939	-2.5082949e-05
26	0x38022fb2	3.1038835e-05
27	0x384c3b9d	4.869291e-05
28	0xb8b2c76b	-8.524846e-05
29	0xb9354dd4	-0.00017290498
30	0xb77ed7d6	-1.5189833e-05
31	0x38a98366	8.083023e-05
32	0x38888d6b	6.5113265e-05
33	0xb8189156	-3.637498e-05
34	0xb79a0d32	-1.8364375e-05
35	0xb7f4da2c	-2.918866e-05
36	0xb897de67	-7.241667e-05
37	0xb8b021bb	-8.398617e-05
38	0x38aaaca4	8.1383885e-05
39	0xb503f526	-4.915804e-07
40	0x38ef5957	0.00011413049
41	0xb7a16dca	-1.924382e-05
42	0x35a65f27	1.2395657e-06
43	0x39523cec	0.00020049856
44	0x34fd0a0a	4.7132227e-07
45	0xb8a76d21	-7.9835074e-05
46	0xb7eb889f	-2.8077802e-05
47	0xb871fedb	-5.769623e-05
48	0xb8853fa3	-6.3537875e-05
49	0xb77101c7	-1.4365133e-05
50	0x37c077c9	2.2943963e-05
51	0x38a35518	7.7882956e-05
52	0xb9e113cd	-0.00042930097
53	0x38c4ccb1	9.384135e-05
54	0xb5aba2d7	-1.2787885e-06
55	0x39676b3d	0.00022069826
56	0x38083b13	3.2479944e-05
57	0x3683efdd	3.932028e-06
58	0x38d0f8ab	9.964531e-05
59	0xb8065b19	-3.203293e-05
60	0xb5c178e5	-1.4414805e-06
61	0x37c62df6	2.3624842e-05
62	0xb8acc5b6	-8.238426e-05
63	0xb85042fe	-4.9653456e-05
64	0xb89e7e47	-7.557548e-05
65	0x346d81b2	2.2119528e-07
66	0xb4879dbe	-2.5260482e-07
67	0xb87e7d52	-6.0675033e-05
68	0xb68b015d	-4.1426815e-06
69	0x39518582	0.00019981529
70	0xb90365a6	-0.00012531
71	0xb72e641b	-1.0394516e-05
72	0x38a639f2	7.92629e-05
73	0xb885402e	-6.3538886e-05
74	0x37cfce5d	2.4772418e-05
75	0x38d19308	9.993283e-05
76	0xb9207d3e	-0.00015305445
77	0x38858aa5	6.367759e-05
78	0xb85075cf	-4.9700782e-05
79	0xb71265a9	-8.725948e-06
80	0xb6c1dd89	-5.7776383e-06
81	0xb86ca09c	-5.6416364e-05
82	0xb88cbf6a	-6.711374e-05
83	0xb71f91e1	-9.511104e-06
84	0x3988e9a1	0.00026114009
85	0xb8b1fa7e	-8.4866755e-05
86	0xb80de825	-3.383322e-05
87	0x37afc6d2	2.0954209e-05
88	0xb8caff79	-9.679696e-05
89	0xb693ac63	-4.40101e-06
90	0xb891f903	-6.960521e-05
91	0x3911f6cd	0.00013920218
92	0x368c5147	4.181787e-06
93	0x38e32650	0.0001083134
94	0xb89aa1e8	-7.3734496e-05
95	0xb79f705e	-1.9006602e-05
96	0xb89ac66d	-7.380252e-05
97	0xb7ec50fd	-2.8171105e-05
98	0x39143598	0.00014134345
99	0xb7a4d8c4	-1.9651263e-05
100	0x3952ece1	0.00020115405
101	0x38d81401	0.000103034086
102	0xb81643f9	-3.582609e-05
103	0xb982f8ed	-0.00024980996
104	0x361a0ca5	2.2955148e-06
105	0x381568b3	3.5621877e-05
106	0xb88e6ec7	-6.7917215e-05
107	0xb92de6b3	-0.00016584508
108	0xb83dfbec	-4.5295732e-05
109	0x395a474d	0.00020816662
110	0xb939dafb	-0.00017724551
111	0xb75379a2	-1.26049e-05
112	0xb87f9e60	-6.0944236e-05
113	0xb903f7a2	-0.00012585384
114	0x3859c275	5.1917934e-05
115	0x38550a03	5.079248e-05
116	0xb8a28a4c	-7.750522e-05
117	0xb76f70e2	-1.4271793e-05
118	0xb817c71e	-3.6186648e-05
119	0xb827e74f	-4.0031326e-05
120	0xb88bf397	-6.673409e-05
121	0xb8273a1c	-3.987002e-05
122	0xb8c55f41	-9.4114344e-05
123	0xb8480732	-4.7690417e-05
124	0xb8607c14	-5.352132e-05
125	0xb830c0d8	-4.214127e-05
126	0x37b0f4ab	2.1094767e-05
127	0x3804b9c1	3.164425e-05

exp_avg_sq f4 [128]
0	0x351cd306	5.842161e-07
1	0x35ca97e8	1.5094383e-06
2	0x3499d118	2.8650607e-07
3	0x35265ff4	6.197945e-07
4	0x342cb3c3	1.6084145e-07
5	0x363a9a8b	2.7806116e-06
6	0x3551395e	7.794205e-07
7	0x35660457	8.568799e-07
8	0x350ec68d	5.318805e-07
9	0x35231796	6.0756554e-07
10	0x346fb852	2.2325665e-07
11	0x359018b5	1.0736027e-06
12	0x35c3f68d	1.4600388e-06
13	0x35f3c1a0	1.8161263e-06
14	0x352700f8	6.221376e-07
15	0x3540cf86	7.182756e-07
16	0x351c80b1	5.83018e-07
17	0x360938ad	2.044758e-06
18	0x347aaac4	2.3345189e-07
19	0x3484b5c7	2.4719176e-07
20	0x357de645	9.458493e-07
21	0x360d7157	2.107661e-06
22	0x34a1eb06	3.015959e-07
23	0x36379d98	2.7360857e-06
24	0x34364519	1.6975208e-07
25	0x352696f0	6.205946e-07
26	0x35c7c465	1.4883814e-06
27	0x361e3bf7	2.3578739e-06
28	0x359da669	1.1745843e-06
29	0x3648a2cf	2.989709e-06
30	0x350ac6a0	5.1698044e-07
31	0x353ebba7	7.1053586e-07
32	0x359a5ebc	1.1501465e-06
33	0x358458bc	9.860591e-07
34	0x358d599c	1.0531398e-06
35	0x34e29232	4.2202151e-07
36	0x3627b7ea	2.4991991e-06
37	0x349e613a	2.9500535e-07
38	0x357a7015	9.329536e-07
39	0x33e1294e	1.0484892e-07
40	0x3635ca5b	2.7088888e-06
41	0x354bee30	7.597e-07
42	0x35535ba8	7.8737e-07
43	0x3713dd4e	8.813409e-06
44	0x362aa6aa	2.5428985e-06
45	0x35158cff	5.5712e-07
46	0x3512c603	5.4677383e-07
47	0x35278df5	6.241892e-07
48	0x35a13090	1.2009568e-06
49	0x35364581	6.7901425e-07
50	0x3508682e	5.081555e-07
51	0x3625b42c	2.469179e-06
52	0x37032a90	7.818118e-06
53	0x34907339	2.6905926e-07
54	0x3514ef38	5.5482406e-07
55	0x365cc641	3.2897954e-06
56	0x352974ed	6.3127555e-07
57	0x35f12c8f	1.7968867e-06
58	0x353bc0d9	6.994356e-07
59	0x35fbdd74	1.8765409e-06
60	0x35a94c17	1.2613626e-06
61	0x35c102a1	1.4380386e-06
62	0x35a7b93c	1.249638e-06
63	0x35bef179	1.4226381e-06
64	0x34fe6d9d	4.739094e-07
65	0x358b10bc	1.0361177e-06
66	0x35793319	9.2834085e-07
67	0x3416a553	1.4029983e-07
68	0x35202b2b	5.966746e-07
69	0x3681ca10	3.8680228e-06
70	0x35987799	1.135969e-06
71	0x35693b61	8.688567e-07
72	0x349a073a	2.8689993e-07
73	0x35f0b6a8	1.7934553e-06
74	0x3421f307	1.5082706e-07
75	0x3559f25d	8.1191484e-07
76	0x353dc8d3	7.0700224e-07
77	0x3600daa0	1.9200743e-06
78	0x34850ad6	2.4781065e-07
79	0x35989140	1.1367156e-06
80	0x34d2465d	3.9166744e-07
81	0x34871b55	2.5165596e-07
82	0x34d6efde	4.0035133e-07
83	0x33be6897	8.866589e-08
84	0x3668e467	3.4703642e-06
85	0x36987f3f	4.5447664e-06
86	0x353488a0	6.725404e-07
87	0x35883ac0	1.0149888e-06
88	0x354ca781	7.623967e-07
89	0x348d3f72	2.630946e-07
90	0x35cbd547	1.518675e-06
91	0x35f200c4	1.8030628e-06
92	0x3585b5ad	9.962147e-07
93	0x35b8594a	1.3735055e-06
94	0x34949ba2	2.7680386e-07
95	0x34300399	1.6392586e-07
96	0x343c3fbb	1.753205e-07
97	0x360c5fdb	2.091742e-06
98	0x34d19ee4	3.9044892e-07
99	0x357fc783	9.528523e-07
100	0x363a8539	2.7793706e-06
101	0x34d261bd	3.9186662e-07
102	0x3558004d	8.046671e-07
103	0x35be930d	1.41989e-06
104	0x34925dd9	2.7262902e-07
105	0x362f2a53	2.6101668e-06
106	0x3441d6c0	1.8052651e-07
107	0x35b8f47f	1.3780226e-06
108	0x363bcbc6	2.7983783e-06
109	0x361c109e	2.3255484e-06
110	0x35c7177d	1.4833491e-06
111	0x34bbb700	3.4964614e-07
112	0x3521da94	6.0295247e-07
113	0x355265b8	7.8379117e-07
114	0x34edd6d4	4.4300998e-07
115	0x35e95560	1.73847e-06
116	0x34d81f63	4.0255972e-07
117	0x35739c79	9.075225e-07
118	0x3614c79e	2.216991e-06
119	0x3445fdad	1.8439341e-07
120	0x34d9599d	4.0484602e-07
121	0x3538ce95	6.884596e-07
122	0x360089e3	1.9153747e-06
123	0x3566a87b	8.592685e-07
124	0x343c7c04	1.7553981e-07
125	0x35a1f83e	1.2067683e-06
126	0x35c2ec7c	1.4522952e-06
127	0x33cc3e27	9.510796e-08
