python/results/minion_walk_003/Minion/Minion-787.pt (torch, 145513 bytes, 12 tensors)

network_body._body_endoder.seq_layers.0.weight f4 [128, 3]
000000 88 96 f8 3e e5 41 14 bf fa 2d 53 3f 98 f7 ba 3e
       0.48552346 -0.5791305 0.8249203 0.36517024
000010 d3 d6 f5 bd 78 f9 fc 3d de 14 97 3e e6 e8 d3 be
       -0.12003865 0.1235227 0.29508108 -0.41388625
000020 22 c1 83 3e c0 a3 c7 be e9 10 91 3e c4 49 dc bd
       0.25733286 -0.3899212 0.28333214 -0.10756257
000030 53 e6 45 bf 64 cc 02 bf de b8 9b bd 3d 45 15 c0
       -0.7730457 -0.51093125 -0.0760362 -2.332351
000040 4e 9a 41 bf 57 9d 84 3e a6 d9 43 be cd a3 c2 3b
       -0.75626075 0.2590129 -0.19125995 0.0059399367
000050 a4 21 03 3f be f4 b7 3e f0 45 75 bf 53 c0 0c 3f
       0.51223207 0.3592891 -0.9580984 0.54980963
000060 26 38 c4 be fd c7 37 3d 8e ed c6 3e 54 c6 51 3e
       -0.38324088 0.044868458 0.38853115 0.20485812
000070 ab 8e cb 3d 4a 47 23 3f c2 20 09 bf e8 92 5a be
       0.09939321 0.63780653 -0.5356561 -0.21345103
000080 6b 4e c7 3e 79 ca af bf 6c 91 3e be 5f 3d 10 be
       0.38927016 -1.3733665 -0.18610162 -0.14085911
000090 0c c5 76 3e 28 b7 9a bd 70 6d 9c 3f fe 35 44 3d
       0.24098605 -0.075544655 1.2220898 0.047903053
0000a0 a1 4a 8c bd 1b 7c a5 3e c3 f6 82 3d 5e e5 88 3d
       -0.06850172 0.32321247 0.06394722 0.06684373
0000b0 5d 67 bb 3f 37 86 d8 be 3d f2 64 be 70 f3 e1 3e
       1.4640919 -0.42289898 -0.22358032 0.4413104
0000c0 ec ab 50 3e f7 0c c8 be cb 95 a2 3c 3d 27 4d 3f
       0.20378083 -0.3907239 0.019846817 0.80138
0000d0 a6 20 e4 bd 05 f6 ae 3c fa 98 38 3f 95 25 99 be
       -0.1113904 0.021357546 0.72108424 -0.29911485
0000e0 82 3b 98 be d7 85 ac 3e b6 82 05 be 30 c9 1d 3e
       -0.297329 0.33695862 -0.13038144 0.15408778
0000f0 92 dc 37 bf ac 9f 00 bf 9c 30 26 3e f0 db 25 3f
       -0.7182094 -0.5024364 0.1622948 0.64788723
000100 ea d9 0a 3d eb 38 be bd a2 41 1d be af c1 ff be
       0.033899225 -0.092882 -0.15357068 -0.49952456
000110 74 d7 eb 3e 88 0b 83 be 10 30 48 bf d2 ec 53 3e
       0.46062815 -0.25594735 -0.7819834 0.20695809
000120 d2 18 8e bb 2d 15 0c bf 34 64 46 be 17 4e c0 3d
       -0.004336455 -0.5471981 -0.19374162 0.093898945
000130 ce bc e3 be 43 df cc 3e c9 96 8e be c1 6f 6d be
       -0.44479984 0.40014085 -0.27849415 -0.23187162
000140 b1 61 fc be ae 8a 21 bc 2b 6b b4 be 28 9f 05 3f
       -0.49293283 -0.009859724 -0.35238013 0.5219598
000150 93 54 38 3f 67 2a 31 be 9b 6d 15 bf e3 80 f6 bd
       0.7200405 -0.17301331 -0.5837037 -0.12036302
000160 d3 ab 42 bd ab e6 84 be cd eb 52 be 83 e7 2b bf
       -0.047527146 -0.25957236 -0.20597763 -0.67150134
000170 e6 18 82 be 84 70 a0 3f 8d 70 40 3f 04 de cc be
       -0.2540962 1.2534337 0.7517174 -0.40013134
000180 77 5c e6 be ba bd 5c bf 5f 08 c9 3e 9d 6e 94 3f
       -0.4499242 -0.86227 0.392642 1.1596256
000190 22 58 c7 be b3 7a a9 bf a9 bf d3 bd b2 18 23 3e
       -0.38934427 -1.324057 -0.10339291 0.1592739
0001a0 66 fc a3 3e db 01 c1 3c d5 12 3c 3f 5c bc b4 3d
       0.32028502 0.023560455 0.73466235 0.08824989
0001b0 43 2a d0 bd 4e c9 ca be f9 bb 3f 3f cd fa be be
       -0.10164311 -0.39606708 0.748962 -0.3730072
0001c0 ba f2 18 3f 6b 8f 26 3f be be 1d 3f 01 04 1e be
       0.5974537 0.6506259 0.61619174 -0.15431215
0001d0 02 70 2e bf 5c 96 ca 3e 61 9f e2 bd 39 dc 1e 3f
       -0.6813966 0.3956784 -0.11065555 0.62054783
0001e0 08 0a 5f 3f 55 7e 31 bf 6d 65 0b 3f 0f d7 de 3e
       0.8712468 -0.6933339 0.5445164 0.43523452
0001f0 4b 0f ee bd 0c 74 8f bd b6 8b a5 bc e0 62 a1 3e
       -0.11624011 -0.07004556 -0.02020822 0.31520748
000200 18 fa b6 be 68 75 2d bf b1 af 25 bf 46 46 a2 be
       -0.3573768 -0.6775727 -0.6472121 -0.3169424
000210 13 c3 a0 3c 17 94 87 bf 16 91 aa be 65 86 31 bd
       0.019624269 -1.0592068 -0.33313817 -0.04334106
000220 f6 97 d6 3e 85 30 51 3d 26 96 8f 3e 85 b6 12 3f
       0.41912812 0.051071662 0.28044242 0.5730975
000230 d4 ce 45 3e 54 c7 f9 38 cd 8d c7 3e 21 1c fc 3e
       0.1931718 0.00011910373 0.38975373 0.4924021
000240 7a 5d 6e 3e c9 7f ce be 66 97 bb be d0 b0 06 3f
       0.23277846 -0.40331867 -0.36638945 0.52613544
000250 6e 81 d6 bc 7e 7e 00 bf 63 2f 76 be ea 6a 05 3e
       -0.026184764 -0.5019301 -0.24041514 0.13029066
000260 34 c5 b8 be 70 e2 71 be 20 ff 82 3e 0c 53 e6 be
       -0.36087954 -0.23621535 0.2558527 -0.44985235
000270 79 4d dc bd fd 6a 99 3e bf 02 07 bf 84 36 3d bf
       -0.10756964 0.29964438 -0.52738565 -0.7391131
000280 77 70 50 3d 2b 3e 02 bf aa a4 bc 3e aa fd 9d bd
       0.050888505 -0.5087611 0.3684438 -0.07714398
000290 35 23 34 bf b0 f2 16 bf 36 88 e5 3d e2 3a 80 be
       -0.7036622 -0.5896406 0.11207621 -0.25044924
0002a0 ff 4e a0 be 22 ef 23 3f 6a f0 57 bf 8a c1 7e 3e
       -0.3131027 0.6403676 -0.8435122 0.24878517
0002b0 7f ef b7 3e 2b c9 5a bd 9e e0 ce 3e d8 17 81 bf
       0.3592491 -0.053414505 0.40405744 -1.0085402
0002c0 08 d8 8b be 5f 35 61 3e 19 7a ec 3c cd 92 e2 3d
       -0.27313256 0.21993016 0.028866814 0.11063156
0002d0 c2 db 3b be 5f 96 1d be 28 70 e1 3d 70 22 1e be
       -0.1834555 -0.15389393 0.1100772 -0.15442824
0002e0 d6 0a 80 3f 91 a2 13 3f 9a b5 4f be 29 66 01 3f
       1.0003307 0.5766993 -0.20284119 0.5054651
0002f0 f5 03 78 bd bc 5c 28 be 85 2c 89 3f bb e6 ae 3e
       -0.06055065 -0.16441625 1.0716711 0.34160408
000300 29 6c 6c bf 8e ec 87 bf b5 f8 33 bf 16 a5 be be
       -0.9235254 -1.0619066 -0.7030137 -0.37235326
000310 06 2a 09 3e 8f cd bd 3f b8 30 f6 3e 45 57 e5 3d
       0.13394937 1.4828357 0.48084044 0.11198286
000320 2b 3a a0 be e2 63 fd 3f 04 26 b3 3e ad f5 c1 be
       -0.3129438 1.9796107 0.3498994 -0.37882748
000330 6f 9c 48 bf 0f 8f 90 3e 2d 7a f0 3e ef c3 49 bd
       -0.783637 0.28234145 0.46968213 -0.049259122
000340 55 30 0b 3f 12 fe 8c 3f 91 93 02 3f b5 d0 0c bf
       0.54370624 1.1015036 0.5100642 -0.5500596
000350 7e 35 93 3e 2d 06 d3 3e aa d7 31 3f 39 a8 1c 3e
       0.2875175 0.4121565 0.694697 0.15298547
000360 4b 46 eb be 52 d3 97 3e 9c d1 26 3d c5 90 50 bf
       -0.45952067 0.29653412 0.040727243 -0.814709
000370 e2 67 ea 3e 13 60 d7 bd 92 31 3e 3e bf 6b 10 3f
       0.4578238 -0.105163716 0.18573597 0.5641441
000380 39 d5 60 bf 71 ae 5a 3e 20 50 cf 3d ba 23 a2 3f
       -0.8782535 0.21355607 0.101227045 1.2667153
000390 a8 08 0e be c5 05 b3 be 14 c7 c6 be af 89 12 bf
       -0.1387049 -0.3496534 -0.3882376 -0.5724134
0003a0 52 c1 b4 3e 9f 5e 04 be 3d 3c e9 3e 75 f2 1b 3d
       0.35303742 -0.1292672 0.4555377 0.038073022
0003b0 fc 0e 5d 3e 8f ac 67 bf 03 49 e9 3d d2 d5 e2 3e
       0.21587747 -0.9049768 0.11390879 0.44303757
0003c0 45 28 2b bf 22 42 9e 3e 5c 5f 6a 3d 0e 68 8a 3e
       -0.6685832 0.3090983 0.057219848 0.27032512
0003d0 f2 64 8b bc 52 61 66 bf e8 de 1f 3f 35 a2 77 3e
       -0.017015908 -0.8999225 0.624495 0.24182971
0003e0 bc 05 eb 3e 17 5b ce be d2 d9 2d 3f 38 bc c2 bc
       0.45902812 -0.4030387 0.6791049 -0.02377139
0003f0 c4 f6 46 be 5e 05 ef 3e b4 30 1c 3e de 5a 01 3f
       -0.19430071 0.46683782 0.15252954 0.5052928

network_body._body_endoder.seq_layers.0.bias f4 [128]
000000 00 00 00 00 00 00 00 00 00 00 00 00 00 00 00 00
       0.0 0.0 0.0 0.0
000010 00 00 00 00 00 00 00 00 00 00 00 00 00 00 00 00
       0.0 0.0 0.0 0.0
000020 00 00 00 00 00 00 00 00 00 00 00 00 00 00 00 00
       0.0 0.0 0.0 0.0
000030 00 00 00 00 00 00 00 00 00 00 00 00 00 00 00 00
       0.0 0.0 0.0 0.0
000040 00 00 00 00 00 00 00 00 00 00 00 00 00 00 00 00
       0.0 0.0 0.0 0.0
000050 00 00 00 00 00 00 00 00 00 00 00 00 00 00 00 00
       0.0 0.0 0.0 0.0
000060 00 00 00 00 00 00 00 00 00 00 00 00 00 00 00 00
       0.0 0.0 0.0 0.0
000070 00 00 00 00 00 00 00 00 00 00 00 00 00 00 00 00
       0.0 0.0 0.0 0.0
000080 00 00 00 00 00 00 00 00 00 00 00 00 00 00 00 00
       0.0 0.0 0.0 0.0
000090 00 00 00 00 00 00 00 00 00 00 00 00 00 00 00 00
       0.0 0.0 0.0 0.0
0000a0 00 00 00 00 00 00 00 00 00 00 00 00 00 00 00 00
       0.0 0.0 0.0 0.0
0000b0 00 00 00 00 00 00 00 00 00 00 00 00 00 00 00 00
       0.0 0.0 0.0 0.0
0000c0 00 00 00 00 00 00 00 00 00 00 00 00 00 00 00 00
       0.0 0.0 0.0 0.0
0000d0 00 00 00 00 00 00 00 00 00 00 00 00 00 00 00 00
       0.0 0.0 0.0 0.0
0000e0 00 00 00 00 00 00 00 00 00 00 00 00 00 00 00 00
       0.0 0.0 0.0 0.0
0000f0 00 00 00 00 00 00 00 00 00 00 00 00 00 00 00 00
       0.0 0.0 0.0 0.0
000100 00 00 00 00 00 00 00 00 00 00 00 00 00 00 00 00
       0.0 0.0 0.0 0.0
000110 00 00 00 00 00 00 00 00 00 00 00 00 00 00 00 00
       0.0 0.0 0.0 0.0
000120 00 00 00 00 00 00 00 00 00 00 00 00 00 00 00 00
       0.0 0.0 0.0 0.0
000130 00 00 00 00 00 00 00 00 00 00 00 00 00 00 00 00
       0.0 0.0 0.0 0.0
000140 00 00 00 00 00 00 00 00 00 00 00 00 00 00 00 00
       0.0 0.0 0.0 0.0
000150 00 00 00 00 00 00 00 00 00 00 00 00 00 00 00 00
       0.0 0.0 0.0 0.0
000160 00 00 00 00 00 00 00 00 00 00 00 00 00 00 00 00
       0.0 0.0 0.0 0.0
000170 00 00 00 00 00 00 00 00 00 00 00 00 00 00 00 00
       0.0 0.0 0.0 0.0
000180 00 00 00 00 00 00 00 00 00 00 00 00 00 00 00 00
       0.0 0.0 0.0 0.0
000190 00 00 00 00 00 00 00 00 00 00 00 00 00 00 00 00
       0.0 0.0 0.0 0.0
0001a0 00 00 00 00 00 00 00 00 00 00 00 00 00 00 00 00
       0.0 0.0 0.0 0.0
0001b0 00 00 00 00 00 00 00 00 00 00 00 00 00 00 00 00
       0.0 0.0 0.0 0.0
0001c0 00 00 00 00 00 00 00 00 00 00 00 00 00 00 00 00
       0.0 0.0 0.0 0.0
0001d0 00 00 00 00 00 00 00 00 00 00 00 00 00 00 00 00
       0.0 0.0 0.0 0.0
0001e0 00 00 00 00 00 00 00 00 00 00 00 00 00 00 00 00
       0.0 0.0 0.0 0.0
0001f0 00 00 00 00 00 00 00 00 00 00 00 00 00 00 00 00
       0.0 0.0 0.0 0.0

network_body._body_endoder.seq_layers.2.weight f4 [128, 128]
000000 50 6e 8e 3c 4a 6f 79 3d 8c 8b fe 3c bb a9 7c 3d
       0.017386585 0.06089715 0.0310724 0.061685305
000010 58 a3 e7 3d 1c df 20 bc 8a 2f d8 bd a4 15 45 3c
       0.11310452 -0.009818818 -0.10555942 0.012029085
000020 cd b1 a3 3d 73 b4 06 bd 14 9f 16 bd 10 92 8e 3d
       0.07992897 -0.032886934 -0.036772802 0.06961453
000030 94 c3 ce 3b 9d f3 f0 bd 89 fb d9 3c 86 3a 11 bc
       0.006309936 -0.117652155 0.0266092 -0.008864051
000040 66 40 04 bc 6c d8 57 3d c5 3e 3b bd 2e 1b 09 be
       -0.008071994 0.05269663 -0.04571416 -0.13389274
000050 ee 18 da bd fc 4f 43 3d 13 f2 80 3a 6d 0b 02 3e
       -0.10649286 0.0476837 0.0009837769 0.12699671
000060 0e 15 ec 3d d8 c0 62 be 84 0d 13 3d 41 2c f6 3c
       0.11527453 -0.22143877 0.03590156 0.030050399
000070 62 2e 61 3d b6 11 12 3c aa cc 63 3c 4e be 8b bd
       0.054975875 0.008915355 0.013903776 -0.06823407
000080 e1 69 27 bc 22 45 93 3d 0d 8a 88 bc 0b b6 c0 bd
       -0.010218115 0.071909204 -0.01666739 -0.09409722
000090 e4 e5 20 3e f6 83 ee bc 63 6b 89 3d 98 95 43 3e
       0.15712696 -0.029115658 0.067099355 0.19100034
0000a0 0c 71 f1 3d 66 fe 11 3e dc 40 fe 3d 76 eb 1b bc
       0.1178914 0.14257202 0.12414715 -0.0095165875
0000b0 a0 8e 5c 3d a8 4b bc 39 d1 c3 2a 3d f7 c6 ab bd
       0.053846955 0.00035914523 0.04169065 -0.08387559
0000c0 a8 32 9b 3c 1f e3 81 bd 16 28 cb 3c 0f f0 60 3d
       0.018945053 -0.06342148 0.024799388 0.054916438
0000d0 f1 f7 fa bd dc d8 56 bd 3d 52 2c be 8d bb e1 bd
       -0.12254322 -0.052452907 -0.16828246 -0.110221006
0000e0 59 ab ba 3c af 8b 9a 3c d4 e5 06 3c 73 5f 7a bd
       0.022786783 0.018865434 0.008233506 -0.061126184
0000f0 f3 bc 28 bc d9 39 d6 3d 27 25 94 bd 82 6a b0 bd
       -0.010298955 0.10460252 -0.07233649 -0.08614065
000100 67 8b 2c 3c 9d 73 27 be 4c 9b 0f 3e b7 ac 2c 3d
       0.010531283 -0.16352697 0.14024085 0.0421569
000110 63 61 b6 bc 32 de 8e 3d e2 c4 22 3d d9 49 8f bd
       -0.022263234 0.06975974 0.039738543 -0.06996507
000120 df 80 5f bd c0 d9 f7 bd 38 fc a7 3d 78 b1 7e bd
       -0.05456626 -0.121020794 0.08202404 -0.062180966
000130 7e 42 01 bc da 52 b6 bc b2 b9 e5 bc 54 7c ae bd
       -0.007889388 -0.022256304 -0.028042648 -0.085198075
000140 25 1e c0 3d 60 a8 dd bd ed 73 b4 3d 44 2c 2a be
       0.093807496 -0.108231306 0.088111736 -0.16618448
000150 8d fd 91 bd 8f ef ec bd 1a 37 28 3e 2f 50 6a bd
       -0.07128439 -0.1156913 0.1642727 -0.057205375
000160 1c 03 cc bd 75 b0 95 bc 81 42 30 3d 35 f4 05 3e
       -0.099615306 -0.018272618 0.043032173 0.13081439
000170 e2 1f bc 3c d3 7a ee 3c 18 64 a6 bd 07 a8 a7 3d
       0.022964422 0.029111302 -0.0812456 0.081863455
000180 f8 ea 37 3b 23 ce ff 3c 02 94 b8 bd 8b 97 0c 3c
       0.0028063636 0.031226223 -0.09012605 0.0085810525
000190 29 f7 27 bd 3f 6a 33 bd 21 22 e2 bd 8b bf 2d bd
       -0.041007195 -0.043802496 -0.11041666 -0.042418998
0001a0 44 ae 47 bd 13 e4 ac 3d 99 2f 2b 3e 13 6a b3 bd
       -0.048750177 0.08441939 0.16717376 -0.087604664
0001b0 a3 f0 24 bd 2b 9b 2c bd 66 2c 02 3c 9d ca c3 3d
       -0.04026855 -0.042140167 0.007945156 0.0956013
0001c0 7b 8b 3e 3e 8b b2 a1 bc fa 43 08 3e c6 e2 16 3e
       0.18607895 -0.019738456 0.13307181 0.14734945
0001d0 38 57 c3 3d ab 62 46 3d 4d 1c 87 3d 4e 3b 07 3e
       0.0953812 0.04843394 0.06597195 0.13206217
0001e0 32 22 18 bd 86 5c 56 3c dd fb e3 bc aa a6 93 3d
       -0.037141986 0.013083583 -0.027830059 0.07209523
0001f0 ad 93 40 3e 4d c1 0d be bc c0 a0 bc 3e a2 e6 3d
       0.18806334 -0.1384327 -0.019623153 0.11261414
000200 f3 5e df bd be a7 91 3d 6a 6f 77 3d 52 84 57 3d
       -0.10906782 0.071120724 0.060408987 0.052616425
000210 fe 59 c1 bd 1a cb 02 3e fd 50 eb bd c4 e9 4f 3d
       -0.09440993 0.1277279 -0.11490057 0.050760046
000220 ae 37 07 be a3 73 24 3d e2 c6 58 3d ff 2b 0d bd
       -0.13204834 0.040149342 0.052924044 -0.034465786
000230 30 9e 12 3e 34 4a d1 3d 4b 33 94 3c 8b fd ab 3d
       0.14318156 0.10219231 0.018090865 0.08397969
000240 11 18 ec bd af bb cf bc ba 67 0a 3d 57 e1 d9 bd
       -0.11528028 -0.02535805 0.033790328 -0.10638683
000250 4d a4 2e 3d 8c 06 d4 bb 1e 23 a3 bd b5 2a 4b be
       0.04263716 -0.006470507 -0.079656824 -0.1984051
000260 46 29 28 3e e8 72 bf bb cd b9 80 bd 54 52 3d 3d
       0.16421995 -0.0058425553 -0.06285439 0.046221092
000270 d0 ac 3d bd e3 0c 5c be 81 e3 81 bd d7 18 d6 3d
       -0.046307385 -0.21489291 -0.06342221 0.104539566
000280 95 22 51 be 45 36 9c 3d e3 1a 63 3d 6b e4 15 3e
       -0.20423348 0.076275386 0.055445563 0.14637916
000290 46 bf a6 3b b1 df bb 3d 5a 0c 0e bb cd 70 4f bd
       0.0050887195 0.09173525 -0.0021674843 -0.050644685
0002a0 d3 19 c3 bd 3d 64 04 3d a4 98 0b bd d4 13 e2 3d
       -0.0952641 0.032322157 -0.034081116 0.11038938
0002b0 23 e3 bd 3d 13 b1 21 3e 89 8d c7 bd c6 d2 0b be
       0.092718385 0.15790205 -0.097437926 -0.13654622
0002c0 a4 53 7f bd 24 f6 09 be 90 d1 48 3d ee e5 a5 3c
       -0.062335625 -0.13472801 0.04902798 0.02025124
0002d0 e1 b6 a6 bc ad 7c 2b 3e 69 24 49 be 10 3a c2 3d
       -0.020350875 0.16746779 -0.19642796 0.09483731
0002e0 3d 12 a9 bb 78 65 13 bd eb 26 98 bc ca cf 1c be
       -0.005159645 -0.03598544 -0.018573245 -0.1531364
0002f0 24 37 b4 3d ca a9 fb bd 4f c7 8f bd c2 b6 58 bc
       0.0879958 -0.12288244 -0.07020437 -0.013227167
000300 be 99 bc 3d 05 59 2e 3d 5d 9c c0 bd 3d 61 96 bd
       0.092090115 0.042565364 -0.09404824 -0.073427655
000310 ab 3d 40 3d 42 98 c6 3c aa 15 82 bd fe a7 70 ba
       0.04693381 0.024242524 -0.06351788 -0.0009180306
000320 ce 60 dc 3c 48 0b e8 bd 23 86 7d ba a6 aa 23 3c
       0.026901629 -0.11330277 -0.0009671172 0.009989416
000330 cf 00 b8 b9 a3 d0 c1 3d ec 19 d8 3c 05 37 90 bd
       -0.00035095817 0.094636224 0.026379548 -0.07041744
000340 eb 5c a4 bd 82 82 24 3e 23 cf 40 3e 13 96 a3 3d
       -0.08025535 0.1606541 0.18829016 0.07987609
000350 f7 39 24 bd 62 5c d0 3d ab 25 a1 3b 55 db b1 3d
       -0.040094342 0.101738706 0.0049178204 0.086844124
000360 89 8c 1a 3e 41 e6 41 bb b8 21 86 bd e0 54 e4 bb
       0.15092672 -0.0029586705 -0.065494 -0.0069681257
000370 3b fb 49 3d 94 15 14 3d ef a3 b1 bb 45 0b 3d 3d
       0.049311858 0.03615339 -0.0054211537 0.046153326
000380 53 74 72 bc 59 f0 81 3d 41 d7 cb bd 70 81 4a 3e
       -0.014798242 0.06344671 -0.09953166 0.19775939
000390 8b 07 63 3d 3c 92 a5 3c ea f0 3a ba 54 ec af 3d
       0.055427115 0.020211332 -0.0007131236 0.08589998
0003a0 d6 dd 57 3d 56 b7 fb bc fd d7 be bc 0e e4 91 3d
       0.052701794 -0.03072707 -0.02329635 0.07123576
0003b0 ce 1e d1 bc c1 1a 79 3d 26 00 cb 3d d9 0c 22 be
       -0.025527384 0.06081653 0.09912138 -0.15825213
0003c0 66 29 10 3d 4e a0 cf bd 11 9a 92 bd bc 23 7e 3a
       0.03519573 -0.101379976 -0.07158292 0.0009694656
0003d0 ae d4 28 bd 1d 78 92 bd f6 72 70 3d f1 a2 83 3d
       -0.041218452 -0.07151816 0.058703385 0.06427563
0003e0 f5 16 c5 bd 49 82 3c be a1 82 38 bc ab 65 46 bd
       -0.09623519 -0.18409075 -0.011261613 -0.048436802
0003f0 0a 19 33 3c ac 2e db bd b3 c2 8b bd 55 71 bd 3d
       0.010931263 -0.10702261 -0.06824245 0.09250132

network_body._body_endoder.seq_layers.2.bias f4 [128]
000000 00 00 00 00 00 00 00 00 00 00 00 00 00 00 00 00
       0.0 0.0 0.0 0.0
000010 00 00 00 00 00 00 00 00 00 00 00 00 00 00 00 00
       0.0 0.0 0.0 0.0
000020 00 00 00 00 00 00 00 00 00 00 00 00 00 00 00 00
       0.0 0.0 0.0 0.0
000030 00 00 00 00 00 00 00 00 00 00 00 00 00 00 00 00
       0.0 0.0 0.0 0.0
000040 00 00 00 00 00 00 00 00 00 00 00 00 00 00 00 00
       0.0 0.0 0.0 0.0
000050 00 00 00 00 00 00 00 00 00 00 00 00 00 00 00 00
       0.0 0.0 0.0 0.0
000060 00 00 00 00 00 00 00 00 00 00 00 00 00 00 00 00
       0.0 0.0 0.0 0.0
000070 00 00 00 00 00 00 00 00 00 00 00 00 00 00 00 00
       0.0 0.0 0.0 0.0
000080 00 00 00 00 00 00 00 00 00 00 00 00 00 00 00 00
       0.0 0.0 0.0 0.0
000090 00 00 00 00 00 00 00 00 00 00 00 00 00 00 00 00
       0.0 0.0 0.0 0.0
0000a0 00 00 00 00 00 00 00 00 00 00 00 00 00 00 00 00
       0.0 0.0 0.0 0.0
0000b0 00 00 00 00 00 00 00 00 00 00 00 00 00 00 00 00
       0.0 0.0 0.0 0.0
0000c0 00 00 00 00 00 00 00 00 00 00 00 00 00 00 00 00
       0.0 0.0 0.0 0.0
0000d0 00 00 00 00 00 00 00 00 00 00 00 00 00 00 00 00
       0.0 0.0 0.0 0.0
0000e0 00 00 00 00 00 00 00 00 00 00 00 00 00 00 00 00
       0.0 0.0 0.0 0.0
0000f0 00 00 00 00 00 00 00 00 00 00 00 00 00 00 00 00
       0.0 0.0 0.0 0.0
000100 00 00 00 00 00 00 00 00 00 00 00 00 00 00 00 00
       0.0 0.0 0.0 0.0
000110 00 00 00 00 00 00 00 00 00 00 00 00 00 00 00 00
       0.0 0.0 0.0 0.0
000120 00 00 00 00 00 00 00 00 00 00 00 00 00 00 00 00
       0.0 0.0 0.0 0.0
000130 00 00 00 00 00 00 00 00 00 00 00 00 00 00 00 00
       0.0 0.0 0.0 0.0
000140 00 00 00 00 00 00 00 00 00 00 00 00 00 00 00 00
       0.0 0.0 0.0 0.0
000150 00 00 00 00 00 00 00 00 00 00 00 00 00 00 00 00
       0.0 0.0 0.0 0.0
000160 00 00 00 00 00 00 00 00 00 00 00 00 00 00 00 00
       0.0 0.0 0.0 0.0
000170 00 00 00 00 00 00 00 00 00 00 00 00 00 00 00 00
       0.0 0.0 0.0 0.0
000180 00 00 00 00 00 00 00 00 00 00 00 00 00 00 00 00
       0.0 0.0 0.0 0.0
000190 00 00 00 00 00 00 00 00 00 00 00 00 00 00 00 00
       0.0 0.0 0.0 0.0
0001a0 00 00 00 00 00 00 00 00 00 00 00 00 00 00 00 00
       0.0 0.0 0.0 0.0
0001b0 00 00 00 00 00 00 00 00 00 00 00 00 00 00 00 00
       0.0 0.0 0.0 0.0
0001c0 00 00 00 00 00 00 00 00 00 00 00 00 00 00 00 00
       0.0 0.0 0.0 0.0
0001d0 00 00 00 00 00 00 00 00 00 00 00 00 00 00 00 00
       0.0 0.0 0.0 0.0
0001e0 00 00 00 00 00 00 00 00 00 00 00 00 00 00 00 00
       0.0 0.0 0.0 0.0
0001f0 00 00 00 00 00 00 00 00 00 00 00 00 00 00 00 00
       0.0 0.0 0.0 0.0

action_model._continuous_distribution.log_sigma f4 [1, 2]
000000 00 00 00 00 00 00 00 00
       0.0 0.0

action_model._continuous_distribution.mu.weight f4 [2, 128]
000000 bf a5 19 bc a2 23 49 3c 46 f9 8d 3c 3b 9d 2c 3b
       -0.009377896 0.012276562 0.017330777 0.0026338834
000010 d3 0b 21 3c bd 8c cf 3b 62 16 f9 bc 92 e9 52 bc
       0.009829479 0.006333916 -0.03040618 -0.01287307
000020 72 07 fb 3b a5 4b 1e 3d af 86 5c 3c 75 5b 48 3c
       0.0076607997 0.03864636 0.013459845 0.012228836
000030 92 fc cf 3c fb ef ff 3c c0 21 d3 3c ca 98 19 bd
       0.02538899 0.031242361 0.02577293 -0.037499227
000040 67 83 0e ba 15 2e dd bc e4 ca 11 bc ca 49 28 bd
       -0.00054364506 -0.026999513 -0.008898471 -0.041085996
000050 f2 a5 e1 bc 8a 4f ae 3b 10 da 51 3b 49 8b 84 bc
       -0.02754495 0.0053195404 0.0032020845 -0.016179698
000060 3e f0 81 3b 8e aa a4 bc bd c2 2d 3b aa d8 c9 bc
       0.0039654067 -0.020100858 0.0026513778 -0.024639446
000070 db 4c 36 3d 1b 2a 9b bc 02 16 7f bb d3 44 94 bc
       0.04450689 -0.018940976 -0.003892303 -0.018099224
000080 f3 89 df bc a3 cc 18 3c 6a 32 e2 3c d7 41 b7 bc
       -0.027287459 0.009326133 0.02761193 -0.022370262
000090 08 89 fe 3b aa ff 99 bc 77 34 3c 3b cb eb 0e bc
       0.0077678002 -0.018798668 0.0028717795 -0.00872321
0000a0 20 1a 14 3b d7 ef 85 bc 82 3e 21 bd bb 47 0a 3c
       0.002259858 -0.016349716 -0.039366253 0.008439953
0000b0 ad b1 fb bc 8c 4b 05 3d 4a 08 61 3c 44 92 87 bb
       -0.03072437 0.03254275 0.013734886 -0.0041373093
0000c0 1b 7f 02 bd 47 bd 3c bc 4b 53 4b 3a f3 4e fd 3b
       -0.0318595 -0.011519737 0.0007756247 0.0077303587
0000d0 9b 60 ec 3b 97 5d c1 3c fe d2 4a 3c 63 85 11 3d
       0.0072136647 0.023604197 0.012379406 0.035527598
0000e0 e9 a0 b2 bc 1b 73 96 bc 80 0c ce bb f5 b7 74 bc
       -0.021805244 -0.018365433 -0.006288111 -0.014936437
0000f0 b7 19 b0 bc 60 c4 5e bc d7 ff 03 bc 34 fd b3 3c
       -0.021496637 -0.013596624 -0.008056602 0.021971323
000100 43 f0 0c 3c be e0 2b ba 97 55 c5 3a d3 5d ec 3b
       0.008602205 -0.00065566215 0.0015055415 0.007213333
000110 6b 42 26 bc 9b d2 10 bb 24 0f 9b bc c3 05 02 3c
       -0.010147671 -0.0022098187 -0.018928118 0.007935944
000120 1b 2a 07 bc e7 e9 4a 3b 97 8d 6e 3c 8a 29 11 bc
       -0.008249785 0.003096217 0.014560125 -0.008860001
000130 39 64 c2 35 1f 44 48 bc c5 db f6 39 57 81 18 3d
       1.4483295e-06 -0.012223273 0.00047084517 0.037232723
000140 23 51 13 bc 6b 02 ee bb cd 63 d4 3b cf 22 97 ba
       -0.0089915125 -0.007263472 0.0064816237 -0.001153076
000150 25 96 59 3c e2 57 d9 3c 95 74 bf 3b f5 6b b0 bc
       0.013280426 0.026531164 0.005842755 -0.021535853
000160 a7 3f 38 3c 13 22 bc bc 55 6f e5 3b 5d 06 e8 3c
       0.011245645 -0.022965467 0.007001797 0.028323347
000170 4e 4a 31 39 78 9d de 3c 66 32 32 3c ef d9 14 bd
       0.00016907716 0.027174696 0.010876274 -0.03634065
000180 65 89 f8 ba d8 bd 9f 3b 64 67 96 3b e5 36 08 3c
       -0.0018961845 0.004874926 0.004589962 0.008313869
000190 f0 a3 82 3b 6b 94 00 3c 43 56 2c 3c 83 ac 41 3c
       0.003986828 0.007847886 0.010518613 0.011820915
0001a0 18 73 d4 bb ce 99 30 bc e9 6a 0d 3d e3 b7 af bc
       -0.006483447 -0.010778857 0.034525786 -0.021449989
0001b0 10 fc 87 3b 30 56 fb 3b 32 20 02 3c cd 63 15 bd
       0.0041499212 0.0076701865 0.007942246 -0.03647213
0001c0 95 4d f3 bc e0 1e 75 bc 52 9f f9 bc d8 2d ad bc
       -0.02970008 -0.014960974 -0.030471478 -0.021140024
0001d0 35 ff df ba 61 1f 28 bb 37 4f 98 3b 0c 8c 33 bc
       -0.0017089607 -0.002565347 0.004648115 -0.010958683
0001e0 01 39 22 3c 84 0d 1a 3c 46 22 96 bc 47 6c 63 ba
       0.009901286 0.009402636 -0.01832689 -0.00086754974
0001f0 13 d0 a3 3c 87 74 d8 3b 43 18 92 3a 23 75 06 bc
       0.019996678 0.006605688 0.0011146147 -0.0082066385
000200 0f b2 05 bd 1d 85 52 bc cb a6 66 3b 6d 06 40 3c
       -0.032640513 -0.0128491195 0.0035194631 0.011720282
000210 68 a2 f3 3c ff 69 84 bc bf 13 c3 bc 60 ce d0 bc
       0.029740527 -0.016163824 -0.023813127 -0.025489032
000220 d3 f7 b5 39 19 d0 bf 3c 6b bf 1d bc 2a e6 d4 3c
       0.00034707654 0.023414658 -0.009628157 0.025988657
000230 33 4b 66 3c 3b af e5 3c f7 1d 03 bc 77 b1 f1 bb
       0.014056015 0.028037658 -0.00800275 -0.007375892
000240 df 58 36 bb ab 4f 05 bd 1d 16 fa bb 68 ee ae 3c
       -0.0027823967 -0.03254668 -0.0076320306 0.021353915
000250 72 aa 04 3d bc 3d 94 bc a3 56 64 3c e2 6b 63 3b
       0.03238911 -0.018095843 0.013936671 0.0034701754
000260 6c 54 82 bc da f7 e2 bc 3e fa 3a bc 8e b8 2d bd
       -0.015909396 -0.027706075 -0.011412201 -0.042412333
000270 a9 b9 bf 3c 2b 90 8e 3c 7e 3b 27 ba e3 69 73 3c
       0.02340396 0.017402729 -0.00063794095 0.014856788
000280 8d 68 d1 3c a9 c4 89 bc df 0e c4 bb 97 39 b2 bb
       0.025562549 -0.016817408 -0.005983218 -0.005438994
000290 2b 76 b5 bb d9 d6 1a 3c 7e af a0 37 1a 99 1b 3c
       -0.0055377684 0.009450638 1.9155206e-05 0.0094969515
0002a0 27 5b bc bc 87 6a 88 3c 84 b7 19 bd a5 47 51 bc
       -0.022992684 0.016652359 -0.03752853 -0.012773429
0002b0 39 79 41 bb a7 cb ee bc f3 ea 19 bd 28 fd 79 3c
       -0.0029521717 -0.029149843 -0.03757758 0.015258111
0002c0 e9 9f 05 3c f9 46 2d 3c 82 86 5b 3c ad 04 1b 3c
       0.008155801 0.010576003 0.013398768 0.009461564
0002d0 93 ff be bb 1b 56 22 3b e3 20 85 3c 62 87 b2 3b
       -0.0058288067 0.002477056 0.016251033 0.005448268
0002e0 4c 87 87 3c 5d 0b 88 bb 87 56 b5 3b b9 f1 9c 3b
       0.016544007 -0.0041517452 0.0055339965 0.004789558
0002f0 9f e3 eb 3a 56 4f 44 3c 39 b0 c7 bb 43 b6 c2 bb
       0.0017996914 0.011981806 -0.0060940054 -0.0059421374
000300 4e 82 1a bc d3 6f 8c 3c f3 00 c3 bc 73 fd c1 bc
       -0.009430481 0.017143166 -0.023804164 -0.023680424
000310 7f 44 8e 3c 37 72 58 3c d5 bf c1 3c 5d fc a0 3c
       0.017366646 0.013210825 0.023651043 0.019651586
000320 3b 41 ae 3c 0d 48 d0 ba 0f b7 05 bd 37 a0 bc bb
       0.021271339 -0.0015890613 -0.03264528 -0.005756404
000330 b0 4c d9 3b 3c d6 83 3c 22 01 5a 3c 15 3d 00 3d
       0.0066314563 0.016093366 0.013305934 0.031308252
000340 c7 74 80 3b 03 4e 4b bb 87 55 6c bc 10 24 77 3a
       0.003920171 -0.003102184 -0.014424688 0.0009427676
000350 86 33 c8 3a 06 f1 0b 3c 14 84 07 bd c1 52 91 3c
       0.0015274144 0.008541351 -0.033084944 0.017739655
000360 2d 4c 77 bb cc 6e 48 bc 10 d7 e7 bb f7 75 f8 bb
       -0.0037734613 -0.012233447 -0.007075198 -0.007582422
000370 0b 89 1b bc e7 0e e1 3a bc 46 34 bd e6 e8 b2 bb
       -0.009493123 0.0017170579 -0.04401277 -0.0054598926
000380 8f ea 98 bc 27 ec b8 bb 87 73 99 3c 60 63 fe 38
       -0.018666534 -0.005643386 0.018731846 0.00012130174
000390 6f c5 8b bb b2 f1 2f 3c 39 d4 2f bc 34 bf 0c bc
       -0.0042654793 0.010738777 -0.01073175 -0.008590508
0003a0 c8 f3 52 3a 75 2a ef 3b 23 50 23 bc 1d 32 b8 3c
       0.00080471905 0.0072987624 -0.009967837 0.022484833
0003b0 47 82 5d 3c 09 e6 27 3c e0 89 da bb cd 4a 58 bc
       0.01351983 0.010247716 -0.006669268 -0.013201428
0003c0 4b d2 dd bb 11 fc 99 3c 0b 96 3b bc a9 90 3f 3c
       -0.0067694536 0.018796952 -0.011449347 0.0116922045
0003d0 ad a3 5a 3a 83 83 2a bc 1f 13 c4 b9 ff c6 64 3c
       0.00083404296 -0.010407331 -0.0003739828 0.01396346
0003e0 22 30 1c 3c 6d c7 4e 3c 92 45 81 bb 1b 63 99 3c
       0.00953296 0.012620789 -0.003945061 0.018724015
0003f0 3f 17 70 bb d9 d2 ae 3b d6 65 a1 3b bb 19 91 bc
       -0.003663495 0.0053351936 0.00492547 -0.017712465

action_model._continuous_distribution.mu.bias f4 [2]
000000 00 00 00 00 00 00 00 00
       0.0 0.0

network_body._body_endoder.seq_layers.0.weight f4 [128, 3]
000000 3b 7a ed 3d d0 a4 98 bc 7f cd 14 3c 73 b2 59 bd
       0.11595579 -0.018633276 0.009082197 -0.053148698
000010 ef 60 b5 bf 04 a9 b9 be e4 8a 3c 3e aa 3e 2a be
       -1.4170207 -0.3626176 0.18412358 -0.16625467
000020 09 a2 e5 be 9d f2 0b 3e 99 6f 2a bf 8a 10 b4 bf
       -0.44850186 0.13666768 -0.66576535 -1.4067547
000030 3a cf 96 3c 63 34 b4 3d 6b 11 50 bf 60 f1 c2 be
       0.01840936 0.087990545 -0.8127658 -0.3807478
000040 1d a7 08 3e e0 27 e7 3e 51 85 34 be 2b e6 4e 3c
       0.13344999 0.4514761 -0.17628981 0.0126281185
000050 1e 73 b5 3d 4d 43 aa bd 3d ac 5f 3d 0a d7 4b bf
       0.088598475 -0.08313618 0.05460762 -0.79625
000060 ca 4b 1e 3f 52 73 23 3f 66 c0 5b bd a1 e1 db bc
       0.61834395 0.6384784 -0.053650282 -0.026840987
000070 d8 58 96 3d 9d 2d dd be be 4a e9 3e ec 90 73 bf
       0.07341164 -0.43198863 0.45564836 -0.9514301
000080 5b aa 53 3e 66 c0 8e be 4a ad 95 3f 16 0a b7 be
       0.20670454 -0.27881163 1.1693509 -0.35749882
000090 72 42 10 bf 34 79 c7 ba 44 fe 96 3e 77 57 8a 3c
       -0.5635139 -0.0015218616 0.29490864 0.01688741
0000a0 74 51 85 bf 1d 17 8e be ca d5 d2 3e 66 ed 8c 3d
       -1.0415483 -0.2775201 0.41178733 0.06881218
0000b0 35 05 28 3f 70 ee 9f 3e 00 9a a8 bf 49 99 95 bd
       0.65632945 0.312366 -1.3171997 -0.073046274
0000c0 72 c8 f0 be c8 9c 32 bf d2 6a 1e 3f 0e 07 d8 be
       -0.47027928 -0.6977048 0.61881745 -0.42192882
0000d0 f0 46 c0 be 53 70 fe be b1 f7 b2 3e 28 72 53 bf
       -0.3755412 -0.49695072 0.349546 -0.82596064
0000e0 eb 22 26 3e 1c 07 52 3f 48 4c 2a 3e 53 b7 29 be
       0.16224258 0.820421 0.16630661 -0.16573839
0000f0 8e c5 09 be c8 f1 a2 bf f2 29 84 3e d5 c0 ec 3e
       -0.13454267 -1.2730036 0.25813252 0.4624087
000100 93 f3 d1 bd 80 c1 8d 3c b5 a1 4e be 52 44 ed be
       -0.10251536 0.017304182 -0.20178874 -0.46341187
000110 5a c3 04 be 91 ee 48 bf 42 b3 a9 bf 62 69 e3 3d
       -0.12965146 -0.78489023 -1.325783 0.111040846
000120 1a 52 66 3e 97 87 8d 3e ad 51 4d bf 55 19 1f bf
       0.22492257 0.2764251 -0.8020275 -0.6214803
000130 2b 66 64 bf e6 c5 09 bf 74 e0 1c bf 43 6a 42 3e
       -0.89218396 -0.53817594 -0.6127999 0.18985848
000140 e0 04 47 be 2e a0 fc 3e f0 3b f4 bd 4b 35 b4 be
       -0.19435453 0.49340957 -0.11925495 -0.3519691
000150 ed ed a4 be be 88 97 bd 44 e3 29 3e f2 29 3a 3f
       -0.32212773 -0.073991284 0.16590601 0.72720253
000160 5e d5 03 bc a3 42 ca 3e f7 83 9f be 4d 1e 49 be
       -0.008046476 0.39503965 -0.3115537 -0.19640465
000170 8a 24 e4 3e 4f 50 48 3a f8 dc 01 bf 6c 42 0c bf
       0.44559127 0.00076413614 -0.50727797 -0.5478885
000180 4f 71 12 3f a2 31 cd 3d 4a 8f 46 3f c7 fc 0c 3e
       0.57204145 0.10019232 0.7756239 0.13768302
000190 47 9b c5 be fb 3d 9a be 8e 42 c7 3e c1 08 94 be
       -0.3859503 -0.30125412 0.38917965 -0.2891293
0001a0 39 cb 49 3e 3d 36 5b 3f b8 15 05 3f 15 c0 10 3f
       0.1970643 0.85629636 0.51986265 0.56543094
0001b0 74 cd 2f be ce 3a 5d be f4 6a 6e bf 9a 7e 12 3f
       -0.17168218 -0.21604463 -0.9313195 0.5722443
0001c0 b4 05 15 bf b6 b9 36 bd 81 20 53 3f 8b 0e 20 3f
       -0.5821183 -0.0446107 0.8247147 0.6252219
0001d0 a8 79 49 3f b3 16 3d 3d 64 7f 87 3e 08 cd e4 3b
       0.7870126 0.046164226 0.2646438 0.0069824494
0001e0 dc 14 82 3f a8 27 ec 3e 04 75 fc 3e bd cd 0b be
       1.0162616 0.46124005 0.49308026 -0.13652702
0001f0 19 5d 81 bf d1 40 3f bf 69 ed 5a 3e 6d 2b 10 3d
       -1.0106536 -0.74708277 0.21379627 0.035197664
000200 bb 68 fe be 9d a7 81 3e 79 cd fc 3d de dc 9c 3e
       -0.49689278 0.2532319 0.12343878 0.30637258
000210 40 0c 61 be 80 1e 13 bf 0e 05 52 3e 01 c3 31 bf
       -0.21977329 -0.57468414 0.2050974 -0.6943818
000220 fc ef 4b bf 22 47 96 3e 37 05 0d be 22 32 36 bf
       -0.7966306 0.29351145 -0.1377152 -0.71170247
000230 7f 50 39 3f b0 4a 29 bf 15 ac 13 3e fc 9f 00 bf
       0.7238845 -0.6612959 0.14421113 -0.50244117
000240 40 8c 22 3e fa e6 06 3f 7f d4 58 bf e3 3a a5 3e
       0.15873814 0.5269619 -0.84699243 0.3227149
000250 c4 fd 9a be e7 16 50 3f 17 09 1f 3e 16 fb 06 3f
       -0.30271733 0.81284946 0.15530811 0.52726877
000260 70 a2 86 bd d0 a0 87 be 81 49 66 bf 30 b1 82 3f
       -0.06573951 -0.26489878 -0.8995591 1.0210323
000270 e7 f7 b5 3d f1 68 45 3d b5 74 1a bc 38 40 c6 3e
       0.08885174 0.048195783 -0.009427239 0.3872087
000280 c5 ba ba 3e 18 02 b8 be 92 d3 11 3e d8 0e 64 be
       0.3647062 -0.35939097 0.14240864 -0.22271287
000290 2d 63 bd bf 83 bd c6 be 93 28 61 3c 7e 4d 99 be
       -1.4795891 -0.3881646 0.013742584 -0.29941934
0002a0 bc de 89 bf e4 51 c8 3d 42 44 3c 3f 37 b1 5d 3e
       -1.0771098 0.097812444 0.73541653 0.21649633
0002b0 38 e2 d4 3e db 3d 0d 3e 02 be c4 3f 2f 14 32 bf
       0.4157884 0.13793127 1.5370486 -0.6956205
0002c0 d6 06 58 be 2b 84 09 3f c5 44 53 bf 1b c9 bc be
       -0.21096358 0.537173 -0.8252681 -0.3687218
0002d0 0e 0b 5f bf 3e 1e 6e be 19 a2 e0 3e 8b 6a 10 bf
       -0.87126243 -0.23253724 0.4387367 -0.5641257
0002e0 1f c1 ad 3e a8 04 93 be 56 6f 49 bf af 56 28 3f
       0.33936402 -0.2871449 -0.7868551 0.6575727
0002f0 08 5e 9a 3e 49 56 c7 be cd f4 8f 3d 1b 4d a3 3e
       0.30149865 -0.38933018 0.07029114 0.31894764
000300 25 6e f3 bd 6e 0c ec 3d 24 52 ba bf 9b e7 40 bf
       -0.11886243 0.11525808 -1.4556317 -0.753534
000310 1b 78 9e be 51 e1 77 3d 40 8d 34 3f 76 6f 78 be
       -0.30951008 0.060517613 0.7052803 -0.24261269
000320 fc b3 91 bf ea b6 38 bf 6c e2 0e 3e 24 8b 39 3f
       -1.1383052 -0.72154105 0.1395356 0.72477937
000330 6e 7a 1f bf 41 5d b1 be 7c d8 f1 3e e4 17 bb be
       -0.6229619 -0.3464146 0.47235477 -0.36541665
000340 36 c8 76 bf 92 40 02 3e a7 95 c4 be 7a 6d 35 bf
       -0.9639925 0.12719944 -0.38395426 -0.7087017
000350 63 f9 e9 3c 44 74 2b be 50 71 a8 be 67 47 36 bf
       0.0285613 -0.1674357 -0.3289895 -0.712027
000360 54 d1 a9 3e df 2f 53 be 7e 6c 00 bf fb 47 b5 be
       0.33167517 -0.2062373 -0.50165546 -0.3540648
000370 b2 64 bb 3e 6c 22 7b 3e e7 60 c1 bc 72 b0 ed 3d
       0.36600262 0.2452485 -0.023605777 0.1160592
000380 b7 e1 35 3e f7 53 3f bf a5 81 af be 1f cd a3 bc
       0.17761885 -0.74737495 -0.34278598 -0.01999527
000390 86 a3 26 be 5b b3 bb bc 1f f0 f7 3b cc ae fb bd
       -0.16273317 -0.022912672 0.0075664665 -0.12289199
0003a0 85 00 65 bf aa bb ce bd 58 23 87 3e ce ce 4d 3e
       -0.8945392 -0.10094388 0.26394153 0.20098421
0003b0 28 09 99 bf 3b b2 b4 be a6 d9 a1 3f 34 1e a7 bf
       -1.1955919 -0.3529223 1.2644546 -1.3056092
0003c0 69 2c 28 3f 4e 62 78 3f 11 28 ea 3e 54 05 39 3e
       0.65692765 0.97025 0.45733693 0.18068439
0003d0 40 6c b5 3e c0 2f 1b be f8 52 1a bf ba 8f 48 3e
       0.3543415 -0.15154934 -0.6028285 0.19586077
0003e0 3a 33 34 3f 75 2c 37 3d 63 5c 12 bf 1e 8d 98 3f
       0.70390666 0.044720132 -0.5717222 1.1918066
0003f0 93 e1 da bd 92 fe b7 3e b7 b6 c0 3e 57 5f f8 be
       -0.10687556 0.3593641 0.376394 -0.4851024

network_body._body_endoder.seq_layers.0.bias f4 [128]
000000 00 00 00 00 00 00 00 00 00 00 00 00 00 00 00 00
       0.0 0.0 0.0 0.0
000010 00 00 00 00 00 00 00 00 00 00 00 00 00 00 00 00
       0.0 0.0 0.0 0.0
000020 00 00 00 00 00 00 00 00 00 00 00 00 00 00 00 00
       0.0 0.0 0.0 0.0
000030 00 00 00 00 00 00 00 00 00 00 00 00 00 00 00 00
       0.0 0.0 0.0 0.0
000040 00 00 00 00 00 00 00 00 00 00 00 00 00 00 00 00
       0.0 0.0 0.0 0.0
000050 00 00 00 00 00 00 00 00 00 00 00 00 00 00 00 00
       0.0 0.0 0.0 0.0
000060 00 00 00 00 00 00 00 00 00 00 00 00 00 00 00 00
       0.0 0.0 0.0 0.0
000070 00 00 00 00 00 00 00 00 00 00 00 00 00 00 00 00
       0.0 0.0 0.0 0.0
000080 00 00 00 00 00 00 00 00 00 00 00 00 00 00 00 00
       0.0 0.0 0.0 0.0
000090 00 00 00 00 00 00 00 00 00 00 00 00 00 00 00 00
       0.0 0.0 0.0 0.0
0000a0 00 00 00 00 00 00 00 00 00 00 00 00 00 00 00 00
       0.0 0.0 0.0 0.0
0000b0 00 00 00 00 00 00 00 00 00 00 00 00 00 00 00 00
       0.0 0.0 0.0 0.0
0000c0 00 00 00 00 00 00 00 00 00 00 00 00 00 00 00 00
       0.0 0.0 0.0 0.0
0000d0 00 00 00 00 00 00 00 00 00 00 00 00 00 00 00 00
       0.0 0.0 0.0 0.0
0000e0 00 00 00 00 00 00 00 00 00 00 00 00 00 00 00 00
       0.0 0.0 0.0 0.0
0000f0 00 00 00 00 00 00 00 00 00 00 00 00 00 00 00 00
       0.0 0.0 0.0 0.0
000100 00 00 00 00 00 00 00 00 00 00 00 00 00 00 00 00
       0.0 0.0 0.0 0.0
000110 00 00 00 00 00 00 00 00 00 00 00 00 00 00 00 00
       0.0 0.0 0.0 0.0
000120 00 00 00 00 00 00 00 00 00 00 00 00 00 00 00 00
       0.0 0.0 0.0 0.0
000130 00 00 00 00 00 00 00 00 00 00 00 00 00 00 00 00
       0.0 0.0 0.0 0.0
000140 00 00 00 00 00 00 00 00 00 00 00 00 00 00 00 00
       0.0 0.0 0.0 0.0
000150 00 00 00 00 00 00 00 00 00 00 00 00 00 00 00 00
       0.0 0.0 0.0 0.0
000160 00 00 00 00 00 00 00 00 00 00 00 00 00 00 00 00
       0.0 0.0 0.0 0.0
000170 00 00 00 00 00 00 00 00 00 00 00 00 00 00 00 00
       0.0 0.0 0.0 0.0
000180 00 00 00 00 00 00 00 00 00 00 00 00 00 00 00 00
       0.0 0.0 0.0 0.0
000190 00 00 00 00 00 00 00 00 00 00 00 00 00 00 00 00
       0.0 0.0 0.0 0.0
0001a0 00 00 00 00 00 00 00 00 00 00 00 00 00 00 00 00
       0.0 0.0 0.0 0.0
0001b0 00 00 00 00 00 00 00 00 00 00 00 00 00 00 00 00
       0.0 0.0 0.0 0.0
0001c0 00 00 00 00 00 00 00 00 00 00 00 00 00 00 00 00
       0.0 0.0 0.0 0.0
0001d0 00 00 00 00 00 00 00 00 00 00 00 00 00 00 00 00
       0.0 0.0 0.0 0.0
0001e0 00 00 00 00 00 00 00 00 00 00 00 00 00 00 00 00
       0.0 0.0 0.0 0.0
0001f0 00 00 00 00 00 00 00 00 00 00 00 00 00 00 00 00
       0.0 0.0 0.0 0.0

network_body._body_endoder.seq_layers.2.weight f4 [128, 128]
000000 49 75 23 3c cf 6d db 3c e9 9c ca bc 9e 38 7f 3d
       0.009976693 0.02678576 -0.024733024 0.062309854
000010 db 8c 5a bd 3b ce 23 bd 55 61 d2 3d eb a0 56 bb
       -0.053356986 -0.0399916 0.10272471 -0.0032749723
000020 d0 6e ce 3c 00 c7 95 3d e0 36 89 3c e0 c1 16 3e
       0.025199324 0.07313347 0.0167498 0.14722395
000030 89 4e 51 be ee 4a c0 3b fc b4 fb bc 0d 08 7c bd
       -0.20440115 0.0058683073 -0.030725949 -0.061531115
000040 13 24 17 bc 7b 91 92 bd 49 ee 99 3c d8 5b 1e be
       -0.009224909 -0.071566544 0.018790381 -0.15464723
000050 c9 57 17 be 36 20 83 3c 15 0c 35 3e 24 20 cd bd
       -0.14779581 0.01600657 0.1768039 -0.10015896
000060 9c 57 91 3a 99 10 e3 3c 7a 04 8f bd ae 58 7c bd
       0.0011088732 0.027717875 -0.06983276 -0.06160801
000070 e1 ac 10 bc 3a 96 ca 3d 07 f0 fd 3c 4a 70 79 3e
       -0.00883028 0.09891935 0.030998243 0.24359241
000080 51 06 07 3e 86 46 78 3b 58 18 fc 3b 5a fe 3b be
       0.13186003 0.0037883832 0.0076933317 -0.18358746
000090 79 f3 84 3c 69 68 50 bd 7d 09 69 bd 1c 61 5f 3d
       0.016229378 -0.050880823 -0.056893814 0.05453597
0000a0 4d 5d 17 be 0f bd 2b 3d 72 69 97 bb 4f 8d bc 3d
       -0.14781685 0.041928347 -0.0046207244 0.0920664
0000b0 5f c3 aa bd 70 f2 2c be d5 a6 47 3d 83 c7 a2 3d
       -0.08338045 -0.16889358 0.048743088 0.0794821
0000c0 88 42 62 3c 52 9c 60 3d 11 1d f2 3d 6f 27 25 bd
       0.013809808 0.05483658 0.1182195 -0.04032081
0000d0 bc 01 f6 bd d2 c2 62 3c e4 04 fd bd 32 ca 00 3d
       -0.120120496 0.013840394 -0.123544484 0.03144283
0000e0 72 73 97 bd e2 92 ca 3c 85 fd 1c bc ae ff 05 3d
       -0.07395066 0.024728242 -0.009581928 0.03271454
0000f0 33 93 99 3c 0b 76 4f 3d 71 43 60 bd 9a 08 0a bd
       0.018746948 0.050649684 -0.054751817 -0.03369961
000100 4f 6b 5a 3d a1 c0 3f 3d a2 b8 72 bd 77 53 cb 3d
       0.053324994 0.046814565 -0.05925811 0.09928029
000110 d6 aa 17 3e 40 91 31 3e 3b b3 72 bb b2 3b 3c 3d
       0.14811262 0.17340565 -0.00370331 0.045955367
000120 66 34 24 be 63 c3 8f 3d d7 3b 95 bd bf b6 47 3d
       -0.16035613 0.07019689 -0.07286804 0.048758265
000130 a0 f5 22 bc df 8a 50 3c 59 7f 1b 3e 79 f0 e0 bd
       -0.009946257 0.012728422 0.15185298 -0.109833665
000140 61 dd 15 3e be 01 34 bd 7d b4 2a 3c 67 20 88 3d
       0.1463523 -0.043946974 0.010419008 0.06646805
000150 ea a3 aa bd 93 8d 5d 3d 43 1a 11 bd b5 3c dd 3d
       -0.083320454 0.054090094 -0.035425436 0.108025946
000160 83 bc fb 3c 65 d6 90 bc 44 90 44 3c bd e1 32 3e
       0.030729538 -0.017680356 0.011997286 0.17468925
000170 0a 60 a5 bc 48 b4 d6 bd cc a1 bc 39 65 49 90 3d
       -0.020187397 -0.10483605 0.00035978702 0.07045249
000180 ac 1b 1d 3e b5 86 04 bd fb 3c 1e 3e ab 15 24 bd
       0.15342587 -0.03235503 0.1545295 -0.040059727
000190 56 1b 77 bc 60 7a 22 be 8f bd 89 bd b8 03 ac bd
       -0.015082201 -0.15866995 -0.067256086 -0.08399147
0001a0 6a 3b e0 bd f9 60 da bd 7d d8 46 be 38 57 0f bc
       -0.10948832 -0.10663027 -0.19418521 -0.008748822
0001b0 17 83 cd bd e9 b8 9a be 9b fc ec 3c b1 ca 24 3e
       -0.10034769 -0.302192 0.028929045 0.16092946
0001c0 60 28 1b 3e 12 db 8a 3d b4 2d 97 3c 2f 16 12 3d
       0.1515212 0.067800656 0.01845441 0.035665687
0001d0 ca a9 c7 bc e0 6b 00 be 9e 38 c1 bc ce 58 08 be
       -0.024372954 -0.12541151 -0.023586567 -0.13315126
0001e0 7b e2 bf bd 35 dd b6 3d 4f aa 94 3d ad 55 93 3c
       -0.093693696 0.08928911 0.07259046 0.01798519
0001f0 20 45 ef 3d 9a e7 4f bd c3 49 ba 3d 9b ed ba 3d
       0.116831064 -0.05075798 0.090961 0.09127351
000200 0d db 59 be 2c 20 c2 bc 9b a9 92 3d 60 64 e3 3d
       -0.21274967 -0.023696981 0.07161256 0.111031294
000210 fe 83 17 3d 18 43 1a 3b fe 23 24 bc 86 34 00 3e
       0.036991112 0.0023538526 -0.010018347 0.12520036
000220 fb 53 64 bc 35 ee 83 3d 60 e3 ea bd 3a 03 95 bd
       -0.013936038 0.06441919 -0.114691496 -0.07276006
000230 f5 a1 7e bc 4f 62 17 3e b7 55 f3 bd 7a 20 2b bd
       -0.015541543 0.14783596 -0.11881583 -0.04177902
000240 30 63 35 3d 3a 33 b8 3d 0f 92 e5 3c db 8d fa 3c
       0.044284046 0.08994146 0.028023748 0.03058522
000250 26 61 90 bc 47 5d fa 3d 71 5f 90 bd 63 8e 44 3d
       -0.017624449 0.122248225 -0.07049454 0.047987353
000260 12 db 64 bd 65 d8 6c bc 2b dc 96 3c 29 6f 37 bd
       -0.055872984 -0.014455889 0.018415531 -0.044783745
000270 2f 64 c8 3d c9 95 b6 bd 0e 3a 0f be db 94 ac 3c
       0.097847335 -0.08915288 -0.1398699 0.021067074
000280 03 15 9d bc 12 0e 4c be 5f 80 a9 3d 44 8c 6b 3d
       -0.019175058 -0.19927242 0.08276438 0.057506815
000290 c1 39 59 be d5 b1 94 bd 08 57 12 3d c4 3c 49 39
       -0.21213438 -0.07260481 0.03572753 0.0001919149
0002a0 89 17 e5 bb 4a cc 9d bd a2 83 f7 3c b4 35 4e 3e
       -0.006991331 -0.07704981 0.030214135 0.20137674
0002b0 86 63 5c 3c c9 27 b3 3d e4 d1 08 3d ac 56 02 be
       0.013451463 0.08747823 0.033403292 -0.12728375
0002c0 c5 24 81 bd 4b fd df bc 98 e9 38 3e 78 f0 6b 3d
       -0.06305841 -0.02734246 0.18057859 0.057602376
0002d0 21 b6 6b 3c c7 ee a8 bc f0 b4 82 bd ea 72 d5 bd
       0.014386685 -0.02062167 -0.06382167 -0.10422309
0002e0 cf 2b ce 3d df 5c e4 bd 63 d9 4a bd 75 5d 8b bc
       0.100669496 -0.11150526 -0.049523722 -0.017012337
0002f0 5a bd 51 3d cc 39 ed bb 20 d9 61 3d aa 6a 78 bb
       0.05120597 -0.007239556 0.055138707 -0.0037905374
000300 ed 23 56 bd f1 93 fe 3c 0f f0 df 3d e1 20 55 bd
       -0.052280355 0.031076403 0.109344594 -0.05203331
000310 25 26 21 3e 8a 9f a3 3d b7 c5 16 3d 0a 43 21 bc
       0.15737207 0.07989414 0.03680965 -0.0098426435
000320 c1 96 e3 3c 9c 90 96 3c ca 9f 97 3d fb 33 2e bd
       0.027781846 0.018379502 0.07403524 -0.04253004
000330 ac 98 c7 bd b2 c0 c7 3c 82 b8 1e bd 59 d3 1e 3d
       -0.09745917 0.024383876 -0.03875018 0.038775776
000340 66 e5 66 3d c9 0a a4 3c 2b 58 75 3d 32 29 13 3d
       0.056371115 0.020024674 0.059898537 0.03592796
000350 dd f9 84 bc c2 ab 54 3d 90 12 0d bd 46 42 b6 bd
       -0.016232425 0.051921614 -0.03444153 -0.088993594
000360 05 f3 81 3c cc bb 74 bc 0d 06 7f 3d f3 4d 2a 3d
       0.015862951 -0.014937352 0.06226163 0.041578244
000370 c5 fb be 3d 51 2b 13 3e 81 85 99 3d 67 0d 1f bd
       0.09325365 0.14371993 0.07496167 -0.03883114
000380 92 b4 2d bd 66 ed 8e 3c 8c 44 04 3e 4e 4d 01 3e
       -0.042408533 0.017447185 0.12916774 0.12627146
000390 21 16 23 3e 5a 92 97 3c aa bc 99 bd fc 91 02 3e
       0.1592641 0.018502403 -0.07506688 0.12751001
0003a0 84 ca 54 3d 26 59 dc bd 0f cb 2b bd 30 52 c2 bd
       0.051950946 -0.10759191 -0.0419417 -0.09488332
0003b0 9f 8b f7 39 1a a1 09 bd 90 e4 a5 3d 59 d4 33 bc
       0.00047215537 -0.033600904 0.081002355 -0.010975921
0003c0 ed 9c 9e bc fb 7b 16 bd 76 bf 40 3d bf 9f a9 bd
       -0.019361937 -0.03673933 0.04705759 -0.08282422
0003d0 00 ae 88 bd e1 98 0a 3b 25 50 b3 3d 02 74 0d be
       -0.06673813 0.0021148252 0.08755521 -0.13813785
0003e0 b4 47 47 bd 11 45 12 bd dd 5d 15 be 9b 9b b0 bd
       -0.048652366 -0.035710398 -0.14586587 -0.086234294
0003f0 b2 c6 59 bd 68 e9 93 3d 7a 81 90 bd fe c7 be bd
       -0.053168006 0.07222253 -0.07055946 -0.09315489

network_body._body_endoder.seq_layers.2.bias f4 [128]
000000 00 00 00 00 00 00 00 00 00 00 00 00 00 00 00 00
       0.0 0.0 0.0 0.0
000010 00 00 00 00 00 00 00 00 00 00 00 00 00 00 00 00
       0.0 0.0 0.0 0.0
000020 00 00 00 00 00 00 00 00 00 00 00 00 00 00 00 00
       0.0 0.0 0.0 0.0
000030 00 00 00 00 00 00 00 00 00 00 00 00 00 00 00 00
       0.0 0.0 0.0 0.0
000040 00 00 00 00 00 00 00 00 00 00 00 00 00 00 00 00
       0.0 0.0 0.0 0.0
000050 00 00 00 00 00 00 00 00 00 00 00 00 00 00 00 00
       0.0 0.0 0.0 0.0
000060 00 00 00 00 00 00 00 00 00 00 00 00 00 00 00 00
       0.0 0.0 0.0 0.0
000070 00 00 00 00 00 00 00 00 00 00 00 00 00 00 00 00
       0.0 0.0 0.0 0.0
000080 00 00 00 00 00 00 00 00 00 00 00 00 00 00 00 00
       0.0 0.0 0.0 0.0
000090 00 00 00 00 00 00 00 00 00 00 00 00 00 00 00 00
       0.0 0.0 0.0 0.0
0000a0 00 00 00 00 00 00 00 00 00 00 00 00 00 00 00 00
       0.0 0.0 0.0 0.0
0000b0 00 00 00 00 00 00 00 00 00 00 00 00 00 00 00 00
       0.0 0.0 0.0 0.0
0000c0 00 00 00 00 00 00 00 00 00 00 00 00 00 00 00 00
       0.0 0.0 0.0 0.0
0000d0 00 00 00 00 00 00 00 00 00 00 00 00 00 00 00 00
       0.0 0.0 0.0 0.0
0000e0 00 00 00 00 00 00 00 00 00 00 00 00 00 00 00 00
       0.0 0.0 0.0 0.0
0000f0 00 00 00 00 00 00 00 00 00 00 00 00 00 00 00 00
       0.0 0.0 0.0 0.0
000100 00 00 00 00 00 00 00 00 00 00 00 00 00 00 00 00
       0.0 0.0 0.0 0.0
000110 00 00 00 00 00 00 00 00 00 00 00 00 00 00 00 00
       0.0 0.0 0.0 0.0
000120 00 00 00 00 00 00 00 00 00 00 00 00 00 00 00 00
       0.0 0.0 0.0 0.0
000130 00 00 00 00 00 00 00 00 00 00 00 00 00 00 00 00
       0.0 0.0 0.0 0.0
000140 00 00 00 00 00 00 00 00 00 00 00 00 00 00 00 00
       0.0 0.0 0.0 0.0
000150 00 00 00 00 00 00 00 00 00 00 00 00 00 00 00 00
       0.0 0.0 0.0 0.0
000160 00 00 00 00 00 00 00 00 00 00 00 00 00 00 00 00
       0.0 0.0 0.0 0.0
000170 00 00 00 00 00 00 00 00 00 00 00 00 00 00 00 00
       0.0 0.0 0.0 0.0
000180 00 00 00 00 00 00 00 00 00 00 00 00 00 00 00 00
       0.0 0.0 0.0 0.0
000190 00 00 00 00 00 00 00 00 00 00 00 00 00 00 00 00
       0.0 0.0 0.0 0.0
0001a0 00 00 00 00 00 00 00 00 00 00 00 00 00 00 00 00
       0.0 0.0 0.0 0.0
0001b0 00 00 00 00 00 00 00 00 00 00 00 00 00 00 00 00
       0.0 0.0 0.0 0.0
0001c0 00 00 00 00 00 00 00 00 00 00 00 00 00 00 00 00
       0.0 0.0 0.0 0.0
0001d0 00 00 00 00 00 00 00 00 00 00 00 00 00 00 00 00
       0.0 0.0 0.0 0.0
0001e0 00 00 00 00 00 00 00 00 00 00 00 00 00 00 00 00
       0.0 0.0 0.0 0.0
0001f0 00 00 00 00 00 00 00 00 00 00 00 00 00 00 00 00
       0.0 0.0 0.0 0.0

value_heads.value_heads.extrinsic.weight f4 [1, 128]
000000 a8 b8 4e 3e 14 f6 4e 3e 3c 9a 0b bd 30 56 8f bc
       0.20187628 0.20211059 -0.034082636 -0.017497152
000010 67 4b 03 be a4 ad f2 bd 64 a0 fd 3d ac aa 13 bd
       -0.12821732 -0.118495256 0.12384108 -0.036051437
000020 0d e4 1d be c3 36 5a be fa 35 0a be 03 52 df bd
       -0.15419026 -0.21309952 -0.13497153 -0.10904314
000030 54 1c 2e bd ea 26 03 3e 16 0a 81 bd 5b 4a 47 be
       -0.042507485 0.12807813 -0.06300752 -0.19461958
000040 36 de 4d be 98 58 41 3d 80 a8 64 3d 91 58 4a be
       -0.20104298 0.04720363 0.055824757 -0.19760348
000050 ec 5d 48 be 76 3d 08 3e a8 ae ea 3c 3c aa b6 bd
       -0.19567078 0.13304695 0.028647736 -0.089191884
000060 a6 0f 29 be 14 30 94 3d 82 50 55 3e 70 2d cd 3c
       -0.16509876 0.07235733 0.20831493 0.02504608
000070 cc c8 f3 bd 62 15 3c be 70 ea 7c 3c 38 ad 98 bc
       -0.11903533 -0.18367532 0.015436754 -0.018637285
000080 60 82 46 3e c4 cd 98 bd 66 ba 43 3e 95 be 3d be
       0.19385672 -0.07461122 0.19114074 -0.18529733
000090 d8 17 f5 3c d8 06 2e 3d 9c 8c ca 3d b2 15 1f 3e
       0.029918596 0.042486995 0.098901 0.1553562
0000a0 74 df 03 bd 2f 2b 0d be e0 11 e5 bb 38 47 2c 3e
       -0.032195523 -0.13786004 -0.0069906563 0.16824043
0000b0 ca 6a 23 be 40 80 da 3d a0 5a 4e bd 28 45 31 bd
       -0.15958706 0.10668993 -0.050379395 -0.043278843
0000c0 a8 b7 d3 3c ba 97 2f 3e 22 d7 1f 3e 48 2e 15 3e
       0.02584441 0.17147723 0.1560941 0.14568436
0000d0 34 36 e0 3d 00 0b 6b 3c 90 95 9a bc 40 71 df bb
       0.109478384 0.014345884 -0.018870145 -0.0068189204
0000e0 1c b1 b7 3d 8e 5c 06 be be eb 2d 3e 24 ab 0b bd
       0.08969328 -0.13121244 0.1698446 -0.03409876
0000f0 14 3b 2a 3e f0 90 0e 3d 24 35 40 3e d4 7a a8 bd
       0.16624099 0.034806192 0.18770272 -0.082265526
000100 f8 f7 20 3d a8 32 19 3d 60 63 a3 bd a9 49 46 be
       0.03929898 0.037401825 -0.07977939 -0.19364037
000110 8c 80 a6 bd 72 1c 3d be e8 aa ce bc db b7 03 be
       -0.08129987 -0.18467882 -0.025227979 -0.12863104
000120 2c 37 49 3e e0 d7 81 3c 70 ae b3 3c 98 10 c7 3d
       0.19649953 0.015850008 0.021933764 0.09719962
000130 d4 19 6d bd 30 76 c0 bc 9c a3 14 3e 68 ae 18 3e
       -0.05788596 -0.023493856 0.14515537 0.1491028
000140 8c 06 cb bd f4 73 48 bd 1c 52 f7 3d 2a 63 02 be
       -0.09913358 -0.048938707 0.12076208 -0.1273314
000150 22 52 ef bd 22 02 15 be 4c f8 1f 3e 06 63 05 be
       -0.116855875 -0.14551595 0.15622061 -0.13026056
000160 c8 44 ee bc 40 d3 d3 3d c8 44 65 3d 9e 6c 00 3e
       -0.029085532 0.10343027 0.055973798 0.12541434
000170 09 35 2e be 48 de 45 bd 16 79 42 be 80 0c 30 3e
       -0.17012419 -0.048307687 -0.18991503 0.17192268
000180 c6 da 30 3e 4f cf 07 be f0 2d 29 3d 80 e3 39 bb
       0.17270955 -0.13262676 0.041303575 -0.002836436
000190 36 3f 4d be c4 bb 58 3e 70 f2 1d bd b5 24 52 be
       -0.20043644 0.21165377 -0.038561285 -0.20521815
0001a0 30 08 83 3d 5b 14 ba bd 8e f5 8e bd 4a 26 33 3e
       0.06398046 -0.09085914 -0.069804296 0.17495075
0001b0 e4 1a fc 3d d0 09 db 3c 70 10 fa bc 70 13 e5 bd
       0.123098165 0.026738077 -0.030525416 -0.11185348
0001c0 30 13 6d 3d 50 4e 9f bd 2f 6f f4 bd d4 54 46 be
       0.057879627 -0.07778609 -0.11935269 -0.19368297
0001d0 08 fe 6f 3d a4 94 32 3e c0 0e 65 3d fa f8 58 3e
       0.058591872 0.17439514 0.05592227 0.21188727
0001e0 6e 7d 2b 3e ef 7e 22 be 40 f4 04 bc 38 b0 79 3d
       0.16747066 -0.15868734 -0.008114874 0.06095907
0001f0 90 c8 1c 3d 96 5a 1d be dc 76 36 bd 28 c7 3c be
       0.03827721 -0.15366587 -0.044546947 -0.18435347
