python/results/minion_walk_003/Minion/Minion-1897.onnx (onnx, 78034 bytes, 7 tensors)

network_body._body_endoder.seq_layers.0.weight f4 [128, 15]
0	0x3e24843d	0.1606607
1	0xbf1205e4	-0.5704024
2	0x3dd17fb6	0.10229437
3	0xbe9fb79d	-0.31194773
4	0x3e6a15f6	0.2285994
5	0x3e475536	0.19466099
6	0x3db4f18f	0.08835136
7	0xbd97410f	-0.07385456
8	0x3eadf786	0.33977908
9	0x3da16a06	0.078815505
10	0x3ea0a4d2	0.31375748
11	0x3ea0757e	0.3133964
12	0xbe25b9f9	-0.16184224
13	0xbdc0ba25	-0.09410504
14	0xbf230450	-0.63678455
15	0xbe5ff0ee	-0.21869251
16	0xbd353880	-0.044243336
17	0x3dda3f82	0.106566444
18	0x3e37ee7a	0.17962065
19	0x3d15fd37	0.036618438
20	0x3eb5668f	0.35429808
21	0x3ddf898c	0.10914907
22	0xbe63c236	-0.22242054
23	0xbe6832c3	-0.22675614
24	0xbd3139ca	-0.043268003
25	0x3e66d2ad	0.22541304
26	0xbe5eaf8a	-0.2174665
27	0x3dbc09de	0.091815695
28	0x3e60a8d0	0.21939397
29	0xbe9e07a8	-0.30865216
30	0x3e226ffa	0.15863028
31	0x3c8632c3	0.016381627
32	0xbe8d2403	-0.27566537
33	0xbeac530b	-0.33657107
34	0x3e0bf2b5	0.13666804
35	0xbe9215d2	-0.28532273
36	0x3cb7ce29	0.022437172
37	0x3ea0e34e	0.3142342
38	0xbeea20d8	-0.45728183
39	0xbd7e234f	-0.06204539
40	0x3c7540fa	0.014969105
41	0x3d5fb2fb	0.05461405
42	0xbe2f3862	-0.17111352
43	0x3f2c5f3f	0.67332834
44	0x3c5f3b5b	0.013624991
45	0x3e826ceb	0.25473723
46	0xbea8951e	-0.32926267
47	0x3d327a27	0.043573525
48	0xbe6da576	-0.2320765
49	0x3eeeddb5	0.46653524
50	0x3ed3a1be	0.41334337
51	0x3c3d20e6	0.011543488
52	0x3ebff683	0.3749276
53	0x3db612a5	0.08890275
54	0xbe10ab0f	-0.14127754
55	0x3c9ccee3	0.01914162
56	0xbd09a256	-0.03360208
57	0xbeae8ba1	-0.34090903
58	0x3e641491	0.2227347
59	0x3c57a1d8	0.013161145
60	0xbee0fdb5	-0.43943563
61	0xbd96fcce	-0.073724374
62	0xbeb3ed08	-0.35141778
63	0xbdb3e458	-0.087837875
64	0xbe549dac	-0.20763272
65	0x3f002032	0.50049126
66	0xbe444d4c	-0.19170111
67	0x3e5f2ed3	0.21795206
68	0xbd357240	-0.04429841
69	0x3e7803f4	0.24220258
70	0x3f163645	0.5867656
71	0xbe0b19e4	-0.13584095
72	0x3e34c6cc	0.1765396
73	0x3e9145cd	0.28373566
74	0xbc9a93f9	-0.018869387
75	0xbdeb745c	-0.11496803
76	0xbe414e94	-0.18877631
77	0x3d5b4439	0.05353186
78	0xbc461c42	-0.012091698
79	0x3ea25c8c	0.31711233
80	0xbf1c5395	-0.61065036
81	0x3e1b0e8b	0.15142266
82	0x3dc6ca47	0.0970655
83	0x3d01b219	0.031663988
84	0x3d9ca991	0.0764953
85	0x3ef74967	0.4829819
86	0xbe48a8c7	-0.19595633
87	0x3f081b9b	0.5316712
88	0x3df3a4ae	0.118966445
89	0x3e514de7	0.20439874
90	0x3dbbabd6	0.091636345
91	0x3e505e69	0.20348515
92	0xbec14aab	-0.3775228
93	0xbec2e358	-0.38064075
94	0xbe27729a	-0.16352311
95	0x3ed25789	0.4108241
96	0xbeb7fea1	-0.35936454
97	0x3e233c43	0.15940957
98	0x3e183424	0.1486364
99	0x3d9cc9d3	0.076556824
100	0xbeeccc40	-0.4624958
101	0xbc938881	-0.018009426
102	0xbebca48c	-0.3684429
103	0x3e94c716	0.2905814
104	0xbeb75666	-0.35808104
105	0xbe796537	-0.24355017
106	0xbf2bdccc	-0.67133784
107	0xbeb65b3f	-0.3561649
108	0x3ea6dbaf	0.3258948
109	0xbdf76a37	-0.12080806
110	0x3e70dd04	0.23521811
111	0xbec4d5d9	-0.38444403
112	0x3eba29dc	0.3636006
113	0xbe815d31	-0.25266412
114	0xbde48b6e	-0.111594066
115	0xbe472ab8	-0.1944989
116	0x3f1699dd	0.58828527
117	0xbebe0ac0	-0.37117577
118	0x3edb4779	0.42827967
119	0x3e3792b7	0.17927061
120	0x3eeae758	0.45879626
121	0xbee079f0	-0.4384303
122	0xbbaa7b0f	-0.005202658
123	0xbeb7a53e	-0.35868257
124	0x3e321b0e	0.17393133
125	0x3e53908c	0.20660609
126	0x3ed2e106	0.41187304
127	0x3ebfd580	0.37467575
128	0xbe9b1f4e	-0.3029732
129	0x3edfec96	0.43735188
130	0xbc1df1c8	-0.009640165
131	0xbec7bdd9	-0.3901203
132	0xbd1bbc38	-0.038021296
133	0xbe2e1515	-0.1700023
134	0xbe82be1c	-0.25535667
135	0xbe2ebdd1	-0.17064597
136	0xbe688e22	-0.2271047
137	0xbf00d313	-0.50322074
138	0x3c8b6cf9	0.017019736
139	0x3e9fbe7b	0.31200013
140	0xbd68671f	-0.05673897
141	0xbdbee487	-0.09320932
142	0xbe8b8910	-0.27253008
143	0xbe1857df	-0.1487727
144	0xbcf7fc07	-0.030271543
145	0xbace7804	-0.001575232
146	0xbe4bad4e	-0.19890329
147	0xbd51aefe	-0.051192276
148	0x3e400dd4	0.18755275
149	0x3d9f5c53	0.07781281
150	0x3e4d0565	0.20021589
151	0x3d2e78b3	0.042595576
152	0x3c4faf52	0.012676077
153	0x3e0e495a	0.13895169
154	0xbed77273	-0.42079505
155	0xbee8d2ec	-0.4547342
156	0xbe53f6a2	-0.20699552
157	0xbe2a5dc7	-0.16637336
158	0x3e1e6a7a	0.15470305
159	0xbd4fa95c	-0.050698623
160	0xbddb384f	-0.107040994
161	0x3eb0e0f8	0.34546638
162	0x3c099d35	0.0083992975
163	0x3f062cca	0.5241209
164	0x3dbb8064	0.09155348
165	0xbd0e5f6e	-0.034758978
166	0x3d8eb174	0.0696744
167	0xbe5a65ed	-0.21327944
168	0xbe80bf44	-0.25145924
169	0x3eb08941	0.34479716
170	0xbd664663	-0.05621947
171	0xbd2eeb9e	-0.04270517
172	0x3ec42a41	0.38313487
173	0x3e51d053	0.20489626
174	0x3d1712eb	0.036883276
175	0x3eca0e9e	0.39464277
176	0xbe34534f	-0.17609905
177	0xbcbeb108	-0.023277774
178	0xbe9bcfc2	-0.30431944
179	0x3cbed1bf	0.023293374
180	0xbe06f0e6	-0.13177833
181	0xbe401fea	-0.18762174
182	0x3d41c30e	0.04730516
183	0xbe10c773	-0.14138584
184	0xbecb8280	-0.39748
185	0xbe6adce3	-0.22935824
186	0xbcff1524	-0.03113801
187	0x3eaac1ca	0.33350974
188	0xbd3f51b3	-0.046708774
189	0xbcd25775	-0.025676468
190	0xbebc793a	-0.3681124
191	0x3e27db52	0.16392258
192	0x3d950284	0.072758704
193	0x3e73500c	0.23761004
194	0x3e376b00	0.17911911
195	0xbd8cb2ae	-0.06870018
196	0x3e0bc30d	0.13648625
197	0x3de54e6b	0.11196598
198	0xbe3fa452	-0.18715027
199	0x3dd79016	0.10525529
200	0x3e6dc628	0.23220122
201	0xbe369e87	-0.17833911
202	0xbd9b045d	-0.075691916
203	0x3e2c95a9	0.16853966
204	0xbec5b34f	-0.38613364
205	0xbe307da9	-0.17235436
206	0xbbb3fa5d	-0.005492492
207	0xbd108861	-0.03528631
208	0x3dfee3d8	0.124458015
209	0x3e841995	0.25800768
210	0x3d57a41b	0.052646738
211	0x3dc98cd5	0.09841315
212	0xbe527068	-0.20550692
213	0x3c83a23d	0.016068572
214	0x3e13cc70	0.14433455
215	0xbd3070f7	-0.04307648
216	0x3ec2f9a4	0.38081086
217	0xbe8fbca4	-0.2807361
218	0x3ed2bd08	0.41159844
219	0x3db354be	0.08756398
220	0x3cf0e24e	0.029404785
221	0x3e907008	0.28210473
222	0x3d8e1e9e	0.069394335
223	0xbdfae2af	-0.12250268
224	0xbe0371f7	-0.12836443
225	0x3e81165c	0.2521237
226	0xbd7d03ee	-0.061771326
227	0xbe3e82b3	-0.18604545
228	0xbe1f500b	-0.15557878
229	0xbe328c89	-0.17436422
230	0xbe94212e	-0.28931564
231	0x3e62fe59	0.22167338
232	0xbeb126b1	-0.34599832
233	0xbeb932d2	-0.36171585
234	0x3ee86cd1	0.4539552
235	0x3f2d3056	0.6765188
236	0xbe737b21	-0.23777439
237	0x3e323bfb	0.17405693
238	0x3da1ec94	0.07906452
239	0x3eacf5f7	0.33781406
240	0x3da082f3	0.078374766
241	0x3bbbc331	0.0057300557
242	0x3e75c053	0.23999147
243	0xbe4bad28	-0.19890273
244	0x3ee25283	0.44203576
245	0x3d28598d	0.041101027
246	0x3f2ddb99	0.67913204
247	0x3e80a7ed	0.25128117
248	0xbebec59c	-0.3726014
249	0x3dfc9dd8	0.12334794
250	0xbe911cde	-0.28342336
251	0x3e8fe88c	0.28107107
252	0xbc9f3bbd	-0.019437665
253	0x3d876244	0.066105396
254	0xbd6d15bb	-0.057882052
255	0xbe26f3ba	-0.16303912

network_body._body_endoder.seq_layers.0.bias f4 [128]
0	0x38b81624	8.777928e-05
1	0x3b01b1a5	0.0019789722
2	0xbb2bec1a	-0.0026233257
3	0x3951ceea	0.00020008875
4	0xb99ad15b	-0.0002952915
5	0x3ac07cf4	0.0014685676
6	0xbb371cd0	-0.0027940758
7	0x3a978232	0.0011559187
8	0xba9c0d42	-0.0011905807
9	0x3a890d01	0.0010456146
10	0xb9fc1943	-0.00048084007
11	0x38f94693	0.00011886391
12	0xbb6c157f	-0.0036023555
13	0x35f89900	1.8521969e-06
14	0xbb898bc3	-0.004197569
15	0x3b126cd8	0.0022342708
16	0xbb9872eb	-0.004652371
17	0xbb1b9235	-0.002373827
18	0xb9ff7db4	-0.00048731046
19	0xbb782e4a	-0.0037869387
20	0x3b82daa7	0.0039933505
21	0xbba39328	-0.0049919076
22	0xb9698ca7	-0.00022273009
23	0x3b9d37dc	0.0047979187
24	0x3a78898e	0.00094809465
25	0xbb4db2aa	-0.003138701
26	0x3b3e38d4	0.0029025571
27	0xbb1a8aae	-0.0023581195
28	0xb9811e84	-0.00024627533
29	0xbb0de750	-0.0021652766
30	0x3b2e6eb1	0.002661627
31	0xbb01a6d4	-0.0019783275
32	0x3b29673b	0.0025848884
33	0xbbd54dbc	-0.006509511
34	0xb9e11bf8	-0.00042936183
35	0xbb834a1b	-0.004006637
36	0x3b94d754	0.0045422707
37	0x39abb13b	0.0003274771
38	0x3bdb22be	0.006687491
39	0x3a239fec	0.0006241787
40	0xbad887ba	-0.0016519942
41	0x3b4e54de	0.003148369
42	0xbbc423db	-0.0059857196
43	0x3ad9c35b	0.0016614007
44	0xba3cc901	-0.0007201583
45	0xba84cd08	-0.0010131905
46	0xbab248ee	-0.0013602057
47	0x3b12042f	0.0022280326
48	0x3a60892a	0.0008565361
49	0xbb855e8f	-0.00407011
50	0xbb0b5bc4	-0.0021264413
51	0x3a9ce65d	0.0011970509
52	0xba97a465	-0.0011569379
53	0xbb5409d8	-0.00323545
54	0x3ae5aba9	0.0017522472
55	0xbba600a4	-0.0050659943
56	0x3b8a5a38	0.0042221807
57	0x3a985cf9	0.0011624388
58	0xb95fff52	-0.00021362051
59	0x393557ae	0.00017294168
60	0xba5d5a6d	-0.00084439554
61	0xbb85020a	-0.004059081
62	0x3afffd0d	0.0019530371
63	0xb94af6ca	-0.00019356157
64	0xbb61568a	-0.0034383857
65	0xba24e778	-0.0006290595
66	0xb8d3f56a	-0.00010106976
67	0xbb2117fc	-0.0024580946
68	0xb96c76f4	-0.00022551027
69	0xbb2050a1	-0.002446212
70	0x3aa66bc0	0.0012696907
71	0x3b9119f1	0.0044281413
72	0xba43c18f	-0.0007467502
73	0x3b625051	0.0034532736
74	0x3b87137d	0.004122196
75	0xbb1ef0a7	-0.0024252327
76	0xbb698996	-0.0035634986
77	0x3b2d16ee	0.0026411372
78	0x394e96be	0.00019701847
79	0x3b4c456b	0.0031169306
80	0x3ba15885	0.0049238824
81	0x3babcc8a	0.005242889
82	0x3b3b1aee	0.0028549987
83	0x3a56f7ec	0.00082003954
84	0xbb4faa8b	-0.0031687345
85	0xbba34d3b	-0.004983572
86	0xba598062	-0.00082970236
87	0xbba7b0ab	-0.005117496
88	0x3b6d44f7	0.0036204436
89	0xbb125bac	-0.0022332473
90	0x3a6a5401	0.0008938909
91	0xbae64860	-0.0017569177
92	0x3a0caaa5	0.0005366004
93	0x3b636959	0.0034700243
94	0x3b8ce635	0.0042999038
95	0xb9114571	-0.00013854147
96	0xbb81576a	-0.003947188
97	0x3bc3c298	0.005974125
98	0x3a9f23d0	0.001214141
99	0xba4a4fae	-0.00077175617
100	0xba87ca36	-0.0010359946
101	0x392af0fa	0.00016302234
102	0xba2c57a6	-0.000657434
103	0xbaf3f05b	-0.001861106
104	0x3b1be4f7	0.0023787597
105	0x3ad3b703	0.0016152564
106	0x37ad2ab7	2.0643098e-05
107	0x3ba01f0c	0.0048865136
108	0xbad9fe26	-0.0016631528
109	0x3b7d5767	0.0038656832
110	0x3a4152f1	0.0007374725
111	0x3ae29396	0.0017286416
112	0xbb324f69	-0.0027207977
113	0x39a89b4e	0.00032159168
114	0xbafc6a30	-0.001925772
115	0x3acfea3e	0.0015862656
116	0xbaa4277a	-0.0012523972
117	0x3b6a1dce	0.0035723331
118	0x3b3f09e2	0.0029150178
119	0xbb52e9c8	-0.0032182802
120	0x39c23268	0.0003704012
121	0xbaee7a34	-0.0018194378
122	0xb9988601	-0.0002909154
123	0x3a557ea1	0.00081441744
124	0x3abaea1d	0.0014260445
125	0x3b4a3a9b	0.0030857685
126	0xbaaf6e96	-0.0013384398
127	0xbab20f8d	-0.0013584957

network_body._body_endoder.seq_layers.2.weight f4 [128, 128]
0	0xbd63b468	-0.05559197
1	0xbc8fe2f9	-0.017564284
2	0xbd1dde0d	-0.038541842
3	0x3d9cef00	0.07662773
4	0x3ca9ade9	0.02071281
5	0x3e5c3ccb	0.21507566
6	0x3d9b1239	0.07571835
7	0x3dda1c08	0.10649878
8	0x3c4a5f48	0.012351818
9	0x3e01dc08	0.12681592
10	0x3d31d884	0.043419376
11	0x3c96c3d8	0.018403932
12	0xbe109561	-0.14119484
13	0xbccad52d	-0.024759853
14	0x3c832f9a	0.01601391
15	0xbc4e114a	-0.012577364
16	0x3c8b89f5	0.017033556
17	0xbe0fe702	-0.14052966
18	0x3cde2d1c	0.02712112
19	0xbde9dbf9	-0.114189096
20	0xbda6cc63	-0.081444524
21	0x3d200a80	0.039072514
22	0x3d8a779f	0.06761097
23	0xbe33320e	-0.17499563
24	0x3d8108f0	0.06300533
25	0xbd160818	-0.036628813
26	0x3b9f6791	0.004864641
27	0x3e2244a9	0.15846504
28	0x3d9bbb9b	0.07604142
29	0xbceea53e	-0.029131528
30	0xbdb69235	-0.089146055
31	0x3cd74ad6	0.026280802
32	0xbd5aa488	-0.053379565
33	0xbe482997	-0.19547115
34	0xbdb5ae23	-0.088711046
35	0x3e060194	0.1308654
36	0xbe139d90	-0.14415574
37	0x3cff1127	0.031136109
38	0xbd6cc6ff	-0.057806965
39	0x3d9d5dfe	0.07683943
40	0xbd1f6aac	-0.03892009
41	0xbd425b21	-0.04745019
42	0xbce5b1c2	-0.028038863
43	0xbda09182	-0.078402534
44	0x3c6cb3c6	0.014447158
45	0x3cf8d677	0.030375702
46	0x3d89a1aa	0.06720288
47	0xbe300c26	-0.17192134
48	0xbd3ae741	-0.045630697
49	0x3dcb5edb	0.099302016
50	0x3d1f80b3	0.038941097
51	0xbc185203	-0.009296897
52	0x3ccb5657	0.024821443
53	0xbd699ec3	-0.057036173
54	0xbe7017a4	-0.23446518
55	0x3d9855f8	0.07438272
56	0x3d5a5c40	0.053310633
57	0x3dbcf651	0.092266686
58	0x3cec3128	0.028832033
59	0x3d6179dd	0.05504786
60	0xbc3885b6	-0.011262348
61	0xbdb571d4	-0.088596016
62	0x3dca9138	0.098909795
63	0xbdfccc6b	-0.12343677
64	0x3d772a5f	0.060343143
65	0x3d906c44	0.070519
66	0xbd3e34d9	-0.04643712
67	0xbbf98172	-0.007614308
68	0x3db3997b	0.087695085
69	0x3db72829	0.08943207
70	0x3ceff10c	0.029289745
71	0xbd84830f	-0.0647031
72	0xbea7a416	-0.32742375
73	0xbd4fc1bf	-0.05072188
74	0x3d46ff69	0.04858342
75	0x3d9b841e	0.07593559
76	0x3e0077f0	0.12545753
77	0x3d564e42	0.052320726
78	0xbd46b958	-0.0485166
79	0xbddc5101	-0.10757638
80	0x3c939d05	0.018019209
81	0x3c388003	0.011260989
82	0xbd669ff2	-0.05630488
83	0xbd812f12	-0.06307806
84	0x3d02df10	0.03195101
85	0x3e0efbd6	0.13963255
86	0x3e0061ce	0.1253731
87	0x3e289139	0.16461648
88	0x3c9b33de	0.01894563
89	0xbe1db329	-0.15400375
90	0x3dda56d7	0.10661095
91	0xbca23395	-0.019799987
92	0x3d80e779	0.0629415
93	0xbc96449d	-0.018343264
94	0x3df8fa06	0.12157063
95	0xbcea116f	-0.028572766
96	0xbb4b1b18	-0.003099149
97	0xbe4dbe02	-0.20092013
98	0xbd855478	-0.06510252
99	0xbc7dcf3e	-0.015491305
100	0x3e3023ae	0.1720111
101	0x3c9f8644	0.019473203
102	0xbbf81e5b	-0.007571978
103	0x3dd53694	0.104108006
104	0xbd89c745	-0.06727461
105	0x3d948686	0.07252221
106	0x3d8092e8	0.0627802
107	0xbd2f1891	-0.042748038
108	0xbd6e4837	-0.05817434
109	0xbc045001	-0.008075715
110	0x3c9608f1	0.01831481
111	0x3e0b0d70	0.13579345
112	0xbdf4f05d	-0.11959908
113	0xbd267db1	-0.040647212
114	0xbe231287	-0.15925036
115	0x3d1532a8	0.036425263
116	0xbae29a8d	-0.0017288491
117	0x3d9799b1	0.07402361
118	0xbd5f58f2	-0.054528184
119	0xbd390aa6	-0.04517617
120	0x3e02024d	0.1269619
121	0xbd070997	-0.03296813
122	0xbddb2ddf	-0.107021086
123	0x3cf71d7b	0.030165425
124	0xbdb7c059	-0.08972234
125	0xbdc0367c	-0.09385392
126	0x3cb478f8	0.022030339
127	0x3d51ea3c	0.051248774
128	0xbdb42dfb	-0.087978326
129	0x3d439d8e	0.047757678
130	0x3d8d83fe	0.06909941
131	0x3c8c762e	0.017146196
132	0x3e495cd3	0.19664316
133	0x3d30f6ee	0.04320424
134	0x3dc38bc4	0.095481426
135	0xbdca4bcb	-0.098777376
136	0xbe01ee08	-0.12688458
137	0xbd814fac	-0.06314024
138	0x3d692193	0.056916784
139	0x3d846323	0.06464221
140	0xbd59293c	-0.05301784
141	0xbd2396aa	-0.039938606
142	0x3d852d21	0.06502748
143	0xbe06c3f9	-0.13160695
144	0x3d5d6a5a	0.054056503
145	0xbdc27230	-0.09494436
146	0xbdc61630	-0.09672201
147	0x3e18249a	0.14857712
148	0xbbcec09e	-0.006309583
149	0x3db7f7ea	0.08982833
150	0xbda95660	-0.08268428
151	0xbe3ff4e5	-0.18745764
152	0xbcf19326	-0.029489111
153	0xbcbcd8c8	-0.023052588
154	0xbd7c5f62	-0.0616144
155	0xbdaeeb7c	-0.08541009
156	0x3cc0d40b	0.02353861
157	0xbd8cf716	-0.068830654
158	0x3c6050e6	0.013691163
159	0x3db4690a	0.08809097
160	0xbe193451	-0.14961363
161	0xbe10d637	-0.14144216
162	0x3da3ab61	0.07991672
163	0xbd544581	-0.051824097
164	0x3dbb240a	0.09137733
165	0xbbc85c90	-0.00611455
166	0x3d41bbc2	0.0472982
167	0xbd6d8c90	-0.05799538
168	0xbdc980b2	-0.09839
169	0x3baaa455	0.005207578
170	0x3d6b98e8	0.05751887
171	0x3ca5f568	0.02025862
172	0x3df88548	0.121347964
173	0xbd1b98e0	-0.03798759
174	0x3c263e13	0.010146636
175	0x3de9c165	0.1141384
176	0x3d2f87b1	0.042854015
177	0x3d8e1760	0.06938052
178	0x3d150568	0.03638211
179	0x3dbabb35	0.09117738
180	0x3d7f2c82	0.062298305
181	0x3d01dfa8	0.031707436
182	0xbaeb70ec	-0.001796273
183	0xbe0e9306	-0.13923272
184	0x3b23e362	0.0025007357
185	0x3da89e96	0.08233373
186	0x3c049b32	0.008093642
187	0xbc5db602	-0.013532164
188	0xbdf0d4e6	-0.11759357
189	0x3d81ccc4	0.06337884
190	0xbd990ce9	-0.074731655
191	0xbd6fff5d	-0.058593143
192	0x3d81ec83	0.06343939
193	0x3e013146	0.12616453
194	0x3d6cf1fc	0.05784796
195	0xbdf1b16b	-0.11801418
196	0x3e0865dc	0.13320106
197	0xbdf7bd89	-0.12096698
198	0xbd981e3b	-0.07427641
199	0xbd750a7f	-0.059824463
200	0xbca1ef35	-0.019767383
201	0xbafbb3df	-0.0019203386
202	0xbe08c183	-0.13355069
203	0x3d3342d6	0.04376491
204	0xbe0bdf3e	-0.13659379
205	0xbdadc834	-0.08485451
206	0xbc805801	-0.015666964
207	0x3d39825f	0.045290347
208	0xbbb8345b	-0.0056214756
209	0x3e0073e7	0.12544213
210	0x3d3bb80b	0.045829814
211	0x3d011443	0.031513464
212	0xbdd1f6ed	-0.102521755
213	0x3d1a9720	0.03774178
214	0x3da896ae	0.08231865
215	0xbd433a12	-0.047662802
216	0xbc7b26ee	-0.015329106
217	0x3d8a6546	0.067575976
218	0xbdaff6df	-0.08592009
219	0x3d5db6fa	0.05412958
220	0xbbec44b8	-0.0072103404
221	0x3db0e899	0.086381145
222	0x3def2fdf	0.116790526
223	0xbd563670	-0.05229801
224	0x3cd1b8d8	0.025600836
225	0xbd94c2cb	-0.07263716
226	0xbdd8cba1	-0.10585714
227	0xbdee1327	-0.11624747
228	0xbdb1fd2c	-0.08690867
229	0x3d439e28	0.04775825
230	0xbd138303	-0.036013614
231	0x3d89d3a6	0.06729822
232	0xbe0e698d	-0.13907452
233	0xbcd8860f	-0.026431112
234	0x3e1fe0e2	0.1561313
235	0xbd94e89a	-0.07270928
236	0xbb5a7229	-0.0033332205
237	0xbd1229cc	-0.03568439
238	0x3db42058	0.087952316
239	0xbd68784e	-0.056755356
240	0xbdba6480	-0.091012
241	0xbdc97ba8	-0.09838039
242	0xbe61b7a9	-0.22042717
243	0x3cd9ec70	0.026602
244	0x3dac82c2	0.084233776
245	0xbddc82f2	-0.10767163
246	0x3cb2863c	0.021792524
247	0x3dab4ad4	0.08363882
248	0xbd26c5a9	-0.040715847
249	0xbd01b1b6	-0.03166362
250	0x3bd4cd00	0.0064941645
251	0x3c858b80	0.01630187
252	0x3d1982b4	0.037478164
253	0x3c8a122d	0.01685437
254	0x3d2aabcb	0.04166774
255	0x3d0b8d17	0.0340701

network_body._body_endoder.seq_layers.2.bias f4 [128]
0	0xbb118feb	-0.0022211026
1	0xb7a76df4	-1.9959152e-05
2	0xb9a5de32	-0.000316368
3	0xba9f4f25	-0.0012154324
4	0x39d119e9	0.0003988289
5	0x3b43c24e	0.0029870453
6	0x3b0db9dd	0.0021625676
7	0x3b20df6b	0.002454723
8	0x3b8dd06a	0.0043278234
9	0xbb843b38	-0.0040353797
10	0xbadcd546	-0.0016848228
11	0x36950688	4.4413064e-06
12	0x39db2998	0.00041801925
13	0xba0de7ae	-0.0005413246
14	0x38a1b4b8	7.71074e-05
15	0xba29ff1c	-0.00064848526
16	0xba7f95b4	-0.00097497855
17	0xbb552259	-0.0032521694
18	0xbb19c57c	-0.0023463657
19	0x3acc531b	0.0015588732
20	0x3b8c876a	0.0042886036
21	0xba52e050	-0.00080442894
22	0x3afd0a75	0.0019305485
23	0xbad679e9	-0.0016363236
24	0xbb26ce8c	-0.0025452701
25	0xbac3abc8	-0.0014928514
26	0xbb73a93c	-0.003717973
27	0x3b647bdf	0.0034863872
28	0xbb60e7a1	-0.003431775
29	0xbb84abe9	-0.0040488136
30	0xbaf2474d	-0.0018484384
31	0xbb661f6e	-0.0035113948
32	0x3badf309	0.005308513
33	0x3a65ba5b	0.0008763426
34	0x3abfbf54	0.0014629164
35	0x3b6fa858	0.0036568847
36	0x3b35e21f	0.0027753187
37	0x3b68d10b	0.003552499
38	0xbb21ae26	-0.002467045
39	0xba15a5e0	-0.0005708616
40	0xbb4858a4	-0.0030570412
41	0xbb7839cb	-0.0037876244
42	0xbb8bae07	-0.004262689
43	0x3a54967b	0.00081095815
44	0xbb5aea13	-0.003340368
45	0xb9dffbae	-0.0004272139
46	0xbb58e6b4	-0.0033096494
47	0x3b6a92eb	0.0035793136
48	0x39aa7b50	0.00032516802
49	0x379767ea	1.8048991e-05
50	0xbb1582a7	-0.002281347
51	0x39f4f6f2	0.00046723295
52	0xbaa3a9b4	-0.0012486489
53	0x3b68901e	0.003548629
54	0x3b5f5c00	0.0034081936
55	0xbae54ab1	-0.0017493573
56	0xbb81d09d	-0.003961636
57	0xbb257768	-0.0025248174
58	0xbb005be7	-0.0019586028
59	0x3a2af873	0.0006522007
60	0xbadd0ae6	-0.001686421
61	0xbb50466e	-0.003178026
62	0x3a8d8039	0.001079566
63	0xbae100f6	-0.0017166424
64	0xb9c49d83	-0.0003750139
65	0x3a46c9d1	0.00075831736
66	0xba8dbe3a	-0.0010814138
67	0xbb700b8f	-0.0036627983
68	0x3b773701	0.0037721994
69	0x3a9c6da2	0.0011934529
70	0x3b12ef36	0.0022420413
71	0xbb484b50	-0.0030562468
72	0xbb3370d0	-0.0027380474
73	0xbb2f6b43	-0.0026766814
74	0xbab0a7e8	-0.0013477774
75	0x3ae6609e	0.0017576402
76	0xbb12df25	-0.0022410837
77	0xbaaee464	-0.0013343212
78	0x3a8da52d	0.0010806673
79	0xbb3e2ed0	-0.0029019602
80	0x3acfd35a	0.0015855834
81	0xbb012e3e	-0.00197114
82	0x39fdf1df	0.00048436128
83	0xba9c0405	-0.0011903053
84	0xbb04c89a	-0.002026117
85	0x3ad7e867	0.001647246
86	0x3b7fc67d	0.003902822
87	0x3af6a607	0.001881779
88	0x3b19cd35	0.002346826
89	0xba7a2e31	-0.0009543626
90	0xbb1b9ee5	-0.0023745832
91	0x3b9de93d	0.004819064
92	0xba8ce5e9	-0.0010749671
93	0xbb59fe3b	-0.0033263105
94	0x3b01f010	0.0019826926
95	0x36e43420	6.8009977e-06
96	0xbb02534f	-0.0019886082
97	0xba5f5cbc	-0.00085205934
98	0x3b29590d	0.0025840432
99	0xba171fdc	-0.000576494
100	0x3b394c5d	0.0028274276
101	0xbb3139bc	-0.002704247
102	0x39694339	0.00022245654
103	0xba7fcb05	-0.00097577303
104	0xba910149	-0.0011063005
105	0xbaa68558	-0.0012704534
106	0x3adc3949	0.001680174
107	0xbb186de7	-0.0023258866
108	0x3b5bc1ea	0.003353233
109	0xb8184d74	-3.6311758e-05
110	0x3b853fb3	0.0040664314
111	0x3aedc7ca	0.0018141207
112	0xbb89bed3	-0.004203656
113	0xb8f5f5a2	-0.00011728263
114	0xbb84e948	-0.0040561296
115	0x3b2f712c	0.0026770337
116	0x3b84473d	0.0040368126
117	0xbaee9d16	-0.0018204774
118	0x3a1a4da4	0.0005886203
119	0x3af6bf3a	0.00188253
120	0x39852a1c	0.0002539911
121	0xbb8395c9	-0.0040156585
122	0x3a860f6e	0.0010227987
123	0x3b7250ee	0.0036974507
124	0xbb741714	-0.00372452
125	0x3b9fe58f	0.0048796604
126	0x395c3a08	0.00021002453
127	0xbab4c7bc	-0.0013792436

action_model._continuous_distribution.log_sigma f4 [1, 2]
0	0xbc136ac1	-0.00899762
1	0x3b1be948	0.002379017

action_model._continuous_distribution.mu.weight f4 [2, 128]
0	0xbc7b6153	-0.015343028
1	0xbc83fc5b	-0.016111543
2	0x3c3d630f	0.011559262
3	0x3c23f522	0.010007175
4	0xbcdb9433	-0.026804065
5	0xbbb10a5d	-0.0054028467
6	0xbb4ba84f	-0.0031075662
7	0xbaa98dbd	-0.0012935918
8	0x3b94e293	0.0045436113
9	0xbc52bc79	-0.012862318
10	0xbc23f152	-0.010006266
11	0x3d16aa2d	0.036783386
12	0x3c9f0398	0.019410893
13	0xbcea6275	-0.028611401
14	0x3cfe5ef5	0.031051138
15	0x3c9271df	0.017876564
16	0xbd02d0d5	-0.03193744
17	0x3b4a4fb4	0.003087026
18	0x3c40a920	0.011759073
19	0x3b3ec5f6	0.0029109693
20	0x3bfd1fae	0.007724724
21	0xbcf05484	-0.029337175
22	0x3ba258a5	0.004954415
23	0x3a86214e	0.0010233314
24	0x3c690645	0.014222686
25	0x3c30e386	0.010796433
26	0xbb4b5e23	-0.0031031452
27	0x3cb0fe65	0.02160568
28	0x3b0468e7	0.0020204128
29	0xbb0314d8	-0.0020001438
30	0xbcf38d02	-0.029730324
31	0xbbf4a010	-0.00746537
32	0x3c22eab9	0.009943658
33	0xbc6e04ac	-0.014527481
34	0x3b384f21	0.0028123336
35	0x3bf2b7e0	0.0074071735
36	0x3c90dbea	0.017682988
37	0x3afe8868	0.0019419314
38	0xbcaf94bb	-0.021433225
39	0xbc4a8b88	-0.012362368
40	0xbc305352	-0.010762053
41	0xbc87eb74	-0.016591765
42	0xbc7ac42a	-0.015305558
43	0xbc163db0	-0.009169981
44	0xbc61569b	-0.0137535585
45	0xbcaa00f9	-0.020752417
46	0x3a89f86d	0.0010526307
47	0x3b8d4ded	0.004312268
48	0xbb9c7110	-0.0047742203
49	0x3c52dfdd	0.012870756
50	0xbc8854cd	-0.016641999
51	0xbb4a1846	-0.0030837222
52	0xbd2e65de	-0.042577617
53	0x3c6597a8	0.014013208
54	0x3a7c7894	0.00096310047
55	0xbcfbcbeb	-0.030736884
56	0xbc2faf97	-0.010723016
57	0xbbbd3b5c	-0.0057748985
58	0x3b9bb055	0.004751245
59	0xbbe3cd59	-0.0069519696
60	0x3a0366ae	0.0005012554
61	0xbcd070c6	-0.0254444
62	0x3d0f2d42	0.03495527
63	0xbc42f42a	-0.011899034
64	0x3c61d5b7	0.013783864
65	0x3c0ffeb0	0.00878875
66	0x3c037619	0.008023762
67	0xbc0f19cf	-0.008734181
68	0x3cddc78f	0.027072696
69	0x3d111ffe	0.0354309
70	0xbb8eba89	-0.004355733
71	0xbc4a9e7e	-0.012366889
72	0x3c87c927	0.01657541
73	0x3c3fc92b	0.011705677
74	0xbbcca5ce	-0.0062453514
75	0x3c4b7bac	0.012419622
76	0xbbf46a95	-0.0074589946
77	0x3ce04668	0.027377322
78	0x3cccc9a1	0.024998488
79	0xbd6c020a	-0.057619132
80	0x3c953fdb	0.018218925
81	0xbcb535ac	-0.02212032
82	0x3c3a31a1	0.0113643715
83	0xbd22f4f9	-0.039784405
84	0x3ab4ac6d	0.0013784297
85	0x3b0ab410	0.0021164455
86	0x36a0c700	4.7915382e-06
87	0x3c61f22c	0.013790648
88	0xbba90458	-0.0051579885
89	0xbb035743	-0.0020041026
90	0x3ab174fb	0.0013538891
91	0x3d0cbc88	0.034359485
92	0xbc4c65ea	-0.01247547
93	0xbcd44010	-0.025909454
94	0x3c5b3a8f	0.013380661
95	0xbc5129dc	-0.012766328
96	0x3b601e84	0.0034197876
97	0x3bba1225	0.0056784325
98	0x3c7459f2	0.014914023
99	0xbb9ea49f	-0.0048414017
100	0x3bdc355c	0.006720228
101	0xbc7f51a0	-0.015583426
102	0xbc57e915	-0.01317813
103	0x3c2e9404	0.010655407
104	0xbd13d7f4	-0.03609462
105	0x3beac915	0.007165084
106	0x3c5dfbd6	0.013548812
107	0xbcd4038d	-0.0258806
108	0x3cb1e229	0.021714287
109	0xbc09c0d3	-0.008407789
110	0x3c99abc7	0.018758668
111	0x3c866c5e	0.016409095
112	0xbba000f9	-0.0048829284
113	0xbc1b5f85	-0.009483223
114	0xbc3cb983	-0.011518839
115	0x3d6ef800	0.05834198
116	0x3cff853e	0.031191465
117	0xbd0c927f	-0.034319397
118	0x3cd43d20	0.025908053
119	0xbc3ab353	-0.011395293
120	0x3c877a77	0.016537888
121	0xbc958426	-0.01825149
122	0xbc3a1ab1	-0.011358903
123	0x3bdfb2b5	0.0068267235
124	0xbc2bb1e7	-0.010479427
125	0x3c06b62f	0.008222147
126	0x3c4e0eb1	0.012576745
127	0x3a0ebe55	0.0005445232
128	0xba67c579	-0.00088413764
129	0xbc7038cf	-0.014661982
130	0x3bf15564	0.0073649157
131	0x3c8d75e0	0.017268121
132	0xbc99e186	-0.018784296
133	0xbc533055	-0.012889941
134	0xbcdc62c5	-0.026902566
135	0xbc81e1af	-0.015854685
136	0xbd1dd197	-0.03852996
137	0x3c0dfdc4	0.0086664595
138	0xba6d139e	-0.00090437557
139	0x3ce0f913	0.027462518
140	0x3cae4253	0.02127186
141	0xbc9c0a08	-0.019047752
142	0x3cdeeb88	0.02721192
143	0x3ce77a7f	0.028256653
144	0xbc82ae78	-0.015952334
145	0x3c431950	0.01190789
146	0x3caac95e	0.020847972
147	0xbb3dd95e	-0.0028968672
148	0xbc14491d	-0.009050635
149	0xbc7aa801	-0.015298844
150	0x3b1ef122	0.0024252613
151	0x3d019dbb	0.031644564
152	0x3d047e1f	0.03234684
153	0x3c410ac7	0.011782355
154	0x3a2aad52	0.0006510812
155	0xbc8d458b	-0.017245075
156	0x3c19ae13	0.009379881
157	0x3a06f58e	0.0005148285
158	0xb9c091ca	-0.00036729715
159	0x3bf9b6cc	0.007620668
160	0xbcb3dda2	-0.021956269
161	0xbcf12ee2	-0.0294413
162	0xba86b504	-0.0010277336
163	0xbb8ecc89	-0.0043578786
164	0xbbd9db8d	-0.006648487
165	0xbc85de94	-0.016341485
166	0xbaeeda22	-0.0018222968
167	0xbc076ffa	-0.008266443
168	0x3ce8360f	0.02834609
169	0x3c56551e	0.013081817
170	0x3c813e73	0.015776848
171	0xbca3e693	-0.020007407
172	0x3ba253a8	0.0049538203
173	0xbc9fd172	-0.019509051
174	0x3cbc1ef3	0.022963976
175	0xbbe3eda3	-0.0069558187
176	0xbab68ae8	-0.0013926895
177	0x3bd2962a	0.0064265924
178	0x3b120f98	0.0022287127
179	0xbb8e8785	-0.0043496513
180	0xbc3731e5	-0.011181329
181	0xba5c5134	-0.0008404434
182	0xbb81a4ea	-0.003956427
183	0x3ba1b1aa	0.0049345093
184	0x3c9743ab	0.018464884
185	0x3c8aa630	0.016924948
186	0x3c846b39	0.016164409
187	0xbc4b4743	-0.012407127
188	0x3ce71c0b	0.028211614
189	0x3c22de8d	0.009940756
190	0x3cb39da9	0.021925764
191	0xbb161355	-0.0022899706
192	0x3c7e6569	0.015527108
193	0x3b983bea	0.004645814
194	0x3c8036fa	0.015651215
195	0x3c89b34c	0.016809128
196	0xbc3a8d39	-0.011386209
197	0x3b810774	0.003937656
198	0xbc929ce5	-0.017897079
199	0x3b03aeeb	0.0020093273
200	0x3cf78bd0	0.030218035
201	0x3d432371	0.04764122
202	0x3cb2277a	0.02174734
203	0x39ba0546	0.00035480614
204	0x3cff7576	0.03118394
205	0x3d146de8	0.036237627
206	0x3b925622	0.0044658342
207	0x3b720a5e	0.003693245
208	0x3be74ee2	0.007058964
209	0xbbaac59d	-0.0052115456
210	0x3aa3481c	0.0012457403
211	0xbc6cf5ba	-0.014462883
212	0x3c0f949b	0.008763458
213	0xbcd55051	-0.026039274
214	0xbc850cf2	-0.016241524
215	0xbc557ac6	-0.01302976
216	0xbca920af	-0.020645468
217	0x3d0e301b	0.034713846
218	0x3c5c86d0	0.013459876
219	0xbcb46632	-0.022021387
220	0x3ce7ca1f	0.028294621
221	0x3d27831b	0.040896516
222	0xba18f914	-0.00058354554
223	0xbc3e513c	-0.0116160475
224	0x3c9f3263	0.019433206
225	0xba481da3	-0.0007633811
226	0xbc94f168	-0.018181518
227	0x39bc0f88	0.00035869726
228	0xbd038a27	-0.032114174
229	0x3bb60bee	0.0055556213
230	0xbc8bab0e	-0.017049339
231	0x3ca01cfb	0.019545069
232	0x39bda9ac	0.00036175305
233	0x3d155e88	0.036467105
234	0x3d18ec4d	0.03733473
235	0x3a87b8ef	0.0010354797
236	0xbc04866e	-0.008088691
237	0x3cebe084	0.02879358
238	0xbc82c1a6	-0.01596148
239	0x3a9577d4	0.0011403509
240	0x3c1c058a	0.009522805
241	0xbc5dcac2	-0.013537111
242	0x3bfd29f8	0.0077259503
243	0x3b2bb313	0.0026199266
244	0xbc5cd77b	-0.013479109
245	0xbbf132d6	-0.0073607964
246	0x3c8fc52c	0.017550074
247	0xbc6e124c	-0.0145307295
248	0x3cb59fa6	0.022170853
249	0x3cd52eb4	0.026023246
250	0xbc425bce	-0.011862708
251	0xbcaaa481	-0.020830395
252	0x3c4a7cf7	0.0123588955
253	0xbc591ca7	-0.01325146
254	0x3c7a815a	0.015289629
255	0x3b3b807a	0.0028610514

action_model._continuous_distribution.mu.bias f4 [2]
0	0x3b102908	0.0021997113
1	0xbb254ce4	-0.0025222832
