python/results/minion_walk_003/Minion/Minion-24681.pt (torch, 464859 bytes, 36 tensors)

network_body._body_endoder.seq_layers.0.weight f4 [128, 15]
-0.15261284 -0.16816762 -0.2484649 -0.04486281 -0.08693799 -0.5738306 -0.0038221253 0.17434037
-0.2578296 0.106172696 0.0009752075 0.17839558 -0.047604248 -0.085062005 -0.026204696 -0.30095002
0.28040248 0.08852336 0.18581334 0.018486178 -0.045175962 -0.117687754 -0.0973881 0.12745656
-0.102011 0.30061924 -0.15843874 -0.0676758 -0.025070706 0.08888011 0.027240546 0.0850857
-0.22986938 -0.31888956 0.1670832 -0.26115263 0.00794813 -0.1873807 0.14359722 0.06500579
0.41470134 0.005636546 -0.33498272 0.27561656 -0.23976037 -0.33040923 0.55119216 -0.20912604
0.16507861 -0.39262548 -0.08573977 0.06324344 -0.23986328 -0.04204237 -0.32860422 -0.17311901
0.18576175 0.013322113 0.07112761 0.42296153 -0.36337587 -0.2220771 0.08679499 -0.15955485
-0.09464151 -0.13957694 -0.08160455 0.15706287 0.006066053 -0.34823877 -0.26990622 0.2566529
0.19205104 -0.011003963 0.083751805 0.032744594 -0.25498816 0.3545133 0.17492662 0.532291
-0.23364921 -0.1583175 -0.116356544 0.39564532 0.09053756 -0.018960051 0.16865584 -0.05131528
-0.31364882 -0.28183421 -0.1906076 0.035969052 -0.057820134 -0.42269897 0.029490199 -0.012345629
0.07405966 0.103078075 0.09852603 -0.011803437 -0.2495326 0.19770962 0.112345986 0.6922693
-0.1356757 0.071484186 -0.027736612 0.17955498 0.1323188 -0.32441735 0.14017335 -0.14027733
-0.3932192 0.068992026 0.26087493 -0.3323409 -0.2048918 0.16819985 0.07956362 0.24815887
0.11240488 0.18448938 0.012363115 0.010536321 -0.1749072 0.3280551 -0.23280068 0.1585784
-0.060401924 0.14348862 -0.32009888 0.05322884 0.27819303 -0.3626086 0.09555099 0.16608533
0.019400991 0.054203324 -0.54595363 0.046545595 -0.1431392 -0.21962382 -0.34289622 0.24858837
0.13696244 0.06292969 0.14600539 -0.050706808 0.15240717 0.16357999 0.14623724 -0.16409369
-0.50290006 0.03532194 0.104548834 0.23950589 -0.1751813 -0.18036315 -0.09427473 0.0010664589
-0.14962779 0.08490566 -0.22785881 0.017259378 0.0076723476 0.55780214 -0.24698703 -0.1442976
-0.097999506 -0.1279802 0.010075287 0.1868647 0.13166648 0.53193504 -0.10935942 0.159681
0.052283037 0.08220877 -0.19573846 0.078368634 -0.145673 0.030970719 0.117574394 0.4843253
-0.067252114 -0.38193068 -0.25933105 0.4702475 0.20635118 0.13308208 -0.015170786 -0.010330403
-0.020251514 -0.056369763 -0.31717753 -0.103250004 0.14666414 -0.53726315 -0.08840288 -0.19047748
-0.2117095 -0.07973379 -0.3566844 -0.077820145 -0.27369258 0.4928253 -0.52508557 -0.12387243
0.47309467 -0.6759609 -0.23051246 0.029195769 -0.10444012 0.11776114 0.2655927 0.2358977
-0.19348325 0.1689605 -0.02263741 -0.31491244 0.571136 -0.17896475 0.033146244 0.087979026
-0.38030532 -0.11896341 0.025098009 -0.4440235 -0.428454 -0.109830774 0.092196345 0.4702311
0.13191667 0.52279454 0.016930817 0.76387167 -0.09229227 -0.24561733 -0.36444476 -0.08204493
-0.0014713572 0.14695452 0.10445466 0.3751067 0.3514275 -0.0055320207 0.2585214 0.45947284
0.028767196 0.14015192 -0.3644263 0.10339045 -0.1792654 0.07350656 0.04012427 -0.3487898
00000000: 8a46 1cbe 2234 2cbe 956d 7ebe 11c2 37bd
00000010: 8b0c b2bd 90e6 12bf 9f7c 7abb 4886 323e
00000020: 3e02 84be 1271 d93d 11a5 7f3a 55ad 363e
00000030: acfc 42bd fd34 aebd 3bab d6bc 1f16 9abe
00000040: ea90 8f3e bc4b b53d da45 3e3e 5370 973c
00000050: 6e0a 39bd 4706 f1bd 6a73 c7bd f983 023e
00000060: 25eb d0bd c4ea 993e c43d 22be 9c99 8abd
00000070: 1561 cdbc c606 b63d 9127 df3c 6941 ae3d
00000080: e162 6bbe 7e45 a3be dc17 2b3e ccb5 85be
00000090: e038 023c bae0 3fbe 260b 133e c121 853d
000000a0: bc53 d43e c6b2 b83b db82 abbe 9d1d 8d3e
000000b0: be83 75be 662b a9be ee1a 0d3f 2325 56be
000000c0: 5e0a 293e 3506 c9be 5598 afbd c785 813d
000000d0: b89e 75be 9f34 2cbd d03e a8be 1c46 31be
000000e0: 5438 3e3e fe44 5a3c 5aab 913d 6a8e d83e
000000f0: 670c babe 2e68 63be 92c1 b13d 5962 23be
00000100: 68d3 c1bd 42ed 0ebe 4920 a7bd 17d5 203e
00000110: bec5 c63b 5a4c b2be 2631 8abe 0268 833e
00000120: 07a9 443e f749 34bc 1186 ab3d 321f 063d
00000130: cf8d 82be c482 b53e f71f 333e 3944 083f
00000140: bd41 6fbe fc1d 22be 574c eebd 0692 ca3e
00000150: c26b b93d 1c52 9bbc 1eb4 2c3e f92f 52bd
00000160: 9496 a0be 934c 90be a42e 43be 4954 133d
00000170: ced4 6cbd 006c d8be 6e95 f13c 5245 4abc
00000180: 97ac 973d 991a d33d 04c8 c93d 3463 41bc
00000190: 7985 7fbe 6474 4a3e a715 e63d 9038 313f
000001a0: 92ee 0abe 4d66 923d e437 e3bc 43dd 373e
000001b0: 947e 073e 081a a6be 9a89 0f3e dca4 0fbe
000001c0: 0754 c9be b14b 8d3d 6691 853e 9628 aabe
000001d0: 28cf 51be 953c 2c3e 40f2 a23d 5c1d 7e3e
000001e0: 8834 e63d c9ea 3c3e aa8e 4a3c 89a0 2c3c
000001f0: df1a 33be d7f6 a73e 4d63 6ebe 6062 223e
00000200: 0268 77bd aeee 123e 00e4 a3be 7c06 5a3d
00000210: 516f 8e3e d6a7 b9be 3db0 c33d 4612 2a3e
00000220: d4ee 9e3c 4e04 5e3d 9ec3 0bbf 98a6 3e3d
00000230: 1593 12be 11e5 60be 1890 afbe f38d 7e3e
00000240: e23f 0c3e 48e1 803d 7082 153e f1b1 4fbd
00000250: a010 1c3e 8381 273e 37bf 153e 2d08 28be
00000260: 0fbe 00bf bdad 103d b31d d63d 0841 753e
00000270: ba62 33be 1eb1 38be 1c13 c1bd 6cc8 8b3a
00000280: 0738 19be 05e3 ad3d d253 69be 8a63 8d3c
00000290: 5168 fb3b 1fcc 0e3f 2bea 7cbe c0c2 13be
000002a0: f7b3 c8bd 3e0d 03be d112 253c 7659 3f3e
000002b0: 94d3 063e e52c 083f d5f7 dfbd 6b83 233e
000002c0: bd26 563d 125d a83d aa6f 48be bc7f a03d
000002d0: 4e2b 15be 4eb6 fd3c d8ca f03d 7cf9 f73e
000002e0: 7abb 89bd 6b8c c3be 0ac7 84be 48c4 f03e
000002f0: b94d 533e ab46 083e e38e 78bc da40 29bc
00000300: 81e6 a5bc fbe3 66bd 1865 a2be bd74 d3bd
00000310: 202f 163e 148a 09bf 920c b5bd 870c 43be
00000320: 60ca 58be 784b a3bd 569f b6be 2b60 9fbd
00000330: 6f21 8cbe 9953 fc3e 026c 06bf d4b0 fdbd
00000340: 7739 f23e c60b 2dbf 750b 6cbe f72b ef3c
00000350: b4e4 d5bd c12c f13d c4fb 873e 2b8f 713e
00000360: 7920 46be fb03 2d3e 1772 b9bc 343c a1be
00000370: f835 123f 8942 37be 5bc4 073d 592e b43d
00000380: 61b7 c2be 17a3 f3bd 579a cd3c 0c57 e3be
00000390: 535e dbbe f5ee e0bd 70d1 bc3d 21c2 f03e
000003a0: 2a15 073e ddd5 053f 7fb2 8a3c 188d 433f
000003b0: bb03 bdbd 1c83 7bbe 8198 babe 2c07 a8bd
000003c0: 8eda c0ba 3f7b 163e 53ec d53d fc0d c03e
000003d0: 4eee b33e f445 b5bb eb5c 843e 0640 eb3e
000003e0: 2fa9 eb3c fc83 0f3e 1696 babe 5fbe d33d
000003f0: 5991 37be 9b8a 963d 5959 243d 9494 b2be

network_body._body_endoder.seq_layers.0.bias f4 [128]
0.0046445234 -0.002660034 0.025195882 0.05833563 0.026109884 0.0028763048 0.035210736 0.024960682
0.06641867 0.00983906 -0.00917433 -0.012447905 0.07391728 0.009493849 0.0044753747 0.023389326
0.052830804 0.04782151 0.04255482 0.045541864 -0.0112179285 0.042237666 -0.011241376 0.04627675
0.020747228 0.02154051 0.020464834 0.068019405 0.015053877 0.025507718 0.00065484503 -0.0020975815
0.051055565 0.05559697 0.018855961 0.021353034 0.07116584 0.06952132 0.04551568 -0.029623924
0.05485067 0.004402248 -0.040486798 0.040345646 0.03354282 0.047327086 -0.02695776 0.0025718925
-0.053573232 0.024902752 -0.013431224 0.0012963976 0.00893377 -0.042566996 -0.03202475 0.048420515
0.04073824 -0.006196234 0.021214226 0.048117567 0.068199605 -0.017990816 0.06677403 0.06831875
0.0008956612 0.026113179 0.05567229 0.016984217 -0.022671953 0.025900457 0.026743205 -0.003335735
0.037324265 0.033049352 -0.01390858 -0.0015811719 -0.05242755 -0.048087083 -0.018822204 0.0017708207
0.021808125 -0.025375571 -0.030007351 -0.0032818015 -0.017187743 -0.006038663 -0.0057290765 0.034998402
0.040115412 0.016808735 0.016835233 -0.005581456 -0.016794063 0.040471587 -0.028546827 -0.03715218
0.062335417 0.017996978 0.009746258 0.061085787 0.0142191695 -0.008478576 0.012731551 0.0068581607
0.019908814 0.029372152 -0.020049023 0.0072145057 0.04651729 -0.045778327 -0.0005447314 0.011058717
0.01773947 0.07577222 0.015248529 -0.042314623 0.08497666 0.009963208 0.048130408 0.058912933
0.056064345 -0.030145323 0.072604306 0.0738118 -0.016688963 0.030841114 0.0027421557 0.04648953
00000000: 1631 983b f753 2ebb 9867 ce3c 57f1 6e3d
00000010: 65e4 d53c 6380 3c3b 2239 103d 587a cc3c
00000020: 8306 883d 0234 213c ee4f 16bc 4cf2 4bbc
00000030: f161 973d 178c 1b3c 2aa6 923b f99a bf3c
00000040: 1d65 583d 7de0 433d f74d 2e3d 1b8a 3a3d
00000050: 67cb 37bc 6701 2d3d c02d 38bc b08c 3d3d
00000060: 17f6 a93c b975 b03c dea5 a73c c24d 8b3d
00000070: 89a4 763c 90f5 d03c e8a9 2b3a 9477 09bb
00000080: a41f 513d a6b9 633d d177 9a3c 8fec ae3c
00000090: 65bf 913d 3261 8e3d a66e 3a3d dfad f2bc
000000a0: 19ab 603d bc40 903b 7cd5 25bd 7a41 253d
000000b0: 3264 093d 0cda 413d 85d6 dcbc 328d 283b
000000c0: 9b6f 5bbd db00 cc3c a30e 5cbc e3eb a93a
000000d0: f25e 123c bb5a 2ebd 622c 03bd 9754 463d
000000e0: 24dd 263d c709 cbbb 75c9 ad3c ed16 453d
000000f0: 3cac 8b3d 7a61 93bc d3c0 883d b3ea 8b3d
00000100: ceca 6a3a 4eeb d53c a108 643d 7c22 8b3c
00000110: 88ba b9bc 322d d43c 9114 db3c 599c 5abb
00000120: 54e1 183d c25e 073d d0e0 63bc 533f cfba
00000130: 45be 56bd f6f6 44bd 0631 9abc e21a e83a
00000140: f4a6 b23c 6ee0 cfbc fad1 f5bc 7e13 57bb
00000150: 4fcd 8cbc fadf c5bb faba bbbb 7c5a 0f3d
00000160: 0f50 243d 79b2 893c 0bea 893c a5e4 b6bb
00000170: b493 89bc 89c5 253d 09db e9bc e22c 18bd
00000180: 6c53 7f3d 666e 933c c5ae 1f3c 1735 7a3d
00000190: 85f7 683c bae9 0abc ff97 503c 6cba e03b
000001a0: cf17 a33c de9d f03c d93d a4bc a967 ec3b
000001b0: ea88 3e3d 0e82 3bbd 4ecc 0eba 9f2f 353c
000001c0: 5d52 913c 772e 9b3d f7d4 793c 1952 2dbd
000001d0: 3e08 ae3d b93c 233c 6424 453d b04e 713d
000001e0: baa3 653d 53f3 f6bc 91b1 943d a42a 973d
000001f0: 4bb7 88bc 81a6 fc3c bdb5 333b ce6b 3e3d

network_body._body_endoder.seq_layers.2.weight f4 [128, 128]
-0.12263355 -0.06265112 0.117286235 0.11127164 -0.096496105 0.08051386 -0.037119277 -0.099862605
0.14365983 0.007987367 0.10053467 -0.08552419 0.050948404 -0.022124339 -0.0018627893 0.01265719
-0.028108329 -0.027555099 -0.01799221 -0.04392827 -0.058563985 -0.09836969 0.029716533 -0.0941401
0.025393493 -0.0453824 -0.1338967 -0.016360942 -0.068327874 -0.005853925 -0.075519145 0.13504538
-0.07051176 0.083255395 0.156775 0.02000104 -0.05362214 0.028257865 0.031515528 0.094843574
0.056239698 0.12742274 -0.06522815 0.018377196 0.057194903 0.069749966 -0.036233164 0.09997327
0.2331167 0.05592515 -0.06643372 -0.07307608 -0.04628144 0.050682075 -0.103958756 -0.105660684
0.09384236 -0.0630349 -0.10828371 0.11741379 -0.029127039 0.10002204 -0.119816035 -0.066868596
0.028351922 0.21589999 -0.023655698 -0.038076043 0.12887442 0.007574526 -0.00505572 0.20335907
-0.07803402 0.08006702 -0.0073539363 -0.095976695 -0.017649572 0.04408876 0.06433441 0.020237952
-0.13774647 0.006325629 -0.054602798 0.0012693667 0.034622792 0.086157784 -0.041121252 0.16964166
0.08049305 0.025130603 0.044374082 -0.0556058 -0.14053763 0.06531524 -0.11615785 0.11022508
-0.16800454 -0.03973995 0.0052060746 -0.011918155 0.11166022 -0.03434817 0.011437628 0.058734577
-0.002615559 0.033399016 0.07379507 -0.0720624 0.09731877 0.0944209 0.0010852485 -0.07530725
0.021801962 -0.25793004 0.09591301 0.14823863 0.14555262 -0.13665195 0.007831798 -0.23880264
-0.012631325 0.22220756 -0.15844122 0.05693103 -0.029650558 -0.07216981 -0.15059017 -0.10008395
-0.059721485 0.010530621 0.0147942 0.09699985 -0.11899563 0.11780271 0.016133325 0.028916001
-0.09057897 -0.086874604 -0.009098713 -0.030048748 0.0699397 -0.0826947 0.08051921 0.12627038
0.07933462 -0.25737765 0.24583422 0.07387242 0.047673874 0.020948846 -0.0252886 0.040862985
0.068544574 -0.14129785 -0.055090927 0.072251044 0.18424398 0.13857935 -0.1373484 0.052671406
-0.057756096 0.1117639 0.049818017 -0.058110774 0.18252857 0.11315265 -0.13115655 -0.11161849
0.093715206 0.035558984 0.085038744 0.123369075 -0.020219468 -0.069208086 0.19550075 0.05802093
-0.03366495 0.0024062053 -0.029739302 -0.028382199 -0.0096914265 -0.20449358 0.05487707 -0.16482213
0.11298057 -0.021342406 -0.321235 -0.016966887 0.041375197 -0.0229019 -0.15432955 -0.0774946
0.001925965 -0.09515774 0.06419653 0.1065628 -0.13781829 -0.012871822 0.02700756 0.22795814
0.19828019 0.007443821 0.02914193 0.10407784 -0.059408307 -0.0017172593 0.09727165 0.1461911
-0.09750259 -0.0009917357 -0.028207224 -0.07576551 0.10340058 -0.11804318 0.24925342 0.11034492
-0.068290494 0.068275705 0.16489474 0.013288179 -0.005543105 -0.096663006 -0.002584821 0.042895213
-0.0032907056 0.015803685 -0.0005500482 0.022128057 0.064638555 0.052171014 -0.13666278 -0.032736357
-0.02562585 0.06279978 0.067612365 -0.04319989 -0.16708873 0.0138405245 -0.064436376 0.054283552
-0.07199771 -0.12542179 -0.024680447 0.09410116 0.19708675 0.008599221 -0.13102569 -0.08187799
0.046725545 -0.038105447 -0.0006500987 0.013138051 0.04281864 0.101327844 -0.06668789 0.030093966
00000000: 4c27 fbbd 3b4f 80bd c433 f03d 63e2 e33d
00000010: c09f c5bd 73e4 a43d 620a 18bd c484 ccbd
00000020: 901b 133e 72dd 023c 1fe5 cd3d 4e27 afbd
00000030: 46af 503d 1a3e b5bc d628 f4ba 1a60 4f3c
00000040: 7043 e6bc 3bbb e1bc 6664 93bc 21ee 33bd
00000050: cae0 6fbd 0c76 c9bd 1670 f33c 86cc c0bd
00000060: 0406 d03c e5e2 39bd 371c 09be 6207 86bc
00000070: 7cef 8bbd 48d2 bfbb c8a9 9abd 5649 0a3e
00000080: 7868 90bd ce81 aa3d a089 203e 39d9 a33c
00000090: e4a2 5bbd 0a7d e73c 6d16 013d 593d c23d
000000a0: 995b 663d 1b7b 023e 5696 85bd c68b 963c
000000b0: 3445 6a3d 12d9 8e3d 3a69 14bd c9be cc3d
000000c0: 25b6 6e3e c511 653d 670e 88bd e9a8 95bd
000000d0: 9b91 3dbd 0298 4f3d 54e8 d4bd a164 d8bd
000000e0: 6c30 c03d 7118 81bd dac3 ddbd a476 f03d
000000f0: d49b eebc 5bd8 cc3d 1c62 f5bd 67f2 88bd
00000100: 4a42 e83c e314 5d3e 98c9 c1bc a0f5 1bbd
00000110: a8f7 033e bb33 f83b 74aa a5bb 5c3d 503e
00000120: 4dd0 9fbd 2efa a33d 4af9 f0bb 6e8f c4bd
00000130: d695 90bc 6a96 343d c2c1 833d 10ca a53c
00000140: 690d 0dbe 3947 cf3b 2fa7 5fbd e160 a63a
00000150: a1d0 0d3d 7e73 b03d c26e 28bd 8bb6 2d3e
00000160: 8ad9 a43d b2de cd3c 99c1 353d e8c2 63bd
00000170: 19e9 0fbe ffc3 853d 2be4 edbd b0bd e13d
00000180: 6209 2cbe 5cc6 22bd b897 aa3b 5d44 43bc
00000190: 1dae e43d abb0 0cbd e464 3b3c ab93 703d
000001a0: cc69 2bbb 68cd 083d df21 973d 7495 93bd
000001b0: 104f c73d bf5f c13d e63e 8e3a b03a 9abd
000001c0: 079a b23c 680f 84be 0a6e c43d decb 173e
000001d0: bf0b 153e 7dee 0bbe f150 003c ae88 74be
000001e0: 9ef3 4ebc 618a 633e 6a3e 22be 8330 693d
000001f0: bae5 f2bc c4cd 93bd 4f34 1abe d0f8 ccbd
00000200: 849e 74bd a088 2c3c 5f63 723c dba7 c63d
00000210: fbb3 f3bd 8c42 f13d 092a 843c 40e1 ec3c
00000220: 7881 b9bd 50eb b1bd c512 15bc cb28 f6bc
00000230: 8c3c 8f3d d75b a9bd 41e7 a43d 064d 013e
00000240: 307a a23d 01c7 83be f7bb 7b3e 6c4a 973d
00000250: ae45 433d ea9c ab3c 0a2a cfbc f25f 273d
00000260: 1961 8c3d 62b0 10be 06a7 61bd 5bf8 933d
00000270: 74aa 3c3e bfe7 0d3e 0fa5 0cbe f9bd 573d
00000280: a891 6cbd 79e4 e43d fa0d 4c3d 9005 6ebd
00000290: c5e8 3a3e 94bc e73d e74d 06be 3c98 e4bd
000002a0: c2ed bf3d 4ca6 113d cb28 ae3d eda8 fc3d
000002b0: 4ca3 a5bc f8bc 8dbd 5931 483e 5ba7 6d3d
000002c0: 42e4 09bd 6db1 1d3b d69f f3bc c981 e8bc
000002d0: cac8 1ebc c466 51be c7c6 603d 22c7 28be
000002e0: 5b62 e73d 45d6 aebc ea78 a4be 24fe 8abc
000002f0: 0a79 293d c49c bbbc 9108 1ebe 7db5 9ebd
00000300: a970 fc3a 10e2 c2bd 7879 833d 993d da3d
00000310: 3d20 0dbe 56e4 52bc f53e dd3c dc6d 693e
00000320: f609 4b3e 4ceb f33b 0fbb ee3c c326 d53d
00000330: 2056 73bd a915 e1ba 5c36 c73d 1fb3 153e
00000340: 70af c7bd 21fd 81ba d612 e7bc f32a 9bbd
00000350: afc3 d33d 9fc0 f1bd 4a3c 7f3e 84fc e13d
00000360: e3db 8bbd 22d4 8b3d 2bda 283e aab6 593c
00000370: efa2 b5bb 41f7 c5bd 1a66 29bb e4b2 2f3d
00000380: e1a8 57bb bb76 813c 1c31 10ba e645 b53c
00000390: 3861 843d 46b1 553d 54f1 0bbe 8f16 06bd
000003a0: 4ded d1bc 2c9d 803d 5a78 8a3d 5ef2 30bd
000003b0: 4f19 2bbe 5ec3 623c 38f7 83bd 6e58 5e3d
000003c0: 8973 93bd 926e 00be a62e cabc 1cb8 c03d
000003d0: 1cd1 493e bfe3 0c3c 992b 06be a6af a7bd
000003e0: 4963 3f3d 7514 1cbd 636b 2aba fb40 573c
000003f0: 9962 2f3d f984 cf3d a993 88bd 9f87 f63c

network_body._body_endoder.seq_layers.2.bias f4 [128]
0.005312286 0.007705311 -0.021424437 -0.025128078 0.021737853 0.044423714 0.09789742 -0.00895401
-0.032663357 0.080072515 -0.028161664 0.052160673 -0.02838667 -0.039838627 -0.036495093 -0.02763737
-0.033716142 0.06535149 0.04669368 0.0161847 0.0132058645 -0.061672572 -0.0012215056 0.06723174
-0.039267518 -0.0011112543 0.058688845 -0.020057097 -0.022927402 -0.03458126 -0.04658599 -0.02266715
0.03198299 -0.039080467 -0.038967792 0.05977553 -0.016234675 -0.04459397 0.033818036 0.05154046
0.051334895 -0.0042904858 -0.043507002 -0.04048674 -0.01683346 -0.04112668 0.051156104 0.060814172
0.08117222 -0.055145293 0.062209517 -0.036630906 -0.028031517 0.04977459 0.0014723251 -0.026793756
0.054287225 0.005690892 -0.02775329 -0.010154221 0.05038425 -0.053878352 0.040672846 0.027470216
0.053785946 0.057738177 0.07802869 -0.06887433 -0.04255265 -0.062015984 -0.058997817 -0.0062863086
0.06747879 -0.05377865 0.010239011 -0.033355717 0.03113032 -0.0592572 0.03990224 -0.03400091
0.019880485 0.055764038 -0.052752532 -0.06345528 0.039932653 0.05748968 -0.031351577 -0.024708487
0.01577423 -0.018170817 0.030116873 -0.008561805 0.007855128 0.07057637 -0.03251151 -0.017250452
-0.038120568 -0.053106748 0.074894235 0.0585478 0.06382042 -0.05342903 0.07132189 -0.028752532
-0.072940305 -0.027639389 0.012369192 0.03761928 -0.026963513 0.060124587 0.0145699885 -0.0036081271
-0.0070710583 -0.039970644 0.022232523 -0.0036662275 -0.010665715 0.0289479 -0.03936634 0.00991589
-0.04286784 -0.088708654 -0.0073477314 0.06860607 -0.049496397 -0.004633868 -0.008891947 -0.051251806
00000000: af12 ae3b d57c fc3b 4d82 afbc 66d9 cdbc
00000010: 9513 b23c a4f5 353d 717e c83d d7b3 12bc
00000020: 03ca 05bd 0ffd a33d 4ab3 e6bc 6ea6 553d
00000030: 298b e8bc d42d 23bd e17b 15bd c467 e2bc
00000040: f019 0abd 01d7 853d df41 3f3d c795 843c
00000050: 695d 583c 619c 7cbd ed1a a0ba cbb0 893d
00000060: fad6 20bd 82a7 91ba b763 703d c84e a4bc
00000070: 3fd2 bbbc 14a5 0dbd f3d0 3ebd 75b0 b9bc
00000080: 9900 033d d712 20bd b19c 1fbd 30d7 743d
00000090: 95fe 84bc 2ba8 36bd c884 0a3d 171c 533d
000000a0: 8a44 523d 3497 8cbb 6634 32bd 6dd5 25bd
000000b0: 53e6 89bc 7374 28bd 1089 513d 4818 793d
000000c0: 9f3d a63d 08e0 61bd 68cf 7e3d 4a0a 16bd
000000d0: 5aa2 e5bc 71e0 4b3d 08fb c03a 947e dbbc
000000e0: 485c 5e3d aa7a ba3b de5a e3bc e45d 26bc
000000f0: b75f 4e3d 8caf 5cbd 9298 263d 3809 e13c
00000100: a74e 5c3d de7e 6c3d 81cd 9f3d fc0d 8dbd
00000110: b04b 2ebd 7904 7ebd b2a7 71bd 61fd cdbb
00000120: 5232 8a3d 0047 5cbd 86c1 273c 01a0 08bd
00000130: 0305 ff3c aeb7 72bd 8870 233d 8a44 0bbd
00000140: 66dc a23c d568 643d 0a13 58bd d8f4 81bd
00000150: 6c90 233d 4c7a 6b3d 836a 00bd 7469 cabc
00000160: f538 813c f7da 94bc a9b7 f63c d046 0cbc
00000170: cbb2 003c 588a 903d ca2a 05bd d250 8dbc
00000180: 5024 1cbd 7686 59bd 2662 993d d1cf 6f3d
00000190: 48b4 823d 66d8 5abd 3611 923d 6e8a ebbc
000001a0: ba61 95bd 006c e2bc 27a8 4a3c ad16 1a3d
000001b0: 96e2 dcbc 3345 763d f6b6 6e3c 5476 6cbb
000001c0: 56b4 e7bb 42b8 23bd fb20 b63c 1745 70bb
000001d0: 40bf 2ebc 2524 ed3c 993e 21bd 4276 223c
000001e0: 3096 2fbd e2ac b5bd 3dc5 f0bb 5781 8c3d
000001f0: bcbc 4abd b4d7 97bb 87af 11bc 6aed 51bd

action_model._continuous_distribution.log_sigma f4 [1, 2]
-0.03767789 -0.0259504
00000000: 2254 1abd ef95 d4bc

action_model._continuous_distribution.mu.weight f4 [2, 128]
0.01613586 -0.012373363 0.007470609 -0.017058143 0.026785854 0.0025126417 -0.0006179329 -0.0038933004
0.036770802 0.04555322 -0.007015753 -0.0050255954 -0.0062269755 -0.005366411 -0.0071732835 0.027993904
-0.010929116 -0.015463686 -0.0140218595 0.02253822 -0.046475735 0.050395675 0.08023284 0.005465271
0.07168867 0.03284694 0.039761994 0.03062203 0.026498448 0.02985419 0.008147693 0.047441732
-0.024067195 0.021565236 0.0018017482 -0.04403214 -0.009985608 0.013273687 -0.02037619 -0.033731915
-0.0222567 -0.010349426 0.010750374 -0.022712357 -0.0043556965 0.011907977 -0.007729824 -0.024356274
-0.027776765 0.0038681694 0.017169517 0.042239394 0.001442658 -0.01751624 -0.007664307 -0.01838037
-0.054892227 0.03936119 -0.026801117 0.08979673 -0.022734053 0.006315486 -0.0037194912 0.02216242
-0.0070238803 -0.016711934 -0.024663325 0.06804655 0.011462174 0.01425416 0.042473458 0.003913711
-0.033598892 0.02668339 0.022897894 -0.002055395 -0.02295665 0.03881886 0.0070095262 0.04923995
-0.00016788465 -0.05424927 0.010291325 -0.0032560648 0.033062425 0.0026012592 0.029580517 0.05511815
-0.02637024 0.0012681975 -0.01174189 -0.029488578 0.030531319 -0.011533141 0.005095534 -0.0013744815
0.037730496 0.019353248 0.014260068 0.023650609 -0.011379396 0.007053203 -0.011749381 -0.014647438
0.03470047 0.016360262 -0.021522606 0.006161948 -0.0036321366 0.037490107 -0.024734152 0.012365892
0.045235243 0.03902032 -0.0068780575 -0.007943946 -0.013795309 0.03251576 0.007082639 0.015472893
-0.0010591863 0.012895044 0.030404879 -0.008163314 0.05188047 -0.031414878 0.01834994 0.005491852
0.013076843 -0.0024064567 0.0046177185 -0.034751583 0.016682357 0.02741468 0.043032583 -0.016173335
-0.0118281515 0.013553458 -0.06448966 0.018337272 -0.04542932 -0.033506747 -0.051588587 -0.029694494
-0.042768538 0.028816234 0.004403528 0.03783329 -0.017727757 -0.058805488 -0.026845625 0.046583723
-0.06273601 0.0048534772 0.041235417 -0.006207035 -0.020491984 -0.00873166 -0.025101356 -0.03541044
0.003125566 -0.01148855 -0.012078028 0.034357533 -0.012051102 -0.035978116 -0.0024528762 0.009739256
0.025540696 -0.006119495 -0.10230388 -0.034692485 -0.023828667 -0.010539055 0.01752183 0.02165579
0.031096451 -0.05528148 0.027831057 -0.012685819 -0.0020897957 0.03588015 0.0028761262 -0.024118992
0.01611817 -0.0033179817 -0.025778325 0.0059508826 0.015573837 -0.006985075 0.010809173 0.02698018
0.008802084 0.04763407 0.052056246 -0.08954416 -0.013776372 -0.049096886 -0.072028086 0.0034368255
0.03271613 -0.02894287 0.027826026 -0.021096446 -0.0022051504 -0.063170284 0.03063212 -0.014254559
0.012776275 0.040874485 -0.023266042 -0.01824112 0.0125993425 0.018304631 -0.007822548 0.0135118235
-0.012279167 -0.005422241 -0.0010342005 -0.02048799 0.01763224 0.021096298 -0.039669774 -0.018274562
-0.022697933 -0.009143688 0.034897108 0.004264667 0.0086598145 -0.019158117 0.04490995 -0.035411954
-0.082919054 -0.0057377485 -0.0075010685 0.02180525 -0.016547985 0.0075107506 -0.012445711 0.0051016365
0.006110032 -0.016749233 0.019302014 -0.0071146768 -0.024989491 0.057957888 -0.008855965 0.022110898
-0.009861507 -0.047252387 0.013694497 0.015953846 -0.08197472 -0.01979303 0.0053960616 -0.029302655
00000000: 5a2f 843c a5b9 4abc 03cc f43b 85bd 8bbc
00000010: 026e db3c 22ab 243b c6fc 21ba be26 7fbb
00000020: fb9c 163d 0396 3a3d 67e4 e5bb c0ad a4bb
00000030: a80b ccbb b8d8 afbb dd0d ebbb 7953 e53c
00000040: 0910 33bc 665b 7dbc f1bb 65bc 13a2 b83c
00000050: 575d 3ebd b26b 4e3d 1d51 a43d 0416 b33b
00000060: 82d1 923d 838a 063d 79dd 223d 0ddb fa3c
00000070: 4613 d93c c690 f43c e77d 053c 4352 423d
00000080: 9128 c5bc 94a9 b03c a328 ec3a 0c5b 34bd
00000090: ad9a 23bc e179 593c f8eb a6bc 7a2a 0abd
000000a0: af53 b6bc a490 29bc 5622 303c 440f babc
000000b0: 3bba 8ebb ad19 433c 774a fdbb cf86 c7bc
000000c0: 198c e3bc 1d81 7d3b 16a7 8c3c 3703 2d3d
000000d0: 9217 bd3a 387e 8fbc de24 fbbb 6e92 96bc
000000e0: acd6 60bd 3339 213d 048e dbbc 59e7 b73d
000000f0: c43c babc 23f2 ce3b b5c2 73bb f78d b53c
00000100: 9428 e6bb 77e7 88bc be0a cabc fd5b 8b3d
00000110: d8cb 3b3c 488a 693c a6f8 2d3d 963e 803b
00000120: fe9e 09bd 2097 da3c 5d94 bb3c ceb3 06bb
00000130: 960f bcbc 8600 1f3d 2bb0 e53b d4af 493d
00000140: 310a 30b9 7c34 5ebd f29c 283c b463 55bb
00000150: 776c 073d e379 2a3b d752 f23c 92c3 613d
00000160: 6706 d8bc a639 a63a 0e61 40bc 0892 f1bc
00000170: d11c fa3c 80f5 3cbc 70f8 a63b f227 b4ba
00000180: 4b8b 1a3d b48a 9e3c 0fa3 693c ecbe c13c
00000190: a570 3abc 8e1e e73b 7a80 40bc cffb 6fbc
000001a0: 1422 0e3d f505 863c 2d50 b0bc 2bea c93b
000001b0: 2409 6ebb 3a8f 193d 479f cabc 4f9a 4a3c
000001c0: 9748 393d c5d3 1f3d 5461 e1bb 5327 02bc
000001d0: b805 62bc 3f2f 053d 7b15 e83b 0482 7d3c
000001e0: 65d4 8aba bc45 533c a713 f93c 6cbf 05bc
000001f0: 9e80 543d e3ac 00bd 9d52 963c fef4 b33b
00000200: 4140 563c a5b5 1dbb 3b50 973b ad57 0ebd
00000210: 70a9 883c c094 e03c ef42 303d f17d 84bc
00000220: ddca 41bc 530f 5e3c 2813 84bd 0c38 963c
00000230: 1814 3abd 5f3e 09bd 8e4e 53bd de41 f3bc
00000240: 102e 2fbd 0610 ec3c 784b 903b 14f7 1a3d
00000250: cd39 91bc 06de 70bd 5beb dbbc 93ce 3e3d
00000260: bd7b 80bd eb09 9f3b 78e6 283d 6264 cbbb
00000270: cede a7bc 3d0f 0fbc 5ca1 cdbc 8a0a 11bd
00000280: 4cd6 4c3b 793a 3cbc ece2 45bc 7cba 0c3d
00000290: fc71 45bc ca5d 13bd 6fc0 20bb 6791 1f3c
000002a0: b93a d13c 0b86 c8bb b284 d1bd b519 0ebd
000002b0: 5634 c3bc 00ac 2cbc f189 8f3c 7c67 b13c
000002c0: fcbd fe3c d56e 62bd f5fd e33c 2ed8 4fbc
000002d0: f4f4 08bb 10f7 123d 647d 3c3b 3195 c5bc
000002e0: 410a 843c 7f72 59bb 112d d3bc 9fff c23b
000002f0: 6829 7f3c 0ee3 e4bb f518 313c 8a05 dd3c
00000300: 9e36 103c f11b 433d ee38 553d ee62 b7bd
00000310: 4bb6 61bc d119 49bd 7683 93bd 5d3c 613b
00000320: 5901 063d 9919 edbc 68f3 e33c 74d2 acbc
00000330: 4984 10bb 6c5f 81bd 36f0 fa3c f48b 69bc
00000340: 9553 513c 016c 273d 6d98 bebc 676e 95bc
00000350: 796d 4e3c 98f3 953c 252a 00bc b260 5d3c
00000360: 8f2e 49bc 0ead b1bb 038e 87ba 6ed6 a7bc
00000370: 7d71 903c 25d2 ac3c c67c 22bd 89b4 95bc
00000380: 04f1 b9bc 68cf 15bc 45f0 0e3d 9fbe 8b3b
00000390: e5e1 0d3c 7cf1 9cbc 7ff3 373d 200c 11bd
000003a0: 77d1 a9bd b903 bcbb 86cb f5bb eca0 b23c
000003b0: a48f 87bc be1c f63b 18e9 4bbc a12b a73b
000003c0: aa36 c83b b035 89bc 421f 9e3c 3c22 e9bb
000003d0: c3b6 ccbc 4065 6d3d 9c18 11bc ea21 b53c
000003e0: 2992 21bc b88b 41bd e25e 603c a4b1 823c
000003f0: 5de2 a7bd fe24 a2bc 72d1 b03b 1f0c f0bc

action_model._continuous_distribution.mu.bias f4 [2]
-0.03452639 0.061111443
00000000: 8b6b 0dbd fe4f 7a3d

exp_avg f4 [128, 15]
-0.00061912875 5.892198e-05 0.00013440671 -0.00035283426 6.1839535e-05 -4.180209e-05 -2.7139642e-05 1.0928366e-06
0.00010342903 -3.7504017e-06 3.813288e-05 -1.48076415e-05 -8.0352234e-05 3.7868992e-06 0.00076018483 -0.000386653
3.654737e-05 -3.824328e-05 -0.0002231182 -3.580474e-05 6.548528e-05 -3.8401275e-05 0.000121421734 -7.4910815e-05
-8.349169e-05 0.00012610295 8.210903e-05 0.0001276874 -1.2309144e-05 0.00038812164 0.00044824454 0.00012284274
0.00012215265 0.00013868275 0.00016317255 5.2804993e-05 -1.4954707e-05 0.000118011034 -1.2495366e-05 1.236252e-05
1.0220267e-05 0.000108560824 3.623999e-05 -1.7919683e-06 -0.00017816795 0.00049820245 8.352765e-05 4.5518987e-05
0.00017575061 0.0001784827 0.00015775528 2.3017004e-05 0.00024503353 -0.00022934162 -2.2724447e-05 0.00017061464
0.00021436646 0.00032671075 -1.43398875e-05 -0.00031743242 -0.00035563635 6.0756156e-05 0.000117720505 -0.00017500397
-7.217781e-05 0.00014096446 -3.6077292e-06 4.37544e-05 9.3435614e-05 -7.755475e-07 -1.9966355e-05 1.1267159e-05
0.00019442564 2.1629476e-06 0.00043497814 0.00046445426 0.00022864313 0.0005350082 0.0001265423 6.20631e-05
0.0002472661 0.00018088093 0.00012852716 4.7397818e-05 0.00019785721 -0.00034485335 0.000166073 0.00047922146
1.807189e-05 -0.00024099044 -2.3127554e-05 6.1997394e-05 -8.71691e-05 -4.584755e-05 0.00012275949 1.5556661e-05
-4.1569157e-05 0.00019824656 -0.00011727458 -5.152095e-05 0.00012536347 0.00013618865 3.3711727e-05 -1.5151727e-05
0.0001405526 -6.590997e-05 -0.0001205968 -0.00017283103 -3.852376e-06 3.730817e-05 -4.8134003e-05 -0.00013959677
0.00016693989 -0.00023456402 -8.248169e-05 0.00034373972 0.00013980239 0.00013393065 -2.8225764e-05 -0.0001301109
6.231405e-05 0.0003192611 0.00039720978 8.949038e-05 -0.00010022962 0.00025066757 -6.5413515e-05 0.00040289742
0.00016226085 9.692284e-05 -6.865736e-05 0.0002093318 0.0004114672 -3.6091922e-06 -0.0001697939 0.00029869223
2.0661946e-05 1.7406175e-05 0.00011401614 0.00012686639 0.0002164011 -4.1822055e-05 7.362209e-05 -0.00016917956
-0.00011614787 7.1857976e-05 9.770649e-05 0.0003210155 -1.8916162e-05 -0.00011403793 -0.0001786179 -5.14139e-06
-6.628609e-05 -8.486405e-05 -0.00010678486 4.2024392e-05 8.82775e-06 1.2367932e-05 2.0658877e-06 -6.607645e-06
-5.0488634e-06 3.2868946e-05 8.079097e-05 -1.3451789e-07 4.3335833e-05 -0.00021342364 -8.056069e-05 -0.00055286527
-7.2989504e-05 7.993061e-05 -0.00027701873 2.748734e-05 -8.607133e-06 -0.00013265683 -0.00010207724 0.00012946835
-1.0559375e-05 -0.00053154025 -3.1925053e-06 0.00014694991 0.0007770089 0.00047433443 0.0012045661 0.00033858034
-0.00012434274 0.00067331654 0.00031715387 0.00016217449 0.00024419848 0.00020426048 -0.00067467766 0.0001408464
0.001133752 1.9222854e-05 -0.00058191695 0.00066369073 3.4743327e-05 0.00040902905 0.00021471766 4.796594e-05
0.00019194266 -1.6919083e-05 -5.178737e-05 2.043238e-05 -1.6340566e-05 4.9806873e-05 -4.3126453e-05 0.0003210793
7.90833e-06 -0.00038494475 0.0009709741 6.739348e-05 0.00019330147 0.0003964377 -8.636776e-05 0.0002522036
0.00032662338 -8.555508e-06 -0.00013731919 7.754003e-05 -0.0004513322 -1.4282429e-06 0.0003212584 1.4230438e-05
-0.0007013954 6.319735e-05 -5.680056e-05 -2.3528339e-05 2.321798e-05 -3.4743716e-05 1.849083e-05 -1.465553e-05
-2.255337e-05 -5.1863273e-05 -4.136707e-05 -3.7894908e-05 -9.747169e-06 7.105838e-05 -3.3122938e-06 -0.00015760862
-0.00016841239 0.0003610127 0.00039199064 -0.00018536791 8.088026e-06 -3.5630146e-05 -0.00020832359 0.00037884954
0.00025777303 0.00012719963 -7.161299e-05 0.000275439 -6.24998e-05 1.9970328e-06 0.00019789323 0.0009853317
00000000: 074d 22ba ff22 7738 87ef 0c39 9dfc b8b9
00000010: d9af 8138 a754 2fb8 f0a9 e3b7 94ad 9235
00000020: 0ae8 d838 69af 7bb6 def0 1f38 566e 78b7
00000030: c782 a8b8 6f22 7e36 2447 473a b0b7 cab9
00000040: 714a 1938 6967 20b8 d6f4 69b9 0c2d 16b8
00000050: 2455 8938 0e11 21b8 cca3 fe38 7019 9db8
00000060: 4218 afb8 813a 0439 f331 ac38 d3e3 0539
00000070: 5f83 4eb7 ce7c cb39 5d02 eb39 59cf 0039
00000080: 1a16 0039 5e6b 1139 4c19 2b39 ee7a 5d38
00000090: fae5 7ab7 b17c f738 30a3 51b7 9e68 4f37
000000a0: b677 2b37 26ab e338 6500 1838 9083 f0b5
000000b0: 98d2 3ab9 cd99 023a 912b af38 a4eb 3e38
000000c0: b249 3839 1627 3b39 1c6b 2539 a414 c137
000000d0: d877 8039 6c7b 70b9 61a0 beb7 05e7 3239
000000e0: 8fc7 6039 604a ab39 5995 70b7 0f6d a6b9
000000f0: b474 bab9 6dd4 7e38 b7e0 f638 4581 37b9
00000100: 2b5e 97b8 dccf 1339 511c 72b6 ee84 3738
00000110: ddf2 c338 382f 50b5 6c7d a7b7 1408 3d37
00000120: bcde 4b39 2827 1136 c70d e439 ff81 f339
00000130: ecbf 6f39 cb3f 0c3a 71b0 0439 e027 8238
00000140: 7fa3 8139 dbaa 3d39 3fc5 0639 05cd 4638
00000150: e477 4f39 6fcd b4b9 e223 2e39 0440 fb39
00000160: 1799 9737 61b2 7cb9 0b02 c2b7 9904 8238
00000170: 8ece b6b8 6f4c 40b8 00b9 0039 ad7f 8237
00000180: 8b5a 2eb8 68e0 4f39 50f1 f5b8 3318 58b8
00000190: 0074 0339 ddcd 0e39 b165 0d38 2c34 7eb7
000001a0: 4d61 1339 2539 8ab8 eae8 fcb8 fa39 35b9
000001b0: a843 81b6 587b 1c38 7ee3 49b8 b960 12b9
000001c0: 960c 2f39 4df5 75b9 05fa acb8 f737 b439
000001d0: eb97 1239 bc6f 0c39 5ec6 ecb7 616e 08b9
000001e0: 9aae 8238 8062 a739 9840 d039 c8ac bb38
000001f0: 5e32 d2b8 086c 8339 9d2e 89b8 fa3b d339
00000200: 9124 2a39 0e43 cb38 24fc 8fb8 1480 5b39
00000210: 31ba d739 7335 72b6 b40a 32b9 cb99 9c39
00000220: 3153 ad37 7a03 9237 f31b ef38 7007 0539
00000230: bae9 6239 176a 2fb8 8f65 9a38 cb65 31b9
00000240: 6a94 f3b8 75b2 9638 c6e7 cc38 f94d a839
00000250: 26ae 9eb7 a627 efb8 614b 3bb9 3484 acb6
00000260: 1303 8bb8 0af9 b1b8 aff1 dfb8 5943 3038
00000270: e61a 1437 dd7f 4f37 aea3 0a36 3db7 ddb6
00000280: 6869 a9b6 c3dc 0938 526e a938 ff6f 10b4
00000290: 7fc3 3538 79ca 5fb9 b1f2 a8b8 29ee 10ba
000002a0: f111 99b8 6ba0 a738 d33c 91b9 9d94 e637
000002b0: 5b67 10b7 cc19 0bb9 4d12 d6b8 e5c1 0739
000002c0: 2c28 31b7 1057 0bba d33e 56b6 9116 1a39
000002d0: 2fb0 4b3a 17b0 f839 88e2 9d3a 7c83 b139
000002e0: 0062 02b9 8281 303a ac47 a639 620d 2a39
000002f0: c407 8039 c12e 5639 dadc 30ba 2bb0 1339
00000300: 689a 943a c440 a137 c98b 18ba 88fb 2d3a
00000310: 5db9 1138 f372 d639 d525 6139 092f 4938
00000320: 3744 4939 74ed 8db7 4436 59b8 3466 ab37
00000330: 1913 89b7 b9e7 5038 ade2 34b8 8956 a839
00000340: 05ae 0437 69d2 c9b9 f888 7e3a 9955 8d38
00000350: f8b0 4a39 f8d8 cf39 5720 b5b8 323a 8439
00000360: a63e ab39 a189 0fb7 57fd 0fb9 fd9c a238
00000370: c8a0 ecb9 0db2 bfb5 936e a839 44bf 6e37
00000380: d9dd 37ba d288 8438 233d 6eb8 b95e c5b7
00000390: 3bc4 c237 c8b9 11b8 c11c 9b37 06e1 75b7
000003a0: fe30 bdb7 c487 59b8 8e81 2db8 59f1 1eb8
000003b0: c687 23b7 2d05 9538 c648 5eb6 be43 25b9
000003c0: db97 30b9 4e46 bd39 1884 cd39 525f 42b9
000003d0: cfb1 0737 9471 15b8 7071 5ab9 53a0 c639
000003e0: b625 8739 e460 0539 ee2e 96b8 cc68 9039
000003f0: 5312 83b8 c304 0636 8f81 4f39 3f26 813a

exp_avg_sq f4 [128, 15]
1.6881535e-05 8.8024414e-08 5.2603436e-06 2.2384263e-06 6.1913204e-07 3.5219813e-07 2.9208739e-08 1.7090928e-08
9.545515e-08 4.5417284e-08 6.194991e-08 3.1110357e-08 8.9905217e-07 2.1661543e-10 6.65691e-06 1.1159786e-05
1.2871256e-07 2.22871e-06 1.2282612e-06 5.9145367e-07 2.3415198e-07 2.7924687e-08 4.4035527e-08 8.5417774e-08
3.6569542e-08 6.052408e-08 5.7367032e-08 5.787128e-07 4.8972265e-10 3.1563081e-06 3.1059647e-06 4.848644e-08
2.1140545e-06 3.4091403e-07 1.0331589e-07 1.777898e-07 2.4408518e-08 3.0863326e-08 3.1854974e-08 1.7083206e-08
2.8624234e-08 4.5406615e-08 5.69512e-07 2.2964748e-10 9.076741e-07 4.3197683e-06 3.099697e-07 2.7685614e-06
7.3914487e-07 1.8657973e-07 4.3104012e-07 1.1664262e-07 2.2314028e-07 1.967746e-07 6.127674e-08 1.8030559e-07
2.8951237e-07 1.2074552e-06 2.4508244e-09 2.2042175e-06 3.0141896e-06 4.240408e-08 1.9739023e-06 4.772735e-07
1.7061879e-07 2.9365646e-07 3.2367865e-08 1.2669899e-08 4.8474433e-08 1.4959165e-08 4.3778716e-08 2.7563653e-08
9.063409e-07 3.3930786e-10 1.5239727e-06 5.7034278e-05 2.6734068e-07 9.334346e-06 9.692072e-07 2.7633786e-07
5.050733e-07 2.211847e-07 4.491452e-08 6.6676404e-07 2.8413217e-07 4.479257e-07 1.4730351e-07 1.8779476e-06
3.1118454e-09 3.761762e-06 9.43615e-06 1.2814529e-07 2.8759487e-06 1.1419932e-06 4.1468394e-07 3.6032253e-07
4.664556e-08 6.584285e-08 1.1392228e-07 3.8631025e-08 9.384022e-08 8.6992046e-08 8.491806e-07 1.0719922e-09
3.0303427e-06 1.7166944e-05 1.3654277e-07 2.8572667e-06 8.090772e-07 2.1750193e-07 2.783169e-07 8.347205e-08
4.6161457e-08 2.309193e-07 8.5016936e-08 1.9300606e-07 8.2934235e-08 8.559953e-07 1.903463e-09 2.3990665e-06
8.718645e-06 3.9588065e-07 2.7679216e-06 1.0247408e-06 2.2005578e-07 8.619957e-07 1.5487895e-07 3.126724e-07
3.1902056e-07 8.108385e-08 2.8368322e-07 3.719605e-07 2.3900861e-06 3.909519e-09 3.4931481e-06 1.4437269e-05
9.216341e-08 6.3245507e-06 1.7972408e-06 7.620575e-07 7.653645e-07 3.4012487e-08 1.0833946e-08 8.052021e-08
3.621924e-08 6.0629624e-08 2.7673178e-08 1.9050142e-06 7.910908e-10 4.0377668e-06 2.151686e-05 1.3583212e-07
1.656194e-05 1.4679919e-06 9.857903e-07 1.2252107e-06 8.496506e-08 1.8909919e-08 1.3225998e-07 5.9026682e-08
1.0036917e-07 6.086806e-08 3.2021792e-06 6.236272e-10 3.420185e-06 3.2633532e-05 1.5425572e-07 5.565655e-06
5.6959146e-07 2.763357e-07 5.175837e-07 1.0154711e-07 2.8575608e-08 4.1564255e-07 1.5826545e-07 2.591216e-07
6.687595e-08 1.6279946e-06 2.1711264e-09 2.217832e-06 1.8406286e-06 2.717894e-07 2.382207e-06 4.6509862e-07
8.800235e-08 5.2851544e-07 1.485016e-07 1.7409134e-07 2.1138862e-07 7.601314e-08 2.1285719e-07 2.2454593e-07
1.6736043e-06 2.2457602e-09 1.5351361e-06 7.888453e-06 1.2364582e-07 4.3182094e-06 9.5155536e-07 5.8086295e-07
4.2701745e-07 7.512625e-08 2.3594303e-08 9.184487e-08 5.3075972e-08 6.5626026e-08 7.160209e-08 1.0276896e-06
1.1631889e-09 2.0634723e-06 6.635697e-06 1.484824e-07 6.2959202e-06 6.495784e-07 1.802759e-07 7.111371e-07
1.6511436e-07 4.7668824e-08 1.4551112e-07 7.0580256e-08 1.7123676e-07 1.4367153e-07 2.5731613e-06 8.4978513e-10
2.3124376e-06 1.1749221e-05 9.8950956e-08 3.895671e-06 1.5841207e-06 7.7240225e-07 2.9632042e-07 2.1526523e-08
3.0343237e-09 6.192458e-08 3.101461e-08 4.3884647e-08 1.4207288e-08 7.3802806e-07 1.4788458e-10 3.875172e-06
4.672031e-05 7.569192e-07 9.799586e-06 1.3349711e-06 2.6446577e-07 9.256111e-07 3.3893346e-07 5.053786e-07
9.286745e-07 2.89219e-07 7.427689e-07 6.488432e-07 2.7292201e-06 9.12138e-09 4.553246e-06 2.8677003e-05
00000000: d29c 8d37 ef07 bd33 0282 b036 df37 1636
00000010: 6e32 2635 be15 bd34 b2e6 fa32 59cf 9232
00000020: 06fd cc33 d510 4333 5309 8533 339e 0533
00000030: 6556 7135 d32b 6e2f 6c5e df36 ea3a 3b37
00000040: 3d34 0a34 f290 1536 bcda a435 63c4 1e35
00000050: 356b 7b34 09df ef32 9321 3d33 eb6e b733
00000060: a310 1d33 77f9 8133 b863 7633 d758 1b35
00000070: 2b9d 0630 f6d0 5336 1170 5036 683f 5033
00000080: 2edf 0d36 de06 b734 83de dd33 7de6 3e34
00000090: e6aa d132 968e 0433 ead0 0833 5ebe 9232
000000a0: 5be1 f532 1a05 4333 91e0 1835 0580 7c2f
000000b0: e4a6 7335 87f2 9036 e969 a634 86cb 3936
000000c0: a669 4635 a556 4834 b469 e734 f57c fa33
000000d0: 5598 6f34 fd48 5334 3e97 8333 069a 4134
000000e0: 476e 9b34 d80f a235 5c6b 2831 2bec 1336
000000f0: 6247 4a36 c71f 3633 6277 0436 fc1d 0035
00000100: 5633 3734 d6a7 9d34 d804 0b33 ceaa 5932
00000110: 3432 5033 8d7f 8032 3507 3c33 1dc5 ec32
00000120: 464b 7335 5689 ba2f 4e8b cc35 1738 6f38
00000130: 0687 8f34 b69a 1c37 b515 8235 965b 9434
00000140: 5f94 0735 ca7e 6d34 09e8 4033 adfb 3235
00000150: d48a 9834 707a f034 7b2a 1e34 ca0d fc35
00000160: 2ad8 5531 9472 7c36 f54f 1e37 4f98 0934
00000170: 6c00 4136 9646 9935 baa1 de34 5a72 c134
00000180: 5657 4833 7d65 8d33 70a5 f433 43eb 2533
00000190: 3585 c933 62d0 ba33 3ff3 6335 5f55 9330
000001a0: e45c 4b36 bb01 9037 979c 1234 78bf 3f36
000001b0: 5d2f 5935 7a8a 6934 956b 9534 3f41 b333
000001c0: 0f43 4633 9df2 7734 8e92 b633 1a3d 4f34
000001d0: 9419 b233 8dc7 6535 13ce 0231 a6ff 2036
000001e0: 4c46 1237 6c89 d434 88c0 3936 d389 8935
000001f0: 7948 6c34 e563 6735 cd4c 2634 5edd a734
00000200: da45 ab34 5120 ae33 204d 9834 ddb1 c734
00000210: 5e65 2036 7e54 8631 d46b 6a36 9937 7237
00000220: 5feb c533 7a37 d436 b938 f135 3190 4c35
00000230: 7373 4d35 2015 1233 3320 3a32 74ea ac33
00000240: 7a8f 1b33 7d33 8233 f6b5 ed32 caaf ff35
00000250: 1174 5930 277c 8736 1b7f b437 40d9 1134
00000260: 7fee 8a37 d107 c535 7f4f 8435 eb71 a435
00000270: 0976 b633 5a6f a232 5903 0e34 8684 7d33
00000280: 898a d733 92b6 8233 05e5 5636 dd6b 2b30
00000290: 5586 6536 fddf 0838 7da1 2534 9dc0 ba36
000002a0: 07e6 1835 4a5b 9434 15f0 0a35 1d12 da33
000002b0: 6d76 f532 7a25 df34 adef 2934 671d 8b34
000002c0: 719d 8f33 7881 da35 dc32 1531 10d6 1436
000002d0: 840b f735 73ea 9134 01de 1f36 abb2 f934
000002e0: cefb bc33 4edf 0d35 cf73 1f34 dded 3a34
000002f0: 10fa 6234 aa3c a333 bd8d 6434 b71a 7134
00000300: 9ba0 e035 d553 1a31 e00a ce35 a658 0437
00000310: 81c3 0434 23e5 9036 636e 7f35 99ec 1b35
00000320: d540 e534 1855 a133 6cac ca32 403c c533
00000330: a6f5 6333 4aee 8c33 aac3 9933 25ef 8935
00000340: 12de 9f30 2f7a 0a36 34a8 de36 886e 1f34
00000350: 8b41 d336 b05e 2e35 dd91 4134 f8e4 3e35
00000360: 4a4a 3134 6dbc 4c33 cb3d 1c34 e891 9733
00000370: 34dd 3734 2144 1a34 93ae 2c36 5096 6930
00000380: 602f 1b36 851e 4537 dd7e d433 8fb7 8236
00000390: f99d d435 1457 4f35 f815 9f34 53e9 b832
000003a0: 6384 5031 66fb 8433 ed34 0533 ae7b 3c33
000003b0: 5014 7432 e71c 4635 cf99 222f 7907 8236
000003c0: 8df5 4338 172f 4b35 e768 2437 422d b335
000003d0: e6fb 8d34 8377 7835 a9f6 b534 5aa9 0735
000003e0: 074a 7935 f545 9b34 b162 4735 2a2c 2e35
000003f0: a527 3736 41b4 1c32 16c8 9836 658f f037

exp_avg f4 [128]
7.652001e-05 3.915916e-05 6.329732e-05 -9.614443e-06 8.918613e-05 0.00033654078 -1.4593494e-05 -0.00022583271
0.0003577368 -9.112183e-05 4.642163e-05 -0.0001561866 0.0006876793 4.3072338e-05 8.823031e-05 -8.400027e-05
0.0004445381 -0.0002403208 2.1358794e-05 -7.732313e-05 -0.00015737485 -8.9429406e-05 0.0001652825 0.00028981667
-0.00012577475 1.651577e-05 2.8944876e-05 -0.00046169758 -1.4805541e-05 -5.679662e-05 -0.00039730605 9.804594e-05
0.00049399486 0.00014288203 0.00047484378 0.00017776692 -2.8906457e-05 -0.0010415715 -0.0005948035 0.0001316936
-0.0004706914 -6.219374e-06 0.00050581753 -0.00036287174 -0.0005039955 0.00014570192 8.897211e-05 -0.00012988148
2.7817987e-06 -0.00035169083 -0.00022207659 -3.262527e-05 -0.00016605103 6.51525e-05 -0.00013633518 -2.8751532e-05
-6.198787e-05 -3.4775912e-06 6.955903e-05 0.00036496602 0.00033392498 -0.0001734124 -0.00096175383 -0.00026143302
-2.7510134e-05 0.00014245746 8.8740926e-05 2.1814956e-05 0.0003024917 -5.6720546e-05 -2.6590378e-05 9.2957074e-05
-4.3472814e-05 0.0003026266 -3.2537322e-05 2.2461363e-05 0.00023940996 -0.00011846347 -9.671149e-05 -0.00025367143
8.053519e-05 0.00012471394 -5.203505e-05 -0.0002041831 -0.00013426952 -3.6444428e-06 -1.7769687e-05 5.4893997e-05
0.00034069698 0.00055054715 0.00012999805 5.4704407e-05 0.0002848832 -0.0008334111 0.00032241392 0.00027400904
-0.00025756858 -6.761879e-05 2.8393953e-05 0.00015039276 -0.00020494792 -1.8328856e-05 -0.00020223923 -0.000969444
-0.000316623 -2.094063e-05 -7.980192e-05 9.341788e-06 0.00033993123 -0.0002717153 -0.00016102096 -5.7051824e-05
9.8717064e-05 -0.00036307418 0.0001442764 -4.635532e-05 -6.358588e-05 -2.2348046e-05 8.519609e-05 -0.0005186232
7.8216886e-05 -0.00022130703 -0.0003400397 -2.970397e-05 0.00033617526 0.00019715703 1.6480988e-05 0.00020828318
00000000: 5e79 a038 d43e 2438 7dbe 8438 b84d 21b7
00000010: 7009 bb38 bd71 b039 94d6 74b7 82cd 6cb9
00000020: 9f8e bb39 a918 bfb8 d8b4 4238 05c6 23b9
00000030: 6045 343a 92a8 3438 4908 b938 4d29 b0b8
00000040: e510 e939 a0fe 7bb9 a92b b337 8a28 a2b8
00000050: fd04 25b9 0c8c bbb8 af4f 2d39 89f2 9739
00000060: 67e2 03b9 598b 8a37 a6ce f237 0010 f2b9
00000070: 5065 78b7 e838 6eb8 844d d0b9 039e cd38
00000080: 6f7f 013a 9ad2 1539 74f4 f839 f266 3a39
00000090: 257c f2b7 5785 88ba 96ec 1bba 3b17 0a39
000000a0: 21c7 f6b9 04b0 d0b6 d798 043a d23f beb9
000000b0: 911e 04ba 90c7 1839 8a96 ba38 cb30 08b9
000000c0: f0ae 3a36 2563 b8b9 3bdd 68b9 1ed7 08b8
000000d0: fc1d 2eb9 7ba2 8838 32f5 0eb9 722f f1b7
000000e0: 7cff 81b8 9060 69b6 38e0 9138 e958 bf39
000000f0: a712 af39 09d6 35b9 351e 7cba f210 89b9
00000100: 90c5 e6b7 a260 1539 6c1a ba38 43ff b637
00000110: c097 9e39 39e7 6db8 670e dfb7 f3f1 c238
00000120: 9456 36b8 dba9 9e39 af78 08b8 696b bc37
00000130: 1f0a 7b39 976f f8b8 96d1 cab8 34ff 84b9
00000140: 00e5 a838 a5c5 0239 3640 5ab8 fc19 56b9
00000150: b3ca 0cb9 0d93 74b6 1d10 95b7 fb3d 6638
00000160: 939f b239 9852 103a 1650 0839 6972 6538
00000170: 605c 9539 4679 5aba aa09 a939 dfa8 8f39
00000180: 450a 87b9 90ce 8db8 8d2f ee37 c0b2 1d39
00000190: 4ae7 56b9 ebc0 99b7 2e10 54b9 4922 7eba
000001a0: 6b00 a6b9 a9a9 afb7 545b a7b8 adba 1c37
000001b0: cc38 b239 0375 8eb9 bcd7 28b9 ee4a 6fb8
000001c0: 5206 cf38 fe5a beb9 e748 1739 a56d 42b8
000001d0: 6959 85b8 1078 bbb7 4dab b238 37f4 07ba
000001e0: 5f08 a438 a70e 68b9 5b47 b2b9 ca2c f9b7
000001f0: ae40 b039 f0bb 4e39 a740 8a37 9766 5a39

exp_avg_sq f4 [128]
1.3377242e-07 1.5619952e-07 7.994398e-08 5.457672e-07 8.935925e-08 9.337344e-07 2.1954922e-07 3.605892e-07
7.1998255e-07 1.2454693e-07 2.4938737e-07 5.368322e-07 5.334606e-07 2.020227e-07 3.8498996e-07 8.928154e-08
1.6358825e-06 4.8749104e-07 1.1054114e-07 7.579291e-07 5.464684e-07 6.962905e-07 2.81412e-07 8.234628e-07
7.0233614e-07 1.4371115e-07 1.7966708e-07 1.403527e-06 2.7298307e-07 3.0088137e-07 3.940153e-07 1.972379e-07
5.774829e-07 2.0504814e-07 1.0786234e-06 1.730321e-07 8.7982824e-07 3.1211773e-06 8.7021357e-07 5.53829e-07
4.7626665e-07 2.5432917e-07 9.2061333e-07 6.3547657e-07 7.0631785e-07 5.087583e-07 4.5735408e-07 2.4340542e-07
5.018493e-07 3.7659365e-07 3.0885823e-07 3.12267e-07 2.7209344e-07 8.381048e-07 2.7271292e-07 2.944877e-07
1.0777189e-07 1.3901752e-07 3.1757008e-07 1.3546571e-06 1.9214344e-06 4.7716617e-07 1.949904e-06 1.4899873e-06
4.3830445e-07 4.2668856e-07 3.566228e-07 4.1303386e-07 2.4467917e-07 1.7847167e-07 1.9036924e-07 3.0935954e-07
4.0485722e-07 4.41612e-07 2.6911553e-07 1.8112647e-07 6.546091e-07 1.4620238e-07 1.2429595e-07 3.997274e-07
3.0782184e-07 2.4547134e-07 1.3178838e-07 4.4828695e-07 1.6792315e-07 1.0445023e-07 7.553264e-07 4.6605248e-07
8.7274924e-07 1.0991862e-06 2.3736227e-07 1.0009576e-07 7.976313e-07 1.5964024e-06 4.7257595e-07 7.0247e-07
1.8121494e-06 3.0945185e-07 2.0218853e-07 3.870304e-07 6.232505e-07 1.06968876e-07 4.6135037e-07 1.7000784e-06
4.1542586e-07 3.0092758e-07 2.6883407e-07 3.104883e-07 5.9615905e-07 1.2944639e-07 6.218855e-07 7.874722e-08
1.2998098e-07 5.316554e-07 1.4614702e-07 1.0679169e-07 1.0886699e-06 7.959042e-08 2.6682943e-07 3.159482e-07
5.040899e-08 9.1045234e-07 1.1241257e-06 1.7673945e-06 2.764183e-07 5.0764714e-07 5.301688e-07 7.4657817e-07
00000000: 15a3 0f34 ccb7 2734 abad ab33 d680 1235
00000010: c4e5 bf33 bda5 7a35 3bbd 6b34 0197 c134
00000020: d344 4135 33bb 0534 8ae3 8534 d41a 1035
00000030: 2233 0f35 94eb 5834 9eb0 ce34 0cbb bf33
00000040: 7f90 db35 21dc 0235 a262 ed33 7e74 4b35
00000050: 06b1 1235 b8e8 3a35 f914 9734 ef0b 5d35
00000060: 2c88 3c35 054f 1a34 83ea 4034 d260 bc35
00000070: 828e 9234 d288 a134 0d89 d334 57c8 5334
00000080: 5304 1b35 342b 5c34 38c5 9035 b4ca 3934
00000090: 562d 6c35 6b75 5136 9f98 6935 d7aa 1435
000000a0: 97b1 ff34 bc8a 8834 1120 7735 9e95 2a35
000000b0: cb99 3d35 9b91 0835 448a f534 63ad 8234
000000c0: d2b6 0635 a32e ca34 27d1 a534 a6a5 a734
000000d0: 3d14 9234 20fa 6035 6169 9234 151a 9e34
000000e0: 3970 e733 d844 1534 807e aa34 aad1 b535
000000f0: fef1 0036 9c16 0035 18db 0236 93fb c735
00000100: 1b50 eb34 a113 e534 dd75 bf34 f1be dd34
00000110: 735c 8334 eba1 3f34 4c68 4c34 0d16 a634
00000120: 275b d934 b116 ed34 f57a 9034 aa7b 4234
00000130: 65b8 2f35 cefb 1c34 3676 0534 1e9a d634
00000140: b642 a534 53c9 8334 b781 0d34 17ac f034
00000150: 5d4e 3434 1f4e e033 a3c1 4a35 c435 fa34
00000160: df46 6a35 c087 9335 a5dd 7e34 3af4 d633
00000170: ce1c 5635 f843 d635 58b6 fd34 5f91 3c35
00000180: fb38 f335 bd22 a634 2919 5934 0ec9 cf34
00000190: 734d 2735 c3b6 e533 83af f734 402e e435
000001a0: b207 df34 2c8f a134 4654 9034 30b1 a634
000001b0: bd07 2035 f4fd 0a34 a5ef 2635 be1b a933
000001c0: e690 0b34 15b7 0e35 96ec 1c34 5a55 e533
000001d0: 6a1e 9235 4ceb aa33 c240 8f34 979f a934
000001e0: 4581 5833 cf65 7435 aae0 9635 3637 ed35
000001f0: a466 9434 3f45 0835 ec50 0e35 7668 4835
