python/results/minion_walk_003/Minion/Minion-40967.onnx (onnx, 78034 bytes, 7 tensors)

network_body._body_endoder.seq_layers.0.weight f4 [128, 15]
00000000: c66c 123e 5f7c 9dbe 5c8f 4ebe b0a3 a3be
00000010: 8d76 46be b1b5 143e c0df 653e 1b3a 043e
00000020: e4c7 5e3f 20f1 d4bc dc08 08be 723e 8a3e
00000030: ef84 fcbd 72e0 853e d056 d1be e04e db3c
00000040: 7906 96be 07b7 8b3e f6b5 c1bc 2f15 a53e
00000050: 14cb e6be 5ca3 b03e 9c4c 98bd 9a14 093f
00000060: 0eee ee3e e472 eabe c596 2f3e cf0a ea3d
00000070: 8be8 0e3e 6c3b 05bd 6d0b 673e 8233 51be
00000080: 2516 583e f991 ffbe c94f 8ebe e0fe 83be
00000090: 86d0 ecbd 6326 6f3e 225d 263e 5dd7 00bf
000000a0: 8a20 c83d f7ae bfbd bde5 1cbd 4a9a a2be
000000b0: 9d61 1f3d 5766 aebe 42be a3be ac49 71be
000000c0: 8f3d 26bf 926c 3ebd 2117 e3bd 2bc1 9d3d
000000d0: a344 22be 72ac 79be f625 ab3e 119a 583d
000000e0: 3093 ebbd 14d6 ad3d 3d53 2b3f b573 1abe
000000f0: e7d4 a3bd e107 9bbd ade9 dbbe bbaf 1dbf
00000100: ba9d f53e 5802 94bd a21d 16be 7973 6fbc
00000110: ff52 e2be 61de 88be fff8 82bd 5206 ec3c
00000120: 6266 5c3e 35c3 f8bd 82fc a03d 6ee1 3d3e
00000130: f238 afbe 8b09 80be fe5c f03e 3d0f 203e
00000140: 1ef7 e3bc 2d22 293f 4c31 983e aa4e 44be
00000150: acdc 03be c917 d23d 271c b93e 63c3 17bd
00000160: 2b9c 3d3e 86f6 aabe 8fa3 0c3f d703 a83e
00000170: 50b2 093f a9a3 b0be b6c8 a33e e65e fd3d
00000180: d5a9 b03d 11b8 153f babf 1c3c 8328 e1be
00000190: 45be d63d 40fa 533d aa8f 253f b294 f93d
000001a0: 3b7a 503e 2841 173d 6658 673e 3832 89be
000001b0: b13c ce3d 9607 2b3e f29d e03e 0b61 42be
000001c0: 948b ef3e 512c dabe 2e74 433e 0e40 103f
000001d0: 7bb0 21bd 312a 6a3e 529d 1cbf c659 083e
000001e0: 4f77 e33e 8a82 ae3e f4c0 0ebd d746 82bc
000001f0: 8118 6bbe 2fe5 663e c7eb e9be 99e3 0fbf
00000200: 50ed 16bf b643 c73d cd3e 32be 0037 60be
00000210: 96f6 a53e da8d f0bd 7034 103e b510 b53b
00000220: 0b46 4d3e 8c13 82bc b708 25bf 5e8b 1a3d
00000230: df79 b4be da46 863d 4b28 57be 43b6 8e3d
00000240: 6e0a 0cbe 2eaf 25be ebfa 793d 6fb5 9c3e
00000250: 452c 16be 1e6e 33bc d029 13be 0b3e a43e
00000260: 23a0 58bd ab0a 1c3e 140f f7bd 3020 98be
00000270: 3d8d ac3e adec 343d 8f20 973e 9c64 cf3e
00000280: 99ea 43be 7263 903e 4966 f93c e2e0 da3e
00000290: b242 f1be 46f3 f63d 7747 f6be 262b 92be
000002a0: 49bc 2e3f e5b1 2c3e 4bd7 b9bb 45bf 243e
000002b0: 2bbd 78be 5d40 28bd 7a06 67be cf01 4b3e
000002c0: 1867 17bb 2a5a 58be 14c8 083d 6fa3 28bc
000002d0: cee2 2ebe 6793 02be 494f a63e 6285 2c3e
000002e0: 4e3a 07be bca4 01be 1257 07bf 23f4 943d
000002f0: 985a 73be 4a09 a1be e200 ed3e e4ed bcbe
00000300: 6a4d 093e 20fe 14be 6c13 e7bd 6f84 abbd
00000310: 01d4 bdbe c923 9e3d 18cb dcbd fea1 2ebc
00000320: ac33 2dbe 9d2c 903e 515d 673e c9f8 84be
00000330: 5f68 133c bc6c b83d e753 273e edf1 40be
00000340: df84 cabc 03e7 b2be 9c01 48bd f8a6 2ebd
00000350: 988e 4ebe 2985 16be e30e b7bd 143b 003d
00000360: aa1d 983e 946e 73be 7475 aebd e153 febc
00000370: 0c30 9f3d 3939 26be 300c 87be d725 bc3d
00000380: 8456 9e3a 2a6a c8be cb79 ecbd 72c4 a43e
00000390: 267f c3be fcd4 17bd e3b0 78bc 0d86 59be
000003a0: c6a5 d1be ae32 f4be b535 7cbe 64b5 0bbf
000003b0: e897 91bd 0c8b 14be 13c7 503e a531 97be
000003c0: d8f4 953e 157d 87bd 5584 ae3e 3ffb cdbe
000003d0: b564 7dbe 565c 863e 7f47 2abe c9eb 88bd
000003e0: e78d abbe 0cfc 2fbd 34a2 bc3e 68db 37bd
000003f0: d008 283d b9fc 473e 486e d23e 7fdf 82be
0.14299306 -0.3075895 -0.20171875 -0.3196082 -0.19381161 0.14522435 0.22448635 0.1291279
0.8702376 -0.025993884 -0.1328463 0.27000767 -0.123300426 0.261478 -0.40886545 0.026771009
-0.29301813 0.27288076 -0.023646336 0.32242724 -0.4507681 0.34499633 -0.07436487 0.5354706
0.46665996 -0.4579078 0.17147358 0.11427843 0.13955896 -0.032527372 0.22562952 -0.20429805
0.21102197 -0.49916056 -0.27795246 -0.25780392 -0.1156321 0.23354487 0.16246465 -0.5032862
0.09771831 -0.09359544 -0.038305033 -0.31758338 0.03891145 -0.34062454 -0.31981093 -0.2356326
-0.6493768 -0.04649026 -0.11088396 0.077028595 -0.15846495 -0.24382189 0.334274 0.052881304
-0.11502683 0.08488098 0.66923887 -0.15083201 -0.07999592 -0.07569862 -0.42951718 -0.6159627
0.47971898 -0.072270095 -0.14659742 -0.014614933 -0.44203946 -0.26732162 -0.063951485 0.028811608
0.21523431 -0.12146608 0.07860662 0.18543026 -0.34223133 -0.2500728 0.46945947 0.15630813
-0.027827796 0.66067773 0.2972511 -0.19170633 -0.12877148 0.10258443 0.3615429 -0.03705157
0.18516605 -0.33391207 0.5493707 0.3281543 0.5378771 -0.34499863 0.31989068 0.12371616
0.08626143 0.5848399 0.009567196 -0.4397622 0.1048551 0.05175233 0.6467234 0.121865645
0.20359127 0.036927372 0.22592315 -0.26796126 0.1007017 0.16702113 0.43870503 -0.18982331
0.46786177 -0.42611936 0.19087288 0.5634774 -0.039474946 0.22867657 -0.6117755 0.13315496
0.44426963 0.34083968 -0.034851983 -0.01590292 -0.22958566 0.22548364 -0.45687696 -0.5620666
-0.5895586 0.09729712 -0.17406769 -0.21895981 0.32414693 -0.11745806 0.14082503 0.0055256733
0.2004625 -0.015878461 -0.6446642 0.037730567 -0.3524923 0.065564826 -0.21011464 0.069683574
-0.13675854 -0.16180107 0.06103031 0.30607173 -0.14665325 -0.010951547 -0.14371419 0.32078585
-0.052887093 0.15238445 -0.12063423 -0.29712057 0.33701506 0.044171024 0.29517028 0.40506446
-0.1913246 0.2820087 0.030444281 0.42749697 -0.47121197 0.120581195 -0.48101398 -0.28548545
0.6825605 0.16864736 -0.005671417 0.16088589 -0.24290912 -0.041077007 -0.22561064 0.19824909
-0.002310222 -0.21128145 0.033393934 -0.010292872 -0.17078707 -0.12751542 0.32482365 0.16847757
-0.13205835 -0.12660497 -0.52867234 0.07273128 -0.23765028 -0.314524 0.46289736 -0.36900246
0.13408437 -0.14550066 -0.11283001 -0.08374869 -0.3707581 0.07721669 -0.107809246 -0.010658739
-0.16914243 0.28159037 0.22594191 -0.25971058 0.008997052 0.090051144 0.163406 -0.18842287
-0.024721561 -0.34941873 -0.04882966 -0.042639703 -0.20171583 -0.14699234 -0.08938386 0.03130634
0.29710132 -0.23772651 -0.08518496 -0.031045856 0.07772836 -0.16232766 -0.26376486 0.09186905
0.0012080227 -0.39143497 -0.11546668 0.32181126 -0.38182944 -0.037068352 -0.015178892 -0.21242543
-0.40946788 -0.47694916 -0.24629863 -0.54573655 -0.07109052 -0.14506167 0.20388441 -0.29530063
0.29288363 -0.066156544 0.34085336 -0.40230748 -0.24745448 0.26242322 -0.16628836 -0.066855974
-0.335067 -0.04296498 0.368425 -0.044886976 0.04102403 0.1953 0.41099763 -0.2556114

network_body._body_endoder.seq_layers.0.bias f4 [128]
00000000: 568b 563d 8e42 a43d ef8a 52bd 3a35 43bd
00000010: 4181 2fbd 5381 0a3d 0ef4 3f3d 3897 e93c
00000020: 2510 49bb 9880 2bbc 16b1 b03d c57d 3fbd
00000030: c8a7 bcbc 6fec 133c 17b5 17bd 567b 5abb
00000040: 6380 06bd 0ad2 db3a 8ff3 eb3c 17b1 23bc
00000050: 09fb 573d 06d6 983d 5205 213d 8b2d 873d
00000060: 14e2 d33c 84e1 de3b 9720 553d b3d2 623d
00000070: 22de 013c 6e64 4f3d 3e16 423d f839 2cbb
00000080: 61aa 49ba 4fa5 5b3d 230b b73d 79cc 8ebc
00000090: 73a9 183b 7609 9d3d 66d3 89bc a636 a6bc
000000a0: 1c64 05bc 2e36 7fba bf8c 9cbc 5ef1 843c
000000b0: f122 43bd 4c87 aebc cf54 d53c 8fb9 cabb
000000c0: 106d 093c e75e 293d 4b5c 9fbd 88de 71ba
000000d0: a314 3dbd e218 7cbc 52d4 fbbc 2d1b 18bd
000000e0: 2946 10bd e904 1fbc 9d12 523d ea0f 5f3d
000000f0: 42b6 b43c 962a ad3c 40a9 b63d 74b9 943d
00000100: 45bb 2f3d 3632 513c 023e 913c 9174 21bc
00000110: 7e07 8cbc 7c3d 893d dd6e df39 9c80 963d
00000120: 2b08 8ebc 412f 07bc 7764 49bd c44c 1c3c
00000130: 8a56 33bd 6452 91bd 81fb 2c3d 202b e93c
00000140: 5b7e eaba fada ba3d dec5 5dbc 5114 26bc
00000150: 7bb1 cfbc eee5 28bd 3c9f 9d3d 349f 913c
00000160: c673 313d d617 33bb 8b89 ec3c 771d b93c
00000170: c803 8a3b 8b78 4e3d dfb5 0a3d 542c 993c
00000180: 9a7a c63b 2b31 19bd b01f 91bd 037b 8fbd
00000190: e7ee b93d 4f74 e53c ffb7 553d 1343 b0bb
000001a0: 58ec 84bd bc12 1b3c 4336 e63c da32 833d
000001b0: 04d6 0dbd 2f35 58bd 2f72 863d 4658 863c
000001c0: da15 26ba b584 9c3a dfe1 983c 9576 e8bc
000001d0: a419 253d 7e54 9e3d 34f9 353d 0f03 6d3d
000001e0: 1ab6 7a3d cc56 973d 2d07 803d afb7 953d
000001f0: 932b 883c ddba 14bd a5b5 833d c710 d7bc
0.052378975 0.08020507 -0.05140203 -0.047658183 -0.042847876 0.03381474 0.046863608 0.02851449
-0.003067979 -0.010467671 0.086275265 -0.046750803 -0.023029223 0.009028538 -0.037037935 -0.0033337674
-0.032837283 0.001677097 0.028802661 -0.009990952 0.05272964 0.07462697 0.039311714 0.066004835
0.025864638 0.006801786 0.052033033 0.05537672 0.007926496 0.050632887 0.047384493 -0.002627967
-0.000769293 0.053624447 0.08937671 -0.017431485 0.002329436 0.0766782 -0.016824435 -0.02028973
-0.008141544 -0.00097355514 -0.019110082 0.016228374 -0.047640745 -0.021304749 0.026041416 -0.006186671
0.008387819 0.04135027 -0.07781275 -0.000922658 -0.04616226 -0.015386792 -0.03074089 -0.03713529
-0.03522316 -0.0097057605 0.051287282 0.054458536 0.022059564 0.02113847 0.089190006 0.07261935
0.042903204 0.012768319 0.017729763 -0.009854452 -0.017093416 0.0670118 0.00042616474 0.07348749
-0.01733788 -0.008251012 -0.049168076 0.009539787 -0.043783702 -0.07095793 0.04223204 0.028462946
-0.001789044 0.09123798 -0.013535945 -0.01013668 -0.025353184 -0.041234903 0.07696387 0.01777611
0.0433233 -0.002732744 0.02887418 0.022597058 0.0042118765 0.050407927 0.033864852 0.018697895
0.0060570957 -0.037400406 -0.07086122 -0.070058845 0.0907877 0.028009562 0.052177425 -0.0053790896
-0.064903915 0.009464916 0.028102046 0.064061835 -0.03462793 -0.052785095 0.065647475 0.016399514
-0.00063356536 0.0011941405 0.018662391 -0.028376857 0.040307656 0.07730959 0.04442711 0.057864245
0.06120882 0.07389602 0.06251369 0.073104255 0.01662234 -0.03631102 0.0643113 -0.026253117

network_body._body_endoder.seq_layers.2.weight f4 [128, 128]
00000000: 732d 4f3d 7d1b 5c3e fd20 19be 2a42 013e
00000010: 1559 34be 5d31 75bb 7d24 6abd 12e5 1bbe
00000020: 55b7 6e3d 3085 fd3b a79f 65bd b8b4 22ba
00000030: 5d9e 1cbe 491b 853d 04f2 2dbd 8a0b c93d
00000040: d550 42be 3152 afbd 25b0 48be 7895 1b3d
00000050: 0481 a1bb a21d 0f3d 0c29 cc3d 1d27 8f3d
00000060: f1c4 a93d 65b3 f2bd ab5d aabd c5d0 6a3e
00000070: 420e 813d e73a 943d b584 00be 2028 413c
00000080: 9279 593e 866c 15bc 1245 703e 366c 7dbd
00000090: f792 d63d c16a f13d 4930 6dbd fa28 c03d
000000a0: 6882 c4bd 4797 8dbd f7e4 bfbd 8421 8f3e
000000b0: 1171 ccbd 7593 323e 4d4e 8e3c 5d98 c7bd
000000c0: 2646 1abd 0f01 07be e2a0 38be 8531 983c
000000d0: eace 30be 3868 5e3c 5ec4 1f3c 08b4 09be
000000e0: cde2 6bbd e0da 1a3d 90df ffbc 34b7 5b3e
000000f0: 96da 3e3b e933 aabd fece 0b3b 22a5 6dbd
00000100: 0b91 dd3d c307 e83c ed56 e0bd 14fe 5ebe
00000110: 64d1 333d 1ef0 8d3e 33c2 eabd 4640 073b
00000120: 5902 02be 8462 3e3d 15fb 2ebd 5dea 0fbd
00000130: 8343 8c3d 469e e33b bc28 ecbc 1b64 0dbd
00000140: 94fa 5f3e 7384 27bd 51d1 42be c11f 5cbb
00000150: 7196 313c f517 04be 9028 ac3d 16db 963d
00000160: 6575 263e e3dc 8ebd 2b11 ccbc d732 c5bd
00000170: 3413 e73c c6e5 da3d 00ed b1bd 3a34 bd3d
00000180: b582 87bd 1182 36bd 0cdf dcbd 5fea b7bd
00000190: e194 fd3d 1904 6abd 9aaa 943d 24e0 59be
000001a0: 8558 f7bd 8fff 803c f880 0e3e fd4c f7bd
000001b0: d56b 523c 41d0 d6bd 23eb 283d 58f8 20bd
000001c0: 9f40 8f3b 1adc bfbd efc8 ecbd c22c 1d3e
000001d0: 6a47 debd 1940 a5bb 0c4e 5abe 92e3 f5bd
000001e0: 8379 753e b1bd 9a3d 09f8 933d 99c3 543c
000001f0: fa44 263e c45a f3bd 20e3 663c e8b7 edbc
00000200: 157a f33d de27 c03d 2208 16be 8173 78bb
00000210: 26a5 693e 1a21 2d3e e43a 9cbc 4d00 273b
00000220: c535 31bd ea60 01bd e1d0 35be 5f36 f9bd
00000230: cd73 3a3e b78b 9abd 741d 8c3d 37c9 433e
00000240: 10b5 e5ba 0364 a1bd c02a d63b a764 17be
00000250: 77a1 8f3d 552d bc3d e22a a2bd 8643 96bd
00000260: 0bca ce3d 5355 9f3d 3a8c 11bd c24b 71bd
00000270: 0da5 11bd de4d ee3d c682 9c3b 6cce 743d
00000280: 1736 51bc 96ce 0ebe 78ca 28bd c240 79bd
00000290: fd0a 58bd e2dc 95bd c4c8 053e 1cbb 413d
000002a0: 46a6 103e 966c 59be fb09 313e df45 e53a
000002b0: 7ad0 da3d 9421 aebd 7d8d f53d 8772 3ebe
000002c0: 4a68 fbbd dd32 8d3d d73f e53d f7cb 9c3d
000002d0: 3f5b e9bc 13d3 ca3d dcac 0abd bf20 8abd
000002e0: c5c8 b73c b4cc 3eba 3ebc 933b fe32 1d3e
000002f0: de33 f23d a41c 0dbe 4739 51bd 2197 d7bc
00000300: 4924 a13d 1625 23be a20e 4c3d 732e febd
00000310: 9edc 6dbe 9042 8a3d 41dd 183a f9fb 80bd
00000320: 82ab a33d 50fa 6e3b f42e b13d 1282 153d
00000330: 154e b339 738c 863d 3b70 8d3d bbe7 dd3d
00000340: 7c7d c03d e237 2bbe 7ae0 1d3d 3be7 d23d
00000350: 8a6a 993d 3648 8abd f9da 2a3b dd8d 45bd
00000360: f05a 8abd 4474 46bd 27eb 0fbe 00fc c5bc
00000370: c35e ac3b 6f1e 803d d5a6 63bb dbf6 5dbc
00000380: d79c 07bd 5365 0cbd 094f 0b3d 5e82 21bd
00000390: f236 0cbe 45ca 57be 8f39 07bd 3a48 093d
000003a0: 4f93 733d 48cf e83d b0e5 dbbd 039e d93d
000003b0: 4b05 a33d 5e4b a43d 8176 1cbc e941 eabd
000003c0: 2c00 433e 0938 c83d c051 c1bc 6d08 a53d
000003d0: 326c 803d 88d8 843d 17d1 7dbd e520 593e
000003e0: 1c12 60bd 8485 163e 7ab1 c4bd 9e6f 973c
000003f0: 5d56 fabd d1e9 993b 1190 833d 9dba c63d
0.050580453 0.21494861 -0.1495399 0.12622896 -0.17612107 -0.0037413456 -0.057163704 -0.15224102
0.058280308 0.0077368245 -0.05606046 -0.0006206739 -0.15294786 0.06499345 -0.042467132 0.09816654
-0.18976147 -0.08560599 -0.19598444 0.03798434 -0.00492871 0.03494037 0.099687666 0.06989882
0.08289517 -0.11850623 -0.08318647 0.22931202 0.063015476 0.07237797 -0.12550624 0.011789352
0.21237782 -0.009120112 0.23463848 -0.061870776 0.1047725 0.1178794 -0.057907376 0.09382816
-0.095951855 -0.069136195 -0.093698435 0.27955258 -0.09982503 0.17439063 0.017371321 -0.09745858
-0.037664555 -0.13183998 -0.18030122 0.0185783 -0.17266431 0.013574652 0.009751407 -0.13447583
-0.05758934 0.03780639 -0.031234533 0.21456605 0.0029121987 -0.08310682 0.0021333094 -0.05801881
0.108186804 0.028324014 -0.1095408 -0.2177661 0.043900862 0.27722257 -0.11462822 0.0020637675
-0.12696208 0.04648067 -0.04271992 -0.035135616 0.06848814 0.006946358 -0.028828017 -0.034519296
0.21872932 -0.040897798 -0.1902516 -0.0033588263 0.010839091 -0.12899764 0.08406174 0.07366006
0.1625572 -0.069757245 -0.02491053 -0.096288376 0.028207399 0.10688357 -0.08687782 0.09238477
-0.06616727 -0.044557635 -0.1078473 -0.089802496 0.12381912 -0.057132814 0.07259102 -0.21276909
-0.12077431 0.01574686 0.13916385 -0.12075231 0.012843092 -0.1048894 0.04123987 -0.03929934
0.004371717 -0.09368153 -0.115617625 0.15349105 -0.10853465 -0.0050430414 -0.21318835 -0.12006296
0.23972134 0.07555712 0.07225043 0.012986087 0.1623725 -0.118825465 0.014092237 -0.029018357
0.1188852 0.09382604 -0.1465154 -0.0037910643 0.22816905 0.16907158 -0.01907105 0.0025482357
-0.04326417 -0.031586565 -0.17755462 -0.121685736 0.18208237 -0.0754618 0.06841555 0.19119726
-0.0017525274 -0.07880404 0.006535858 -0.1478449 0.07013219 0.09188334 -0.079183355 -0.07337098
0.100971304 0.07779946 -0.03553412 -0.05891014 -0.035557795 0.11635946 0.0047763316 0.05976717
-0.012769244 -0.13945994 -0.041208714 -0.060852773 -0.052744854 -0.07317521 0.13064867 0.047297582
0.14125928 -0.21232828 0.17288963 0.0017492137 0.10684295 -0.08502498 0.119898774 -0.18598376
-0.12275751 0.06894467 0.11193817 0.07656091 -0.028485892 0.099035405 -0.033856258 -0.06744527
0.022434602 -0.0007278428 0.004508524 0.15351483 0.11826299 -0.13780457 -0.051080015 -0.026317181
0.07868249 -0.15932116 0.049818642 -0.12411203 -0.2322869 0.06750977 0.0005831309 -0.0629806
0.07991697 0.0036465116 0.08651534 0.036500998 0.00034199716 0.06569757 0.06906172 0.10835215
0.09398934 -0.16720536 0.038544156 0.1029801 0.07491024 -0.067520544 0.002607046 -0.048230994
-0.06755626 -0.048450723 -0.14054547 -0.024168015 0.00526032 0.06255805 -0.003473689 -0.013547624
-0.03310856 -0.034276318 0.03401092 -0.03943097 -0.13692835 -0.21073253 -0.033013877 0.033516146
0.059466656 0.11367661 -0.10737169 0.106258415 0.07959994 0.08022188 -0.009549738 -0.114383526
0.19043034 0.09776313 -0.023598552 0.08058248 0.062706366 0.064866126 -0.06196698 0.21203955
-0.05470477 0.1469937 -0.096041635 0.01848584 -0.12223504 0.0046970625 0.06423963 0.097035624

network_body._body_endoder.seq_layers.2.bias f4 [128]
00000000: dfe9 a83d 4bc3 dabb c947 113d 808f 16bc
00000010: 4b80 3d3d 8b40 40bd 5738 8d3c 7c72 9f3b
00000020: f0b3 073d 3a4e 903c e859 913d b152 d43c
00000030: fda1 a4bc 4b23 bd3a 43fc 713d 39ee f33c
00000040: 700f d23d a6ed f3bc b3ce 243a 9477 1e3d
00000050: da53 26bd b5c2 7bbc 5a20 2bbb 291d 373d
00000060: df23 d03c d4e1 243d 82d8 ce3b f6c1 843c
00000070: 799e 983d 1dd3 5d3d 3d71 5a3d deb0 fabb
00000080: 2bcf dfbb 4187 99bc 3570 143d 8a58 693d
00000090: 40d2 d73c 31da 963d c357 6b3d c8b5 c13c
000000a0: fb3f 763d fca5 a93b 527e a03c 44bd c33b
000000b0: 6d92 4b3d c1c4 493d aae8 2b3d 557a 733d
000000c0: 9cc5 683d 2d4c 9a3c ed48 5cbd 9927 223d
000000d0: 1ee4 943d 511c d63c 720f 573d 7f13 923d
000000e0: 6f45 2bbd ee3f 373c f903 e8bc 1df7 f93b
000000f0: ee41 973c 0c09 623d a0ba 5336 39f2 573c
00000100: aae5 87bb 015c 09bd 159f 643d a4c8 053d
00000110: 2ac8 bcbb 3864 1b3d c6c7 243d 6044 e4b8
00000120: 9110 9dbc 707d 03bd bf0d ac3c c14d 453d
00000130: 0723 1b3d 8fd1 91bc 3ffd 783c 247a 19bd
00000140: c9be 6e3d 4f7a de3c 3ea0 e03c 3f5a bc3d
00000150: 4c34 bf3d a563 553c 8595 a5bc de59 9f3d
00000160: 922b a2bc 444a 82b9 b478 9a3d 26a1 423b
00000170: cb50 973d 5c47 13bc 9f7d c73d 2082 623d
00000180: 747f 5d3d ba3d 663d 24e1 20bd ee9f bb3d
00000190: 011f acbc d67a 8e3c 69d4 673c 009b 833d
000001a0: 81f3 6d3d 309c 093d 44b0 353d cb7e 3e3c
000001b0: acaf 5a3d c108 403c 23b5 983d 4e5b c9bb
000001c0: c93b 01bd f32f ac3c 8b42 983d 841d de3c
000001d0: cbb8 2d3b e770 cb3c d4b5 74bb ae78 c8bc
000001e0: 03d9 2e3a b05a ac3b 3e11 8f3d 1714 aa3d
000001f0: 0cb0 b8bc 362f 863d b352 033d 175a 173d
0.08247732 -0.006676113 0.03546885 -0.0091894865 0.046264928 -0.046936553 0.017238779 0.0048659425
0.033130586 0.017615426 0.070972264 0.025918337 -0.020096773 0.0014430074 0.059078466 0.02977668
0.10256851 -0.029776406 0.0006286904 0.038688257 -0.04060731 -0.015366246 -0.0026111812 0.044705544
0.02540773 0.04025443 0.006312431 0.016205769 0.07452101 0.05415641 0.05333065 -0.0076504787
-0.0068301163 -0.018741252 0.03623982 0.056969203 0.026345372 0.073658355 0.057456743 0.02364625
0.06011961 0.0051772576 0.019591484 0.00597349 0.04970019 0.049259905 0.041969933 0.059442837
0.05682908 0.018835152 -0.053780485 0.039588545 0.072700724 0.02613655 0.052504964 0.07132625
-0.041814264 0.011184676 -0.028322207 0.007628335 0.018464055 0.05518441 3.155008e-06 0.013180309
-0.004147251 -0.033535007 0.055815775 0.03266205 -0.005761166 0.037937373 0.04022958 -0.00010884623
-0.019172939 -0.03210205 0.021002648 0.048169855 0.0378752 -0.01780012 0.015197097 -0.037469998
0.058287416 0.02715793 0.02742016 0.091969006 0.09336147 0.013024245 -0.020212898 0.07780813
-0.019796167 -0.00024850864 0.075425535 0.0029698103 0.07388457 -0.008989181 0.09740757 0.055299878
0.054076627 0.05621121 -0.03927721 0.091613635 -0.021010878 0.017392557 0.014149764 0.06426048
0.05809355 0.033596218 0.044357553 0.0116269095 0.05339019 0.011720837 0.07456424 -0.0061449176
-0.031551156 0.021018958 0.07434567 0.027113684 0.002650785 0.02483411 -0.0037339823 -0.024471607
0.00066699105 0.005259834 0.069857106 0.08304613 -0.022544883 0.065519735 0.03206129 0.03695115

action_model._continuous_distribution.log_sigma f4 [1, 2]
00000000: 4648 59bd 09a5 b8bd
-0.05304744 -0.09015853

action_model._continuous_distribution.mu.weight f4 [2, 128]
00000000: 2ef3 79bd dd82 41bd ffe8 78bd 1307 233d
00000010: f0ee 193c 777a 273c b8f6 9d3b d603 f73c
00000020: a25e e8bc 44e8 b13d 333b 97bc fb09 65bd
00000030: 6192 67bc b14e 88bd ae5f 8aba 2b14 343c
00000040: f787 cdbd 2577 753c cd1a 3ebc 13a8 813c
00000050: f0e0 d93b 0ba0 1f3d 3cbf 1fbc 2ca5 a3bc
00000060: 69f6 843d 24cd 2abd f567 4abd e6bc 363d
00000070: 16d5 c6bc eb8e cf3c afb8 1abd ed19 0bbc
00000080: 8941 193d e54c 1d3c de10 af3c 97da 89bd
00000090: 06d6 aabd a787 34bc 8de6 6c3c 08dc 633d
000000a0: 965c e7ba bc0c 3dbc cd7b f73d 4a01 87ba
000000b0: 3c90 d03c 967d 0a3c c0f0 8fbd ca5e 063c
000000c0: b976 d5bc f746 4e3d 9163 2a3c fdd6 bb3d
000000d0: 7419 a6bd e589 71bd 92fd ad3c 531a 71bb
000000e0: 33fc 2d39 9299 243d a94c 9b3c afd7 ed3c
000000f0: 922b 5a3d 758a 21bc 179c c2bc 8229 983c
00000100: 6c18 aa3b e843 61bc 3dde 8a3d d5d0 21bc
00000110: 8115 1dba 0965 e4bc 9385 453d c01c 273d
00000120: 6a3c e03b eed9 baba aabb 12bc 97e3 023e
00000130: 912b 4c3c d9b5 f8bc 070f 81bd 3760 9b39
00000140: d371 153d cb02 c3bc a57e 55bd 8131 f8bc
00000150: 7c9b 01bd 3181 113d 1306 793c 2aa0 533d
00000160: 68bf d2bc 657e 91bc 6a5c 6ebd 25b0 3ebc
00000170: 23f5 b0bc 2993 403c a523 c23d 3d73 a03c
00000180: d353 16bc bad9 963c d92f 98bc 7842 7cbd
00000190: f3e2 253d 02e1 2bbd b3d1 633d 95cd 5bbc
000001a0: bd20 bd3c 64ad ff3c 74bb 7fbc d59f 05bd
000001b0: 1462 a8bb 89a1 843d cbc3 50bc bc1f 7cbc
000001c0: 9f88 693b 0461 3bbb 92f0 5b3d a97c febc
000001d0: 9494 da3c 6bcb 013d ec9a eb3c a698 4a3c
000001e0: 31da bd3b 7c14 15bd 0f28 7a3d c3b5 c3bc
000001f0: 258c fe3b 5c8b d9bc 66d7 90bd 754e fdbc
00000200: d8e7 0e3d 449a 18bb 71c5 a43c d275 1abd
00000210: 7513 3b3d 2110 1cbd 5295 2b39 0562 59bd
00000220: 6da5 b23c 211f efbc 17d0 5d3d 92eb 3abc
00000230: e321 09bd a294 89bb 9bc3 2f3c 0d90 333c
00000240: 9ab9 b73d ee5f 91bc c747 bbbd 4ccc 193d
00000250: 1ea3 76bd e195 d3bc 22fd 703a 7e0b 113d
00000260: 1f89 453c d8ce 7d3c f67d 26bc e44b 90bd
00000270: 5f1f 303d befc 323d e765 293d 2d14 2ebd
00000280: c3d3 7abc e1c7 72bc d051 c83c 3269 253d
00000290: 31fe a1bc 74d8 5d3d 5fb6 a03d 7335 e7bc
000002a0: 75d2 1b3d 7614 c2bc ef0b 85bd 1bc9 053b
000002b0: 55c1 213d 4b2a af3c 9afa 2c3d 4f2c 3f3d
000002c0: 2543 223d 52a8 12bd d230 a9bc bab2 24bc
000002d0: 6f67 9f3d a951 27bd fc71 0b3d 5d18 713d
000002e0: 35b2 81bc 0ac7 06bd e082 4bbc b979 3cba
000002f0: ce77 cfbd 77f4 e93c 418f 9cbd d075 ebbd
00000300: cd44 6cbd 7f4e 41bd 4fbc bbb9 3e20 3f3c
00000310: 0c53 5fbb dace 0b3d 27d0 cb3c bb92 d5bd
00000320: e6b1 f8bc 01d8 39bd 52cb bdbd 978a edbc
00000330: ed1b 043d ec2e a7bc 956a d9bc f55c e3bc
00000340: 1b29 9e3d a4f7 7f3c 65ec c43c f3e4 8c3d
00000350: 1874 d53d defe 843a 58f3 89bc 82a5 3e3d
00000360: d25f c1bd ef0b 4abd 5c84 d73d 3b69 b1bc
00000370: 1d76 9e3d 1c09 6dbd 3fd0 843c e0a3 223d
00000380: c5d6 463d c020 873d f786 50bd 4791 833d
00000390: ca12 f6bc d9ae 35bc 0525 38bd 0864 5a3d
000003a0: 1501 823d bbc5 2e3c b4c5 8b3c f5ad 1ebc
000003b0: d6a0 183d 0ee7 9ebd 2f5d 623d c6e9 a9bd
000003c0: 280c 36bd f16f e83b 61d4 113d 343f be3c
000003d0: cc00 52bd e205 8e3c 906c fcbb 5c30 4fbd
000003e0: 5d04 b6bd 845d b4bd 244e 813d d946 893d
000003f0: 5347 3bbd 351a 193d 9423 2bbc ed3b 523c
-0.06102293 -0.04724394 -0.060769077 0.03980167 0.009395346 0.010222069 0.004820671 0.030153196
-0.028365437 0.08686879 -0.018460846 -0.05591772 -0.014134021 -0.06655634 -0.0010557079 0.010991137
-0.10035699 0.01498202 -0.0116030695 0.015827214 0.006649129 0.03897099 -0.009750184 -0.019976221
0.064923115 -0.041699544 -0.049415547 0.04461374 -0.02427153 0.025336703 -0.037773784 -0.008490068
0.037416015 0.009600853 0.021370348 -0.06731146 -0.08341603 -0.01101867 0.014459264 0.05562976
-0.0017651494 -0.011538681 0.1208416 -0.0010300067 0.025459401 0.008452794 -0.07028341 0.00820131
-0.026057588 0.050360646 0.010399715 0.09171865 -0.081103235 -0.058969397 0.021239076 -0.0036789372
0.00016592517 0.04018552 0.018957453 0.02903351 0.05326421 -0.009859671 -0.02375607 0.01857448
0.0051908996 -0.0137491 0.0678067 -0.00987645 -0.0005992279 -0.027880209 0.04822309 0.040798903
0.0068431394 -0.0014255622 -0.008955875 0.12782131 0.012461559 -0.03036015 -0.06301694 0.0002963559
0.036485504 -0.023805043 -0.05212273 -0.030297043 -0.031642422 0.035523597 0.015199202 0.051666416
-0.025726035 -0.017760465 -0.0581936 -0.011638676 -0.021601265 0.011753836 0.09479455 0.0195862
-0.009175259 0.018414367 -0.018577503 -0.061586827 0.04049964 -0.04196263 0.055619907 -0.013415714
0.0230869 0.031210609 -0.015608657 -0.03262313 -0.005138645 0.06476123 -0.012741993 -0.015388425
0.003563441 -0.0028591761 0.053696223 -0.031065302 0.026682176 0.031688135 0.028760396 0.012365496
0.0057938327 -0.03639649 0.06107336 -0.023890382 0.0077681714 -0.02655571 -0.07072334 -0.0309212
0.034889072 -0.002328531 0.020113679 -0.03771002 0.045672853 -0.03810132 0.00016363457 -0.053071994
0.021807397 -0.029189648 0.054153528 -0.011408703 -0.033479583 -0.0041986266 0.010727788 0.010959637
0.089709476 -0.017745938 -0.0914455 0.03754835 -0.060214154 -0.025828304 0.0009192993 0.03541135
0.012056618 0.01549121 -0.010161867 -0.07045725 0.042998668 0.043698065 0.041356947 -0.04249971
-0.015309277 -0.014818163 0.024453074 0.040383525 -0.019774528 0.054161504 0.078472845 -0.028223729
0.038042504 -0.023691397 -0.06496417 0.0020414058 0.039491016 0.021382472 0.04223118 0.046673115
0.039614815 -0.035805054 -0.020653162 -0.010052377 0.077834 -0.04084936 0.03404425 0.058861125
-0.015832046 -0.032904662 -0.01242134 -0.0007189769 -0.10130273 0.028558953 -0.07644511 -0.1149708
-0.0576828 -0.047194 -0.0003580772 0.011665402 -0.00340766 0.034132816 0.024879528 -0.10428377
-0.030358266 -0.045372013 -0.09267296 -0.028996749 0.032253195 -0.020408116 -0.02654008 -0.027754286
0.07722684 0.015623007 0.024038503 0.06879606 0.10422534 0.0010146757 -0.016839668 0.04654456
-0.094421044 -0.049327787 0.105232924 -0.021656623 0.07737372 -0.057870016 0.01621258 0.039707065
0.048544664 0.065980434 -0.050909963 0.06424194 -0.030038256 -0.01108905 -0.04495718 0.053318053
0.06347863 0.01066726 0.017062046 -0.009685029 0.03726276 -0.07758914 0.055264648 -0.08296542
-0.044445187 0.0070934226 0.03560293 0.023223497 -0.05127029 0.01733679 -0.0077033713 -0.05058323
-0.08887551 -0.08806899 0.06313732 0.06702966 -0.045722317 0.03737851 -0.010445494 0.01283167

action_model._continuous_distribution.mu.bias f4 [2]
00000000: 6458 ab3a d974 493d
0.0013072607 0.0491837
