python/results/minion_walk_003/Minion/Minion-10827.pt (torch, 427995 bytes, 36 tensors)

network_body._body_endoder.seq_layers.0.weight f4 [128, 3]
-0.34441873 1.0568292 0.17211573 0.018826494 1.2293859 -0.39351943 -0.92470586 -0.081749886
0.66416186 0.5266398 -1.3803294 -0.7888695 -0.58410347 -1.1474907 -0.069875 -0.47566175
0.5318222 -0.8642207 0.077816404 -0.9795287 1.1759896 -0.29470652 -0.061746094 -0.17227095
0.7210656 -0.11613728 -0.6918449 -0.48414367 -0.19199021 0.57999325 0.5043353 0.10305836
-0.12677817 -0.14828503 0.0039648777 0.5095103 0.525512 -0.099189445 0.41137168 0.8576683
-0.22810714 -0.70723885 0.19019127 0.2168755 -0.840215 -0.2133263 0.41253218 0.20494379
0.57376707 0.20580858 0.06565381 -0.055355713 0.17114218 0.07106386 -0.72367424 1.0313307
0.52398133 0.13762349 0.26877397 0.15069823 -0.20852652 0.3830484 0.43040994 -0.30630586
-0.59065217 0.30953136 -0.45578936 0.26364517 0.0920821 -1.3375757 0.18790968 0.8940075
-0.60472137 -0.55595434 -0.40496302 0.27769554 0.2136488 -0.501696 0.18600063 -0.3260177
0.017087376 -0.25439686 -0.013639431 1.0429387 -1.198793 -1.0744525 -0.48114777 0.19249567
0.70347637 0.15898769 0.022108832 0.54908204 -0.89508754 0.627855 0.29061058 -0.27799213
0.7130507 -1.2211162 0.53161156 -0.8923232 0.2016925 -0.52909654 1.382531 -0.3992526
1.4908931 0.54170406 -0.24407554 -0.055357594 0.0073462934 -0.042542603 -1.2990427 0.013905806
-0.012190403 0.27371565 0.205167 0.18893757 0.045136776 1.5091656 -0.7542231 -0.2633843
-0.15514961 -0.7480954 -0.075345665 -0.01691352 -0.5536191 0.37046126 0.14114559 0.2909138
-0.4024198 0.11175722 0.7563041 -0.41140795 -0.30492288 0.23224679 -1.2501204 0.14735736
0.0778411 -1.7631063 -0.7748305 -0.16459186 -0.39791536 -0.40114293 0.33441618 0.31450602
0.04015283 -1.0425422 0.76139814 0.9840669 0.31190252 -0.74359083 -0.68031114 0.3826676
0.015561457 2.0908418 -0.05875798 -0.27594683 -0.81932545 0.071417995 -0.6449563 0.29092395
-0.38940462 -0.40762165 -0.18212505 0.4147529 -0.0046111234 -0.73472553 0.51547956 -0.7436717
-1.2159617 -1.1611649 0.44949108 -0.35127822 0.56397736 -0.24286783 -0.1208258 -1.0953532
0.34929726 0.059166245 0.013456092 -0.6122407 0.49544135 0.2489194 -1.1624517 0.6053907
0.30550292 0.30540818 -0.33213934 0.019078081 0.17467812 -1.192871 -0.6543274 -0.080153
0.62178963 0.6753351 0.29774028 -0.5207828 0.21601732 -0.029094798 0.4163133 1.0628878
0.8398122 -0.76964605 0.7315647 -0.14296384 0.24274902 -0.18464172 -1.1129605 -0.82491696
0.0028506154 -0.7788295 -0.612087 0.7575273 0.2252317 0.31344318 0.5711418 0.4614181
1.3433661 -0.90265656 -1.0301185 0.23970528 0.05407911 0.29255295 0.026333233 0.059825607
0.041232336 0.64963007 0.4291053 0.21401809 -0.53795713 -0.7113928 0.059277654 0.046126366
0.31280223 0.6750738 0.042966954 0.007995886 -0.25026593 -0.15062663 -1.4773281 -0.10034437
-0.5629585 0.071028575 0.935834 -0.3299648 -0.85111284 -0.14684293 -0.3153403 -0.45609647
0.005013189 0.25754932 0.3450306 -0.9095422 -0.45168677 0.22925504 -0.56124824 0.29449084
00000000: a757 b0be 2e46 873f 1b3f 303e 053a 9a3c
00000010: 845c 9d3f 617b c9be 86b9 6cbf 7c6c a7bd
00000020: 8306 2a3f ded1 063f a2ae b0bf 5af3 49bf
00000030: ce87 15bf fae0 92bf a01a 8fbd f089 f3be
00000040: 8025 083f 913d 5dbf 355e 9f3d 65c2 7abf
00000050: d486 963f c6e3 96be 79e9 7cbd cc67 30be
00000060: c197 383f 62d9 edbd bf1c 31bf aee1 f7be
00000070: 1599 44be 707a 143f 1e1c 013f 4310 d33d
00000080: 23d2 01be 08d8 17be ceeb 813b 446f 023f
00000090: f487 063f d623 cbbd 4f9f d23e 2690 5b3f
000000a0: eb94 69be 9b0d 35bf 80c1 423e 9c14 5e3e
000000b0: 5518 57bf 3672 5abe 6b37 d33e c9dc 513e
000000c0: 66e2 123f 7cbf 523e 8175 863d acbc 62bd
000000d0: e53f 2f3e ee89 913d b742 39bf a502 843f
000000e0: a423 063f 2ced 0c3e be9c 893e a350 1a3e
000000f0: fa87 55be eb1e c43e b15e dc3e 1fd4 9cbe
00000100: fb34 17bf e57a 9e3e 395d e9be 80fc 863e
00000110: 8a95 bc3d ae35 abbf 656b 403e addd 643f
00000120: 05cf 1abf 0653 0ebf 5057 cfbe 1c2e 8e3e
00000130: c0c6 5a3e 266f 00bf f376 3e3e cbeb a6be
00000140: d3fa 8b3c 4e40 82be ec77 5fbc 047f 853f
00000150: 0d72 99bf a987 89bf 0059 f6be 961d 453e
00000160: 0717 343f abcd 223e 951d b53c a490 0c3f
00000170: 7524 65bf 1bbb 203f e9ca 943e fc54 8ebe
00000180: 7e8a 363f 894d 9cbf b217 083f 4b6f 64bf
00000190: 7b88 4e3e df72 07bf c7f6 b03f d66a ccbe
000001a0: 96d5 be3f 1ead 0a3f f0ee 79be a5be 62bd
000001b0: 2db9 f03b 2741 2ebd 0847 a6bf 2dd5 633c
000001c0: 42ba 47bc 7524 8c3e 4c17 523e da78 413e
000001d0: 57e1 383d 572c c13f c414 41bf 4fda 86be
000001e0: 8adf 1ebe 2e83 3fbf d44e 9abd 398e 8abc
000001f0: fbb9 0dbf 19ad bd3e 7888 103e a7f2 943e
00000200: f809 cebe f8e0 e43d 259d 413f 10a4 d2be
00000210: da1e 9cbe 1ad2 6d3e f203 a0bf d9e4 163e
00000220: 286b 9f3d 78ad e1bf 4b5b 46bf c58a 28be
00000230: 90bb cbbe 9b62 cdbe 9938 ab3e ef06 a13e
00000240: 4b77 243d 0672 85bf fdea 423f cfeb 7b3f
00000250: b0b1 9f3e f85b 3ebf df28 2ebf 02ed c33e
00000260: 7bf5 7e3c 5ad0 0540 35ac 70bd e748 8dbe
00000270: 50bf 51bf 9943 923d db1b 25bf fcf3 943e
00000280: 0b60 c7be c9b3 d0be fd7e 3abe 7e5a d43e
00000290: e818 97bb f916 3cbf 78f6 033f 4561 3ebf
000002a0: a2a4 9bbf 0da1 94bf b223 e63e bdda b3be
000002b0: d260 103f 58b2 78be 8473 f7bd 8934 8cbf
000002c0: 17d7 b23e 4e58 723d f176 5c3c cebb 1cbf
000002d0: 7daa fd3e bae4 7e3e 38cb 94bf e3fa 1a3f
000002e0: e16a 9c3e 765e 9c3e 2b0e aabe a349 9c3c
000002f0: d2de 323e ffaf 98bf 0082 27bf 4227 a4bd
00000300: 9b2d 1f3f c3e2 2c3f 6a71 983e 0652 05bf
00000310: a533 5d3e 3758 eebc 0427 d53e b50c 883f
00000320: effd 563f 8607 45bf d347 3b3f 1d65 12be
00000330: 3393 783e b812 3dbe 7d75 8ebf c22d 53bf
00000340: 64d1 3a3b 5f61 47bf bcb1 1cbf 4fed 413f
00000350: 24a3 663e a07b a03e 5936 123f fe3e ec3e
00000360: 6cf3 ab3f 8014 67bf ecda 83bf 4d75 753e
00000370: 0f82 5d3d 80c9 953e cbb8 d73c b20b 753d
00000380: 3de3 283d 284e 263f b1b3 db3e 8f27 5b3e
00000390: 8fb7 09bf d71d 36bf 20cd 723d 00ef 3c3d
000003a0: 9d27 a03e a3d1 2c3f 1efe 2f3d 2d01 033c
000003b0: db22 80be de3d 1abe 1619 bdbf 5981 cdbd
000003c0: 0c1e 10bf 6e77 913d d192 6f3f 25f1 a8be
000003d0: 88e2 59bf fe5d 16be 4974 a1be 7a85 e9be
000003e0: ad45 a43b 81dd 833e daa7 b03e c2d7 68bf
000003f0: 7d43 e7be d5c1 6a3e f7ad 0fbf 81c7 963e

network_body._body_endoder.seq_layers.0.bias f4 [128]
-0.0014727641 -0.0044353046 -0.0043375324 0.008790382 0.0019099604 -0.0028333573 0.0036237158 -0.0019468705
0.003549722 0.0016513659 0.006473079 -0.0031150647 0.0045391014 0.0051074284 0.004676045 -0.0024403727
0.00040278942 -0.0017426417 -0.0017838782 0.0020740852 -0.0036962351 0.0028398004 -0.012413 -4.701431e-05
0.001029784 0.004453875 -0.00040579462 0.0011608299 0.0048306333 0.0041572778 0.0035674893 0.0056337225
-0.0048037423 0.0003432163 -0.004344331 0.00562049 0.00023549148 0.0029553263 0.0038906941 -0.010415992
0.0012509001 -0.0013480338 -0.0015050749 -0.0054316306 0.0012513327 0.0010548875 -0.0012711812 -0.0051301126
-0.005517072 0.006621495 -0.0015738956 0.013744274 -0.0011362623 0.0076741865 -0.00026638035 0.00047212085
-0.005660695 -0.0032437923 -0.00024369506 0.0020232054 0.005298523 0.005642259 -0.0029341879 0.0019010046
0.006148759 -0.00072965096 -0.002576341 -0.0015798776 0.0054794126 0.0033068175 -0.0019992064 0.00276631
0.00814399 0.0016511887 -0.0022042254 0.0068305796 -0.001653254 0.0024702474 -7.2420044e-06 -0.0007059837
-0.0019018466 -0.0011216436 -0.0020811346 -0.005598016 4.7051497e-05 0.0012861436 0.0072262096 -0.0015948139
0.0042009465 0.0066263317 0.0058544814 -0.0036362428 -0.005717829 0.00039408827 -0.0061415117 -0.0011545563
0.00021515685 -0.0038381678 -0.008817097 -0.006545758 -0.008356507 0.0035415057 -0.004272935 0.005902614
-0.0014890846 -0.0020852746 0.004623566 -0.00726768 -0.0058346335 -0.0071425973 -0.009217558 0.0026722793
0.003645153 -0.004276265 -0.0008399115 -0.0015671526 -8.863548e-06 -0.0015681421 0.0029802697 -0.00020995855
0.003930268 -0.006682343 0.007081564 0.0034495182 0.006787012 0.0018696688 -0.001461647 -0.002807817
00000000: c309 c1ba 0856 91bb dc21 8ebb 8905 103c
00000010: a357 fa3a d9af 39bb dd7b 6d3b 222e ffba
00000020: 74a2 683b a572 d83a 1f1c d43b 1d26 4cbb
00000030: bebc 943b 375c a73b 8239 993b a9ee 1fbb
00000040: 7b2d d339 5a69 e4ba 05d1 e9ba 60ed 073b
00000050: 893c 72bb f21b 3a3b e55f 4bbc 3b31 45b8
00000060: d1f9 863a d0f1 913b d5c0 d4b9 fd26 983a
00000070: 4a4a 9e3b c639 883b 8acc 693b 179b b83b
00000080: b668 9dbb b6f1 b339 e45a 8ebb 162c b83b
00000090: 43ee 7639 26ae 413b 04fb 7e3b d6a7 2abc
000000a0: 3ef5 a33a 82b0 b0ba ef45 c5ba d2fb b1bb
000000b0: c203 a43a 2744 8a3a c39d a6ba 811a a8bb
000000c0: 8ec8 b4bb 20f9 d83b 2c4b ceba aa2f 613c
000000d0: a3ee 94ba be77 fb3b f7a8 8bb9 fd86 f739
000000e0: 5a7d b9bb ce95 54bb 6588 7fb9 c197 043b
000000f0: 3c9f ad3b b3e2 b83b 814b 40bb 212b f93a
00000100: 877b c93b 0c46 3fba d4d7 28bb e513 cfba
00000110: a58c b33b 31b7 583b 1e05 03bb fb4a 353b
00000120: 5f6e 053c b36c d83a c474 10bb 0ed3 df3b
00000130: 00b2 d8ba e0e3 213b 5800 f3b6 c411 39ba
00000140: 6247 f9ba 1d04 93ba a563 08bb 906f b7bb
00000150: 2959 4538 d193 a83a d7c9 ec3b 1309 d1ba
00000160: 18a8 893b b321 d93b f3d6 bf3b 084e 6ebb
00000170: a05c bbbb a29d ce39 bc3e c9bb 7b54 97ba
00000180: ba9b 6139 c589 7bbb 9675 10bc cc7d d6bb
00000190: bbe9 08bc 9b18 683b fa03 8cbb b76a c13b
000001a0: 632d c3ba 1aa9 08bb 4881 973b b825 eebb
000001b0: 7430 bfbb 730c eabb 3e05 17bc 6821 2f3b
000001c0: 85e3 6e3b e91f 8cbb 822d 5cba ea68 cdba
000001d0: a6b4 14b7 1e8a cdba a150 433b 5228 5cb9
000001e0: 7ac9 803b 8ef7 dabb 770c e83b 5011 623b
000001f0: 9565 de3b ad0f f53a bc94 bfba 5a03 38bb

network_body._body_endoder.seq_layers.2.weight f4 [128, 128]
-0.08709366 -0.031726684 -0.032432143 -0.14381684 -0.07775693 0.013941977 -0.024488263 0.0067785103
0.048633896 -0.12329869 -0.015894974 0.11097156 -0.04830508 -0.03688779 -0.06764083 -0.107158944
-0.008258603 -0.04448257 -0.013633598 -0.0018361993 -0.099968344 0.07783636 0.0256131 -0.07406624
0.053590357 -0.1552099 0.04206192 0.018598614 -0.012370663 -0.110287085 -0.03933007 -0.10975217
0.009806736 0.04609929 -0.048812557 0.06289355 0.03970833 0.037817735 -0.006712482 -0.08574775
-0.011790838 -0.012444563 0.019497909 -0.13019693 0.14499994 0.12556165 -0.04615026 0.048719358
0.014421964 0.11163466 0.12528448 -0.011470281 0.049929626 -0.16626097 0.050125837 -0.02839686
0.027424451 -0.044472747 0.12658213 0.066046335 0.087838486 -0.0073080594 0.1689507 0.16048409
-0.037891004 0.065453365 -0.09211754 0.0013545577 0.087015845 0.035448875 0.05005879 -0.010828245
-0.06502401 -0.025831506 -0.050001908 0.01391564 -0.0035087592 -0.06870114 0.035439532 0.010668333
-0.012188839 -0.08013794 -0.117996216 -0.15154031 0.09904233 -0.032782834 0.10480496 -0.029440762
-0.042761143 0.03892532 0.011997646 0.09020716 -0.055292863 0.030329302 -0.035898555 -0.10735392
-0.13113092 0.09986892 0.07936958 -0.015736548 -0.037747294 0.034095965 -0.00096438476 0.025809204
0.024904434 0.10730487 0.022920445 -0.023783471 -0.064200036 0.118359186 -0.010210749 0.080200136
-0.022036612 -0.096080706 0.25803676 -0.06267147 0.08849174 -0.09882873 0.15520217 -0.12275
-0.034005545 0.14712179 0.05971592 0.051080015 -0.06700642 0.038857475 0.1637695 -0.046956897
-0.023062244 0.03821335 0.00880195 -0.11869762 0.0026513916 -0.03277034 0.10968421 -0.029523637
-0.0884262 -0.03849138 -0.022785516 -0.077919915 -0.010769414 -0.011009881 -0.115462475 0.04652986
-0.013112452 -0.0263814 -0.06354947 -0.14994878 -0.10718396 -0.0226893 -0.0021760366 0.16615205
0.043149874 -0.00077803386 -0.030276485 -0.0514062 0.06402233 0.0032704493 0.04290851 0.10030808
-0.06400578 0.009872762 -0.021924544 -0.09582298 -0.1401798 -0.086582884 0.088274926 -0.1908541
-0.0229731 0.07102851 0.012907964 0.054654583 0.13824515 0.0015881829 0.11871353 0.014876982
0.15580209 -0.12430503 -0.12807211 -0.07213651 -0.20514064 -0.18219414 -0.10701544 8.425348e-05
-0.054463953 -0.013795589 -0.11824033 -0.050443083 -0.07428658 -0.093905725 0.08856601 -0.054514404
0.02941695 -0.048209112 0.020177335 -0.060748965 0.011799021 0.15847753 0.18866159 -0.07411636
0.043186154 0.0032367925 0.033741314 -0.04549143 9.4447794e-05 -0.021514447 -0.16211474 0.0005094316
-0.03684 0.004717016 0.002511851 -0.043730713 -0.07038864 0.00027182512 0.03568893 0.03916729
-0.062198684 0.06173941 0.1524626 0.010209578 0.14985393 0.09142946 0.13677377 -0.08379765
0.086174965 -0.06397512 0.03291093 0.029861657 -0.07153173 0.083092086 -0.06350945 0.034455635
0.062911235 0.03530978 -0.07600407 0.07157469 -0.078573585 -0.06744607 -0.18487129 0.09239016
0.1992872 -0.074284725 -0.055777673 0.0006862662 -0.095697604 0.06918857 -0.12830585 -0.10576428
-0.21085553 -0.06710361 -0.03221418 0.11716894 0.0074134967 -0.19602363 -0.018084036 0.1592358
00000000: 295e b2bd d7f3 01bd 91d7 04bd b944 13be
00000010: 063f 9fbd e46c 643c 9c9b c8bc 441e de3b
00000020: 5634 473d 0684 fcbd 2d36 82bc 0f45 e33d
00000030: 8cdb 45bd a717 17bd 4787 8abd 2676 dbbd
00000040: 174f 07bc 5b33 36bd 745f 5fbc a0ac f0ba
00000050: 34bc ccbd ab68 9f3d 90d2 d13c 0ab0 97bd
00000060: 9081 5b3d 58ef 1ebe 1f49 2c3d 1f5c 983c
00000070: 52ae 4abc 32de e1bd 9118 21bd bfc5 e0bd
00000080: 6fac 203c 9cd2 3c3d adef 47bd 55ce 803d
00000090: 34a5 223d c5e6 1a3d 61f4 dbbb 849c afbd
000000a0: 5c2e 41bc 48e4 4bbc 14ba 9f3c 5852 05be
000000b0: dd7a 143e 3c93 003e 0e08 3dbd f38d 473d
000000c0: 1a4a 6c3c b6a0 e43d 934a 003e d8ed 3bbc
000000d0: 0283 4c3d 5140 2abe c050 4d3d 88a0 e8bc
000000e0: 3ea9 e03c 0e29 36bd bf9e 013e 4d43 873d
000000f0: aae4 b33d 7278 efbb 6a01 2d3e f155 243e
00000100: 9933 1bbd 6a0c 863d 1fa8 bcbd 6a8b b13a
00000110: 5d35 b23d d732 113d 720a 4d3d f468 31bc
00000120: 4f2b 85bd 989c d3bc cdce 4cbd 6dfe 633c
00000130: 36f3 65bb 2fb3 8cbd 0b29 113d 3bca 2e3c
00000140: b2b3 47bc 5c1f a4bd 00a8 f1bd 622d 1bbe
00000150: b5d6 ca3d 4b47 06bd fca3 d63d c12d f1bc
00000160: 4f26 2fbd 2870 1f3d c691 443c 88be b83d
00000170: c57a 62bd 2875 f83c 5d0a 13bd 5fdc dbbd
00000180: 2f47 06be 1488 cc3d 858c a23d efe9 80bc
00000190: e89c 1abd 36a8 0b3d c4ce 7cba d36d d33c
000001a0: 6204 cc3c a8c2 db3d a8c3 bb3c 8ed5 c2bc
000001b0: 4f7b 83bd 4d66 f23d fc4a 27bc f83f a43d
000001c0: 2086 b4bc f6c5 c4bd 651d 843e e659 80bd
000001d0: 283b b53d b866 cabd 51ed 1e3e 5a64 fbbd
000001e0: 6649 0bbd 18a7 163e ae98 743d 4739 513d
000001f0: a93a 89bd 0429 1f3d 31b3 273e e055 40bd
00000200: 08ed bcbc 9a85 1c3d 0e36 103c bd17 f3bd
00000210: f8c2 2d3b 313a 06bd 1da2 e03d 8edb f1bc
00000220: cc18 b5bd 23a9 1dbd b1a8 babc 7a94 9fbd
00000230: 3272 30bc ca62 34bc 9777 ecbd 1896 3e3d
00000240: 9cd5 56bc ce1d d8bc 3926 82bd 2c8c 19be
00000250: 4483 dbbd e9de b9bc d69b 0ebb c323 2a3e
00000260: ecbd 303d f8f4 4bba 6406 f8bc 4f8f 52bd
00000270: 241e 833d 0955 563b d5c0 2f3d 536e cd3d
00000280: 7615 83bd 5dc1 213c 1a9b b3bc d73e c4bd
00000290: 4b8b 0fbe 5e52 b1bd 7cc9 b43d 426f 43be
000002a0: 1532 bcbc 6577 913d ed7b 533c 7cdd 5f3d
000002b0: 2390 0d3e 932a d03a 1420 f33d 96be 733c
000002c0: 958a 1f3e a393 febd 5625 03be 4ebc 93bd
000002d0: 6310 52be 1a91 3abe e92a dbbd 3eb1 b038
000002e0: 9815 5fbd e506 62bc fc27 f2bd 689d 4ebd
000002f0: 9023 98bd a551 c0bd 1962 b53d 7f4a 5fbd
00000300: d1fb f03c eb76 45bd f04a a53c e8d3 78bd
00000310: ae50 413c ef47 223e 8130 413e 51ca 97bd
00000320: f7e3 303d 5e20 543b 5534 0a3d 3955 3abd
00000330: 4612 c638 113f b0bc 6801 26be 608b 053a
00000340: 8ae5 16bd 3391 9a3b de9d 243b fa1e 33bd
00000350: eb27 90bd c083 8e39 8e2e 123d e16d 203d
00000360: 0cc4 7ebd 77e2 7c3d 281f 1c3e 1346 273c
00000370: 4f73 193e 5e3f bb3d 6c0e 0c3e 1a9e abbd
00000380: 807c b03d 6305 83bd 9dcd 063d 6fa0 f43c
00000390: 3a7f 92bd 2f2c aa3d 3e11 82bd 5a21 0d3d
000003a0: 9bd7 803d fda0 103d 06a8 9bbd c095 923d
000003b0: 30eb a0bd 2a21 8abd e64e 3dbe 0d37 bd3d
000003c0: f211 4c3e 9722 98bd 2177 64bd 8ce6 333a
000003d0: 1bfd c3bd bdb2 8d3d 9c62 03be f19a d8bd
000003e0: 83ea 57be 9e6d 89bd 04f3 03bd 45f6 ef3d
000003f0: ebec f23b 6bba 48be f924 94bc b60e 233e

network_body._body_endoder.seq_layers.2.bias f4 [128]
-0.003200074 -0.0026014827 0.0030501036 0.0056882873 -0.004683362 0.0005743341 0.00015052856 -0.0018253883
-0.003418359 9.682043e-05 -0.00088777277 -0.0036896241 -0.0011998006 0.0021334847 0.005568895 0.0008679567
-0.00088398904 -0.0028395802 0.0055581275 -0.0026799245 -0.0029573971 0.0034927186 0.002970532 -0.0011923637
0.0041515073 -0.0045467555 -0.0066829594 -0.001062237 -0.0016178589 -0.0009063421 -0.0027635812 -0.0024853242
0.0037314119 0.0051852 0.0038252687 0.0020346458 0.0025802795 -0.0044033653 -0.0006860184 -0.0024161967
-0.0021970766 -0.00020102276 -0.0019300695 0.000511835 0.0009202372 -0.0032077695 -0.004562375 0.0008002571
-0.0007242682 -0.00070082495 0.0009963379 0.0069615953 -0.0031276098 0.0009049367 0.00029942524 0.0073454045
0.0050904513 0.0045714783 -0.004207533 0.0033156432 -0.003996035 -0.0014687234 -0.001662246 0.0014379511
-0.0033062324 -9.377805e-05 0.004606884 0.003021098 0.007383268 -0.00071274355 -0.0032642519 0.00083619735
0.011159654 0.002313212 0.0026520318 -0.00414669 0.002935467 -0.0014913826 0.0039442154 -0.002652222
0.0009665842 0.004234486 -0.0019177962 -0.0035528073 -0.004102122 -0.00034028618 -0.0009707974 -0.0039410614
-0.005792324 -0.00293631 -0.0019649589 0.002082214 -0.003382848 -0.001415607 0.004625996 0.0012711505
-0.004105255 0.0023365864 -0.00085016276 -0.005314548 -0.007096759 -0.0038227756 -0.004088937 -0.006766191
-0.0014439496 -0.0007384157 0.000103903425 -0.0014177401 -0.0038468398 0.000617262 -0.001333991 -0.002251339
-0.0054522343 -0.00073623436 -0.0033953 -0.0021864136 0.00068299106 -0.0010055212 -0.0031953934 0.00086248235
0.00092513155 -0.00049353566 -0.008720453 0.0030912429 0.0037466774 -0.0018638355 -0.0034338823 -0.0027952588
00000000: 55b8 51bb a37d 2abb 3fe4 473b d064 ba3b
00000010: e376 99bb e98e 163a 34d7 1d39 de41 efba
00000020: 8c06 60bb 130c cb38 6cb9 68ba 9fcd 71bb
00000030: a142 9dba efd1 0b3b 477b b63b 9787 633a
00000040: 80bb 67ba 4018 3abb f420 b63b aca1 2fbb
00000050: e4d0 41bb 18e6 643b 42ad 423b 1649 9cba
00000060: 5e09 883b f3fc 94bb bafc dabb c23a 8bba
00000070: 560e d4ba 9797 6dba 331d 35bb d2e0 22bb
00000080: b48a 743b 9ce8 a93b 5cb1 7a3b b157 053b
00000090: e819 293b 1b4a 90bb ead5 33ba 0e59 1ebb
000000a0: d4fc 0fbb a3c9 52b9 63fa fcba aa2c 063a
000000b0: 133c 713a 7139 52bb fa7f 95bb 58c8 513a
000000c0: d1dc 3dba 91b7 37ba 8d97 823a 181e e43b
000000d0: 96f8 4cbb 4639 6d3a 2dfc 9c39 b8b1 f03b
000000e0: cdcd a63b 57cc 953b 58df 89bb 434b 593b
000000f0: 2cf1 82bb 2e82 c0ba b8df d9ba a279 bc3a
00000100: 60ad 58bb b5aa c4b8 58f5 963b 9dfd 453b
00000110: 57ef f13b 69d7 3aba 0fed 55bb 4134 5b3a
00000120: fbd6 363c 4299 173b b6cd 2d3b f5e0 87bb
00000130: f760 403b 7f7a c3ba 7a3e 813b e7d0 2dbb
00000140: 5e62 7d3a 71c1 8a3b 905e fbba 37d6 68bb
00000150: 186b 86bb 7068 b2b9 1c7d 7eba 0524 81bb
00000160: 89cd bdbb 1b6f 40bb 8ac6 00bb c175 083b
00000170: c6b2 5dbb e48b b9ba ab95 973b bc9c a63a
00000180: 6085 86bb 6a21 193b 75dd 5eba a925 aebb
00000190: ee8b e8bb 8887 7abb 7dfc 85bb edb6 ddbb
000001a0: e942 bdba 3d92 41ba bae6 d938 77d3 b9ba
000001b0: 431b 7cbb c0cf 213a 4fd9 aeba 338b 13bb
000001c0: a8a8 b2bb daff 40ba ae83 5ebb ef49 0fbb
000001d0: c10a 333a b1cb 83ba ce69 51bb 3618 623a
000001e0: 8784 723a 9e60 01ba 3be0 0ebc 7396 4a3b
000001f0: d18a 753b f14b f4ba fc0a 61bb a930 37bb

action_model._continuous_distribution.log_sigma f4 [1, 2]
-0.030258369 0.009520556
00000000: 66e0 f7bc 1bfc 1b3c

action_model._continuous_distribution.mu.weight f4 [2, 128]
0.03601056 0.023064185 -0.017655402 -0.0128659215 -0.00032817858 -0.006006713 0.00087227137 0.05228303
0.027514562 -0.011829759 0.003983643 0.019938784 -0.01084768 -0.008650035 -0.0107999835 -0.0012294609
0.0018246656 0.012274383 -0.022569818 0.018186301 0.02111564 -0.020137744 -0.028728107 0.002966619
0.0033788166 0.017533354 0.009229004 0.059605133 -0.0019347412 0.010395225 0.022342848 0.00589899
-0.009685136 -0.027521996 -0.036590647 0.0022587634 -0.021899445 0.008657753 0.033951566 0.012059407
0.006243437 0.0054838858 0.03512243 0.00063395366 -0.0013522179 0.023103943 0.004658087 -0.0047414904
-0.0058001624 0.010843701 -0.0075876783 -0.013463237 0.029193584 -0.009638094 0.019544903 -0.02093951
-0.0076063294 -0.029820643 0.009256769 -0.03395166 0.008803655 -0.0069384794 0.021894982 -0.012423618
0.026341522 -0.0052375747 -0.007827935 -0.030284192 -0.025132285 0.018431477 0.0037645367 -0.0016186043
-0.021621631 -0.008664042 -0.012193541 0.025289195 -0.0024785975 0.017618332 -0.012007025 0.029573385
-0.009767488 -0.012880282 0.021587228 0.020601973 0.028376859 0.016136726 0.0013888716 0.05653824
0.014255567 0.009317881 0.01894878 -0.0019530464 0.010551584 0.0076532117 -0.017396722 -0.01314568
0.013599983 -0.010175474 0.013309749 0.008981973 0.021560168 0.00909624 0.018246407 0.003102613
0.023747597 0.013230403 -0.017440556 0.02927748 0.0052876766 0.0022624822 0.009324122 -0.0010203449
0.009319803 0.017566048 0.049281154 0.027587418 0.0060591595 -0.0071412805 0.040513866 0.0061936914
-0.03171052 -0.010586704 0.02019147 -0.02182023 -0.019238347 -0.0053349417 0.028877612 0.0050918823
0.0013070513 0.0076088966 -0.0015827975 0.012695223 0.0026434246 -0.0048120804 -0.024902672 0.007961543
-0.006608307 -0.008825709 -0.014190748 -0.0011275272 -0.035659675 -0.006622393 0.0076084677 0.008467599
-0.02292481 0.0003447017 0.005432608 -0.03758052 -0.0065543028 -0.009056976 -0.0073082745 0.016049132
0.027242674 -0.0045564943 -0.00089932466 0.020008009 -0.0012989996 -0.016250143 0.023303792 0.015188191
0.017734943 0.036146205 -0.002766422 0.021541025 -0.0121210655 -0.0036868847 0.018378604 0.0041811243
0.012433479 0.014920127 0.020128528 -0.019862061 0.028795244 0.007182074 0.0010962833 0.024140654
0.0028544366 -0.004426606 0.019413022 0.0052303416 -0.026203578 -0.010912614 0.038905427 0.0046013095
0.009550429 -0.0028783889 -0.003758071 -0.032395452 0.0055049267 -0.020837946 0.013797185 -0.015913213
-0.008622528 0.0006122532 0.008554211 0.018302955 -0.0019779664 0.011823411 -0.0012577579 -0.027439458
-0.0039039084 0.019439163 0.0066971136 -0.01105938 0.027696652 0.01687851 0.0071025044 -0.017216133
-0.02226406 -0.005210169 0.027130088 0.009986561 -0.025987258 0.031212542 -0.003121038 -0.020822257
-0.0013792017 0.0083456 0.0243026 0.017220337 -0.023096275 0.018662982 0.0038346983 0.0040944703
-0.002986068 0.009141024 0.03661645 -0.04414247 -0.01412956 -0.0038739678 -0.0060108514 0.00023493341
-0.031862836 0.018577266 -0.0020681832 0.018520894 -0.002564318 0.023232745 -0.029171936 -0.0021610358
-0.017409118 0.021935573 0.013323204 -0.032930776 0.015947 -0.0014692427 -0.02830066 -0.010889446
-0.021308133 -0.045351066 -0.007410484 -0.016053556 -0.0017289583 -0.00415515 -0.0127732735 -0.023182025
00000000: cf7f 133d 1af1 bc3c 10a2 90bc 96cb 52bc
00000010: 620f acb9 f6d3 c4bb 24a9 643a bb26 563d
00000020: 3866 e13c 9bd1 41bc 3889 823b a956 a33c
00000030: 78ba 31bc e0b8 0dbc 6af2 30bc dd25 a1ba
00000040: 9e29 ef3a 7e1a 493c 57e4 b8bc 70fb 943c
00000050: b5fa ac3c e9f7 a4bc 3557 ebbc 9c6b 423b
00000060: 236f 5d3b 1ca2 8f3c 4035 173c 8324 743d
00000070: 2497 fdba bc50 2a3c 5908 b73c 514c c13b
00000080: 68ae 1ebc cf75 e1bc 13e0 15bd c307 143b
00000090: 7766 b3bc 3fd9 0d3c cc10 0b3d d294 453c
000000a0: bf95 cc3b 2bb2 b33b 8adc 0f3d e92f 263a
000000b0: e73c b1ba 7b44 bd3c dea2 983b 815e 9bbb
000000c0: 4a0f bebb c7a9 313c 0fa2 f8bb e994 5cbc
000000d0: 6227 ef3c 19e9 1dbc a21c a03c 5689 abbc
000000e0: 843e f9bb 6c4a f4bc b4a9 173c e510 0bbd
000000f0: 353d 103c 2f5c e3bb 1b5d b33c 6e8c 4bbc
00000100: 2dca d73c f69f abbb bd40 00bc 8e16 f8bc
00000110: 39e2 cdbc 9cfd 963c 72b6 763b 5927 d4ba
00000120: d91f b1bc a0f3 0dbc 6bc7 47bc 492b cf3c
00000130: f76f 22bb 5254 903c 1db9 44bc e243 f23c
00000140: d007 20bc d107 53bc b3d7 b03c 78c5 a83c
00000150: 9676 e83c 2b31 843c cc0a b63a a494 673d
00000160: 2f90 693c 07aa 183c 793a 9b3c 5dfd ffba
00000170: 8de0 2c3c cbc7 fa3b 9283 8ebc fa60 57bc
00000180: 77d2 5e3c 08b7 26bc 2211 5a3c 2029 133c
00000190: f39e b03c 6508 153c 7d79 953c 3555 4b3b
000001a0: 528a c23c 55c4 583c 7fdf 8ebc 53d7 ef3c
000001b0: 3f44 ad3b 2746 143b 34c4 183c 18bd 85ba
000001c0: 16b2 183c ace6 8f3c 09db 493d 02ff e13c
000001d0: ea8b c63b 6701 eabb def1 253d 73f4 ca3b
000001e0: e4e2 01bd db73 2dbc 9568 a53c 57c0 b2bc
000001f0: bd99 9dbc bcd0 aebb be90 ec3c ced9 a63b
00000200: 5d51 ab3a 0d54 f93b df75 cfba a0ff 4f3c
00000210: 4e3d 2d3b a8ae 9dbb b000 ccbc 2271 023c
00000220: 7f8a d8bb b599 10bc 5080 68bc 89c9 93ba
00000230: e10f 12bd a900 d9bb 7450 f93b afbb 0a3c
00000240: d0cc bbbc 14b9 b439 0504 b23b 08ee 19bd
00000250: 7ac5 d6bb b663 14bc 407a efbb 7879 833c
00000260: 072c df3c a54e 95bb a8c0 6bba d6e7 a33c
00000270: 3243 aaba 051f 85bc 98e7 be3c e4d7 783c
00000280: df48 913c 0b0e 143d dc4c 35bb ce76 b03c
00000290: 6f97 46bc a99f 71bb ba8e 963c d001 893b
000002a0: cab5 4b3c 8c73 743c 95e4 a43c c3b5 a2bc
000002b0: 01e4 eb3c 9a57 eb3b 2ab1 8f3a 9fc2 c53c
000002c0: 8011 3b3b 100d 91bb 0f08 9f3c 4963 ab3b
000002d0: e3a8 d6bc d2ca 32bc 4c5b 1f3d 95c6 963b
000002e0: 6779 1c3c 5aa3 3cbb f849 76bb 18b1 04bd
000002f0: ac62 b43b 57b4 aabc 970d 623c 6d5c 82bc
00000300: 8145 0dbc 9e7f 203a f626 0c3c 14f0 953c
00000310: c5a0 01bb fbb6 413c 5adb a4ba b7c8 e0bc
00000320: b7d8 7fbb e13e 9f3c 7673 db3b 6732 35bc
00000330: 17e4 e23c cd44 8a3c 20bc e83b d908 8dbc
00000340: 1e63 b6bc 11ba aabb eb3f de3c ac9e 233c
00000350: 3be3 d4bc 72b1 ff3c 548a 4cbb 7093 aabc
00000360: 54c6 b4ba fcbb 083c 3f16 c73c aa11 8d3c
00000370: 6634 bdbc 1ce3 983c 904f 7b3b e82a 863b
00000380: e8b1 43bb 3cc4 153c 21fb 153d bcce 34bd
00000390: ac7f 67bc 65e2 7dbb adf6 c4bb 7558 7639
000003a0: 9b82 02bd 5a2f 983c 5b8a 07bb 21b9 973c
000003b0: 1e0e 28bb 9952 be3c fcf9 eebc 2aa0 0dbb
000003c0: 919d 8ebc 3bb2 b33c 9149 5a3c 6ce2 06bd
000003d0: 48a3 823c 9b93 c0ba c9d6 e7bc a669 32bc
000003e0: 658e aebc 0ac2 39bd a5d3 f2bb bf82 83bc
000003f0: 379e e2ba ed27 88bb fe46 51bc 3be8 bdbc

action_model._continuous_distribution.mu.bias f4 [2]
-0.004142867 0.0010284578
00000000: e3c0 87bb 51cd 863a

exp_avg f4 [128, 3]
3.7447968e-05 3.2760884e-06 -6.0753996e-06 4.6906225e-05 -3.9330258e-05 2.0204254e-05 -1.10282135e-05 2.631382e-05
7.388768e-06 -6.745097e-05 -4.4143533e-05 1.2635344e-05 6.659296e-06 -3.7371483e-06 4.9146893e-06 -4.17836e-05
-5.8838177e-05 1.883747e-05 -5.8704092e-05 -3.0384512e-05 -4.568007e-05 -4.6313413e-05 3.3546537e-05 -1.2440202e-05
-1.2989253e-06 -4.988121e-05 1.567155e-05 9.094827e-06 -3.14483e-05 -1.8699076e-05 -5.181629e-06 -2.1153615e-05
-9.413777e-06 -3.4797216e-05 2.8950606e-05 -3.4041765e-05 2.6757338e-05 -1.7797734e-05 -1.8214498e-05 -2.9777973e-05
-1.0001417e-05 -1.6789365e-05 1.8090896e-06 -4.375639e-05 -8.44477e-06 1.0778818e-05 -3.4273792e-06 -1.6398875e-05
-2.4067142e-05 -6.010844e-06 -2.5346878e-06 1.6427832e-05 -3.0815732e-05 -4.292093e-06 -2.0849027e-05 7.18498e-06
-9.599589e-06 4.3698932e-05 9.3471535e-06 -2.7098833e-05 4.6019763e-06 -6.8792174e-06 2.155698e-05 1.39592175e-05
-2.1613434e-05 -5.286529e-06 -2.7503404e-06 1.8343097e-05 -5.916553e-06 -7.0629e-05 0.0001539068 3.36451e-05
-3.5277524e-05 1.01432115e-05 -6.0837983e-06 7.301387e-05 -7.029612e-05 -3.3001466e-05 -1.426502e-05 -1.1889761e-05
9.142388e-06 -6.933426e-05 3.7679045e-05 -6.8739646e-05 -6.0701706e-05 2.2456059e-05 -4.585839e-05 0.00015399193
-5.0641098e-05 -4.429067e-06 3.6894253e-05 -2.5267736e-05 -2.2633767e-05 6.852041e-05 -1.9651101e-05 9.620396e-06
4.222024e-06 1.2009694e-05 2.1833817e-05 -1.6754926e-05 -6.096128e-05 -2.1348094e-05 0.00013501638 5.9991846e-05
0.00010630225 -1.0241548e-05 -1.1582794e-05 -1.4621299e-05 2.9486859e-05 -8.9851565e-06 -8.75156e-07 2.0300968e-05
-2.8496952e-06 5.7717734e-06 1.6592978e-05 -5.4254374e-06 -4.038532e-05 -3.771916e-05 -1.2176442e-05 8.0823065e-06
-1.045699e-05 -1.5346369e-06 -4.2661654e-06 -2.7616092e-05 8.29236e-06 2.7911515e-06 -2.0992436e-05 -5.490318e-05
1.4170418e-05 -8.1731805e-06 3.5345256e-05 -2.4670328e-05 2.5627789e-05 -7.863311e-06 1.4293652e-05 -5.490659e-05
-5.8216383e-06 2.0386871e-05 -3.186925e-05 -3.8781538e-05 -8.8325005e-06 -1.820931e-05 -1.6799035e-05 1.3663737e-05
7.098646e-06 3.382534e-05 4.236112e-05 -9.640576e-06 -2.0788157e-05 3.4677283e-05 -5.1715433e-05 0.000112863076
-1.1557211e-05 5.0829236e-05 -2.9360403e-05 3.5993646e-05 -2.2105745e-05 -3.3282424e-05 -1.5568037e-05 -2.6188623e-05
-1.3834327e-05 3.1540958e-06 7.2645466e-06 1.8125833e-05 -8.095701e-06 -1.6572005e-05 8.523641e-05 3.5493672e-06
7.0046945e-06 -4.5996712e-06 5.8723954e-06 -3.6842324e-05 6.0626295e-05 5.6421513e-06 2.0998104e-05 -8.318383e-07
7.665607e-07 4.132095e-06 -2.0298601e-05 8.8528495e-06 3.633712e-05 4.8017205e-06 -5.2939345e-06 1.255111e-05
-4.040118e-06 -3.9441293e-05 -6.8432215e-05 8.6264285e-05 1.0620365e-05 -2.614078e-05 1.8907298e-05 -4.124271e-06
5.2414267e-05 -5.0794828e-05 -6.282353e-05 -1.9465895e-06 -5.728965e-05 2.4479421e-05 2.7380378e-07 -9.637431e-06
-6.095905e-05 -4.2052583e-05 2.3877597e-05 3.5628564e-05 3.028689e-05 -2.797894e-05 9.955999e-07 -5.6838107e-05
-2.633306e-05 -4.1575106e-05 -2.0924268e-05 4.335687e-05 -2.6427802e-05 5.5700075e-05 -3.9560513e-05 -2.8502836e-05
-2.746676e-05 -2.1238531e-05 -1.23653e-05 -4.4893928e-05 1.7767792e-05 -7.597632e-05 5.731856e-05 -1.5941097e-05
1.5905582e-05 6.000247e-05 -2.4758696e-05 -6.288222e-05 -1.4255664e-05 8.98419e-06 8.628324e-06 6.8127025e-05
-3.683754e-05 5.823983e-06 8.130164e-06 -8.523943e-06 5.3293143e-06 -1.1456558e-05 9.005375e-07 -4.1276253e-06
4.8923557e-05 -2.8895209e-05 7.748037e-05 7.111922e-07 -2.2949885e-06 7.7707045e-06 -3.50858e-05 2.3430366e-05
7.699275e-06 -3.7905484e-05 5.4409964e-05 3.200744e-05 -1.2142939e-05 -8.436913e-05 -1.9524288e-05 0.00010076322
00000000: 7311 1d38 c5da 5b36 49db cbb6 2dbd 4438
00000010: 8bf6 24b8 4e7c a937 d105 39b7 80bc dc37
00000020: 09ed f736 7774 8db8 c226 39b8 64fc 5337
00000030: eb72 df36 b8cb 7ab6 dce8 a436 cd40 2fb8
00000040: 03c9 76b8 2905 9e37 0a39 76b8 3ee2 feb7
00000050: 9a98 3fb8 a640 42b8 52b4 0c38 43b6 50b7
00000060: bc56 aeb5 8b37 51b8 6676 8337 fc95 1837
00000070: 5be7 03b8 f6db 9cb7 dbdd adb6 0b73 b1b7
00000080: ddef 1db7 3af3 11b8 f4da f237 11c8 0eb8
00000090: f274 e037 584c 95b7 56cb 98b7 b6cb f9b7
000000a0: c2cb 27b7 e3d6 8cb7 d8cf f235 1187 37b8
000000b0: 03ae 0db7 acd6 3437 ed01 66b6 5190 89b7
000000c0: cbe3 c9b7 c2b0 c9b6 9b19 2ab6 80ce 8937
000000d0: 2440 01b8 cc04 90b6 f2e4 aeb7 8216 f136
000000e0: ec0d 21b7 5f49 3738 b8d1 1c37 4d52 e3b7
000000f0: ad6a 9a36 07d4 e6b6 43d5 b437 6232 6a37
00000100: 7f4e b5b7 f062 b1b6 7d92 38b6 80df 9937
00000110: ce86 c6b6 a81e 94b8 0b62 2139 271e 0d38
00000120: f4f6 13b8 c32c 2a37 6e23 ccb6 061f 9938
00000130: f16b 93b8 0e6b 0ab8 cb53 6fb7 227a 47b7
00000140: 4262 1937 8c67 91b8 9109 1e38 5128 90b8
00000150: f699 7eb8 0560 bc37 1258 40b8 e578 2139
00000160: 7767 54b8 659d 94b6 e7be 1a38 0df6 d3b7
00000170: a5dd bdb7 9db2 8f38 6bd8 a4b7 4967 2137
00000180: e9aa 8d36 3e7d 4937 c427 b737 ee8c 8cb7
00000190: adb0 7fb8 af14 b3b7 2f93 0d39 c19f 7b38
000001a0: 96ee de38 1dd3 2bb7 b953 42b7 004e 75b7
000001b0: 8c5a f737 f4be 16b7 43ec 6ab5 ff4b aa37
000001c0: 643d 3fb6 28ab c136 2631 8b37 270c b6b6
000001d0: 6863 29b8 a434 1eb8 6c49 4cb7 3e99 0737
000001e0: 6e70 2fb7 b9f9 cdb5 1526 8fb6 1ba9 e7b7
000001f0: 6a1f 0b37 9e4f 3b36 ea18 b0b7 d747 66b8
00000200: 7bbd 6d37 8b1f 09b7 ae3f 1438 20f3 ceb7
00000210: 42fb d637 aaec 03b7 c5ce 6f37 814b 66b8
00000220: 7e57 c3b6 7904 ab37 59ab 05b8 5ca9 22b8
00000230: 4d2f 14b7 32c0 98b7 a7eb 8cb7 4e3d 6537
00000240: e830 ee36 afdf 0d38 e8ac 3138 f5bd 21b7
00000250: 3a62 aeb7 7372 1138 06e9 58b8 e7b0 ec38
00000260: d8e5 41b7 7a31 5538 fc4a f6b7 e2f7 1638
00000270: ba6f b9b7 bb98 0bb8 1b98 82b7 a4af dbb7
00000280: fb19 68b7 f4aa 5336 fbc1 f336 ee0c 9837
00000290: c5d2 07b7 1c04 8bb7 f3c0 b238 aa31 6e36
000002a0: de09 eb36 e056 9ab6 7e0b c536 2587 1ab8
000002b0: fd48 7e38 b651 bd36 1625 b037 7e4b 5fb5
000002c0: a6c5 4d35 6da6 8a36 ea46 aab7 b386 1437
000002d0: af68 1838 771e a136 8da2 b1b6 9b92 5237
000002e0: 5990 87b6 c46d 25b8 4483 8fb8 c9e8 b438
000002f0: 1f2e 3237 e648 dbb7 1d9b 9e37 3863 8ab6
00000300: 64d7 5b38 880c 55b8 20c0 83b8 27a2 02b6
00000310: 4b4a 70b8 2859 cd37 4eff 9234 73b0 21b7
00000320: 48ae 7fb8 9e61 30b8 c04c c837 e16f 1538
00000330: 9a10 fe37 51b4 eab7 8da0 8535 7465 6eb8
00000340: d1e5 dcb7 ee60 2eb8 8686 afb7 16da 3538
00000350: 46b1 ddb7 809f 6938 c7ed 25b8 6019 efb7
00000360: 6b68 e6b7 6629 b2b7 8f74 4fb7 7d4c 3cb8
00000370: 0b0c 9537 7a55 9fb8 5669 7038 3fb9 85b7
00000380: fa6c 8537 29ab 7b38 e5b0 cfb7 a3df 83b8
00000390: 9c2b 6fb7 cdba 1637 5fc2 1037 6bdf 8e38
000003a0: 0282 1ab8 a26b c336 ca66 0837 0e02 0fb7
000003b0: 76d2 b236 8b35 40b7 77bc 7135 0880 8ab6
000003c0: 4533 4d38 fd63 f2b7 f57c a238 c1e8 3e35
000003d0: 9a03 1ab6 ec5e 0237 1729 13b8 548c c437
000003e0: 222c 0137 b4fc 1eb8 4136 6438 ba3f 0638
000003f0: 87b9 4bb7 55ef b0b8 17c8 a3b7 d850 d338

exp_avg_sq f4 [128, 3]
8.850418e-09 3.5873562e-08 6.4086048e-09 1.548241e-08 5.2193684e-08 1.1847699e-08 2.74235e-09 1.09595e-08
2.2673203e-09 1.4977111e-08 5.0566498e-09 8.7939e-09 1.8536571e-09 9.531641e-10 1.2444471e-09 3.4060072e-08
1.7594007e-07 3.4537127e-08 1.2871508e-08 9.930273e-09 1.9183286e-08 9.796099e-09 4.0533163e-08 6.506466e-09
1.7766334e-08 5.524837e-08 2.6974181e-08 1.821644e-08 3.838297e-08 1.09616645e-08 2.524244e-09 1.7107213e-08
2.653734e-09 7.543483e-09 3.788813e-08 7.566473e-09 5.8107674e-09 1.1080854e-08 6.0668612e-09 2.1129159e-08
2.3817657e-08 1.0719934e-08 8.721909e-09 3.6302517e-08 9.719515e-09 2.1871903e-08 2.9479114e-08 1.0793252e-08
1.030623e-08 1.5422856e-08 5.4526956e-09 9.984107e-09 3.312146e-08 8.29784e-09 2.8400231e-08 5.2254286e-08
1.2797495e-08 5.860076e-09 3.112349e-08 7.845337e-09 5.597244e-09 1.3365289e-08 4.1161328e-09 8.910786e-09
2.0876913e-08 5.0299396e-09 1.2476608e-09 3.7481738e-09 6.4436184e-10 1.8480992e-07 4.6133297e-07 1.2302706e-07
2.2375676e-08 2.5637654e-08 1.3436139e-08 6.2292145e-08 2.4505542e-07 6.910182e-08 1.9664528e-09 8.038398e-09
2.0087134e-09 2.429261e-08 9.671727e-08 3.1174253e-08 5.323704e-08 2.7155133e-08 3.0497898e-08 7.928313e-08
4.0910223e-07 6.263192e-08 1.6643053e-08 3.3460257e-08 1.25637065e-08 1.1572446e-08 6.6501705e-08 6.44542e-09
1.0816951e-08 3.4117076e-09 4.591362e-09 1.2801061e-08 6.76525e-08 2.2284267e-08 8.465331e-08 7.5846685e-08
5.5845067e-08 1.321194e-09 2.0347533e-09 1.0910829e-09 2.3486317e-08 4.1612047e-08 3.1441697e-08 2.3560243e-09
1.7490006e-08 1.72052e-09 1.504519e-08 1.7986192e-08 8.513989e-09 4.810353e-09 2.4046642e-09 1.9670083e-09
6.7240136e-10 5.0910715e-10 4.055504e-10 3.659687e-09 5.8758283e-09 3.8134114e-09 3.253342e-08 1.3485462e-07
3.670789e-08 8.330305e-09 5.2178063e-08 7.596774e-09 1.7990448e-08 4.1770495e-08 1.6294763e-08 1.1618996e-08
1.6435852e-08 1.780394e-08 2.172535e-08 6.433109e-08 2.2574907e-08 1.5502184e-08 2.847206e-08 1.1253646e-08
4.5706736e-09 4.012596e-09 8.992963e-09 4.030303e-09 9.035914e-09 8.644502e-09 6.2912704e-08 3.5360878e-07
4.8200427e-08 1.4265662e-08 4.625243e-08 1.0321468e-08 2.3910653e-08 5.7295434e-08 2.6579313e-08 1.0363188e-09
3.046533e-09 1.2375393e-09 6.397518e-09 2.2303253e-08 4.685e-09 4.3605734e-08 1.2388347e-07 2.9632483e-08
1.9644784e-08 7.719845e-09 8.625871e-09 4.008429e-08 1.6662796e-07 2.9918766e-08 3.6960623e-09 3.4577001e-09
2.5178677e-09 6.9483206e-09 1.3410427e-08 5.805988e-09 4.6833875e-08 1.7356795e-07 3.60071e-08 1.1754702e-08
5.477049e-08 9.829242e-09 5.820665e-08 2.185722e-07 3.854924e-08 5.9414358e-08 3.1443463e-08 2.4920269e-08
1.6482932e-08 4.7197446e-08 9.376251e-09 4.0610228e-08 1.2339542e-07 3.150333e-08 8.100693e-09 3.687189e-08
6.3948074e-09 1.5295039e-07 4.1449414e-07 9.121306e-08 1.5252326e-08 5.8821524e-08 1.3818354e-08 5.5407043e-08
8.9425896e-08 4.5187846e-08 4.6278075e-09 4.0993225e-08 6.789193e-09 2.261084e-08 1.5571892e-07 1.8201384e-08
2.8116027e-08 1.186154e-08 1.2333623e-08 3.5552407e-08 8.731418e-08 2.2954952e-08 1.01004485e-08 2.1731465e-08
6.094119e-09 4.6801755e-08 2.8980062e-07 3.6485094e-08 5.270057e-09 5.6595457e-09 3.6049566e-09 1.6251734e-08
9.953103e-08 1.2507739e-08 1.0960505e-08 2.6042546e-08 1.1624452e-08 8.186854e-10 3.376251e-10 4.728212e-10
3.7189697e-08 1.09304494e-07 3.4644955e-08 2.4969278e-09 1.5028405e-09 1.4241781e-09 1.7240417e-08 2.5697522e-08
9.940555e-09 3.1580374e-08 1.9313856e-07 3.221319e-08 5.8573324e-08 1.4952468e-07 5.1896986e-08 2.6439272e-08
00000000: 8d0c 1832 6613 1a33 af32 dc31 2efe 8432
00000010: 902b 6033 bb8a 4b32 ee73 3c31 6448 3c32
00000020: 1fcf 1b31 04a7 8032 c3be ad31 fb13 1732
00000030: c3c3 fe30 7b00 8330 1709 ab30 7249 1233
00000040: 0aea 3c34 f955 1433 7e21 5d32 cd99 2a32
00000050: 7ec8 a432 b34b 2832 af16 2e33 7b8f df31
00000060: 959c 9832 3a4a 6d33 dab4 e732 607a 9c32
00000070: 86da 2433 e951 3c32 f876 2d31 29f3 9232
00000080: fb5c 3631 9798 0132 71ba 2233 b3fd 0132
00000090: 0da8 c731 1c5e 3e32 ad74 d031 837f b532
000000a0: 9597 cc32 c52a 3832 5dd7 1532 0aeb 1b33
000000b0: e1fa 2632 d3e0 bb32 4239 fd32 396d 3932
000000c0: 470f 3132 387b 8432 6b5a bb31 9186 2b32
000000d0: 6e41 0e33 498e 0e32 c5f4 f332 326e 6033
000000e0: fadb 5b32 c659 c931 a4ac 0533 28c8 0632
000000f0: e151 c031 2a9d 6532 e36d 8d31 0d16 1932
00000100: d154 b332 d1d3 ac31 297a ab30 49c9 8031
00000110: ef1e 3130 2a70 4634 1fad f734 6c19 0434
00000120: a234 c032 cc39 dc32 c4d4 6632 78c5 8533
00000130: 2990 8334 2165 9433 3422 0731 4019 0a32
00000140: a909 0a31 04ac d032 e2b2 cf33 74e4 0533
00000150: bfa6 6433 c542 e932 cbfc 0233 5d42 aa33
00000160: 95a2 db34 4380 8633 76f6 8e32 f1b5 0f33
00000170: c4d7 5732 28d0 4632 b3cf 8e33 8476 dd31
00000180: 74d5 3932 6573 6a31 0cc2 9d31 a9eb 5b32
00000190: 5b48 9133 9f6b bf32 a6ca b533 28e1 a233
000001a0: 4dda 6f33 6295 b530 c2d3 0b31 11f5 9530
000001b0: f5be c932 eeb8 3233 830a 0733 9ee7 2131
000001c0: ee3c 9632 6a77 ec30 b93c 8132 0e80 9a32
000001d0: eb44 1232 5048 a531 4d3f 2531 fa2b 0731
000001e0: 0ad4 3830 3bf1 0b30 25f4 de2f e57d 7b31
000001f0: 55e4 c931 1f07 8331 e0ba 0b33 8ecc 1034
00000200: c0a8 1d33 121d 0f32 631a 6033 f782 0232
00000210: 6a89 9a32 2567 3333 90f8 8b32 e39c 4732
00000220: d22e 8d32 47ef 9832 8d9e ba32 6426 8a33
00000230: bfea c132 aa29 8532 b992 f432 0f56 4132
00000240: 120c 9d31 2bdf 8931 787f 1a32 ec7a 8a31
00000250: 5f3c 1b32 ec82 1432 a01a 8733 9fd7 bd34
00000260: ee04 4f33 0c15 7532 16a7 4633 4c52 3132
00000270: 1564 cd32 ff14 7633 8750 e432 3a6e 8e30
00000280: 2d5b 5131 0b16 aa30 2ad1 db31 5f95 bf32
00000290: b2f9 a031 0349 3b33 d404 0534 858a fe32
000002a0: 56bf a832 3da0 0432 fb30 1432 2529 2c33
000002b0: 58ea 3234 0880 0033 d1fd 7d31 819c 6d31
000002c0: cc06 2d31 13be ee31 af63 6632 037e c731
000002d0: 6426 4933 ff5d 3a34 3aa6 1a33 baf1 4932
000002e0: ca3c 6b33 77dd 2832 e3fe 7933 abb0 6a34
000002f0: 5691 2533 c72e 7f33 740c 0733 4010 d632
00000300: 5a96 8d32 24b6 4a33 3015 2132 6b6b 2e33
00000310: ad7e 0434 474e 0733 392b 0b32 125d 1e33
00000320: 52b9 db31 af3a 2434 a487 de34 e9e0 c333
00000330: 3804 8332 f3a2 7c33 c365 6d32 b0f8 6d33
00000340: 680a c033 9014 4233 a002 9f31 8710 3033
00000350: 6046 e931 c339 c232 b133 2734 4459 9c32
00000360: cc83 f132 9bc7 4b32 d9e3 5332 49b2 1833
00000370: 7a81 bb33 792e c532 3e86 2d32 ffab ba32
00000380: 7064 d131 1303 4933 e595 9b34 c9b3 1c33
00000390: e913 b531 e475 c231 11bb 7731 f199 8b32
000003a0: c3bd d533 9ee1 5632 d04c 3c32 2ab4 df32
000003b0: e1b4 4732 dd09 6130 829c b92f d6f7 0130
000003c0: 81ba 1f33 c8ba ea33 88cc 1433 6b96 2b31
000003d0: 808c ce30 d0bc c330 1418 9432 73bd dc32
000003e0: 06c7 2a32 fda2 0733 8661 4f34 c75a 0a33
000003f0: 0d92 7b33 088d 2034 57e5 5e33 931c e332

exp_avg f4 [128]
1.0097147e-05 -4.5025627e-06 2.4756397e-05 -7.5198346e-05 -7.843348e-06 -2.3630377e-05 -5.7812493e-05 5.380649e-06
-2.3598996e-05 -4.6899455e-05 -3.1560307e-05 -2.489102e-06 -1.3353212e-05 -3.403404e-05 -1.5993332e-05 -4.0065126e-05
-2.7684735e-05 -1.5716652e-05 2.6775368e-05 2.1899421e-08 9.09363e-06 -2.1725746e-05 1.2937878e-05 0.00018014635
2.9780571e-05 -2.8478378e-05 -1.1193551e-06 -1.4352936e-05 6.395862e-05 -2.487795e-05 -1.086071e-05 8.149327e-08
1.25329025e-05 -4.214414e-05 0.00012347255 -2.355585e-05 -1.2885248e-05 -1.3148361e-06 -3.5903272e-06 -3.037328e-05
-5.9672143e-06 8.452023e-06 2.3757234e-06 7.383652e-06 -1.10990695e-05 -1.6036276e-05 -3.7789691e-06 -3.760259e-06
5.166314e-05 -2.0511912e-05 0.00010463457 1.1913594e-06 -1.0165772e-05 -1.5613707e-05 5.3604167e-06 7.9698046e-05
-7.5570892e-06 6.725567e-05 3.7729994e-06 -5.0064496e-06 -7.1244117e-06 -2.1896849e-05 7.9783975e-05 3.817989e-05
-3.6316538e-05 1.6019057e-07 -2.641271e-05 8.0919504e-05 -1.4364825e-05 2.791546e-05 1.5282352e-05 -3.3525554e-05
-4.1473053e-05 -3.7679245e-05 1.8207937e-05 -3.603402e-05 2.4978015e-05 -2.4630035e-05 1.8681443e-05 2.4986095e-06
3.0822368e-05 -2.8292803e-07 4.8930222e-05 2.0459687e-05 -4.8213264e-05 8.899525e-06 -7.358611e-06 1.1285974e-05
1.3802271e-05 -3.309674e-05 -2.1323425e-05 2.5580019e-05 2.830847e-05 2.4691286e-05 -1.6846981e-05 2.0585678e-05
6.289154e-05 -3.970265e-06 1.0710425e-05 1.1807845e-05 9.0364865e-06 8.978036e-06 3.6163252e-05 -1.25505e-05
-1.5248472e-05 1.18085145e-05 -3.826761e-05 -2.5510382e-05 5.004395e-06 2.0123173e-06 3.1079978e-06 1.2587808e-05
-4.8055586e-05 2.3405595e-05 2.4315991e-06 4.0742194e-05 3.9649833e-05 -1.6107977e-06 4.018582e-05 -6.114529e-05
-1.3451227e-05 -5.1492844e-08 2.5716321e-05 -3.11383e-05 -9.889524e-05 1.01221285e-05 6.674306e-05 8.2504484e-05
00000000: eb66 2937 b814 97b6 f5ab cf37 ceb3 9db8
00000010: ec96 03b7 d939 c6b7 b17b 72b8 6c8b b436
00000020: 75f6 c5b7 e8b5 44b8 9f5f 04b8 720a 27b6
00000030: 9c07 60b7 c6bf 0eb8 6b29 86b7 9a0b 28b8
00000040: 843c e8b7 41d7 83b7 aa9b e037 561d bc32
00000050: d890 1837 af3f b6b7 c30f 5937 abe5 3c39
00000060: 4ad1 f937 dae4 eeb7 c03c 96b5 64cd 70b7
00000070: 8621 8638 feb0 d0b7 6536 36b7 6601 af33
00000080: 6844 5237 edc3 30b8 6978 0139 cd99 c5b7
00000090: b82d 58b7 6d79 b0b5 5af1 70b6 1fca feb7
000000a0: fb39 c8b6 2acd 0d37 9e6e 1f36 16c1 f736
000000b0: 2436 3ab7 a485 86b7 329a 7db6 c258 7cb6
000000c0: e0b0 5838 ff10 acb7 426f db38 cce6 9f35
000000d0: a98d 2ab7 2efa 82b7 a1dd b336 9023 a738
000000e0: e792 fdb6 9d0b 8d38 a333 7d36 13fd a7b6
000000f0: 3b0e efb6 20af b7b7 b251 a738 5823 2038
00000100: 9652 18b8 d900 2c34 dd90 ddb7 54b3 a938
00000110: 7400 71b7 fe2b ea37 9a32 8037 ca9d 0cb8
00000120: 5af3 2db8 c809 1eb8 3fbd 9837 3c23 17b8
00000130: e187 d137 999c ceb7 18b6 9c37 c9ad 2736
00000140: 4447 0138 55e5 97b4 6d3a 4d38 d8a0 ab37
00000150: 9938 4ab8 2b4f 1537 fde9 f6b6 e458 3d37
00000160: 4d90 6737 5bd1 0ab8 b5df b2b7 ac94 d637
00000170: fa77 ed37 2220 cf37 9e52 8db7 68af ac37
00000180: a3e4 8338 5138 85b6 edb0 3337 4f1a 4637
00000190: 6a9b 1737 5fa0 1637 ffad 1738 fd8f 52b7
000001a0: b0d3 7fb7 2f1d 4637 8981 20b8 21ff d5b7
000001b0: 6deb a736 590b 0736 ff92 5036 3930 5337
000001c0: 4b8f 49b8 2257 c437 8e2e 2336 99e2 2a38
000001d0: af4d 2638 9632 d8b5 328d 2838 213b 80b8
000001e0: 94ac 61b7 fb28 5db3 61b9 d737 7f9a 02b8
000001f0: fa65 cfb8 36d2 2937 68f8 8b38 4206 ad38

exp_avg_sq f4 [128]
5.0206882e-08 7.34153e-08 1.4728719e-08 1.3607606e-08 2.4399684e-09 2.3902103e-07 2.3825587e-08 5.6682083e-08
8.0450555e-08 6.007715e-08 2.452916e-08 5.3103268e-08 1.6942966e-08 4.2934815e-08 5.0625594e-08 4.928456e-08
2.4524885e-08 4.9069417e-08 7.524538e-08 4.301423e-08 1.925647e-08 3.3502747e-08 4.994583e-09 6.864624e-07
4.674454e-08 3.479039e-07 1.1662048e-08 1.3822527e-07 6.3325245e-08 5.596745e-07 4.991951e-08 8.6598845e-08
8.9023615e-09 9.553919e-08 1.343541e-07 3.5601098e-09 7.1471604e-08 2.390265e-08 3.046713e-08 5.127162e-09
1.0553517e-09 1.0561273e-08 1.946125e-07 6.811214e-08 6.344778e-08 3.0530487e-08 9.8781285e-08 4.3229235e-08
9.721044e-09 1.4236534e-08 4.7418115e-07 6.0262316e-08 9.0853916e-08 4.762542e-09 3.1025717e-08 1.7714075e-07
1.9229871e-08 2.2690926e-07 7.402212e-09 2.086325e-08 2.4698693e-07 7.775507e-08 3.111516e-07 6.939874e-08
6.664833e-08 1.7853856e-07 5.267754e-08 6.032436e-07 8.1258726e-08 1.4776168e-07 5.216236e-08 2.0780885e-07
2.8578581e-08 1.2704649e-07 3.186809e-08 3.932675e-07 1.1060326e-08 1.3035519e-07 4.0329102e-08 9.079763e-10
1.5945544e-07 3.150065e-09 4.487753e-08 2.550048e-07 2.2507093e-07 1.09424185e-07 4.2151567e-09 4.739591e-09
2.0405045e-08 2.6685967e-09 6.768237e-08 4.192798e-08 3.4020395e-08 2.00827e-08 1.16324514e-08 2.1919357e-08
1.3675627e-07 1.9985862e-07 8.756685e-08 2.5157526e-08 1.0656283e-08 2.5797984e-08 3.8648085e-07 7.110045e-08
1.2582842e-07 5.0931042e-08 2.3782716e-08 3.8612253e-08 3.806463e-07 8.537916e-08 1.4165393e-08 5.4585236e-08
1.9909548e-08 1.9982063e-07 2.3500552e-07 1.0070405e-07 7.7566064e-08 9.795254e-08 2.933903e-08 2.8459484e-08
5.3519088e-08 5.5011302e-08 2.2567451e-07 1.9764446e-08 1.0648995e-07 9.0615515e-09 2.0865919e-07 3.851341e-07
00000000: 0da3 5733 7da8 9d33 9709 7d32 e2c6 6932
00000010: 61ac 2731 cd52 8034 05a9 cc32 9c72 7333
00000020: 29c4 ac33 c303 8133 31b4 d232 a913 6433
00000030: fa89 9132 5467 3833 6e6f 5933 f2ac 5333
00000040: cbaa d232 65c0 5233 9696 a133 a5be 3833
00000050: 6d69 a532 a9e4 0f33 d19c ab31 5645 3835
00000060: 2ac4 4833 8cc7 ba34 3b5a 4832 136b 1434
00000070: 6cfd 8733 8a3c 1635 1567 5633 38f8 b933
00000080: 00f1 1832 3a2b cd33 f942 1034 1da6 7431
00000090: ee7b 9933 7c52 cd32 f7da 0233 fe2a b031
000000a0: e30b 9130 f870 3532 adf6 5034 0c45 9233
000000b0: c940 8833 a020 0333 9621 d433 0cab 3933
000000c0: 9b01 2732 f094 7432 f692 fe34 8f69 8133
000000d0: 781b c333 c3a3 a331 2341 0533 1434 3e34
000000e0: ef2e a532 58a4 7334 8c56 fe31 c636 b332
000000f0: a099 8434 4dfa a633 5a0c a734 5c08 9533
00000100: 4f20 8f33 4eb4 3f34 913f 6233 96ee 2135
00000110: 7580 ae33 6ca8 1e34 1f09 6033 1022 5f34
00000120: f77c f532 466a 0834 56df 0833 4622 d334
00000130: d403 3e32 c3f7 0b34 5136 2d33 2795 7930
00000140: c736 2b34 8878 5831 5ebf 4033 98e7 8834
00000150: 07ab 7134 95fc ea33 e9d4 9031 e2d9 a231
00000160: 2b47 af32 7362 3731 c758 9133 4d14 3433
00000170: d21d 1233 5382 ac32 10d8 4732 2d49 bc32
00000180: 47d7 1234 b898 5634 630c bc33 fc19 d832
00000190: d412 3732 5e9a dd32 867d cf34 e3af 9833
000001a0: 741b 0734 46bf 5a33 bf4a cc32 9fd6 2533
000001b0: a15b cc34 b159 b733 0f5c 7332 1a71 6a33
000001c0: 8f05 ab32 478e 5634 d355 7c34 a342 d833
000001d0: 6592 a633 fa59 d233 3605 fc32 1177 f432
000001e0: dcdc 6533 9145 6c33 f050 7234 7ac6 a932
000001f0: 78af e433 20ad 1b32 cd0b 6034 6dc4 ce34
