python/results/minion_walk_003/Minion/Minion-787.onnx (onnx, 71890 bytes, 7 tensors)

network_body._body_endoder.seq_layers.0.weight f4 [128, 3]
000000 88 96 f8 3e e5 41 14 bf fa 2d 53 3f 98 f7 ba 3e
       0.48552346 -0.5791305 0.8249203 0.36517024
000010 d3 d6 f5 bd 78 f9 fc 3d de 14 97 3e e6 e8 d3 be
       -0.12003865 0.1235227 0.29508108 -0.41388625
000020 22 c1 83 3e c0 a3 c7 be e9 10 91 3e c4 49 dc bd
       0.25733286 -0.3899212 0.28333214 -0.10756257
000030 53 e6 45 bf 64 cc 02 bf de b8 9b bd 3d 45 15 c0
       -0.7730457 -0.51093125 -0.0760362 -2.332351
000040 4e 9a 41 bf 57 9d 84 3e a6 d9 43 be cd a3 c2 3b
       -0.75626075 0.2590129 -0.19125995 0.0059399367
000050 a4 21 03 3f be f4 b7 3e f0 45 75 bf 53 c0 0c 3f
       0.51223207 0.3592891 -0.9580984 0.54980963
000060 26 38 c4 be fd c7 37 3d 8e ed c6 3e 54 c6 51 3e
       -0.38324088 0.044868458 0.38853115 0.20485812
000070 ab 8e cb 3d 4a 47 23 3f c2 20 09 bf e8 92 5a be
       0.09939321 0.63780653 -0.5356561 -0.21345103
000080 6b 4e c7 3e 79 ca af bf 6c 91 3e be 5f 3d 10 be
       0.38927016 -1.3733665 -0.18610162 -0.14085911
000090 0c c5 76 3e 28 b7 9a bd 70 6d 9c 3f fe 35 44 3d
       0.24098605 -0.075544655 1.2220898 0.047903053
0000a0 a1 4a 8c bd 1b 7c a5 3e c3 f6 82 3d 5e e5 88 3d
       -0.06850172 0.32321247 0.06394722 0.06684373
0000b0 5d 67 bb 3f 37 86 d8 be 3d f2 64 be 70 f3 e1 3e
       1.4640919 -0.42289898 -0.22358032 0.4413104
0000c0 ec ab 50 3e f7 0c c8 be cb 95 a2 3c 3d 27 4d 3f
       0.20378083 -0.3907239 0.019846817 0.80138
0000d0 a6 20 e4 bd 05 f6 ae 3c fa 98 38 3f 95 25 99 be
       -0.1113904 0.021357546 0.72108424 -0.29911485
0000e0 82 3b 98 be d7 85 ac 3e b6 82 05 be 30 c9 1d 3e
       -0.297329 0.33695862 -0.13038144 0.15408778
0000f0 92 dc 37 bf ac 9f 00 bf 9c 30 26 3e f0 db 25 3f
       -0.7182094 -0.5024364 0.1622948 0.64788723
000100 ea d9 0a 3d eb 38 be bd a2 41 1d be af c1 ff be
       0.033899225 -0.092882 -0.15357068 -0.49952456
000110 74 d7 eb 3e 88 0b 83 be 10 30 48 bf d2 ec 53 3e
       0.46062815 -0.25594735 -0.7819834 0.20695809
000120 d2 18 8e bb 2d 15 0c bf 34 64 46 be 17 4e c0 3d
       -0.004336455 -0.5471981 -0.19374162 0.093898945
000130 ce bc e3 be 43 df cc 3e c9 96 8e be c1 6f 6d be
       -0.44479984 0.40014085 -0.27849415 -0.23187162
000140 b1 61 fc be ae 8a 21 bc 2b 6b b4 be 28 9f 05 3f
       -0.49293283 -0.009859724 -0.35238013 0.5219598
000150 93 54 38 3f 67 2a 31 be 9b 6d 15 bf e3 80 f6 bd
       0.7200405 -0.17301331 -0.5837037 -0.12036302
000160 d3 ab 42 bd ab e6 84 be cd eb 52 be 83 e7 2b bf
       -0.047527146 -0.25957236 -0.20597763 -0.67150134
000170 e6 18 82 be 84 70 a0 3f 8d 70 40 3f 04 de cc be
       -0.2540962 1.2534337 0.7517174 -0.40013134
000180 77 5c e6 be ba bd 5c bf 5f 08 c9 3e 9d 6e 94 3f
       -0.4499242 -0.86227 0.392642 1.1596256
000190 22 58 c7 be b3 7a a9 bf a9 bf d3 bd b2 18 23 3e
       -0.38934427 -1.324057 -0.10339291 0.1592739
0001a0 66 fc a3 3e db 01 c1 3c d5 12 3c 3f 5c bc b4 3d
       0.32028502 0.023560455 0.73466235 0.08824989
0001b0 43 2a d0 bd 4e c9 ca be f9 bb 3f 3f cd fa be be
       -0.10164311 -0.39606708 0.748962 -0.3730072
0001c0 ba f2 18 3f 6b 8f 26 3f be be 1d 3f 01 04 1e be
       0.5974537 0.6506259 0.61619174 -0.15431215
0001d0 02 70 2e bf 5c 96 ca 3e 61 9f e2 bd 39 dc 1e 3f
       -0.6813966 0.3956784 -0.11065555 0.62054783
0001e0 08 0a 5f 3f 55 7e 31 bf 6d 65 0b 3f 0f d7 de 3e
       0.8712468 -0.6933339 0.5445164 0.43523452
0001f0 4b 0f ee bd 0c 74 8f bd b6 8b a5 bc e0 62 a1 3e
       -0.11624011 -0.07004556 -0.02020822 0.31520748
000200 18 fa b6 be 68 75 2d bf b1 af 25 bf 46 46 a2 be
       -0.3573768 -0.6775727 -0.6472121 -0.3169424
000210 13 c3 a0 3c 17 94 87 bf 16 91 aa be 65 86 31 bd
       0.019624269 -1.0592068 -0.33313817 -0.04334106
000220 f6 97 d6 3e 85 30 51 3d 26 96 8f 3e 85 b6 12 3f
       0.41912812 0.051071662 0.28044242 0.5730975
000230 d4 ce 45 3e 54 c7 f9 38 cd 8d c7 3e 21 1c fc 3e
       0.1931718 0.00011910373 0.38975373 0.4924021
000240 7a 5d 6e 3e c9 7f ce be 66 97 bb be d0 b0 06 3f
       0.23277846 -0.40331867 -0.36638945 0.52613544
000250 6e 81 d6 bc 7e 7e 00 bf 63 2f 76 be ea 6a 05 3e
       -0.026184764 -0.5019301 -0.24041514 0.13029066
000260 34 c5 b8 be 70 e2 71 be 20 ff 82 3e 0c 53 e6 be
       -0.36087954 -0.23621535 0.2558527 -0.44985235
000270 79 4d dc bd fd 6a 99 3e bf 02 07 bf 84 36 3d bf
       -0.10756964 0.29964438 -0.52738565 -0.7391131
000280 77 70 50 3d 2b 3e 02 bf aa a4 bc 3e aa fd 9d bd
       0.050888505 -0.5087611 0.3684438 -0.07714398
000290 35 23 34 bf b0 f2 16 bf 36 88 e5 3d e2 3a 80 be
       -0.7036622 -0.5896406 0.11207621 -0.25044924
0002a0 ff 4e a0 be 22 ef 23 3f 6a f0 57 bf 8a c1 7e 3e
       -0.3131027 0.6403676 -0.8435122 0.24878517
0002b0 7f ef b7 3e 2b c9 5a bd 9e e0 ce 3e d8 17 81 bf
       0.3592491 -0.053414505 0.40405744 -1.0085402
0002c0 08 d8 8b be 5f 35 61 3e 19 7a ec 3c cd 92 e2 3d
       -0.27313256 0.21993016 0.028866814 0.11063156
0002d0 c2 db 3b be 5f 96 1d be 28 70 e1 3d 70 22 1e be
       -0.1834555 -0.15389393 0.1100772 -0.15442824
0002e0 d6 0a 80 3f 91 a2 13 3f 9a b5 4f be 29 66 01 3f
       1.0003307 0.5766993 -0.20284119 0.5054651
0002f0 f5 03 78 bd bc 5c 28 be 85 2c 89 3f bb e6 ae 3e
       -0.06055065 -0.16441625 1.0716711 0.34160408
000300 29 6c 6c bf 8e ec 87 bf b5 f8 33 bf 16 a5 be be
       -0.9235254 -1.0619066 -0.7030137 -0.37235326
000310 06 2a 09 3e 8f cd bd 3f b8 30 f6 3e 45 57 e5 3d
       0.13394937 1.4828357 0.48084044 0.11198286
000320 2b 3a a0 be e2 63 fd 3f 04 26 b3 3e ad f5 c1 be
       -0.3129438 1.9796107 0.3498994 -0.37882748
000330 6f 9c 48 bf 0f 8f 90 3e 2d 7a f0 3e ef c3 49 bd
       -0.783637 0.28234145 0.46968213 -0.049259122
000340 55 30 0b 3f 12 fe 8c 3f 91 93 02 3f b5 d0 0c bf
       0.54370624 1.1015036 0.5100642 -0.5500596
000350 7e 35 93 3e 2d 06 d3 3e aa d7 31 3f 39 a8 1c 3e
       0.2875175 0.4121565 0.694697 0.15298547
000360 4b 46 eb be 52 d3 97 3e 9c d1 26 3d c5 90 50 bf
       -0.45952067 0.29653412 0.040727243 -0.814709
000370 e2 67 ea 3e 13 60 d7 bd 92 31 3e 3e bf 6b 10 3f
       0.4578238 -0.105163716 0.18573597 0.5641441
000380 39 d5 60 bf 71 ae 5a 3e 20 50 cf 3d ba 23 a2 3f
       -0.8782535 0.21355607 0.101227045 1.2667153
000390 a8 08 0e be c5 05 b3 be 14 c7 c6 be af 89 12 bf
       -0.1387049 -0.3496534 -0.3882376 -0.5724134
0003a0 52 c1 b4 3e 9f 5e 04 be 3d 3c e9 3e 75 f2 1b 3d
       0.35303742 -0.1292672 0.4555377 0.038073022
0003b0 fc 0e 5d 3e 8f ac 67 bf 03 49 e9 3d d2 d5 e2 3e
       0.21587747 -0.9049768 0.11390879 0.44303757
0003c0 45 28 2b bf 22 42 9e 3e 5c 5f 6a 3d 0e 68 8a 3e
       -0.6685832 0.3090983 0.057219848 0.27032512
0003d0 f2 64 8b bc 52 61 66 bf e8 de 1f 3f 35 a2 77 3e
       -0.017015908 -0.8999225 0.624495 0.24182971
0003e0 bc 05 eb 3e 17 5b ce be d2 d9 2d 3f 38 bc c2 bc
       0.45902812 -0.4030387 0.6791049 -0.02377139
0003f0 c4 f6 46 be 5e 05 ef 3e b4 30 1c 3e de 5a 01 3f
       -0.19430071 0.46683782 0.15252954 0.5052928

network_body._body_endoder.seq_layers.0.bias f4 [128]
000000 00 00 00 00 00 00 00 00 00 00 00 00 00 00 00 00
       0.0 0.0 0.0 0.0
000010 00 00 00 00 00 00 00 00 00 00 00 00 00 00 00 00
       0.0 0.0 0.0 0.0
000020 00 00 00 00 00 00 00 00 00 00 00 00 00 00 00 00
       0.0 0.0 0.0 0.0
000030 00 00 00 00 00 00 00 00 00 00 00 00 00 00 00 00
       0.0 0.0 0.0 0.0
000040 00 00 00 00 00 00 00 00 00 00 00 00 00 00 00 00
       0.0 0.0 0.0 0.0
000050 00 00 00 00 00 00 00 00 00 00 00 00 00 00 00 00
       0.0 0.0 0.0 0.0
000060 00 00 00 00 00 00 00 00 00 00 00 00 00 00 00 00
       0.0 0.0 0.0 0.0
000070 00 00 00 00 00 00 00 00 00 00 00 00 00 00 00 00
       0.0 0.0 0.0 0.0
000080 00 00 00 00 00 00 00 00 00 00 00 00 00 00 00 00
       0.0 0.0 0.0 0.0
000090 00 00 00 00 00 00 00 00 00 00 00 00 00 00 00 00
       0.0 0.0 0.0 0.0
0000a0 00 00 00 00 00 00 00 00 00 00 00 00 00 00 00 00
       0.0 0.0 0.0 0.0
0000b0 00 00 00 00 00 00 00 00 00 00 00 00 00 00 00 00
       0.0 0.0 0.0 0.0
0000c0 00 00 00 00 00 00 00 00 00 00 00 00 00 00 00 00
       0.0 0.0 0.0 0.0
0000d0 00 00 00 00 00 00 00 00 00 00 00 00 00 00 00 00
       0.0 0.0 0.0 0.0
0000e0 00 00 00 00 00 00 00 00 00 00 00 00 00 00 00 00
       0.0 0.0 0.0 0.0
0000f0 00 00 00 00 00 00 00 00 00 00 00 00 00 00 00 00
       0.0 0.0 0.0 0.0
000100 00 00 00 00 00 00 00 00 00 00 00 00 00 00 00 00
       0.0 0.0 0.0 0.0
000110 00 00 00 00 00 00 00 00 00 00 00 00 00 00 00 00
       0.0 0.0 0.0 0.0
000120 00 00 00 00 00 00 00 00 00 00 00 00 00 00 00 00
       0.0 0.0 0.0 0.0
000130 00 00 00 00 00 00 00 00 00 00 00 00 00 00 00 00
       0.0 0.0 0.0 0.0
000140 00 00 00 00 00 00 00 00 00 00 00 00 00 00 00 00
       0.0 0.0 0.0 0.0
000150 00 00 00 00 00 00 00 00 00 00 00 00 00 00 00 00
       0.0 0.0 0.0 0.0
000160 00 00 00 00 00 00 00 00 00 00 00 00 00 00 00 00
       0.0 0.0 0.0 0.0
000170 00 00 00 00 00 00 00 00 00 00 00 00 00 00 00 00
       0.0 0.0 0.0 0.0
000180 00 00 00 00 00 00 00 00 00 00 00 00 00 00 00 00
       0.0 0.0 0.0 0.0
000190 00 00 00 00 00 00 00 00 00 00 00 00 00 00 00 00
       0.0 0.0 0.0 0.0
0001a0 00 00 00 00 00 00 00 00 00 00 00 00 00 00 00 00
       0.0 0.0 0.0 0.0
0001b0 00 00 00 00 00 00 00 00 00 00 00 00 00 00 00 00
       0.0 0.0 0.0 0.0
0001c0 00 00 00 00 00 00 00 00 00 00 00 00 00 00 00 00
       0.0 0.0 0.0 0.0
0001d0 00 00 00 00 00 00 00 00 00 00 00 00 00 00 00 00
       0.0 0.0 0.0 0.0
0001e0 00 00 00 00 00 00 00 00 00 00 00 00 00 00 00 00
       0.0 0.0 0.0 0.0
0001f0 00 00 00 00 00 00 00 00 00 00 00 00 00 00 00 00
       0.0 0.0 0.0 0.0

network_body._body_endoder.seq_layers.2.weight f4 [128, 128]
000000 50 6e 8e 3c 4a 6f 79 3d 8c 8b fe 3c bb a9 7c 3d
       0.017386585 0.06089715 0.0310724 0.061685305
000010 58 a3 e7 3d 1c df 20 bc 8a 2f d8 bd a4 15 45 3c
       0.11310452 -0.009818818 -0.10555942 0.012029085
000020 cd b1 a3 3d 73 b4 06 bd 14 9f 16 bd 10 92 8e 3d
       0.07992897 -0.032886934 -0.036772802 0.06961453
000030 94 c3 ce 3b 9d f3 f0 bd 89 fb d9 3c 86 3a 11 bc
       0.006309936 -0.117652155 0.0266092 -0.008864051
000040 66 40 04 bc 6c d8 57 3d c5 3e 3b bd 2e 1b 09 be
       -0.008071994 0.05269663 -0.04571416 -0.13389274
000050 ee 18 da bd fc 4f 43 3d 13 f2 80 3a 6d 0b 02 3e
       -0.10649286 0.0476837 0.0009837769 0.12699671
000060 0e 15 ec 3d d8 c0 62 be 84 0d 13 3d 41 2c f6 3c
       0.11527453 -0.22143877 0.03590156 0.030050399
000070 62 2e 61 3d b6 11 12 3c aa cc 63 3c 4e be 8b bd
       0.054975875 0.008915355 0.013903776 -0.06823407
000080 e1 69 27 bc 22 45 93 3d 0d 8a 88 bc 0b b6 c0 bd
       -0.010218115 0.071909204 -0.01666739 -0.09409722
000090 e4 e5 20 3e f6 83 ee bc 63 6b 89 3d 98 95 43 3e
       0.15712696 -0.029115658 0.067099355 0.19100034
0000a0 0c 71 f1 3d 66 fe 11 3e dc 40 fe 3d 76 eb 1b bc
       0.1178914 0.14257202 0.12414715 -0.0095165875
0000b0 a0 8e 5c 3d a8 4b bc 39 d1 c3 2a 3d f7 c6 ab bd
       0.053846955 0.00035914523 0.04169065 -0.08387559
0000c0 a8 32 9b 3c 1f e3 81 bd 16 28 cb 3c 0f f0 60 3d
       0.018945053 -0.06342148 0.024799388 0.054916438
0000d0 f1 f7 fa bd dc d8 56 bd 3d 52 2c be 8d bb e1 bd
       -0.12254322 -0.052452907 -0.16828246 -0.110221006
0000e0 59 ab ba 3c af 8b 9a 3c d4 e5 06 3c 73 5f 7a bd
       0.022786783 0.018865434 0.008233506 -0.061126184
0000f0 f3 bc 28 bc d9 39 d6 3d 27 25 94 bd 82 6a b0 bd
       -0.010298955 0.10460252 -0.07233649 -0.08614065
000100 67 8b 2c 3c 9d 73 27 be 4c 9b 0f 3e b7 ac 2c 3d
       0.010531283 -0.16352697 0.14024085 0.0421569
000110 63 61 b6 bc 32 de 8e 3d e2 c4 22 3d d9 49 8f bd
       -0.022263234 0.06975974 0.039738543 -0.06996507
000120 df 80 5f bd c0 d9 f7 bd 38 fc a7 3d 78 b1 7e bd
       -0.05456626 -0.121020794 0.08202404 -0.062180966
000130 7e 42 01 bc da 52 b6 bc b2 b9 e5 bc 54 7c ae bd
       -0.007889388 -0.022256304 -0.028042648 -0.085198075
000140 25 1e c0 3d 60 a8 dd bd ed 73 b4 3d 44 2c 2a be
       0.093807496 -0.108231306 0.088111736 -0.16618448
000150 8d fd 91 bd 8f ef ec bd 1a 37 28 3e 2f 50 6a bd
       -0.07128439 -0.1156913 0.1642727 -0.057205375
000160 1c 03 cc bd 75 b0 95 bc 81 42 30 3d 35 f4 05 3e
       -0.099615306 -0.018272618 0.043032173 0.13081439
000170 e2 1f bc 3c d3 7a ee 3c 18 64 a6 bd 07 a8 a7 3d
       0.022964422 0.029111302 -0.0812456 0.081863455
000180 f8 ea 37 3b 23 ce ff 3c 02 94 b8 bd 8b 97 0c 3c
       0.0028063636 0.031226223 -0.09012605 0.0085810525
000190 29 f7 27 bd 3f 6a 33 bd 21 22 e2 bd 8b bf 2d bd
       -0.041007195 -0.043802496 -0.11041666 -0.042418998
0001a0 44 ae 47 bd 13 e4 ac 3d 99 2f 2b 3e 13 6a b3 bd
       -0.048750177 0.08441939 0.16717376 -0.087604664
0001b0 a3 f0 24 bd 2b 9b 2c bd 66 2c 02 3c 9d ca c3 3d
       -0.04026855 -0.042140167 0.007945156 0.0956013
0001c0 7b 8b 3e 3e 8b b2 a1 bc fa 43 08 3e c6 e2 16 3e
       0.18607895 -0.019738456 0.13307181 0.14734945
0001d0 38 57 c3 3d ab 62 46 3d 4d 1c 87 3d 4e 3b 07 3e
       0.0953812 0.04843394 0.06597195 0.13206217
0001e0 32 22 18 bd 86 5c 56 3c dd fb e3 bc aa a6 93 3d
       -0.037141986 0.013083583 -0.027830059 0.07209523
0001f0 ad 93 40 3e 4d c1 0d be bc c0 a0 bc 3e a2 e6 3d
       0.18806334 -0.1384327 -0.019623153 0.11261414
000200 f3 5e df bd be a7 91 3d 6a 6f 77 3d 52 84 57 3d
       -0.10906782 0.071120724 0.060408987 0.052616425
000210 fe 59 c1 bd 1a cb 02 3e fd 50 eb bd c4 e9 4f 3d
       -0.09440993 0.1277279 -0.11490057 0.050760046
000220 ae 37 07 be a3 73 24 3d e2 c6 58 3d ff 2b 0d bd
       -0.13204834 0.040149342 0.052924044 -0.034465786
000230 30 9e 12 3e 34 4a d1 3d 4b 33 94 3c 8b fd ab 3d
       0.14318156 0.10219231 0.018090865 0.08397969
000240 11 18 ec bd af bb cf bc ba 67 0a 3d 57 e1 d9 bd
       -0.11528028 -0.02535805 0.033790328 -0.10638683
000250 4d a4 2e 3d 8c 06 d4 bb 1e 23 a3 bd b5 2a 4b be
       0.04263716 -0.006470507 -0.079656824 -0.1984051
000260 46 29 28 3e e8 72 bf bb cd b9 80 bd 54 52 3d 3d
       0.16421995 -0.0058425553 -0.06285439 0.046221092
000270 d0 ac 3d bd e3 0c 5c be 81 e3 81 bd d7 18 d6 3d
       -0.046307385 -0.21489291 -0.06342221 0.104539566
000280 95 22 51 be 45 36 9c 3d e3 1a 63 3d 6b e4 15 3e
       -0.20423348 0.076275386 0.055445563 0.14637916
000290 46 bf a6 3b b1 df bb 3d 5a 0c 0e bb cd 70 4f bd
       0.0050887195 0.09173525 -0.0021674843 -0.050644685
0002a0 d3 19 c3 bd 3d 64 04 3d a4 98 0b bd d4 13 e2 3d
       -0.0952641 0.032322157 -0.034081116 0.11038938
0002b0 23 e3 bd 3d 13 b1 21 3e 89 8d c7 bd c6 d2 0b be
       0.092718385 0.15790205 -0.097437926 -0.13654622
0002c0 a4 53 7f bd 24 f6 09 be 90 d1 48 3d ee e5 a5 3c
       -0.062335625 -0.13472801 0.04902798 0.02025124
0002d0 e1 b6 a6 bc ad 7c 2b 3e 69 24 49 be 10 3a c2 3d
       -0.020350875 0.16746779 -0.19642796 0.09483731
0002e0 3d 12 a9 bb 78 65 13 bd eb 26 98 bc ca cf 1c be
       -0.005159645 -0.03598544 -0.018573245 -0.1531364
0002f0 24 37 b4 3d ca a9 fb bd 4f c7 8f bd c2 b6 58 bc
       0.0879958 -0.12288244 -0.07020437 -0.013227167
000300 be 99 bc 3d 05 59 2e 3d 5d 9c c0 bd 3d 61 96 bd
       0.092090115 0.042565364 -0.09404824 -0.073427655
000310 ab 3d 40 3d 42 98 c6 3c aa 15 82 bd fe a7 70 ba
       0.04693381 0.024242524 -0.06351788 -0.0009180306
000320 ce 60 dc 3c 48 0b e8 bd 23 86 7d ba a6 aa 23 3c
       0.026901629 -0.11330277 -0.0009671172 0.009989416
000330 cf 00 b8 b9 a3 d0 c1 3d ec 19 d8 3c 05 37 90 bd
       -0.00035095817 0.094636224 0.026379548 -0.07041744
000340 eb 5c a4 bd 82 82 24 3e 23 cf 40 3e 13 96 a3 3d
       -0.08025535 0.1606541 0.18829016 0.07987609
000350 f7 39 24 bd 62 5c d0 3d ab 25 a1 3b 55 db b1 3d
       -0.040094342 0.101738706 0.0049178204 0.086844124
000360 89 8c 1a 3e 41 e6 41 bb b8 21 86 bd e0 54 e4 bb
       0.15092672 -0.0029586705 -0.065494 -0.0069681257
000370 3b fb 49 3d 94 15 14 3d ef a3 b1 bb 45 0b 3d 3d
       0.049311858 0.03615339 -0.0054211537 0.046153326
000380 53 74 72 bc 59 f0 81 3d 41 d7 cb bd 70 81 4a 3e
       -0.014798242 0.06344671 -0.09953166 0.19775939
000390 8b 07 63 3d 3c 92 a5 3c ea f0 3a ba 54 ec af 3d
       0.055427115 0.020211332 -0.0007131236 0.08589998
0003a0 d6 dd 57 3d 56 b7 fb bc fd d7 be bc 0e e4 91 3d
       0.052701794 -0.03072707 -0.02329635 0.07123576
0003b0 ce 1e d1 bc c1 1a 79 3d 26 00 cb 3d d9 0c 22 be
       -0.025527384 0.06081653 0.09912138 -0.15825213
0003c0 66 29 10 3d 4e a0 cf bd 11 9a 92 bd bc 23 7e 3a
       0.03519573 -0.101379976 -0.07158292 0.0009694656
0003d0 ae d4 28 bd 1d 78 92 bd f6 72 70 3d f1 a2 83 3d
       -0.041218452 -0.07151816 0.058703385 0.06427563
0003e0 f5 16 c5 bd 49 82 3c be a1 82 38 bc ab 65 46 bd
       -0.09623519 -0.18409075 -0.011261613 -0.048436802
0003f0 0a 19 33 3c ac 2e db bd b3 c2 8b bd 55 71 bd 3d
       0.010931263 -0.10702261 -0.06824245 0.09250132

network_body._body_endoder.seq_layers.2.bias f4 [128]
000000 00 00 00 00 00 00 00 00 00 00 00 00 00 00 00 00
       0.0 0.0 0.0 0.0
000010 00 00 00 00 00 00 00 00 00 00 00 00 00 00 00 00
       0.0 0.0 0.0 0.0
000020 00 00 00 00 00 00 00 00 00 00 00 00 00 00 00 00
       0.0 0.0 0.0 0.0
000030 00 00 00 00 00 00 00 00 00 00 00 00 00 00 00 00
       0.0 0.0 0.0 0.0
000040 00 00 00 00 00 00 00 00 00 00 00 00 00 00 00 00
       0.0 0.0 0.0 0.0
000050 00 00 00 00 00 00 00 00 00 00 00 00 00 00 00 00
       0.0 0.0 0.0 0.0
000060 00 00 00 00 00 00 00 00 00 00 00 00 00 00 00 00
       0.0 0.0 0.0 0.0
000070 00 00 00 00 00 00 00 00 00 00 00 00 00 00 00 00
       0.0 0.0 0.0 0.0
000080 00 00 00 00 00 00 00 00 00 00 00 00 00 00 00 00
       0.0 0.0 0.0 0.0
000090 00 00 00 00 00 00 00 00 00 00 00 00 00 00 00 00
       0.0 0.0 0.0 0.0
0000a0 00 00 00 00 00 00 00 00 00 00 00 00 00 00 00 00
       0.0 0.0 0.0 0.0
0000b0 00 00 00 00 00 00 00 00 00 00 00 00 00 00 00 00
       0.0 0.0 0.0 0.0
0000c0 00 00 00 00 00 00 00 00 00 00 00 00 00 00 00 00
       0.0 0.0 0.0 0.0
0000d0 00 00 00 00 00 00 00 00 00 00 00 00 00 00 00 00
       0.0 0.0 0.0 0.0
0000e0 00 00 00 00 00 00 00 00 00 00 00 00 00 00 00 00
       0.0 0.0 0.0 0.0
0000f0 00 00 00 00 00 00 00 00 00 00 00 00 00 00 00 00
       0.0 0.0 0.0 0.0
000100 00 00 00 00 00 00 00 00 00 00 00 00 00 00 00 00
       0.0 0.0 0.0 0.0
000110 00 00 00 00 00 00 00 00 00 00 00 00 00 00 00 00
       0.0 0.0 0.0 0.0
000120 00 00 00 00 00 00 00 00 00 00 00 00 00 00 00 00
       0.0 0.0 0.0 0.0
000130 00 00 00 00 00 00 00 00 00 00 00 00 00 00 00 00
       0.0 0.0 0.0 0.0
000140 00 00 00 00 00 00 00 00 00 00 00 00 00 00 00 00
       0.0 0.0 0.0 0.0
000150 00 00 00 00 00 00 00 00 00 00 00 00 00 00 00 00
       0.0 0.0 0.0 0.0
000160 00 00 00 00 00 00 00 00 00 00 00 00 00 00 00 00
       0.0 0.0 0.0 0.0
000170 00 00 00 00 00 00 00 00 00 00 00 00 00 00 00 00
       0.0 0.0 0.0 0.0
000180 00 00 00 00 00 00 00 00 00 00 00 00 00 00 00 00
       0.0 0.0 0.0 0.0
000190 00 00 00 00 00 00 00 00 00 00 00 00 00 00 00 00
       0.0 0.0 0.0 0.0
0001a0 00 00 00 00 00 00 00 00 00 00 00 00 00 00 00 00
       0.0 0.0 0.0 0.0
0001b0 00 00 00 00 00 00 00 00 00 00 00 00 00 00 00 00
       0.0 0.0 0.0 0.0
0001c0 00 00 00 00 00 00 00 00 00 00 00 00 00 00 00 00
       0.0 0.0 0.0 0.0
0001d0 00 00 00 00 00 00 00 00 00 00 00 00 00 00 00 00
       0.0 0.0 0.0 0.0
0001e0 00 00 00 00 00 00 00 00 00 00 00 00 00 00 00 00
       0.0 0.0 0.0 0.0
0001f0 00 00 00 00 00 00 00 00 00 00 00 00 00 00 00 00
       0.0 0.0 0.0 0.0

action_model._continuous_distribution.log_sigma f4 [1, 2]
000000 00 00 00 00 00 00 00 00
       0.0 0.0

action_model._continuous_distribution.mu.weight f4 [2, 128]
000000 bf a5 19 bc a2 23 49 3c 46 f9 8d 3c 3b 9d 2c 3b
       -0.009377896 0.012276562 0.017330777 0.0026338834
000010 d3 0b 21 3c bd 8c cf 3b 62 16 f9 bc 92 e9 52 bc
       0.009829479 0.006333916 -0.03040618 -0.01287307
000020 72 07 fb 3b a5 4b 1e 3d af 86 5c 3c 75 5b 48 3c
       0.0076607997 0.03864636 0.013459845 0.012228836
000030 92 fc cf 3c fb ef ff 3c c0 21 d3 3c ca 98 19 bd
       0.02538899 0.031242361 0.02577293 -0.037499227
000040 67 83 0e ba 15 2e dd bc e4 ca 11 bc ca 49 28 bd
       -0.00054364506 -0.026999513 -0.008898471 -0.041085996
000050 f2 a5 e1 bc 8a 4f ae 3b 10 da 51 3b 49 8b 84 bc
       -0.02754495 0.0053195404 0.0032020845 -0.016179698
000060 3e f0 81 3b 8e aa a4 bc bd c2 2d 3b aa d8 c9 bc
       0.0039654067 -0.020100858 0.0026513778 -0.024639446
000070 db 4c 36 3d 1b 2a 9b bc 02 16 7f bb d3 44 94 bc
       0.04450689 -0.018940976 -0.003892303 -0.018099224
000080 f3 89 df bc a3 cc 18 3c 6a 32 e2 3c d7 41 b7 bc
       -0.027287459 0.009326133 0.02761193 -0.022370262
000090 08 89 fe 3b aa ff 99 bc 77 34 3c 3b cb eb 0e bc
       0.0077678002 -0.018798668 0.0028717795 -0.00872321
0000a0 20 1a 14 3b d7 ef 85 bc 82 3e 21 bd bb 47 0a 3c
       0.002259858 -0.016349716 -0.039366253 0.008439953
0000b0 ad b1 fb bc 8c 4b 05 3d 4a 08 61 3c 44 92 87 bb
       -0.03072437 0.03254275 0.013734886 -0.0041373093
0000c0 1b 7f 02 bd 47 bd 3c bc 4b 53 4b 3a f3 4e fd 3b
       -0.0318595 -0.011519737 0.0007756247 0.0077303587
0000d0 9b 60 ec 3b 97 5d c1 3c fe d2 4a 3c 63 85 11 3d
       0.0072136647 0.023604197 0.012379406 0.035527598
0000e0 e9 a0 b2 bc 1b 73 96 bc 80 0c ce bb f5 b7 74 bc
       -0.021805244 -0.018365433 -0.006288111 -0.014936437
0000f0 b7 19 b0 bc 60 c4 5e bc d7 ff 03 bc 34 fd b3 3c
       -0.021496637 -0.013596624 -0.008056602 0.021971323
000100 43 f0 0c 3c be e0 2b ba 97 55 c5 3a d3 5d ec 3b
       0.008602205 -0.00065566215 0.0015055415 0.007213333
000110 6b 42 26 bc 9b d2 10 bb 24 0f 9b bc c3 05 02 3c
       -0.010147671 -0.0022098187 -0.018928118 0.007935944
000120 1b 2a 07 bc e7 e9 4a 3b 97 8d 6e 3c 8a 29 11 bc
       -0.008249785 0.003096217 0.014560125 -0.008860001
000130 39 64 c2 35 1f 44 48 bc c5 db f6 39 57 81 18 3d
       1.4483295e-06 -0.012223273 0.00047084517 0.037232723
000140 23 51 13 bc 6b 02 ee bb cd 63 d4 3b cf 22 97 ba
       -0.0089915125 -0.007263472 0.0064816237 -0.001153076
000150 25 96 59 3c e2 57 d9 3c 95 74 bf 3b f5 6b b0 bc
       0.013280426 0.026531164 0.005842755 -0.021535853
000160 a7 3f 38 3c 13 22 bc bc 55 6f e5 3b 5d 06 e8 3c
       0.011245645 -0.022965467 0.007001797 0.028323347
000170 4e 4a 31 39 78 9d de 3c 66 32 32 3c ef d9 14 bd
       0.00016907716 0.027174696 0.010876274 -0.03634065
000180 65 89 f8 ba d8 bd 9f 3b 64 67 96 3b e5 36 08 3c
       -0.0018961845 0.004874926 0.004589962 0.008313869
000190 f0 a3 82 3b 6b 94 00 3c 43 56 2c 3c 83 ac 41 3c
       0.003986828 0.007847886 0.010518613 0.011820915
0001a0 18 73 d4 bb ce 99 30 bc e9 6a 0d 3d e3 b7 af bc
       -0.006483447 -0.010778857 0.034525786 -0.021449989
0001b0 10 fc 87 3b 30 56 fb 3b 32 20 02 3c cd 63 15 bd
       0.0041499212 0.0076701865 0.007942246 -0.03647213
0001c0 95 4d f3 bc e0 1e 75 bc 52 9f f9 bc d8 2d ad bc
       -0.02970008 -0.014960974 -0.030471478 -0.021140024
0001d0 35 ff df ba 61 1f 28 bb 37 4f 98 3b 0c 8c 33 bc
       -0.0017089607 -0.002565347 0.004648115 -0.010958683
0001e0 01 39 22 3c 84 0d 1a 3c 46 22 96 bc 47 6c 63 ba
       0.009901286 0.009402636 -0.01832689 -0.00086754974
0001f0 13 d0 a3 3c 87 74 d8 3b 43 18 92 3a 23 75 06 bc
       0.019996678 0.006605688 0.0011146147 -0.0082066385
000200 0f b2 05 bd 1d 85 52 bc cb a6 66 3b 6d 06 40 3c
       -0.032640513 -0.0128491195 0.0035194631 0.011720282
000210 68 a2 f3 3c ff 69 84 bc bf 13 c3 bc 60 ce d0 bc
       0.029740527 -0.016163824 -0.023813127 -0.025489032
000220 d3 f7 b5 39 19 d0 bf 3c 6b bf 1d bc 2a e6 d4 3c
       0.00034707654 0.023414658 -0.009628157 0.025988657
000230 33 4b 66 3c 3b af e5 3c f7 1d 03 bc 77 b1 f1 bb
       0.014056015 0.028037658 -0.00800275 -0.007375892
000240 df 58 36 bb ab 4f 05 bd 1d 16 fa bb 68 ee ae 3c
       -0.0027823967 -0.03254668 -0.0076320306 0.021353915
000250 72 aa 04 3d bc 3d 94 bc a3 56 64 3c e2 6b 63 3b
       0.03238911 -0.018095843 0.013936671 0.0034701754
000260 6c 54 82 bc da f7 e2 bc 3e fa 3a bc 8e b8 2d bd
       -0.015909396 -0.027706075 -0.011412201 -0.042412333
000270 a9 b9 bf 3c 2b 90 8e 3c 7e 3b 27 ba e3 69 73 3c
       0.02340396 0.017402729 -0.00063794095 0.014856788
000280 8d 68 d1 3c a9 c4 89 bc df 0e c4 bb 97 39 b2 bb
       0.025562549 -0.016817408 -0.005983218 -0.005438994
000290 2b 76 b5 bb d9 d6 1a 3c 7e af a0 37 1a 99 1b 3c
       -0.0055377684 0.009450638 1.9155206e-05 0.0094969515
0002a0 27 5b bc bc 87 6a 88 3c 84 b7 19 bd a5 47 51 bc
       -0.022992684 0.016652359 -0.03752853 -0.012773429
0002b0 39 79 41 bb a7 cb ee bc f3 ea 19 bd 28 fd 79 3c
       -0.0029521717 -0.029149843 -0.03757758 0.015258111
0002c0 e9 9f 05 3c f9 46 2d 3c 82 86 5b 3c ad 04 1b 3c
       0.008155801 0.010576003 0.013398768 0.009461564
0002d0 93 ff be bb 1b 56 22 3b e3 20 85 3c 62 87 b2 3b
       -0.0058288067 0.002477056 0.016251033 0.005448268
0002e0 4c 87 87 3c 5d 0b 88 bb 87 56 b5 3b b9 f1 9c 3b
       0.016544007 -0.0041517452 0.0055339965 0.004789558
0002f0 9f e3 eb 3a 56 4f 44 3c 39 b0 c7 bb 43 b6 c2 bb
       0.0017996914 0.011981806 -0.0060940054 -0.0059421374
000300 4e 82 1a bc d3 6f 8c 3c f3 00 c3 bc 73 fd c1 bc
       -0.009430481 0.017143166 -0.023804164 -0.023680424
000310 7f 44 8e 3c 37 72 58 3c d5 bf c1 3c 5d fc a0 3c
       0.017366646 0.013210825 0.023651043 0.019651586
000320 3b 41 ae 3c 0d 48 d0 ba 0f b7 05 bd 37 a0 bc bb
       0.021271339 -0.0015890613 -0.03264528 -0.005756404
000330 b0 4c d9 3b 3c d6 83 3c 22 01 5a 3c 15 3d 00 3d
       0.0066314563 0.016093366 0.013305934 0.031308252
000340 c7 74 80 3b 03 4e 4b bb 87 55 6c bc 10 24 77 3a
       0.003920171 -0.003102184 -0.014424688 0.0009427676
000350 86 33 c8 3a 06 f1 0b 3c 14 84 07 bd c1 52 91 3c
       0.0015274144 0.008541351 -0.033084944 0.017739655
000360 2d 4c 77 bb cc 6e 48 bc 10 d7 e7 bb f7 75 f8 bb
       -0.0037734613 -0.012233447 -0.007075198 -0.007582422
000370 0b 89 1b bc e7 0e e1 3a bc 46 34 bd e6 e8 b2 bb
       -0.009493123 0.0017170579 -0.04401277 -0.0054598926
000380 8f ea 98 bc 27 ec b8 bb 87 73 99 3c 60 63 fe 38
       -0.018666534 -0.005643386 0.018731846 0.00012130174
000390 6f c5 8b bb b2 f1 2f 3c 39 d4 2f bc 34 bf 0c bc
       -0.0042654793 0.010738777 -0.01073175 -0.008590508
0003a0 c8 f3 52 3a 75 2a ef 3b 23 50 23 bc 1d 32 b8 3c
       0.00080471905 0.0072987624 -0.009967837 0.022484833
0003b0 47 82 5d 3c 09 e6 27 3c e0 89 da bb cd 4a 58 bc
       0.01351983 0.010247716 -0.006669268 -0.013201428
0003c0 4b d2 dd bb 11 fc 99 3c 0b 96 3b bc a9 90 3f 3c
       -0.0067694536 0.018796952 -0.011449347 0.0116922045
0003d0 ad a3 5a 3a 83 83 2a bc 1f 13 c4 b9 ff c6 64 3c
       0.00083404296 -0.010407331 -0.0003739828 0.01396346
0003e0 22 30 1c 3c 6d c7 4e 3c 92 45 81 bb 1b 63 99 3c
       0.00953296 0.012620789 -0.003945061 0.018724015
0003f0 3f 17 70 bb d9 d2 ae 3b d6 65 a1 3b bb 19 91 bc
       -0.003663495 0.0053351936 0.00492547 -0.017712465

action_model._continuous_distribution.mu.bias f4 [2]
000000 00 00 00 00 00 00 00 00
       0.0 0.0
