python/results/minion_walk_003/Minion/Minion-40967.pt (torch, 464859 bytes, 36 tensors)

network_body._body_endoder.seq_layers.0.weight f4 [128, 15]
000000 c6 6c 12 3e 5f 7c 9d be 5c 8f 4e be b0 a3 a3 be
       0.14299306 -0.3075895 -0.20171875 -0.3196082
000010 8d 76 46 be b1 b5 14 3e c0 df 65 3e 1b 3a 04 3e
       -0.19381161 0.14522435 0.22448635 0.1291279
000020 e4 c7 5e 3f 20 f1 d4 bc dc 08 08 be 72 3e 8a 3e
       0.8702376 -0.025993884 -0.1328463 0.27000767
000030 ef 84 fc bd 72 e0 85 3e d0 56 d1 be e0 4e db 3c
       -0.123300426 0.261478 -0.40886545 0.026771009
000040 79 06 96 be 07 b7 8b 3e f6 b5 c1 bc 2f 15 a5 3e
       -0.29301813 0.27288076 -0.023646336 0.32242724
000050 14 cb e6 be 5c a3 b0 3e 9c 4c 98 bd 9a 14 09 3f
       -0.4507681 0.34499633 -0.07436487 0.5354706
000060 0e ee ee 3e e4 72 ea be c5 96 2f 3e cf 0a ea 3d
       0.46665996 -0.4579078 0.17147358 0.11427843
000070 8b e8 0e 3e 6c 3b 05 bd 6d 0b 67 3e 82 33 51 be
       0.13955896 -0.032527372 0.22562952 -0.20429805
000080 25 16 58 3e f9 91 ff be c9 4f 8e be e0 fe 83 be
       0.21102197 -0.49916056 -0.27795246 -0.25780392
000090 86 d0 ec bd 63 26 6f 3e 22 5d 26 3e 5d d7 00 bf
       -0.1156321 0.23354487 0.16246465 -0.5032862
0000a0 8a 20 c8 3d f7 ae bf bd bd e5 1c bd 4a 9a a2 be
       0.09771831 -0.09359544 -0.038305033 -0.31758338
0000b0 9d 61 1f 3d 57 66 ae be 42 be a3 be ac 49 71 be
       0.03891145 -0.34062454 -0.31981093 -0.2356326
0000c0 8f 3d 26 bf 92 6c 3e bd 21 17 e3 bd 2b c1 9d 3d
       -0.6493768 -0.04649026 -0.11088396 0.077028595
0000d0 a3 44 22 be 72 ac 79 be f6 25 ab 3e 11 9a 58 3d
       -0.15846495 -0.24382189 0.334274 0.052881304
0000e0 30 93 eb bd 14 d6 ad 3d 3d 53 2b 3f b5 73 1a be
       -0.11502683 0.08488098 0.66923887 -0.15083201
0000f0 e7 d4 a3 bd e1 07 9b bd ad e9 db be bb af 1d bf
       -0.07999592 -0.07569862 -0.42951718 -0.6159627
000100 ba 9d f5 3e 58 02 94 bd a2 1d 16 be 79 73 6f bc
       0.47971898 -0.072270095 -0.14659742 -0.014614933
000110 ff 52 e2 be 61 de 88 be ff f8 82 bd 52 06 ec 3c
       -0.44203946 -0.26732162 -0.063951485 0.028811608
000120 62 66 5c 3e 35 c3 f8 bd 82 fc a0 3d 6e e1 3d 3e
       0.21523431 -0.12146608 0.07860662 0.18543026
000130 f2 38 af be 8b 09 80 be fe 5c f0 3e 3d 0f 20 3e
       -0.34223133 -0.2500728 0.46945947 0.15630813
000140 1e f7 e3 bc 2d 22 29 3f 4c 31 98 3e aa 4e 44 be
       -0.027827796 0.66067773 0.2972511 -0.19170633
000150 ac dc 03 be c9 17 d2 3d 27 1c b9 3e 63 c3 17 bd
       -0.12877148 0.10258443 0.3615429 -0.03705157
000160 2b 9c 3d 3e 86 f6 aa be 8f a3 0c 3f d7 03 a8 3e
       0.18516605 -0.33391207 0.5493707 0.3281543
000170 50 b2 09 3f a9 a3 b0 be b6 c8 a3 3e e6 5e fd 3d
       0.5378771 -0.34499863 0.31989068 0.12371616
000180 d5 a9 b0 3d 11 b8 15 3f ba bf 1c 3c 83 28 e1 be
       0.08626143 0.5848399 0.009567196 -0.4397622
000190 45 be d6 3d 40 fa 53 3d aa 8f 25 3f b2 94 f9 3d
       0.1048551 0.05175233 0.6467234 0.121865645
0001a0 3b 7a 50 3e 28 41 17 3d 66 58 67 3e 38 32 89 be
       0.20359127 0.036927372 0.22592315 -0.26796126
0001b0 b1 3c ce 3d 96 07 2b 3e f2 9d e0 3e 0b 61 42 be
       0.1007017 0.16702113 0.43870503 -0.18982331
0001c0 94 8b ef 3e 51 2c da be 2e 74 43 3e 0e 40 10 3f
       0.46786177 -0.42611936 0.19087288 0.5634774
0001d0 7b b0 21 bd 31 2a 6a 3e 52 9d 1c bf c6 59 08 3e
       -0.039474946 0.22867657 -0.6117755 0.13315496
0001e0 4f 77 e3 3e 8a 82 ae 3e f4 c0 0e bd d7 46 82 bc
       0.44426963 0.34083968 -0.034851983 -0.01590292
0001f0 81 18 6b be 2f e5 66 3e c7 eb e9 be 99 e3 0f bf
       -0.22958566 0.22548364 -0.45687696 -0.5620666
000200 50 ed 16 bf b6 43 c7 3d cd 3e 32 be 00 37 60 be
       -0.5895586 0.09729712 -0.17406769 -0.21895981
000210 96 f6 a5 3e da 8d f0 bd 70 34 10 3e b5 10 b5 3b
       0.32414693 -0.11745806 0.14082503 0.0055256733
000220 0b 46 4d 3e 8c 13 82 bc b7 08 25 bf 5e 8b 1a 3d
       0.2004625 -0.015878461 -0.6446642 0.037730567
000230 df 79 b4 be da 46 86 3d 4b 28 57 be 43 b6 8e 3d
       -0.3524923 0.065564826 -0.21011464 0.069683574
000240 6e 0a 0c be 2e af 25 be eb fa 79 3d 6f b5 9c 3e
       -0.13675854 -0.16180107 0.06103031 0.30607173
000250 45 2c 16 be 1e 6e 33 bc d0 29 13 be 0b 3e a4 3e
       -0.14665325 -0.010951547 -0.14371419 0.32078585
000260 23 a0 58 bd ab 0a 1c 3e 14 0f f7 bd 30 20 98 be
       -0.052887093 0.15238445 -0.12063423 -0.29712057
000270 3d 8d ac 3e ad ec 34 3d 8f 20 97 3e 9c 64 cf 3e
       0.33701506 0.044171024 0.29517028 0.40506446
000280 99 ea 43 be 72 63 90 3e 49 66 f9 3c e2 e0 da 3e
       -0.1913246 0.2820087 0.030444281 0.42749697
000290 b2 42 f1 be 46 f3 f6 3d 77 47 f6 be 26 2b 92 be
       -0.47121197 0.120581195 -0.48101398 -0.28548545
0002a0 49 bc 2e 3f e5 b1 2c 3e 4b d7 b9 bb 45 bf 24 3e
       0.6825605 0.16864736 -0.005671417 0.16088589
0002b0 2b bd 78 be 5d 40 28 bd 7a 06 67 be cf 01 4b 3e
       -0.24290912 -0.041077007 -0.22561064 0.19824909
0002c0 18 67 17 bb 2a 5a 58 be 14 c8 08 3d 6f a3 28 bc
       -0.002310222 -0.21128145 0.033393934 -0.010292872
0002d0 ce e2 2e be 67 93 02 be 49 4f a6 3e 62 85 2c 3e
       -0.17078707 -0.12751542 0.32482365 0.16847757
0002e0 4e 3a 07 be bc a4 01 be 12 57 07 bf 23 f4 94 3d
       -0.13205835 -0.12660497 -0.52867234 0.07273128
0002f0 98 5a 73 be 4a 09 a1 be e2 00 ed 3e e4 ed bc be
       -0.23765028 -0.314524 0.46289736 -0.36900246
000300 6a 4d 09 3e 20 fe 14 be 6c 13 e7 bd 6f 84 ab bd
       0.13408437 -0.14550066 -0.11283001 -0.08374869
000310 01 d4 bd be c9 23 9e 3d 18 cb dc bd fe a1 2e bc
       -0.3707581 0.07721669 -0.107809246 -0.010658739
000320 ac 33 2d be 9d 2c 90 3e 51 5d 67 3e c9 f8 84 be
       -0.16914243 0.28159037 0.22594191 -0.25971058
000330 5f 68 13 3c bc 6c b8 3d e7 53 27 3e ed f1 40 be
       0.008997052 0.090051144 0.163406 -0.18842287
000340 df 84 ca bc 03 e7 b2 be 9c 01 48 bd f8 a6 2e bd
       -0.024721561 -0.34941873 -0.04882966 -0.042639703
000350 98 8e 4e be 29 85 16 be e3 0e b7 bd 14 3b 00 3d
       -0.20171583 -0.14699234 -0.08938386 0.03130634
000360 aa 1d 98 3e 94 6e 73 be 74 75 ae bd e1 53 fe bc
       0.29710132 -0.23772651 -0.08518496 -0.031045856
000370 0c 30 9f 3d 39 39 26 be 30 0c 87 be d7 25 bc 3d
       0.07772836 -0.16232766 -0.26376486 0.09186905
000380 84 56 9e 3a 2a 6a c8 be cb 79 ec bd 72 c4 a4 3e
       0.0012080227 -0.39143497 -0.11546668 0.32181126
000390 26 7f c3 be fc d4 17 bd e3 b0 78 bc 0d 86 59 be
       -0.38182944 -0.037068352 -0.015178892 -0.21242543
0003a0 c6 a5 d1 be ae 32 f4 be b5 35 7c be 64 b5 0b bf
       -0.40946788 -0.47694916 -0.24629863 -0.54573655
0003b0 e8 97 91 bd 0c 8b 14 be 13 c7 50 3e a5 31 97 be
       -0.07109052 -0.14506167 0.20388441 -0.29530063
0003c0 d8 f4 95 3e 15 7d 87 bd 55 84 ae 3e 3f fb cd be
       0.29288363 -0.066156544 0.34085336 -0.40230748
0003d0 b5 64 7d be 56 5c 86 3e 7f 47 2a be c9 eb 88 bd
       -0.24745448 0.26242322 -0.16628836 -0.066855974
0003e0 e7 8d ab be 0c fc 2f bd 34 a2 bc 3e 68 db 37 bd
       -0.335067 -0.04296498 0.368425 -0.044886976
0003f0 d0 08 28 3d b9 fc 47 3e 48 6e d2 3e 7f df 82 be
       0.04102403 0.1953 0.41099763 -0.2556114

network_body._body_endoder.seq_layers.0.bias f4 [128]
000000 56 8b 56 3d 8e 42 a4 3d ef 8a 52 bd 3a 35 43 bd
       0.052378975 0.08020507 -0.05140203 -0.047658183
000010 41 81 2f bd 53 81 0a 3d 0e f4 3f 3d 38 97 e9 3c
       -0.042847876 0.03381474 0.046863608 0.02851449
000020 25 10 49 bb 98 80 2b bc 16 b1 b0 3d c5 7d 3f bd
       -0.003067979 -0.010467671 0.086275265 -0.046750803
000030 c8 a7 bc bc 6f ec 13 3c 17 b5 17 bd 56 7b 5a bb
       -0.023029223 0.009028538 -0.037037935 -0.0033337674
000040 63 80 06 bd 0a d2 db 3a 8f f3 eb 3c 17 b1 23 bc
       -0.032837283 0.001677097 0.028802661 -0.009990952
000050 09 fb 57 3d 06 d6 98 3d 52 05 21 3d 8b 2d 87 3d
       0.05272964 0.07462697 0.039311714 0.066004835
000060 14 e2 d3 3c 84 e1 de 3b 97 20 55 3d b3 d2 62 3d
       0.025864638 0.006801786 0.052033033 0.05537672
000070 22 de 01 3c 6e 64 4f 3d 3e 16 42 3d f8 39 2c bb
       0.007926496 0.050632887 0.047384493 -0.002627967
000080 61 aa 49 ba 4f a5 5b 3d 23 0b b7 3d 79 cc 8e bc
       -0.000769293 0.053624447 0.08937671 -0.017431485
000090 73 a9 18 3b 76 09 9d 3d 66 d3 89 bc a6 36 a6 bc
       0.002329436 0.0766782 -0.016824435 -0.02028973
0000a0 1c 64 05 bc 2e 36 7f ba bf 8c 9c bc 5e f1 84 3c
       -0.008141544 -0.00097355514 -0.019110082 0.016228374
0000b0 f1 22 43 bd 4c 87 ae bc cf 54 d5 3c 8f b9 ca bb
       -0.047640745 -0.021304749 0.026041416 -0.006186671
0000c0 10 6d 09 3c e7 5e 29 3d 4b 5c 9f bd 88 de 71 ba
       0.008387819 0.04135027 -0.07781275 -0.000922658
0000d0 a3 14 3d bd e2 18 7c bc 52 d4 fb bc 2d 1b 18 bd
       -0.04616226 -0.015386792 -0.03074089 -0.03713529
0000e0 29 46 10 bd e9 04 1f bc 9d 12 52 3d ea 0f 5f 3d
       -0.03522316 -0.0097057605 0.051287282 0.054458536
0000f0 42 b6 b4 3c 96 2a ad 3c 40 a9 b6 3d 74 b9 94 3d
       0.022059564 0.02113847 0.089190006 0.07261935
000100 45 bb 2f 3d 36 32 51 3c 02 3e 91 3c 91 74 21 bc
       0.042903204 0.012768319 0.017729763 -0.009854452
000110 7e 07 8c bc 7c 3d 89 3d dd 6e df 39 9c 80 96 3d
       -0.017093416 0.0670118 0.00042616474 0.07348749
000120 2b 08 8e bc 41 2f 07 bc 77 64 49 bd c4 4c 1c 3c
       -0.01733788 -0.008251012 -0.049168076 0.009539787
000130 8a 56 33 bd 64 52 91 bd 81 fb 2c 3d 20 2b e9 3c
       -0.043783702 -0.07095793 0.04223204 0.028462946
000140 5b 7e ea ba fa da ba 3d de c5 5d bc 51 14 26 bc
       -0.001789044 0.09123798 -0.013535945 -0.01013668
000150 7b b1 cf bc ee e5 28 bd 3c 9f 9d 3d 34 9f 91 3c
       -0.025353184 -0.041234903 0.07696387 0.01777611
000160 c6 73 31 3d d6 17 33 bb 8b 89 ec 3c 77 1d b9 3c
       0.0433233 -0.002732744 0.02887418 0.022597058
000170 c8 03 8a 3b 8b 78 4e 3d df b5 0a 3d 54 2c 99 3c
       0.0042118765 0.050407927 0.033864852 0.018697895
000180 9a 7a c6 3b 2b 31 19 bd b0 1f 91 bd 03 7b 8f bd
       0.0060570957 -0.037400406 -0.07086122 -0.070058845
000190 e7 ee b9 3d 4f 74 e5 3c ff b7 55 3d 13 43 b0 bb
       0.0907877 0.028009562 0.052177425 -0.0053790896
0001a0 58 ec 84 bd bc 12 1b 3c 43 36 e6 3c da 32 83 3d
       -0.064903915 0.009464916 0.028102046 0.064061835
0001b0 04 d6 0d bd 2f 35 58 bd 2f 72 86 3d 46 58 86 3c
       -0.03462793 -0.052785095 0.065647475 0.016399514
0001c0 da 15 26 ba b5 84 9c 3a df e1 98 3c 95 76 e8 bc
       -0.00063356536 0.0011941405 0.018662391 -0.028376857
0001d0 a4 19 25 3d 7e 54 9e 3d 34 f9 35 3d 0f 03 6d 3d
       0.040307656 0.07730959 0.04442711 0.057864245
0001e0 1a b6 7a 3d cc 56 97 3d 2d 07 80 3d af b7 95 3d
       0.06120882 0.07389602 0.06251369 0.073104255
0001f0 93 2b 88 3c dd ba 14 bd a5 b5 83 3d c7 10 d7 bc
       0.01662234 -0.03631102 0.0643113 -0.026253117

network_body._body_endoder.seq_layers.2.weight f4 [128, 128]
000000 73 2d 4f 3d 7d 1b 5c 3e fd 20 19 be 2a 42 01 3e
       0.050580453 0.21494861 -0.1495399 0.12622896
000010 15 59 34 be 5d 31 75 bb 7d 24 6a bd 12 e5 1b be
       -0.17612107 -0.0037413456 -0.057163704 -0.15224102
000020 55 b7 6e 3d 30 85 fd 3b a7 9f 65 bd b8 b4 22 ba
       0.058280308 0.0077368245 -0.05606046 -0.0006206739
000030 5d 9e 1c be 49 1b 85 3d 04 f2 2d bd 8a 0b c9 3d
       -0.15294786 0.06499345 -0.042467132 0.09816654
000040 d5 50 42 be 31 52 af bd 25 b0 48 be 78 95 1b 3d
       -0.18976147 -0.08560599 -0.19598444 0.03798434
000050 04 81 a1 bb a2 1d 0f 3d 0c 29 cc 3d 1d 27 8f 3d
       -0.00492871 0.03494037 0.099687666 0.06989882
000060 f1 c4 a9 3d 65 b3 f2 bd ab 5d aa bd c5 d0 6a 3e
       0.08289517 -0.11850623 -0.08318647 0.22931202
000070 42 0e 81 3d e7 3a 94 3d b5 84 00 be 20 28 41 3c
       0.063015476 0.07237797 -0.12550624 0.011789352
000080 92 79 59 3e 86 6c 15 bc 12 45 70 3e 36 6c 7d bd
       0.21237782 -0.009120112 0.23463848 -0.061870776
000090 f7 92 d6 3d c1 6a f1 3d 49 30 6d bd fa 28 c0 3d
       0.1047725 0.1178794 -0.057907376 0.09382816
0000a0 68 82 c4 bd 47 97 8d bd f7 e4 bf bd 84 21 8f 3e
       -0.095951855 -0.069136195 -0.093698435 0.27955258
0000b0 11 71 cc bd 75 93 32 3e 4d 4e 8e 3c 5d 98 c7 bd
       -0.09982503 0.17439063 0.017371321 -0.09745858
0000c0 26 46 1a bd 0f 01 07 be e2 a0 38 be 85 31 98 3c
       -0.037664555 -0.13183998 -0.18030122 0.0185783
0000d0 ea ce 30 be 38 68 5e 3c 5e c4 1f 3c 08 b4 09 be
       -0.17266431 0.013574652 0.009751407 -0.13447583
0000e0 cd e2 6b bd e0 da 1a 3d 90 df ff bc 34 b7 5b 3e
       -0.05758934 0.03780639 -0.031234533 0.21456605
0000f0 96 da 3e 3b e9 33 aa bd fe ce 0b 3b 22 a5 6d bd
       0.0029121987 -0.08310682 0.0021333094 -0.05801881
000100 0b 91 dd 3d c3 07 e8 3c ed 56 e0 bd 14 fe 5e be
       0.108186804 0.028324014 -0.1095408 -0.2177661
000110 64 d1 33 3d 1e f0 8d 3e 33 c2 ea bd 46 40 07 3b
       0.043900862 0.27722257 -0.11462822 0.0020637675
000120 59 02 02 be 84 62 3e 3d 15 fb 2e bd 5d ea 0f bd
       -0.12696208 0.04648067 -0.04271992 -0.035135616
000130 83 43 8c 3d 46 9e e3 3b bc 28 ec bc 1b 64 0d bd
       0.06848814 0.006946358 -0.028828017 -0.034519296
000140 94 fa 5f 3e 73 84 27 bd 51 d1 42 be c1 1f 5c bb
       0.21872932 -0.040897798 -0.1902516 -0.0033588263
000150 71 96 31 3c f5 17 04 be 90 28 ac 3d 16 db 96 3d
       0.010839091 -0.12899764 0.08406174 0.07366006
000160 65 75 26 3e e3 dc 8e bd 2b 11 cc bc d7 32 c5 bd
       0.1625572 -0.069757245 -0.02491053 -0.096288376
000170 34 13 e7 3c c6 e5 da 3d 00 ed b1 bd 3a 34 bd 3d
       0.028207399 0.10688357 -0.08687782 0.09238477
000180 b5 82 87 bd 11 82 36 bd 0c df dc bd 5f ea b7 bd
       -0.06616727 -0.044557635 -0.1078473 -0.089802496
000190 e1 94 fd 3d 19 04 6a bd 9a aa 94 3d 24 e0 59 be
       0.12381912 -0.057132814 0.07259102 -0.21276909
0001a0 85 58 f7 bd 8f ff 80 3c f8 80 0e 3e fd 4c f7 bd
       -0.12077431 0.01574686 0.13916385 -0.12075231
0001b0 d5 6b 52 3c 41 d0 d6 bd 23 eb 28 3d 58 f8 20 bd
       0.012843092 -0.1048894 0.04123987 -0.03929934
0001c0 9f 40 8f 3b 1a dc bf bd ef c8 ec bd c2 2c 1d 3e
       0.004371717 -0.09368153 -0.115617625 0.15349105
0001d0 6a 47 de bd 19 40 a5 bb 0c 4e 5a be 92 e3 f5 bd
       -0.10853465 -0.0050430414 -0.21318835 -0.12006296
0001e0 83 79 75 3e b1 bd 9a 3d 09 f8 93 3d 99 c3 54 3c
       0.23972134 0.07555712 0.07225043 0.012986087
0001f0 fa 44 26 3e c4 5a f3 bd 20 e3 66 3c e8 b7 ed bc
       0.1623725 -0.118825465 0.014092237 -0.029018357
000200 15 7a f3 3d de 27 c0 3d 22 08 16 be 81 73 78 bb
       0.1188852 0.09382604 -0.1465154 -0.0037910643
000210 26 a5 69 3e 1a 21 2d 3e e4 3a 9c bc 4d 00 27 3b
       0.22816905 0.16907158 -0.01907105 0.0025482357
000220 c5 35 31 bd ea 60 01 bd e1 d0 35 be 5f 36 f9 bd
       -0.04326417 -0.031586565 -0.17755462 -0.121685736
000230 cd 73 3a 3e b7 8b 9a bd 74 1d 8c 3d 37 c9 43 3e
       0.18208237 -0.0754618 0.06841555 0.19119726
000240 10 b5 e5 ba 03 64 a1 bd c0 2a d6 3b a7 64 17 be
       -0.0017525274 -0.07880404 0.006535858 -0.1478449
000250 77 a1 8f 3d 55 2d bc 3d e2 2a a2 bd 86 43 96 bd
       0.07013219 0.09188334 -0.079183355 -0.07337098
000260 0b ca ce 3d 53 55 9f 3d 3a 8c 11 bd c2 4b 71 bd
       0.100971304 0.07779946 -0.03553412 -0.05891014
000270 0d a5 11 bd de 4d ee 3d c6 82 9c 3b 6c ce 74 3d
       -0.035557795 0.11635946 0.0047763316 0.05976717
000280 17 36 51 bc 96 ce 0e be 78 ca 28 bd c2 40 79 bd
       -0.012769244 -0.13945994 -0.041208714 -0.060852773
000290 fd 0a 58 bd e2 dc 95 bd c4 c8 05 3e 1c bb 41 3d
       -0.052744854 -0.07317521 0.13064867 0.047297582
0002a0 46 a6 10 3e 96 6c 59 be fb 09 31 3e df 45 e5 3a
       0.14125928 -0.21232828 0.17288963 0.0017492137
0002b0 7a d0 da 3d 94 21 ae bd 7d 8d f5 3d 87 72 3e be
       0.10684295 -0.08502498 0.119898774 -0.18598376
0002c0 4a 68 fb bd dd 32 8d 3d d7 3f e5 3d f7 cb 9c 3d
       -0.12275751 0.06894467 0.11193817 0.07656091
0002d0 3f 5b e9 bc 13 d3 ca 3d dc ac 0a bd bf 20 8a bd
       -0.028485892 0.099035405 -0.033856258 -0.06744527
0002e0 c5 c8 b7 3c b4 cc 3e ba 3e bc 93 3b fe 32 1d 3e
       0.022434602 -0.0007278428 0.004508524 0.15351483
0002f0 de 33 f2 3d a4 1c 0d be 47 39 51 bd 21 97 d7 bc
       0.11826299 -0.13780457 -0.051080015 -0.026317181
000300 49 24 a1 3d 16 25 23 be a2 0e 4c 3d 73 2e fe bd
       0.07868249 -0.15932116 0.049818642 -0.12411203
000310 9e dc 6d be 90 42 8a 3d 41 dd 18 3a f9 fb 80 bd
       -0.2322869 0.06750977 0.0005831309 -0.0629806
000320 82 ab a3 3d 50 fa 6e 3b f4 2e b1 3d 12 82 15 3d
       0.07991697 0.0036465116 0.08651534 0.036500998
000330 15 4e b3 39 73 8c 86 3d 3b 70 8d 3d bb e7 dd 3d
       0.00034199716 0.06569757 0.06906172 0.10835215
000340 7c 7d c0 3d e2 37 2b be 7a e0 1d 3d 3b e7 d2 3d
       0.09398934 -0.16720536 0.038544156 0.1029801
000350 8a 6a 99 3d 36 48 8a bd f9 da 2a 3b dd 8d 45 bd
       0.07491024 -0.067520544 0.002607046 -0.048230994
000360 f0 5a 8a bd 44 74 46 bd 27 eb 0f be 00 fc c5 bc
       -0.06755626 -0.048450723 -0.14054547 -0.024168015
000370 c3 5e ac 3b 6f 1e 80 3d d5 a6 63 bb db f6 5d bc
       0.00526032 0.06255805 -0.003473689 -0.013547624
000380 d7 9c 07 bd 53 65 0c bd 09 4f 0b 3d 5e 82 21 bd
       -0.03310856 -0.034276318 0.03401092 -0.03943097
000390 f2 36 0c be 45 ca 57 be 8f 39 07 bd 3a 48 09 3d
       -0.13692835 -0.21073253 -0.033013877 0.033516146
0003a0 4f 93 73 3d 48 cf e8 3d b0 e5 db bd 03 9e d9 3d
       0.059466656 0.11367661 -0.10737169 0.106258415
0003b0 4b 05 a3 3d 5e 4b a4 3d 81 76 1c bc e9 41 ea bd
       0.07959994 0.08022188 -0.009549738 -0.114383526
0003c0 2c 00 43 3e 09 38 c8 3d c0 51 c1 bc 6d 08 a5 3d
       0.19043034 0.09776313 -0.023598552 0.08058248
0003d0 32 6c 80 3d 88 d8 84 3d 17 d1 7d bd e5 20 59 3e
       0.062706366 0.064866126 -0.06196698 0.21203955
0003e0 1c 12 60 bd 84 85 16 3e 7a b1 c4 bd 9e 6f 97 3c
       -0.05470477 0.1469937 -0.096041635 0.01848584
0003f0 5d 56 fa bd d1 e9 99 3b 11 90 83 3d 9d ba c6 3d
       -0.12223504 0.0046970625 0.06423963 0.097035624

network_body._body_endoder.seq_layers.2.bias f4 [128]
000000 df e9 a8 3d 4b c3 da bb c9 47 11 3d 80 8f 16 bc
       0.08247732 -0.006676113 0.03546885 -0.0091894865
000010 4b 80 3d 3d 8b 40 40 bd 57 38 8d 3c 7c 72 9f 3b
       0.046264928 -0.046936553 0.017238779 0.0048659425
000020 f0 b3 07 3d 3a 4e 90 3c e8 59 91 3d b1 52 d4 3c
       0.033130586 0.017615426 0.070972264 0.025918337
000030 fd a1 a4 bc 4b 23 bd 3a 43 fc 71 3d 39 ee f3 3c
       -0.020096773 0.0014430074 0.059078466 0.02977668
000040 70 0f d2 3d a6 ed f3 bc b3 ce 24 3a 94 77 1e 3d
       0.10256851 -0.029776406 0.0006286904 0.038688257
000050 da 53 26 bd b5 c2 7b bc 5a 20 2b bb 29 1d 37 3d
       -0.04060731 -0.015366246 -0.0026111812 0.044705544
000060 df 23 d0 3c d4 e1 24 3d 82 d8 ce 3b f6 c1 84 3c
       0.02540773 0.04025443 0.006312431 0.016205769
000070 79 9e 98 3d 1d d3 5d 3d 3d 71 5a 3d de b0 fa bb
       0.07452101 0.05415641 0.05333065 -0.0076504787
000080 2b cf df bb 41 87 99 bc 35 70 14 3d 8a 58 69 3d
       -0.0068301163 -0.018741252 0.03623982 0.056969203
000090 40 d2 d7 3c 31 da 96 3d c3 57 6b 3d c8 b5 c1 3c
       0.026345372 0.073658355 0.057456743 0.02364625
0000a0 fb 3f 76 3d fc a5 a9 3b 52 7e a0 3c 44 bd c3 3b
       0.06011961 0.0051772576 0.019591484 0.00597349
0000b0 6d 92 4b 3d c1 c4 49 3d aa e8 2b 3d 55 7a 73 3d
       0.04970019 0.049259905 0.041969933 0.059442837
0000c0 9c c5 68 3d 2d 4c 9a 3c ed 48 5c bd 99 27 22 3d
       0.05682908 0.018835152 -0.053780485 0.039588545
0000d0 1e e4 94 3d 51 1c d6 3c 72 0f 57 3d 7f 13 92 3d
       0.072700724 0.02613655 0.052504964 0.07132625
0000e0 6f 45 2b bd ee 3f 37 3c f9 03 e8 bc 1d f7 f9 3b
       -0.041814264 0.011184676 -0.028322207 0.007628335
0000f0 ee 41 97 3c 0c 09 62 3d a0 ba 53 36 39 f2 57 3c
       0.018464055 0.05518441 3.155008e-06 0.013180309
000100 aa e5 87 bb 01 5c 09 bd 15 9f 64 3d a4 c8 05 3d
       -0.004147251 -0.033535007 0.055815775 0.03266205
000110 2a c8 bc bb 38 64 1b 3d c6 c7 24 3d 60 44 e4 b8
       -0.005761166 0.037937373 0.04022958 -0.00010884623
000120 91 10 9d bc 70 7d 03 bd bf 0d ac 3c c1 4d 45 3d
       -0.019172939 -0.03210205 0.021002648 0.048169855
000130 07 23 1b 3d 8f d1 91 bc 3f fd 78 3c 24 7a 19 bd
       0.0378752 -0.01780012 0.015197097 -0.037469998
000140 c9 be 6e 3d 4f 7a de 3c 3e a0 e0 3c 3f 5a bc 3d
       0.058287416 0.02715793 0.02742016 0.091969006
000150 4c 34 bf 3d a5 63 55 3c 85 95 a5 bc de 59 9f 3d
       0.09336147 0.013024245 -0.020212898 0.07780813
000160 92 2b a2 bc 44 4a 82 b9 b4 78 9a 3d 26 a1 42 3b
       -0.019796167 -0.00024850864 0.075425535 0.0029698103
000170 cb 50 97 3d 5c 47 13 bc 9f 7d c7 3d 20 82 62 3d
       0.07388457 -0.008989181 0.09740757 0.055299878
000180 74 7f 5d 3d ba 3d 66 3d 24 e1 20 bd ee 9f bb 3d
       0.054076627 0.05621121 -0.03927721 0.091613635
000190 01 1f ac bc d6 7a 8e 3c 69 d4 67 3c 00 9b 83 3d
       -0.021010878 0.017392557 0.014149764 0.06426048
0001a0 81 f3 6d 3d 30 9c 09 3d 44 b0 35 3d cb 7e 3e 3c
       0.05809355 0.033596218 0.044357553 0.0116269095
0001b0 ac af 5a 3d c1 08 40 3c 23 b5 98 3d 4e 5b c9 bb
       0.05339019 0.011720837 0.07456424 -0.0061449176
0001c0 c9 3b 01 bd f3 2f ac 3c 8b 42 98 3d 84 1d de 3c
       -0.031551156 0.021018958 0.07434567 0.027113684
0001d0 cb b8 2d 3b e7 70 cb 3c d4 b5 74 bb ae 78 c8 bc
       0.002650785 0.02483411 -0.0037339823 -0.024471607
0001e0 03 d9 2e 3a b0 5a ac 3b 3e 11 8f 3d 17 14 aa 3d
       0.00066699105 0.005259834 0.069857106 0.08304613
0001f0 0c b0 b8 bc 36 2f 86 3d b3 52 03 3d 17 5a 17 3d
       -0.022544883 0.065519735 0.03206129 0.03695115

action_model._continuous_distribution.log_sigma f4 [1, 2]
000000 46 48 59 bd 09 a5 b8 bd
       -0.05304744 -0.09015853

action_model._continuous_distribution.mu.weight f4 [2, 128]
000000 2e f3 79 bd dd 82 41 bd ff e8 78 bd 13 07 23 3d
       -0.06102293 -0.04724394 -0.060769077 0.03980167
000010 f0 ee 19 3c 77 7a 27 3c b8 f6 9d 3b d6 03 f7 3c
       0.009395346 0.010222069 0.004820671 0.030153196
000020 a2 5e e8 bc 44 e8 b1 3d 33 3b 97 bc fb 09 65 bd
       -0.028365437 0.08686879 -0.018460846 -0.05591772
000030 61 92 67 bc b1 4e 88 bd ae 5f 8a ba 2b 14 34 3c
       -0.014134021 -0.06655634 -0.0010557079 0.010991137
000040 f7 87 cd bd 25 77 75 3c cd 1a 3e bc 13 a8 81 3c
       -0.10035699 0.01498202 -0.0116030695 0.015827214
000050 f0 e0 d9 3b 0b a0 1f 3d 3c bf 1f bc 2c a5 a3 bc
       0.006649129 0.03897099 -0.009750184 -0.019976221
000060 69 f6 84 3d 24 cd 2a bd f5 67 4a bd e6 bc 36 3d
       0.064923115 -0.041699544 -0.049415547 0.04461374
000070 16 d5 c6 bc eb 8e cf 3c af b8 1a bd ed 19 0b bc
       -0.02427153 0.025336703 -0.037773784 -0.008490068
000080 89 41 19 3d e5 4c 1d 3c de 10 af 3c 97 da 89 bd
       0.037416015 0.009600853 0.021370348 -0.06731146
000090 06 d6 aa bd a7 87 34 bc 8d e6 6c 3c 08 dc 63 3d
       -0.08341603 -0.01101867 0.014459264 0.05562976
0000a0 96 5c e7 ba bc 0c 3d bc cd 7b f7 3d 4a 01 87 ba
       -0.0017651494 -0.011538681 0.1208416 -0.0010300067
0000b0 3c 90 d0 3c 96 7d 0a 3c c0 f0 8f bd ca 5e 06 3c
       0.025459401 0.008452794 -0.07028341 0.00820131
0000c0 b9 76 d5 bc f7 46 4e 3d 91 63 2a 3c fd d6 bb 3d
       -0.026057588 0.050360646 0.010399715 0.09171865
0000d0 74 19 a6 bd e5 89 71 bd 92 fd ad 3c 53 1a 71 bb
       -0.081103235 -0.058969397 0.021239076 -0.0036789372
0000e0 33 fc 2d 39 92 99 24 3d a9 4c 9b 3c af d7 ed 3c
       0.00016592517 0.04018552 0.018957453 0.02903351
0000f0 92 2b 5a 3d 75 8a 21 bc 17 9c c2 bc 82 29 98 3c
       0.05326421 -0.009859671 -0.02375607 0.01857448
000100 6c 18 aa 3b e8 43 61 bc 3d de 8a 3d d5 d0 21 bc
       0.0051908996 -0.0137491 0.0678067 -0.00987645
000110 81 15 1d ba 09 65 e4 bc 93 85 45 3d c0 1c 27 3d
       -0.0005992279 -0.027880209 0.04822309 0.040798903
000120 6a 3c e0 3b ee d9 ba ba aa bb 12 bc 97 e3 02 3e
       0.0068431394 -0.0014255622 -0.008955875 0.12782131
000130 91 2b 4c 3c d9 b5 f8 bc 07 0f 81 bd 37 60 9b 39
       0.012461559 -0.03036015 -0.06301694 0.0002963559
000140 d3 71 15 3d cb 02 c3 bc a5 7e 55 bd 81 31 f8 bc
       0.036485504 -0.023805043 -0.05212273 -0.030297043
000150 7c 9b 01 bd 31 81 11 3d 13 06 79 3c 2a a0 53 3d
       -0.031642422 0.035523597 0.015199202 0.051666416
000160 68 bf d2 bc 65 7e 91 bc 6a 5c 6e bd 25 b0 3e bc
       -0.025726035 -0.017760465 -0.0581936 -0.011638676
000170 23 f5 b0 bc 29 93 40 3c a5 23 c2 3d 3d 73 a0 3c
       -0.021601265 0.011753836 0.09479455 0.0195862
000180 d3 53 16 bc ba d9 96 3c d9 2f 98 bc 78 42 7c bd
       -0.009175259 0.018414367 -0.018577503 -0.061586827
000190 f3 e2 25 3d 02 e1 2b bd b3 d1 63 3d 95 cd 5b bc
       0.04049964 -0.04196263 0.055619907 -0.013415714
0001a0 bd 20 bd 3c 64 ad ff 3c 74 bb 7f bc d5 9f 05 bd
       0.0230869 0.031210609 -0.015608657 -0.03262313
0001b0 14 62 a8 bb 89 a1 84 3d cb c3 50 bc bc 1f 7c bc
       -0.005138645 0.06476123 -0.012741993 -0.015388425
0001c0 9f 88 69 3b 04 61 3b bb 92 f0 5b 3d a9 7c fe bc
       0.003563441 -0.0028591761 0.053696223 -0.031065302
0001d0 94 94 da 3c 6b cb 01 3d ec 9a eb 3c a6 98 4a 3c
       0.026682176 0.031688135 0.028760396 0.012365496
0001e0 31 da bd 3b 7c 14 15 bd 0f 28 7a 3d c3 b5 c3 bc
       0.0057938327 -0.03639649 0.06107336 -0.023890382
0001f0 25 8c fe 3b 5c 8b d9 bc 66 d7 90 bd 75 4e fd bc
       0.0077681714 -0.02655571 -0.07072334 -0.0309212
000200 d8 e7 0e 3d 44 9a 18 bb 71 c5 a4 3c d2 75 1a bd
       0.034889072 -0.002328531 0.020113679 -0.03771002
000210 75 13 3b 3d 21 10 1c bd 52 95 2b 39 05 62 59 bd
       0.045672853 -0.03810132 0.00016363457 -0.053071994
000220 6d a5 b2 3c 21 1f ef bc 17 d0 5d 3d 92 eb 3a bc
       0.021807397 -0.029189648 0.054153528 -0.011408703
000230 e3 21 09 bd a2 94 89 bb 9b c3 2f 3c 0d 90 33 3c
       -0.033479583 -0.0041986266 0.010727788 0.010959637
000240 9a b9 b7 3d ee 5f 91 bc c7 47 bb bd 4c cc 19 3d
       0.089709476 -0.017745938 -0.0914455 0.03754835
000250 1e a3 76 bd e1 95 d3 bc 22 fd 70 3a 7e 0b 11 3d
       -0.060214154 -0.025828304 0.0009192993 0.03541135
000260 1f 89 45 3c d8 ce 7d 3c f6 7d 26 bc e4 4b 90 bd
       0.012056618 0.01549121 -0.010161867 -0.07045725
000270 5f 1f 30 3d be fc 32 3d e7 65 29 3d 2d 14 2e bd
       0.042998668 0.043698065 0.041356947 -0.04249971
000280 c3 d3 7a bc e1 c7 72 bc d0 51 c8 3c 32 69 25 3d
       -0.015309277 -0.014818163 0.024453074 0.040383525
000290 31 fe a1 bc 74 d8 5d 3d 5f b6 a0 3d 73 35 e7 bc
       -0.019774528 0.054161504 0.078472845 -0.028223729
0002a0 75 d2 1b 3d 76 14 c2 bc ef 0b 85 bd 1b c9 05 3b
       0.038042504 -0.023691397 -0.06496417 0.0020414058
0002b0 55 c1 21 3d 4b 2a af 3c 9a fa 2c 3d 4f 2c 3f 3d
       0.039491016 0.021382472 0.04223118 0.046673115
0002c0 25 43 22 3d 52 a8 12 bd d2 30 a9 bc ba b2 24 bc
       0.039614815 -0.035805054 -0.020653162 -0.010052377
0002d0 6f 67 9f 3d a9 51 27 bd fc 71 0b 3d 5d 18 71 3d
       0.077834 -0.04084936 0.03404425 0.058861125
0002e0 35 b2 81 bc 0a c7 06 bd e0 82 4b bc b9 79 3c ba
       -0.015832046 -0.032904662 -0.01242134 -0.0007189769
0002f0 ce 77 cf bd 77 f4 e9 3c 41 8f 9c bd d0 75 eb bd
       -0.10130273 0.028558953 -0.07644511 -0.1149708
000300 cd 44 6c bd 7f 4e 41 bd 4f bc bb b9 3e 20 3f 3c
       -0.0576828 -0.047194 -0.0003580772 0.011665402
000310 0c 53 5f bb da ce 0b 3d 27 d0 cb 3c bb 92 d5 bd
       -0.00340766 0.034132816 0.024879528 -0.10428377
000320 e6 b1 f8 bc 01 d8 39 bd 52 cb bd bd 97 8a ed bc
       -0.030358266 -0.045372013 -0.09267296 -0.028996749
000330 ed 1b 04 3d ec 2e a7 bc 95 6a d9 bc f5 5c e3 bc
       0.032253195 -0.020408116 -0.02654008 -0.027754286
000340 1b 29 9e 3d a4 f7 7f 3c 65 ec c4 3c f3 e4 8c 3d
       0.07722684 0.015623007 0.024038503 0.06879606
000350 18 74 d5 3d de fe 84 3a 58 f3 89 bc 82 a5 3e 3d
       0.10422534 0.0010146757 -0.016839668 0.04654456
000360 d2 5f c1 bd ef 0b 4a bd 5c 84 d7 3d 3b 69 b1 bc
       -0.094421044 -0.049327787 0.105232924 -0.021656623
000370 1d 76 9e 3d 1c 09 6d bd 3f d0 84 3c e0 a3 22 3d
       0.07737372 -0.057870016 0.01621258 0.039707065
000380 c5 d6 46 3d c0 20 87 3d f7 86 50 bd 47 91 83 3d
       0.048544664 0.065980434 -0.050909963 0.06424194
000390 ca 12 f6 bc d9 ae 35 bc 05 25 38 bd 08 64 5a 3d
       -0.030038256 -0.01108905 -0.04495718 0.053318053
0003a0 15 01 82 3d bb c5 2e 3c b4 c5 8b 3c f5 ad 1e bc
       0.06347863 0.01066726 0.017062046 -0.009685029
0003b0 d6 a0 18 3d 0e e7 9e bd 2f 5d 62 3d c6 e9 a9 bd
       0.03726276 -0.07758914 0.055264648 -0.08296542
0003c0 28 0c 36 bd f1 6f e8 3b 61 d4 11 3d 34 3f be 3c
       -0.044445187 0.0070934226 0.03560293 0.023223497
0003d0 cc 00 52 bd e2 05 8e 3c 90 6c fc bb 5c 30 4f bd
       -0.05127029 0.01733679 -0.0077033713 -0.05058323
0003e0 5d 04 b6 bd 84 5d b4 bd 24 4e 81 3d d9 46 89 3d
       -0.08887551 -0.08806899 0.06313732 0.06702966
0003f0 53 47 3b bd 35 1a 19 3d 94 23 2b bc ed 3b 52 3c
       -0.045722317 0.03737851 -0.010445494 0.01283167

action_model._continuous_distribution.mu.bias f4 [2]
000000 64 58 ab 3a d9 74 49 3d
       0.0013072607 0.0491837

exp_avg f4 [128, 15]
000000 3b 60 bc 37 43 b1 33 39 05 72 23 39 2c 6b b1 b9
       2.2456157e-05 0.00017136805 0.00015587367 -0.0003383992
000010 7e 56 7e 39 99 22 dc 39 cb 58 7a 38 95 25 b9 b6
       0.00024255548 0.00041987447 5.968734e-05 -5.5178048e-06
000020 11 0e 01 b8 63 3e d6 b7 8f ec 13 b8 c5 19 ab 36
       -3.0769097e-05 -2.5539839e-05 -3.5267843e-05 5.099197e-06
000030 f1 12 2a 3a 94 20 87 38 df dd dc 39 1a 48 b5 b9
       0.0006487808 6.44337e-05 0.00042126977 -0.0003457673
000040 5c ef db b9 f4 4e ec bb 36 45 06 ba 10 70 52 3a
       -0.00041949272 -0.0072115604 -0.00051220076 0.0008027563
000050 b5 95 81 bb 4c b5 48 ba e4 22 bb b9 43 2f b2 39
       -0.003954614 -0.000765641 -0.00035693415 0.00033986018
000060 bc cb 13 b9 b3 b3 a4 ba 5d 29 99 b9 46 f6 e3 bb
       -0.0001409491 -0.0012565762 -0.00029213252 -0.0069568483
000070 d5 8f 1a 39 ab d3 3e 3a c5 78 8c 38 b9 bf aa b8
       0.00014740166 0.0007279466 6.698215e-05 -8.141943e-05
000080 18 d5 59 3a 6a ad 76 38 a5 70 00 39 72 18 41 39
       0.00083096465 5.8812475e-05 0.00012248995 0.00018415021
000090 04 c1 90 38 9b e0 04 b9 46 2d c8 37 47 51 23 b6
       6.902407e-05 -0.00012672173 2.386294e-05 -2.4336202e-06
0000a0 ee 98 d1 37 84 9c 8d b8 57 78 25 3a d0 51 1a b8
       2.4985955e-05 -6.752557e-05 0.00063121825 -3.6792655e-05
0000b0 e6 40 14 b9 74 c2 23 b8 95 59 c1 b8 a4 90 a5 b9
       -0.00014138556 -3.9043327e-05 -9.219643e-05 -0.00031579018
0000c0 51 42 83 38 eb 32 7d 38 26 9a a4 b9 68 4a 9d b8
       6.258919e-05 6.036732e-05 -0.00031395367 -7.5002026e-05
0000d0 24 df 89 b8 c5 9e dc 36 2d 31 ba b6 1e 2c 27 b8
       -6.574232e-05 6.574994e-06 -5.548957e-06 -3.985699e-05
0000e0 78 53 69 b7 99 ea f0 b9 c2 60 23 b8 6d b2 c8 b8
       -1.3907316e-05 -0.00045951156 -3.895234e-05 -9.5699776e-05
0000f0 cf 6a 36 b9 55 dc dd b9 f7 ea 67 ba ec ce 16 38
       -0.00017396662 -0.00042316565 -0.0008846963 3.5955498e-05
000100 8f c0 c2 b7 2d 7c 68 ba 51 44 55 b9 ef 9b 3c b9
       -2.321627e-05 -0.0008868601 -0.00020338713 -0.00017987167
000110 bf 7a 25 b8 c3 81 e6 37 80 e3 d6 38 b5 26 9f b9
       -3.945338e-05 2.7478562e-05 0.0001024669 -0.00030355682
000120 fc 4c bd ba c6 89 5a b8 b9 c5 21 b8 af 4f ff b9
       -0.0014442499 -5.210356e-05 -3.8569535e-05 -0.0004869676
000130 08 c3 16 36 83 ed ba ba 74 ec 97 ba 4f e6 12 39
       2.2465265e-06 -0.0014261458 -0.0011590854 0.00014009442
000140 ea e4 a8 ba 15 51 bc b9 9a c7 9c 37 94 68 14 38
       -0.0012885605 -0.00035918565 1.8689596e-05 3.5383346e-05
000150 cd e4 7a b7 52 ce a7 b9 92 2e 9f 37 73 c1 1c bb
       -1.4954433e-05 -0.00032006443 1.8975963e-05 -0.0023919016
000160 f4 f6 c2 37 c5 09 d4 3a 96 df ad 39 85 f1 03 3a
       2.3241599e-05 0.0016177228 0.00033163716 0.00050332426
000170 25 b8 2e 3b 4a 53 56 3a 55 ce 81 b9 a5 82 25 3b
       0.0026660052 0.0008175863 -0.00024758527 0.0025254872
000180 db f0 cd 39 d0 eb 44 39 31 29 e0 37 0d 6e 00 b8
       0.00039280098 0.00018779864 2.6722062e-05 -3.062007e-05
000190 df e5 13 b9 06 52 27 3a a2 d3 8a 3b 07 fe 79 b9
       -0.00014104646 0.0006382767 0.0042366544 -0.00023841123
0001a0 75 6c 94 ba a4 1a 71 39 f5 26 c0 b7 8d 16 8a 3b
       -0.0011323827 0.00022993475 -2.2906324e-05 0.004214114
0001b0 35 7f cb 3a ae e4 c2 39 25 4d 33 3a 6b c1 93 39
       0.0015525582 0.00037172943 0.00068398035 0.00028182133
0001c0 f6 bd 02 39 ea 6c 53 b8 bd 93 1b 39 ca 02 84 3a
       0.00012468532 -5.0407754e-05 0.00014836989 0.0010071632
0001d0 bc 7d 65 3a 53 f3 28 3b 8f 2d 09 ba ab da 1e bb
       0.00087543926 0.0025779798 -0.0005232924 -0.0024239223
0001e0 9f 75 11 b9 dd c5 11 38 43 ec 65 b9 bc ca 33 b9
       -0.00013872095 3.475497e-05 -0.00021927156 -0.00017146295
0001f0 3f b3 5d b8 bd 8f bf b9 f3 9c 86 b8 8e 3b 44 38
       -5.2857442e-05 -0.00036537452 -6.418852e-05 4.6785506e-05
000200 bb ab 8f 37 af 3b 44 37 f5 2b 9f b8 43 4d 34 38
       1.7126897e-05 1.1696407e-05 -7.5898985e-05 4.29873e-05
000210 35 81 1c ba 50 9c 0b 37 cd 8c 9c 39 58 53 22 38
       -0.0005970181 8.32144e-06 0.00029859543 3.870143e-05
000220 e4 29 0c b8 74 0c 20 b9 3e 1b 2b b8 57 dd 1e b8
       -3.3417615e-05 -0.00015263428 -4.079495e-05 -3.7876274e-05
000230 c3 6a 08 39 34 04 d5 37 58 f9 a0 b8 2f 9a 6e b6
       0.00013009743 2.5393536e-05 -7.6758384e-05 -3.555451e-06
000240 ed 33 89 b7 c3 52 31 b8 d0 96 f2 b8 ae 11 b9 38
       -1.6355852e-05 -4.2277166e-05 -0.0001156755 8.8247805e-05
000250 36 c1 16 38 c9 d6 8b 38 aa 07 20 b9 c1 e9 e0 39
       3.594273e-05 6.668043e-05 -0.00015261644 0.0004289877
000260 67 67 9a b9 3a d4 95 ba 04 c3 c9 b7 f4 4f 57 39
       -0.0002945021 -0.0011431046 -2.4051878e-05 0.00020533783
000270 97 e6 53 b9 6b d3 c6 39 84 71 a2 36 c3 b8 74 b8
       -0.0002020843 0.00037923022 4.841191e-06 -5.8346206e-05
000280 31 c8 fc b9 33 cf 0d 3a bf 33 37 38 0b 1d da b7
       -0.0004821434 0.0005409598 4.3678792e-05 -2.600115e-05
000290 6f 84 b2 3a 84 0d 87 b7 79 9a 1c 38 da 46 af 37
       0.001361979 -1.6099548e-05 3.7337162e-05 2.0894619e-05
0002a0 25 74 a5 38 d2 67 28 b8 78 81 de 38 80 06 13 38
       7.889447e-05 -4.015101e-05 0.000106099 3.5053585e-05
0002b0 e0 4c d8 37 18 fd 0b b7 af db bf 37 77 7e df b6
       2.5785004e-05 -8.343974e-06 2.2871272e-05 -6.6606403e-06
0002c0 bc e2 97 37 97 ad fc 38 58 2d c5 37 f9 f1 7e b8
       1.8106184e-05 0.0001204863 2.3505345e-05 -6.0783674e-05
0002d0 88 2d 4b 39 1f 71 0b 38 7b 57 e7 3a cd ee 62 3a
       0.0001937655 3.3245535e-05 0.0017649973 0.00086568
0002e0 14 48 f0 39 74 a8 30 b9 bc 74 1b 39 14 9a 94 38
       0.0004583007 -0.00016847422 0.00014825439 7.085889e-05
0002f0 6d cf d9 b7 c9 82 d9 38 a6 a0 2e 3a a0 d3 b0 39
       -2.5965006e-05 0.00010371727 0.0006661512 0.0003372701
000300 32 82 3b 3a b3 74 56 b9 0c e1 bd ba b7 ec 19 38
       0.00071528845 -0.00020452104 -0.0014486625 3.66985e-05
000310 e0 54 c9 38 e3 ff 65 39 f0 d2 14 b7 e9 38 7b b8
       9.600236e-05 0.00021934467 -8.8706e-06 -5.9896065e-05
000320 6c 78 b9 39 9e 74 4e 38 89 ee 46 38 f8 b9 ca 35
       0.0003537567 4.9222836e-05 4.7429032e-05 1.5104297e-06
000330 b7 47 8c b7 37 3e c4 b7 35 9d 23 38 73 c3 03 3a
       -1.6722695e-05 -2.3393992e-05 3.900864e-05 0.00050263776
000340 97 84 23 37 53 24 b4 37 09 23 91 37 bd 61 b9 b8
       9.746428e-06 2.1474587e-05 1.7301662e-05 -8.8396926e-05
000350 3f 40 10 38 eb 3c a4 38 80 f5 4c b8 66 30 cf 38
       3.439211e-05 7.831476e-05 -4.886603e-05 9.879544e-05
000360 7f d6 d4 37 ed 79 fb b8 08 74 15 37 b5 36 d2 b6
       2.5372252e-05 -0.00011991323 8.908108e-06 -6.2648564e-06
000370 75 1e 00 b8 9d e2 cf b8 27 16 e3 38 0b 8b 88 b5
       -3.0545943e-05 -9.912739e-05 0.0001082833 -1.0173256e-06
000380 9b 2d 93 b8 d8 c6 99 b9 c5 80 b4 b9 6d 04 e3 ba
       -7.018001e-05 -0.00029330584 -0.00034428216 -0.0017320045
000390 08 6d 8a b9 09 06 52 39 29 3a 09 bb 8c fa a4 b9
       -0.00026402646 0.00020029409 -0.0020939207 -0.0003146719
0003a0 89 bf 7d b8 b1 14 23 38 fc 05 26 38 99 1c 6a 39
       -6.049828e-05 3.88815e-05 3.9583058e-05 0.00022326632
0003b0 26 cf 08 b9 6a 31 62 bb a9 1a 84 36 6b 52 b0 39
       -0.0001304714 -0.0034514316 3.93701e-06 0.00033630742
0003c0 48 3c 9f 39 23 3c 30 b6 e2 bb d7 3a 07 82 97 3a
       0.00030371756 -2.6261048e-06 0.0016459192 0.0011559137
0003d0 2f 77 09 3a 0b 22 15 b9 e3 9f 0a 39 24 1a 0a 38
       0.0005243895 -0.0001422243 0.00013220268 3.292611e-05
0003e0 91 20 a8 b8 5c 4e 12 39 29 ff 52 3a 36 dd a5 39
       -8.01693e-05 0.00013952836 0.0008048886 0.00031636067
0003f0 80 55 50 3a 9e 74 8e b9 2d 81 03 bb 20 e8 2a 36
       0.0007947311 -0.00027171237 -0.0020066008 2.5467089e-06

exp_avg_sq f4 [128, 15]
000000 b2 41 a7 36 ae 62 1f 36 fe 68 2e 38 49 df 04 37
       4.984636e-06 2.3750285e-06 4.1582614e-05 7.919801e-06
000010 bf 7e 64 37 8c 18 19 38 0a 0b d7 35 99 46 19 36
       1.3619369e-05 3.6500904e-05 1.6021961e-06 2.283987e-06
000020 83 72 09 35 cb ce 47 34 37 e5 98 35 96 26 4e 36
       5.1203114e-07 1.860855e-07 1.1391593e-06 3.0718852e-06
000030 2c a0 62 38 b0 b2 73 33 b5 a4 3e 37 01 20 17 38
       5.403177e-05 5.674036e-08 1.1363231e-05 3.603101e-05
000040 00 33 25 37 89 8d 02 3a f2 85 c8 37 62 bf 1a 38
       9.846641e-06 0.0004980197 2.3904231e-05 3.68947e-05
000050 32 ac ae 39 30 4c 66 37 39 f6 f5 36 19 5e 7c 36
       0.00033316162 1.3726807e-05 7.330233e-06 3.7605698e-06
000060 7b e6 c8 35 42 b0 25 37 14 05 4c 37 62 02 8b 3a
       1.496824e-06 9.875805e-06 1.216053e-05 0.0010605569
000070 8d 38 d8 34 8d 42 84 38 12 81 45 36 a2 37 bd 34
       4.027428e-07 6.3066465e-05 2.9430416e-06 3.5244472e-07
000080 25 b2 60 38 ea 6c f7 35 e4 62 41 37 58 d9 15 38
       5.357167e-05 1.8434632e-06 1.1526721e-05 3.5726785e-05
000090 62 d6 a2 35 63 90 73 34 40 b4 1a 34 39 77 cd 33
       1.2132334e-06 2.2683666e-07 1.4407942e-07 9.567743e-08
0000a0 94 14 26 35 e2 5b 3e 35 2f 66 aa 38 7f 62 42 33
       6.1869764e-07 7.091422e-07 8.125265e-05 4.5258727e-08
0000b0 a1 ae 8b 36 f1 f4 09 36 5d 5b 3d 34 b4 36 ba 36
       4.1628523e-06 2.0557165e-06 1.7635234e-07 5.5496002e-06
0000c0 50 16 ce 35 32 60 94 35 67 11 99 36 56 8e 81 34
       1.535469e-06 1.1054856e-06 4.561781e-06 2.4131685e-07
0000d0 20 b4 d2 33 e9 e9 ae 33 77 48 41 33 38 ed 03 34
       9.8116516e-08 8.1450544e-08 4.500222e-08 1.2286625e-07
0000e0 8d af 83 34 83 1a 23 37 7f 2e e8 32 3d b6 87 36
       2.4528381e-07 9.72173e-06 2.7029499e-08 4.044529e-06
0000f0 f6 55 aa 36 55 55 09 36 5c dd f5 37 51 bb ba 36
       5.076402e-06 2.046426e-06 2.9309354e-05 5.5650385e-06
000100 e6 71 2d 36 b7 19 23 38 fd 82 2d 36 86 94 b2 35
       2.5845306e-06 3.8886177e-05 2.5855254e-06 1.330526e-06
000110 fd f9 3f 35 6f da c9 34 74 5c dc 35 5b 3d 18 36
       7.1516826e-07 3.75981e-07 1.6418185e-06 2.2685479e-06
000120 83 a3 e3 38 47 77 29 34 46 d0 7e 37 c3 d8 5f 36
       0.0001085466 1.5782744e-07 1.5188072e-05 3.3355761e-06
000130 49 b9 23 36 1a 6b a0 37 9a d7 cc 36 c3 6a 88 36
       2.4396743e-06 1.912336e-05 6.104773e-06 4.0655445e-06
000140 23 6a b2 37 85 62 64 35 a8 4c 2d 36 6a 12 65 34
       2.1268677e-05 8.5079984e-07 2.5823629e-06 2.1333986e-07
000150 e4 02 ab 33 6d 5c 0a 35 78 5d 53 36 22 35 43 38
       7.963334e-08 5.1543503e-07 3.1495856e-06 4.6541107e-05
000160 09 c8 d9 32 4e 77 1c 37 50 ba 3e 37 71 cd 81 36
       2.535309e-08 9.326102e-06 1.1368262e-05 3.868416e-06
000170 e3 9b 45 39 1f 25 1c 37 2b 57 06 38 74 04 20 39
       0.00018845456 9.3069675e-06 3.202927e-05 0.00015260448
000180 fe eb b5 36 06 4d 48 36 7a c0 58 35 f0 91 e8 34
       5.4216935e-06 2.9847156e-06 8.074636e-07 4.331955e-07
000190 18 db 4b 36 dc 36 b0 36 f3 2f c5 39 14 f2 68 34
       3.0376887e-06 5.251595e-06 0.00037610493 2.1694751e-07
0001a0 75 52 a9 37 31 b5 ce 37 3e e1 2b 37 25 79 e4 39
       2.0184767e-05 2.4641487e-05 1.02448375e-05 0.00043577809
0001b0 85 13 ad 37 9a 26 6a 38 21 b8 b9 39 ae c8 46 37
       2.0632297e-05 5.5825898e-05 0.00035423136 1.1848444e-05
0001c0 a4 78 30 37 63 13 8e 35 a0 be 40 35 42 cd c3 36
       1.0518506e-05 1.0585467e-06 7.180297e-07 5.835348e-06
0001d0 61 e9 79 37 c1 5a 6f 3a 76 d6 ee 34 0d 27 22 38
       1.4895894e-05 0.000913065 4.4486995e-07 3.866018e-05
0001e0 43 9f d6 35 68 cf 69 34 a0 06 47 37 f8 97 7c 35
       1.5990594e-06 2.177527e-07 1.1862867e-05 9.409846e-07
0001f0 07 16 09 36 e9 ff 1c 37 5b 93 d6 34 03 56 e3 33
       2.0427412e-06 9.357908e-06 3.996782e-07 1.0586157e-07
000200 a6 ba 05 34 9d 80 81 33 36 ca 91 34 9d 31 85 34
       1.2454493e-07 6.030425e-08 2.7155482e-07 2.480928e-07
000210 34 f3 c6 37 09 7e 6d 32 d1 0d 1e 36 7e b1 72 35
       2.371669e-05 1.3823873e-08 2.3551877e-06 9.041031e-07
000220 f2 53 01 34 09 f2 8d 36 a2 af 13 35 9a 0b 11 35
       1.20446e-07 4.230304e-06 5.5017347e-07 5.403359e-07
000230 5f 38 41 36 fd fc 2c 34 15 7f 9f 33 47 97 97 33
       2.8792053e-06 1.6110785e-07 7.4271306e-08 7.0590026e-08
000240 c6 81 1f 33 79 70 f7 33 ee 70 19 34 ae 85 0b 37
       3.71381e-08 1.15222925e-07 1.4290319e-07 8.31617e-06
000250 0a f5 02 32 5c 00 e3 35 fe af 21 37 65 c8 14 37
       7.622711e-09 1.6912923e-06 9.637324e-06 8.868145e-06
000260 20 cf 96 38 b1 cb 9b 37 52 88 77 37 52 dc 98 38
       7.1911374e-05 1.8572291e-05 1.4754087e-05 7.288963e-05
000270 1b 47 41 36 b6 a1 20 37 37 ac 41 35 0e 19 84 34
       2.880063e-06 9.574394e-06 7.214871e-07 2.4605146e-07
000280 7e 9d fb 35 9d a3 3d 37 66 e7 18 39 09 ad c6 33
       1.8746794e-06 1.1303372e-05 0.00014582052 9.2515684e-08
000290 36 d2 e6 37 11 87 05 35 5c 43 7d 34 94 e7 9c 35
       2.7516024e-05 4.974291e-07 2.3586966e-07 1.1690304e-06
0002a0 6a 69 30 35 31 f2 06 35 cb e5 a7 35 05 95 ab 33
       6.5718507e-07 5.0271325e-07 1.2509348e-06 7.9899145e-08
0002b0 44 df 70 34 18 d8 13 33 bb 6c 82 32 bf 75 46 33
       2.2432965e-07 3.442264e-08 1.5183437e-08 4.6207557e-08
0002c0 35 75 94 34 0c 40 30 36 4c 92 1c 31 17 92 86 35
       2.7652428e-07 2.6263324e-06 2.2784148e-09 1.0026296e-06
0002d0 cd b7 43 37 e7 ea 82 35 ba 63 4e 39 ae a2 06 37
       1.16657e-05 9.75412e-07 0.00019682842 8.024899e-06
0002e0 18 3b df 37 a2 21 27 39 b2 5a a2 36 c7 30 8e 34
       2.661119e-05 0.0001593889 4.8385346e-06 2.648505e-07
0002f0 d1 49 88 34 1b 24 77 34 d5 9f 23 36 88 48 01 36
       2.5385683e-07 2.3016803e-07 2.4381927e-06 1.9264717e-06
000300 5f 8f cb 39 c2 84 34 34 bd 51 74 37 9a 93 0b 35
       0.00038825997 1.6812103e-07 1.45625645e-05 5.1996324e-07
000310 6d b6 21 34 fe 15 19 36 34 04 95 34 01 32 32 35
       1.506066e-07 2.2811578e-06 2.775647e-07 6.638293e-07
000320 7e 95 b4 35 00 ac 99 33 79 1d 21 34 59 4c e4 32
       1.3454553e-06 7.155904e-08 1.5005016e-07 2.6577412e-08
000330 a1 07 6a 32 a1 71 2f 33 73 4a 4e 34 25 fe 25 36
       1.3622327e-08 4.0848708e-08 1.921233e-07 2.4734848e-06
000340 0e 25 36 31 d8 8d 20 35 bc 55 4b 34 a3 d4 18 34
       2.6505549e-09 5.9811055e-07 1.8937038e-07 1.423346e-07
000350 83 d6 33 35 3b cb 05 34 a3 39 1e 34 38 dc 17 35
       6.699485e-07 1.2460525e-07 1.4735865e-07 5.6572344e-07
000360 6b 20 d9 32 6b b0 3c 34 a9 08 34 32 ae 1a cb 31
       2.5276867e-08 1.7573045e-07 1.0479348e-08 5.9111107e-09
000370 28 53 a2 32 1c 92 45 34 82 f6 a4 35 1d 1d a4 30
       1.8897097e-08 1.8400209e-07 1.2290695e-06 1.1940845e-09
000380 80 f9 6e 34 4d 8d 38 37 cb 53 a6 35 c3 dc 55 39
       2.2256245e-07 1.1000154e-05 1.2392351e-06 0.00020395503
000390 35 be 0f 37 03 db 2e 38 a4 2b 1b 39 51 76 96 36
       8.56775e-06 4.1688803e-05 0.0001479821 4.484122e-06
0003a0 f9 c2 3b 35 e2 67 e0 34 e3 93 bf 34 1b dd 2f 36
       6.994665e-07 4.1798836e-07 3.5684124e-07 2.6205732e-06
0003b0 5a 6d 20 36 87 76 9a 39 13 8d 71 34 d7 8e 76 37
       2.390551e-06 0.0002946148 2.2496197e-07 1.4696e-05
0003c0 7a f1 88 37 a2 ac bb 35 70 19 89 39 7b 46 32 37
       1.632491e-05 1.3982828e-06 0.0002614963 1.0626037e-05
0003d0 8d 4c 1f 38 b7 62 6a 39 e5 7c e4 36 e9 12 bb 34
       3.7979848e-05 0.00022352753 6.809469e-06 3.4845223e-07
0003e0 6d 68 cd 34 cf bf b7 34 cb 05 64 36 69 27 31 36
       3.8260205e-07 3.4225965e-07 3.397802e-06 2.6397995e-06
0003f0 eb 4f 10 3a 7c e4 79 34 91 72 aa 37 95 49 f9 36
       0.0005505073 2.3273054e-07 2.0318928e-05 7.4293444e-06

exp_avg f4 [128]
000000 a4 40 97 38 ec f3 83 ba 15 56 68 b8 a0 42 18 b9
       7.212281e-05 -0.0010067201 -5.539328e-05 -0.0001452067
000010 0e 4d ed b9 b0 5f 61 b9 da 89 49 3a 93 f9 bd 39
       -0.00045261573 -0.00021493318 0.0007688083 0.00036234836
000020 27 77 f7 b7 34 5b 28 b8 fd c1 de 39 54 2a e6 35
       -2.950018e-05 -4.013926e-05 0.00042487672 1.7148654e-06
000030 fd 42 c5 38 7b 61 f0 38 e8 14 d9 b8 a5 3e 03 ba
       9.4061696e-05 0.00011462249 -0.000103512604 -0.0005006588
000040 0d ee e4 37 fc f6 7c b9 46 a5 a1 b8 d3 aa 3c 38
       2.7290569e-05 -0.00024124602 -7.707863e-05 4.4981785e-05
000050 d9 bd 83 3a 7d 7d cc 39 92 bd 92 b9 5d 88 e6 39
       0.0010051086 0.00039003408 -0.0002798853 0.00043970617
000060 7b 52 a1 b9 41 ae 8c b9 56 6b ad 39 c8 8a 2c 3a
       -0.00030769766 -0.0002683271 0.00033077103 0.00065819593
000070 75 cf 99 38 3c dc 29 39 ee 43 31 b9 98 54 aa b8
       7.3342504e-05 0.0001619914 -0.00016905341 -8.1219885e-05
000080 c9 17 e0 b9 de b6 02 3a 7d ec f6 3a 57 40 8e b9
       -0.0004274233 0.0004986356 0.001883879 -0.00027132288
000090 6e 7c 8a b9 08 98 53 3a d3 76 a7 38 92 0e 0c 39
       -0.00026414118 0.00080716657 7.985313e-05 0.00013356868
0000a0 81 c4 13 b9 90 9a 3e 38 6d 3a 29 b8 fd 47 41 b7
       -0.00014092216 4.5443478e-05 -4.0347153e-05 -1.15204575e-05
0000b0 04 37 8e b8 f6 d0 13 b8 43 02 33 39 18 c1 b8 b8
       -6.781335e-05 -3.524214e-05 0.00017071613 -8.80977e-05
0000c0 dc 14 82 b7 17 ba 38 b9 3f 29 a0 b9 a4 77 80 b9
       -1.5506921e-05 -0.00017616931 -0.0003054831 -0.00024503202
0000d0 2a 39 c1 39 50 86 11 39 cb f8 c3 b9 6d 48 57 39
       0.0003685442 0.00013878313 -0.00037378664 0.00020530979
0000e0 f7 ea 1a ba 45 04 34 b9 e0 01 f9 39 57 24 59 b9
       -0.0005909646 -0.00017167728 0.00047494378 -0.0002070827
0000f0 d6 52 93 b9 89 3d 39 39 12 fe bd 3a 55 94 ab 3a
       -0.00028099742 0.00017665898 0.0014495275 0.0013090471
000100 31 c6 f9 b8 8c 9b 9d 39 2f 0b ef b8 8b d6 ae 38
       -0.00011910161 0.00030061265 -0.00011398491 8.336928e-05
000110 46 34 eb b9 f5 ee b2 39 43 6e b8 b7 d8 65 65 3a
       -0.0004486164 0.00034128843 -2.1985854e-05 0.00087508326
000120 90 44 87 b8 42 65 d2 b8 2b fd 0f b9 ca b6 3e b9
       -6.4500724e-05 -0.00010032441 -0.00013731855 -0.00018187906
000130 fe d9 2f ba b8 d4 be b8 ce 8c 76 39 bf 79 11 3a
       -0.00067082036 -9.099528e-05 0.00023512842 0.00055494526
000140 fb e7 8b b8 70 04 a5 3a bb ab 94 39 1c 8b 42 39
       -6.671246e-05 0.0012589823 0.0002835671 0.00018553104
000150 0e 18 fe b4 df 57 57 b9 7a bd c2 3a 2f 3f b5 b9
       -4.732869e-07 -0.00020536732 0.0014857494 -0.00034570086
000160 6e e5 2a 3a c2 10 0f b9 7c 67 8f 39 4c 49 ed 39
       0.0006519173 -0.00013643785 0.00027352187 0.00045258773
000170 a5 73 06 b9 d0 9f 27 39 a4 45 02 39 b2 ed fd b7
       -0.00012822317 0.00015985896 0.00012423709 -3.0270636e-05
000180 59 e3 18 ba 39 1b 42 ba 60 ce 15 39 9c b7 78 b8
       -0.0005832217 -0.0007404569 0.00014286628 -5.9298807e-05
000190 95 17 99 b8 4e 02 8b 38 02 53 b9 b9 81 ab bc 38
       -7.300001e-05 6.628466e-05 -0.00035347795 8.996484e-05
0001a0 3e 20 6c 38 d3 f5 c3 39 9f e3 79 3a 20 3f c6 3a
       5.6296813e-05 0.00037376452 0.00095325144 0.0015125014
0001b0 ba 0c 36 ba bf 24 b9 39 a9 52 8e 39 1d 19 7a b8
       -0.00069446454 0.00035313328 0.00027145937 -5.9628033e-05
0001c0 12 d8 91 38 1c 44 1f 39 fb 1a ad 39 26 70 f3 b7
       6.954385e-05 0.00015188794 0.00033017233 -2.902008e-05
0001d0 6a 9b a2 37 6d ee 2b b9 76 c6 5d 3a 12 d9 e4 b8
       1.9384275e-05 -0.00016396651 0.0008460054 -0.0001091232
0001e0 31 1c 0b 39 bd dd 59 ba 34 1e f0 3a 62 c4 82 38
       0.00013266575 -0.00083109346 0.0018319548 6.235462e-05
0001f0 a8 38 27 39 39 22 b3 b7 72 93 6f 39 fc 93 bc 38
       0.00015947467 -2.1354399e-05 0.00022847744 8.992103e-05
