python/results/minion_walk_003/Minion/Minion-3584.onnx (onnx, 78034 bytes, 7 tensors)

network_body._body_endoder.seq_layers.0.weight f4 [128, 15]
00000000: 0676 be3e 9442 c53d b309 3fbe eb30 5e3d
00000010: a07e 21be 212f aa3d 3821 da3d 3771 213e
00000020: 5ef9 ffbd 26ce d93d b41a 303e 940a d83d
00000030: dddd 2c3e 92b0 e93e fdb1 e2be 2ff5 cf3e
00000040: cde6 0cbf 4396 4cbe 3770 e43e 50ba da3e
00000050: 2ea3 8f3e 65d0 1cbf e3c2 dc3e b8f9 7d3e
00000060: 8825 6cbe 49bc c83d 2caf 7ebe b380 be3c
00000070: b541 61be 6434 a03e a19a 1cbd 94ba 863b
00000080: d9f3 04be 5e8c d93d 5ce0 4abe e5d1 f93d
00000090: 3f39 43be 275e 7fbb ec98 0abf f3e7 dd3d
000000a0: 953e 8dbe 304c 8f3e d272 a3be c479 38be
000000b0: 6f38 40be b7b8 70be 53f3 a2bd 24da 143e
000000c0: 9bbb 1c3d 322a a33d 55eb 31bd dc72 3bbd
000000d0: ba1e d03e f1f0 b43e d432 d33d f3d8 e4bd
000000e0: 803c 363e fa19 483e 3f57 2cbe b507 ba3d
000000f0: 3a75 ba3d d924 bfbd eb3b 063c 5f5a 723d
00000100: baec 3d3d 0ee3 48be 5a8d 603e a074 003f
00000110: 1df1 acbd aadb 603e a43f 203e e15f bcbe
00000120: 25f9 3ebe 63e5 b03d 2f09 173e 240c c03e
00000130: 2888 393e 9465 ab3d 4e71 3fbb 71b2 653e
00000140: 413b c0be 1b9f bc3e 2f6f febd 8895 78be
00000150: 75ef 363e cba3 10bf 35c2 43be f349 e2bd
00000160: cbeb 77bc d67e ac3d b3b6 05bc 1544 18be
00000170: aacb b93d 88e6 793e d409 b0be 6f5e ab3e
00000180: 5dcd 663c 4c47 c9bc 5262 99bd a677 163d
00000190: 2169 5abe 9f7a 243e 0f2e b23e b484 df3d
000001a0: 04c7 5dbe f8b3 5fbe 82de 89be ddf5 d4be
000001b0: 97b8 33bd 3edd 0a3e 1bbe 8bbd a6fd 2a3e
000001c0: cd2f e83d f1d4 b43e 3caa b73e 505a cbbe
000001d0: 9166 32be 611b 5d3e f681 1ebe 5457 ee3e
000001e0: 1e0d d4bd 4a4c d23c 2dd8 13bf 0a4f 0e3e
000001f0: ae45 00bf 66c6 07be 67b4 c73e 94b5 e23d
00000200: 5545 04bc 378a ee3c fb1a f7bd 7c33 773e
00000210: 4a27 47be 081b 0a3e 026c fc3e 030f 933e
00000220: d05a d4bc 3cc2 2ebe e061 3c3e 9512 553e
00000230: 439e 77bd b2e8 1dbe 1a84 42bf 5819 583e
00000240: 2e2d 92be e6ec 53be 8c9c 1c3d 65ee 073e
00000250: 2342 813e 981c a4bd 49f8 2c3d bb6c 73be
00000260: 163d 2d3e bb29 b43c 3c02 f0be d834 773e
00000270: aeb6 eebe 9a86 dcbe 640e 74be 999b 253e
00000280: 1abd 8fbc 0774 74bd 6fca 543e 31c8 52bb
00000290: c7f1 ed3d 999f 453e a242 123f 24ba d3be
000002a0: 30ae 95be 37a2 b53e d019 073c 7036 b03c
000002b0: 091a 17bd a491 10bd b9fb c33e a5d6 a4bd
000002c0: 72ff 283e 5bc9 c43e e7bc 9f3e 9604 f33d
000002d0: f7c8 43bc 4595 b0be 16a2 2cbe fabd b1bc
000002e0: 44c3 79bd afd0 d93d 96eb 703e 8723 e93d
000002f0: 9811 323e 6774 4fbe 0574 a5be 7eba 8abe
00000300: 4ba4 32bd 8eb7 913e a5fe afbe 7f69 b13e
00000310: e8de c93c 491f 62bd 9d43 b4be a7d3 27bd
00000320: 8ee0 0ebf 0356 923e 8aa7 283e 7d5e f0bd
00000330: 28be 0b3e cd4a b83e d9b3 88be 86ba f83d
00000340: daa6 7dbe 31ad 98be 2d97 8fbb 6396 0dbe
00000350: f17e 1d3e 77d9 ec3c 7193 f13d 0f9d 023d
00000360: 45ae 33bb d53c d43d 8e42 83bd 4eb3 9d3e
00000370: 6528 24bc 1d2b cb3e bed3 a73d a79b e93d
00000380: e912 ad3d dc7e 85bd 1721 a0be 9be0 373e
00000390: f8c6 0b3e fa34 95bd d42c 343d 4d59 4b3e
000003a0: effe cbbe 75fd 9a3b 3a09 1f3e 60ea 813d
000003b0: be11 a0ba ecb5 bf3d 779c ad3d 16eb 44be
000003c0: 8631 a9be 2b3d 2c3e 31dd 383e 6dba 37be
000003d0: 6a79 40be b65d 5fbd d878 03be 5854 9f3b
000003e0: 54ea c0bd afd7 d63e c839 093e d0ef 9dbe
000003f0: efea 8fbe 4291 eabe 5e82 d4be c560 17bf
0.3719942 0.096318394 -0.18656044 0.05424587 -0.1577096 0.083097704 0.10650867 0.15765844
-0.12498735 0.10635023 0.17197686 0.105488926 0.16881509 0.45642525 -0.4427642 0.40616748
-0.55039674 -0.19979195 0.44616863 0.4272027 0.28054184 -0.61255485 0.43117437 0.24802291
-0.23061192 0.098015375 -0.2487151 0.023254728 -0.21997721 0.3128997 -0.038233403 0.0041115973
-0.12983645 0.10622476 -0.19812149 0.12198237 -0.19064806 -0.0038966031 -0.5413959 0.108352564
-0.2758681 0.27987814 -0.31923538 -0.180152 -0.18771528 -0.23507963 -0.07956567 0.14536339
0.038264852 0.079670325 -0.04343732 -0.045763835 0.40648443 0.35340074 0.10312429 -0.11174192
0.17796516 0.1954116 -0.16830157 0.09083501 0.091043904 -0.093332 0.0081929965 0.059168216
0.04636834 -0.19617864 0.21928921 0.50177956 -0.08444426 0.21958795 0.15649277 -0.367919
-0.18649729 0.08637502 0.14749597 0.37509263 0.18118346 0.08368984 -0.0029211822 0.22431351
-0.37545207 0.36840138 -0.1242355 -0.24275792 0.17864783 -0.5649993 -0.19117053 -0.11049261
-0.015131901 0.084226295 -0.008161235 -0.14869721 0.09072049 0.24404347 -0.34382498 0.33470485
0.014087048 -0.02457013 -0.07489456 0.0367352 -0.21329166 0.16062401 0.34800765 0.10913983
-0.2165795 -0.21845996 -0.26927572 -0.4159383 -0.04387721 0.1356096 -0.06823369 0.16698322
0.11337242 0.3531871 0.35872066 -0.3971734 -0.17421938 0.21592475 -0.15479264 0.46551
-0.103540644 0.025671143 -0.57751733 0.13897339 -0.5010632 -0.13259277 0.39004824 0.110697895
-0.008073171 0.02911864 -0.12065693 0.24140733 -0.19448581 0.13486874 0.49301153 0.2872239
-0.025922209 -0.17066282 0.18396711 0.2080787 -0.060453665 -0.15420797 -0.7598282 0.21103418
-0.28550094 -0.20695838 0.038235232 0.13274534 0.2524577 -0.08013266 0.04222897 -0.23771946
0.16917834 0.021992555 -0.46876705 0.24141252 -0.4662375 -0.43071443 -0.23833615 0.16172637
-0.017546225 -0.059680965 0.20780347 -0.003216278 0.11618381 0.19299163 0.57132924 -0.41352952
-0.29234457 0.35475323 0.0082459 0.021510333 -0.036890063 -0.035295144 0.38277987 -0.08048753
0.16503695 0.38434872 0.3119881 0.11866109 -0.011949769 -0.34488884 -0.16858706 -0.021697033
-0.060977235 0.10635506 0.23527369 0.113837294 0.17389524 -0.20259248 -0.32315078 -0.27095407
-0.043613713 0.28460354 -0.34373966 0.346508 0.024642423 -0.055205617 -0.35207835 -0.04097333
-0.55811393 0.28581247 0.16470161 -0.11736772 0.13646758 0.35994568 -0.26699713 0.121449515
-0.2477068 -0.29819635 -0.004382035 -0.13826899 0.15380456 0.028912289 0.117957 0.031888064
-0.0027417105 0.10363165 -0.06409179 0.3080086 -0.010019396 0.3968133 0.081946835 0.114066415
0.084508725 -0.06518337 -0.31275246 0.17956774 0.1365012 -0.07285495 0.043988064 0.19858284
-0.39842936 0.0047299215 0.15530863 0.063435316 -0.0012212319 0.09360871 0.08477109 -0.19230303
-0.33045596 0.16820209 0.18053128 -0.1794221 -0.18796316 -0.05453273 -0.12839067 0.0048623495
-0.094196945 0.4196143 0.13400948 -0.30847025 -0.28108928 -0.45813948 -0.41505712 -0.59132034

network_body._body_endoder.seq_layers.0.bias f4 [128]
00000000: cec4 233b e470 75b9 f00e 43bb fbc1 083b
00000010: 1070 373b e336 8339 0d13 24bb f535 50bb
00000020: cc00 80bb 9c1a b8b9 47d4 7c3b e5bd 9a3b
00000030: db64 beb9 e5b9 7b3b 74d1 52bb dd69 5e3b
00000040: c733 71bb d869 ccba 10b5 943b 8066 9c3b
00000050: 8015 563b c745 ecba 3858 ce3a ac72 9d3a
00000060: 2f0a b23a c262 0e3b 9251 aeba 5902 513b
00000070: 3948 5aba 17f4 923b c56a 55bb 89fc 86bb
00000080: b60d 9cbb 90e6 9a3b 82f3 5e3b a3a0 87bb
00000090: 2593 393b f33c 4e3b 71ac 07b9 12ad 2b3b
000000a0: 25bb 963a fc3b 30bb 9d4a 4bbb cfb7 523b
000000b0: 39cc 93ba 0b47 7238 9054 45ba 5dfb f33a
000000c0: 0e03 83bb bc3a 513b fccd be3b 4447 46bb
000000d0: e91d 1b3b b254 a5ba 1870 543a 00f6 deba
000000e0: 3625 073c 17c0 7fbb 2d4f 693b be2b 9dba
000000f0: 81b1 e039 d59c 6ebb 496b d9b9 14c8 e4ba
00000100: 9270 9f3b 040e 02bb d90d 9dba bc8b a1b9
00000110: 6ccf 84ba f2cb 2bbb 203a 85bb eccc d6ba
00000120: 34c7 05bb 3b20 64bb 1092 cd3b 2e0d 643b
00000130: 6b1a 283b 46bc 0fbb 9668 903b 2232 913a
00000140: df38 89bb 76cf 61bb 8f7c 613a 8231 3b3b
00000150: 81fd 3dbb 09e0 943b a8a9 81ba b396 dd3a
00000160: 3967 a93a 9dc1 a3ba 526f 603b 2f1f 9b3b
00000170: 9024 53bb c110 3c39 27ed 36bb 8935 f5ba
00000180: 7343 ba3a 3603 6e3b 3cf4 b5bb 18a1 f23a
00000190: b9d4 333b 47f2 f43a ed8b 6fbb 9774 d8ba
000001a0: 4586 6d3b f02c 4abb b144 a1ba 3739 2e3b
000001b0: f462 1f3b 7e83 293b cf51 e039 ffbd 00bb
000001c0: 952b 8a3b b80f 83bb 6cc2 b33a 4579 4f3b
000001d0: 8fe6 7abb c357 61bb c6d2 4a3b 779d 8dbb
000001e0: e029 5dbb d01f 20bb d75a 2aba 8893 f4b8
000001f0: 28db 8bbb 7349 703a a718 d43b 03e0 57bb
0.002498913 -0.00023407076 -0.0029763542 0.0020867574 0.0027990378 0.0002502716 -0.002503577 -0.0031770442
-0.003906345 -0.0003511504 0.0038578676 0.004722344 -0.00036314767 0.0038410362 -0.00321683 0.003393761
-0.0036804543 -0.0015595509 0.004538186 0.004772961 0.0032666624 -0.0018026166 0.0015742844 0.0012012324
0.0013583357 0.0021726345 -0.0013299456 0.0031892268 -0.0008326802 0.004484664 -0.003256486 -0.00411946
-0.0047623767 0.004727192 0.0034019654 -0.0041390224 0.0028316465 0.0031469434 -0.00012938843 0.0026195687
0.0011499865 -0.0026891222 -0.0031019815 0.0032153015 -0.0011276073 5.776346e-05 -0.00075275544 0.0018614341
-0.003998167 0.0031925878 0.005822895 -0.003025488 0.002366895 -0.0012613742 0.00081038615 -0.001701057
0.008248618 -0.0039024407 0.003560017 -0.0011991186 0.0004285686 -0.0036409397 -0.000414694 -0.0017454647
0.0048657143 -0.001984478 -0.0011982276 -0.00030812423 -0.0010132617 -0.002621409 -0.004065767 -0.0016387976
-0.0020412924 -0.003480925 0.0062735155 0.0034797895 0.0025650512 -0.0021932288 0.004406999 0.0011077563
-0.0041876878 -0.0034455932 0.00086016295 0.0028563445 -0.0028990211 0.0045433086 -0.000989248 0.0016905874
0.001292444 -0.0012493614 0.003424604 0.004733942 -0.0032217838 0.00017935318 -0.002791235 -0.0018707971
0.0014210775 0.0036317832 -0.0055527966 0.0018511144 0.0027440025 0.0018687927 -0.0036551908 -0.0016514239
0.003624336 -0.0030849539 -0.0012303797 0.0026584396 0.0024320455 0.002586573 0.00042785562 -0.0019644496
0.004216621 -0.0039996766 0.0013714558 0.0031657976 -0.0038284396 -0.0034384585 0.0030948385 -0.00432175
-0.0033746883 -0.0024433024 -0.00064985215 -0.000116623065 -0.004268069 0.0009166218 0.0064726654 -0.0032939918

network_body._body_endoder.seq_layers.2.weight f4 [128, 128]
00000000: b70c 063c 82ac 3ebc 50bc 043d 8ce8 c4bd
00000010: 7959 6d3d 3a34 783d c420 a13d bf37 1d3e
00000020: d327 6c3e cf4e b6bc 4a4b eb3d 83f9 1a3e
00000030: 8591 a63d 21e6 10bd b20a 04be 4892 cd3c
00000040: 8853 26bc e2f4 2a3d 5bb5 d73d 16f2 1dbe
00000050: 89be 85bd 249f 05bd b713 4b3c 2335 ba3d
00000060: 1367 6ebc 6997 8a3d 7969 043d b78a 543d
00000070: 0827 143c d1b3 04be 1e08 363e f19a 9ebd
00000080: 85fe 2a3d 2a23 b7bd 5cad 6b3d 759f 33bd
00000090: 27b6 6f3c 5fff 2fbd 56e2 a6bb 3b38 803d
000000a0: fb28 ff3d 0a9b fa3b 08d9 65bd 728e fe3d
000000b0: 88c8 56bd e28e 0fbe 0e89 943d 0a16 503d
000000c0: 71ce 82bd 657b aa3c 090f 9bbd 9b53 1a3e
000000d0: 5e48 8dbd 34dc fd3d 91c8 c2bd 258e d43d
000000e0: 504d a83d 3903 01be 5a99 a43d 330c 803d
000000f0: 4c4a 43bd e93d 993d 2487 94bc d009 81bd
00000100: fe55 933d d472 773d abe5 b23d ba89 9cbd
00000110: 93a4 99bd 5152 13bd bb55 fc3d 1801 453d
00000120: c9f5 ae3d f537 1d3d 2ca4 0dbd ff46 183e
00000130: 65ff 2d3d 8c78 7e3c 7ed8 f8bb a4ff 48bd
00000140: e7e4 0b3e acfd 7cbc ccef 0f3d 5ba4 5bbd
00000150: 3741 1abe abd7 88bd 5c81 9f3c 9ea2 c93b
00000160: cb4e 243d 94e7 13bd 8892 d6bd 4196 15bd
00000170: b8a4 29be 327c 40be ec32 673c a9ad 0e3c
00000180: 46fa 6dbd c9ab 0ebd bcd1 d13c 8690 d9bd
00000190: 1196 853d d826 fabd b16e 60bd 81e1 393d
000001a0: bb74 563e 346d 963d 0c31 433b 9da8 15be
000001b0: 0216 a4bd e874 14bd 6a77 11bd 701f cd3c
000001c0: 254c 65bd 0017 c73d c3a2 a63c c381 84bc
000001d0: b203 823c b0a9 0abe 810a 4f3d d319 ac3d
000001e0: bf3e 533d 0596 9f3d 0ebe e4bc 32d1 39bd
000001f0: ca2a 583d 47b2 59bd 52c7 25be 0f5c 063d
00000200: 7999 d43d 6491 283d 3ac6 7bbd 97b4 3abd
00000210: 5a10 34bd 7538 8bbd 9655 99bd 3662 7bbd
00000220: 4e2f d43d 62df ce3d f869 0f3d 442a 90bc
00000230: 861c e5bd ecd2 983c 803e 0ebe 4deb 413d
00000240: dc3f e3bd 3d4a 55bd 44f3 0bbe a141 af3d
00000250: eca7 c53d 5239 b7bc 1ee0 803e cd99 fd3d
00000260: fd56 283e 0ccd 9ebc cf0f b5bd 9a9a f7bc
00000270: 6bf3 973d 1040 a4bd 8447 8fbd f7cb 293e
00000280: 871a 8f3c 3e4d 913c ad40 0fbc 5309 d7bc
00000290: 25ca c7bd 0d24 0fbd 51a4 063d 8d5c 9bbc
000002a0: ecdf bd3d 9e43 423d 5524 0a3d 345b 06be
000002b0: 2990 b73d 3bba f33c 5eb9 51ba 416a 5fbe
000002c0: 5ef2 083e 2efa 0dbd 73d3 d5bd e871 ddbd
000002d0: f655 0fbd 2e2e 5dbc d025 36bd dc0e 263e
000002e0: 5eb7 f33c e423 053d 6dc6 a6bd 52df fd3d
000002f0: 0214 a7bd 5b58 793d ab8a ff3d d9af 163e
00000300: fee9 e2bd 3e91 533d f238 203d 39da fabc
00000310: d18b 56bd 92b7 11bd 137a 083e f329 943b
00000320: a854 bdbd 1afb 973d 84cb 3a3d ae36 7ebd
00000330: 2db2 6cbc cd53 0abe e0e7 8b3d 80fe ba3c
00000340: 292c 29bc dfe9 debd a4d7 fa3a e959 253d
00000350: 7149 ebbc 98c2 40bd d3f6 1b3d eb41 f13c
00000360: 6038 25bd 1b34 c5ba 4284 ae3d 18ba a23d
00000370: df95 ca3c dd2e 19bd 7b7c af3d 8a83 4f3d
00000380: 3fcc 093e 09a7 813d f5f0 bf3d 625b 443d
00000390: 1a55 513e 726d a43c d206 da3c 196a 3bbb
000003a0: c440 713d 0219 9f3d 036c c23a 426a 88bd
000003b0: 3c5c 263d 0d74 d5bd e71a 7b3e 6760 133e
000003c0: 03e0 a93d 667d 813e dc99 00bd e366 37bc
000003d0: 2eec 493e 4e08 4d3e e1e1 52be 7ffc 0ebc
000003e0: 64b6 1e3a 2b43 d23c d1e1 17bd 19d4 e03a
000003f0: dbcc c0bd a3c9 ee3c 4a3b 07bd 48e3 ba3c
0.008181742 -0.011637809 0.03240615 -0.09614667 0.057946656 0.060596682 0.07867578 0.15353297
0.23062067 -0.022254376 0.114889696 0.15134244 0.081332244 -0.035375718 -0.12894705 0.025094166
-0.010151751 0.041737445 0.10532638 -0.1542438 -0.06530482 -0.03262247 0.012394837 0.09092166
-0.014550942 0.067671604 0.03232715 0.0518901 0.009042509 -0.1295922 0.17776534 -0.077443965
0.041746635 -0.08942254 0.057538375 -0.043853242 0.014630831 -0.04296815 -0.0050928993 0.06260725
0.12458988 0.0076478766 -0.05611518 0.12429513 -0.052437335 -0.14019349 0.072527036 0.050802268
-0.06387032 0.020810792 -0.07571227 0.15070955 -0.068985686 0.12395516 -0.09510911 0.103786744
0.08217871 -0.12598886 0.08037062 0.06252327 -0.047678277 0.074825116 -0.018130846 -0.063007
0.07194136 0.060412243 0.08735212 -0.07643457 -0.07502093 -0.035967175 0.12321039 0.048096746
0.085429735 0.038383443 -0.034580395 0.14870833 0.04247989 0.01553167 -0.0075941673 -0.049071923
0.13661538 -0.015441339 0.035140797 -0.05362354 -0.1506394 -0.066817604 0.019470863 0.0061534187
0.040114205 -0.036109522 -0.10477167 -0.036520246 -0.16566741 -0.18797377 0.014111262 0.008708396
-0.058100007 -0.034831796 0.025612704 -0.10623269 0.065227635 -0.1221444 -0.054793064 0.045381073
0.20942967 0.073450476 0.0029783873 -0.14615102 -0.0801201 -0.036244303 -0.035514273 0.025039405
-0.05598082 0.09721184 0.020341283 -0.016175156 0.015870903 -0.13541293 0.050547127 0.08403363
0.05157351 0.07792286 -0.027922656 -0.04536552 0.05277518 -0.053148534 -0.16189316 0.032802638
0.10380835 0.04115428 -0.06146834 -0.04558238 -0.043960907 -0.06797878 -0.07487027 -0.061372958
0.10360585 0.10101201 0.03501317 -0.017598279 -0.11187081 0.018655263 -0.1389103 0.04734354
-0.110961646 -0.052072752 -0.13667017 0.085574396 0.09651169 -0.0223662 0.25170988 0.12382851
0.16439433 -0.019384883 -0.08840906 -0.030225087 0.07419475 -0.080200315 -0.069960624 0.16581713
0.017468704 0.017737027 -0.008743447 -0.026249563 -0.09755353 -0.03494649 0.032871548 -0.01896503
0.09271225 0.047427766 0.033726055 -0.13120729 0.08963043 0.029751888 -0.0008000339 -0.21817876
0.13373706 -0.034662418 -0.10440721 -0.108127415 -0.034994088 -0.01349978 -0.044469655 0.16216606
0.029750522 0.03250493 -0.081433155 0.123961106 -0.08158113 0.060875278 0.12477621 0.14715518
-0.11079787 0.051652186 0.039116807 -0.030621635 -0.052379433 -0.035575457 0.13327818 0.0045216023
-0.092446625 0.07420941 0.045604244 -0.062063865 -0.014446777 -0.1350853 0.06831336 0.022826433
-0.01032547 -0.10884451 0.0019137752 0.040368948 -0.028721543 -0.04706058 0.038077187 0.029450377
-0.040336967 -0.0015045436 0.0852132 0.07945651 0.024729667 -0.037398208 0.08568665 0.050662555
0.1345682 0.063306876 0.09372131 0.047938712 0.2044262 0.020071719 0.02661458 -0.0028597175
0.058899656 0.07768442 0.0014833215 -0.06660892 0.040615305 -0.104225256 0.24521981 0.14392243
0.0829468 0.25290984 -0.03139673 -0.011193964 0.19719002 0.20022699 -0.20593978 -0.008727192
0.00060544 0.025666794 -0.03708059 0.0017153054 -0.09414073 0.029148882 -0.033015527 0.022813454

network_body._body_endoder.seq_layers.2.bias f4 [128]
00000000: e811 62bb 3265 8cbb 52df f93a 6cb1 37bb
00000010: bbd8 12bb 7659 87b9 33d9 dbba 2661 1bbb
00000020: 25e6 5f3b 1227 ec3a ff57 82bb 8a85 2c3b
00000030: b748 9cba 7297 a23b 60d3 11bb 9c60 573b
00000040: 2819 eaba d9f4 9f3a 117b 3ebb 44c1 5bbb
00000050: a01c 643a 2791 87bb 7c82 6539 300e 513a
00000060: 6450 95ba 587c 7f3a 934f 8cbb bd9c 903b
00000070: 1d56 763b 76d6 51bb 8efd 4fbb a85a bfba
00000080: 3719 923a 2a96 ae3a 1e64 79bb c76f 5f3b
00000090: 5d1a a3bb 6ea9 803b 104e 63bb 4dbe ffba
000000a0: d51a 873b cc9f 80bb ada7 68bb 23a1 6cbb
000000b0: e8ef 963a 70de 8abb 81dd d939 7383 9cbb
000000c0: a6d5 2c3b 6342 d53a d11a 6a3a e67a 903b
000000d0: d407 8abb 0aa6 793b e248 4abb ccfe 73ba
000000e0: 8c92 68bb d65d 63bb bad6 423b 8deb 83bb
000000f0: fd7f 7fbb 9499 9f3b 0452 43bb 5c98 2abb
00000100: ac8b 29bb 4961 083b 2fe1 8c3b a46d 67bb
00000110: 00e7 8b3a 12bd 2ebb 416d 89bb ebbe 84ba
00000120: 3e26 c538 495c 813b 6b8a de3a d14d efba
00000130: 67d7 7a3b ac48 30bb 9e4a 77bb 562c 85bb
00000140: 8380 843b dbcb 823b 4a0b 023b a8a1 d9ba
00000150: 25b3 64bb 2d4c d8ba 50d4 343b b90d 413b
00000160: b452 483b 3100 f6ba ec68 60bb 53c7 c73a
00000170: 0399 70bb 8f8e 323b 9add 1bbb e912 56bb
00000180: 4eed dbba d4f1 84bb 2158 e5ba 3696 a2ba
00000190: 4010 beb9 7c6e 7e3b 82a2 be3a b356 b5ba
000001a0: 871e b5ba 1fb9 b9ba 6971 0bba 8f22 8bbb
000001b0: f19d 33ba d2ed 27bb 2722 213a 6839 e2ba
000001c0: 74bd 043b 859b 8fbb 3c3e 1fbb 27e2 13bb
000001d0: da5c 18bb cbfc 243b 1619 783b 72e3 82bb
000001e0: fff0 303a f93c 86bb 04ad 7abb 3738 c7ba
000001f0: 00b1 7a3b 943f 613b 69bf 5eba 24f0 3dba
-0.0034495536 -0.0042845244 0.0019063747 -0.0028029336 -0.0022407013 -0.0002581586 -0.0016773104 -0.0023709028
0.0034164276 0.0018017015 -0.003977775 0.0026324713 -0.0011923526 0.0049619013 -0.0022251233 0.003286398
-0.001786028 0.0012203708 -0.0029065053 -0.0033531943 0.0008701775 -0.0041371766 0.00021887751 0.00079748314
-0.0011391756 0.00097460067 -0.004281947 0.004413216 0.0037587949 -0.0032018698 -0.0031736824 -0.0014599161
0.0011146431 0.0013319899 -0.003805406 0.0034093724 -0.004977508 0.0039264476 -0.003468398 -0.001951167
0.0041230717 -0.0039252993 -0.0035500333 -0.0036106787 0.001151559 -0.0042379424 0.000415545 -0.004776412
0.0026372462 0.0016270395 0.00089303876 0.004409182 -0.004212359 0.0038093352 -0.0030866195 -0.0009307682
-0.003548774 -0.0034693382 0.0029730038 -0.0040258826 -0.00389862 0.004870603 -0.0029803524 -0.0026030755
-0.0025870604 0.002080994 0.004299305 -0.0035313154 0.0010673702 -0.0026662988 -0.0041939323 -0.0010127699
9.400815e-05 0.003947769 0.0016978508 -0.0018257444 0.0038275362 -0.0026898785 -0.0037733684 -0.004064123
0.00404364 0.0039915866 0.0019843155 -0.0016603963 -0.0034896818 -0.0016502194 0.0027592368 0.0029457642
0.0030566873 -0.0018768368 -0.0034242226 0.0015241898 -0.0036712296 0.0027245616 -0.0023783208 -0.003266508
-0.0016779096 -0.0040571485 -0.0017497578 -0.0012404385 -0.0003625173 0.0038823178 0.0014544281 -0.0013835042
-0.0013818302 -0.001416955 -0.00053193286 -0.004246063 -0.0006851843 -0.002562393 0.00061467517 -0.001725954
0.0020254524 -0.004382553 -0.002429857 -0.0022565217 -0.0023248703 0.002517509 0.003785675 -0.0039943988
0.00067497784 -0.004096624 -0.0038250098 -0.0015199248 0.0038252473 0.003437017 -0.000849715 -0.00072455616

action_model._continuous_distribution.log_sigma f4 [1, 2]
00000000: 0e25 63bb a887 333b
-0.0034659537 0.002739409

action_model._continuous_distribution.mu.weight f4 [2, 128]
00000000: 064f 3b3c 3f5c 733c 20e7 093c 1ae4 8f3c
00000010: d9a0 863c 6858 673c 742d 223d 38c8 963c
00000020: 10fa 9abc 68a9 6bb9 ab2d c53c 5d18 c6bb
00000030: bdf6 583c d091 c0bb 0758 323d 466a 0cbd
00000040: 4d63 1dbc 8c93 07b9 d311 3c3d cf2a e13c
00000050: 544e 2bbc c554 843a 3633 583c 09b7 b7bc
00000060: fd46 2a3c c7a9 e9bc 8372 e03a 879d 9fbc
00000070: dba5 34bc dc99 3b3b d935 1d3d 307f da3c
00000080: 1916 a23b b2ea 483c 10d5 763c 9a56 aebb
00000090: 9f01 813c df89 a2bc 6004 333c 3fad 843c
000000a0: fb11 93bc 0cc3 683c 79d4 2f3c 749d 183c
000000b0: 16ad 433b 19ae d63c e966 a43c d3f9 6e3b
000000c0: 0706 41bc 9014 3d3c b25f 943b e6e2 c3bc
000000d0: 96bb 8b3b 5625 92bb b8f8 963b 8ad8 dd3a
000000e0: fc4f d13b eea7 c43c 2663 81bc ebe9 043c
000000f0: c46c 803c d062 bcbc 3800 d03c d24e a03b
00000100: dd48 d53c 4030 b535 26f4 6dbb e712 a73c
00000110: ac06 bcbc 42f2 99bb 2adb 753b 7753 563b
00000120: bb30 6b3b c92f 6fbc 0228 d3bc 7b82 adbb
00000130: 42d4 d5ba 85a5 803c 64ae 223c 506c 113d
00000140: d83b 86bc 149a f2bb 879b 7e3b 137d 493c
00000150: d124 0bbb 0b64 b33c c1f4 1dbd 9a55 d3ba
00000160: 1f56 a5bb 845e ec3b 8a40 b63c 5a45 11bc
00000170: 5a9e 1d3c 4bf3 b2bc 93dc f43c b835 123b
00000180: 48bf 1ebc 2756 833c 98c2 af3c 6c16 07bc
00000190: d6c5 ac3c 3736 ecbc 0bbc 65bc c63e 8f3c
000001a0: 850b d03c cd1d 893c e3ac 41bc 9667 0b3c
000001b0: 6255 213d 0cc0 de3c 8910 54bc c893 6dbb
000001c0: ba02 99bc fed9 42ba ca94 feba 017b 9a3c
000001d0: 9ab2 0d3c a3e6 deba aada bfbc 8644 b93c
000001e0: 5feb 57bc 3e9f 433c 9679 d13c ca9b e6bb
000001f0: f5d2 17bc e57b 45bc 6e4e 80bb 18ea 2abc
00000200: 6d07 7d3a d116 af3c fc58 07bd 1705 e4b9
00000210: 4f45 03bc 70e5 2ebc 571b 71bc b891 06bc
00000220: a3ba c4bb 4375 b5bc 615d e53c e6b3 8aba
00000230: 624c d9bc 38f1 48bc f869 a0bc 7b70 1e3a
00000240: d934 d83c b43c 02bc 196a d53c 099f 063c
00000250: 529e 373c 6ec7 1e3c 6a2c eebc 1e1f db3c
00000260: 0e3a 83bc a37a f43c 7623 303c 08eb 44bc
00000270: 72b8 d7bc 608c 7e3c cf4a d0bb 74f7 83bc
00000280: b079 3dbc ee13 c0bc 26ce 313c 53e3 16bd
00000290: 6006 643c caba 70bc b6ff 063c f06e bebb
000002a0: 2f5e bebc a362 7b3c db30 0b3c 9528 be3c
000002b0: f1c8 dfbc bd3b 0d3d 526d 02bd be56 003c
000002c0: 5878 f7ba b176 23bd 0fa5 b2bc 227e c7bc
000002d0: 37ee 953c 0b33 7cba 6739 703c 14da 35bc
000002e0: e9af de3c 0698 213c e6df ebbb daf3 123d
000002f0: 4ddf 9e3c b228 ebbc ca5a 443b 1363 ffba
00000300: ee1c 97bb bc1c 1abd 4e85 7fbc 28c7 523c
00000310: fe96 0a3d fe09 093d cf92 2b3b bad9 e2bb
00000320: a9bf 153b 9411 74bc d252 d13c 5eb9 e13b
00000330: 3226 5dbc 794a b13b 74d2 9a3c c6f5 273d
00000340: 287a 8bbc fee0 69ba bf8e c7bb c92c 84bc
00000350: 6070 2735 6811 fcbc 156c abbc 1b52 2fbd
00000360: 4219 06bc 7dd9 cbbb 3327 243c 2ffc 043c
00000370: a27d 103c 04a7 893a aba8 613b 1eaf db3b
00000380: de01 b23c c719 ce3c 53db fcbb af02 813c
00000390: 5d85 bcba ec86 93bc eee5 703c fa96 f7ba
000003a0: c9f2 6bbc 3303 2fba 0676 003d afc0 b03c
000003b0: f7f1 0ebd dd35 e6ba bad1 523c 23af 813c
000003c0: 3af2 ce3b aa11 613b 6e5a 9f3c 95fa 2bbc
000003d0: 903f cbbb ec7c cfbc e40e 69bc 3f17 4b3d
000003e0: 71d7 6b3c eed7 8b3c 063e b83c 37b9 503c
000003f0: 942c 6bbc ea47 72bc 9e46 5f3c 088a 603c
0.011432415 0.014853536 0.008416921 0.017564822 0.01643412 0.014120199 0.03959413 0.018406019
-0.018918067 -0.00022474455 0.024069628 -0.006045385 0.013242421 -0.005876757 0.04354098 -0.034281038
-0.009606195 -0.00012929569 0.045915436 0.027486233 -0.010455687 0.0010096064 0.013195803 -0.022426145
0.0103929015 -0.028523339 0.0017123971 -0.019484295 -0.011025871 0.0028625643 0.03838143 0.026671976
0.004946482 0.012262987 0.0150654465 -0.0053203823 0.015747843 -0.019841133 0.010926336 0.016195891
-0.01795291 0.014206659 0.01073181 0.0093148835 0.0029857806 0.026206063 0.020068603 0.0036464825
-0.011781222 0.011540547 0.0045280093 -0.023911905 0.0042643053 -0.004460017 0.0046072863 0.0016925496
0.0063877087 0.024005856 -0.015794348 0.008112411 0.015676863 -0.022996336 0.02539073 0.0048922086
0.02603572 1.3499593e-06 -0.0036308854 0.020394756 -0.0229524 -0.004698069 0.0037514665 0.0032703558
0.00358872 -0.014598795 -0.025775913 -0.0052950955 -0.0016313868 0.015703926 0.009929273 0.035503685
-0.016385958 -0.0074036215 0.0038850026 0.012297886 -0.002123166 0.02189829 -0.038563494 -0.0016123534
-0.005045667 0.0072134156 0.022247571 -0.008866632 0.0096202735 -0.021844527 0.029890334 0.002230985
-0.00968916 0.016032292 0.021455094 -0.008245092 0.02109043 -0.028834445 -0.014021884 0.017485987
0.025396118 0.016737843 -0.011821005 0.0085085835 0.039388068 0.027191184 -0.012943395 -0.0036251415
-0.018678058 -0.0007432996 -0.0019423005 0.018857481 0.008648539 -0.0017005991 -0.023419697 0.022615682
-0.013178675 0.011939822 0.025570672 -0.0070376145 -0.009266605 -0.012053465 -0.0039155995 -0.010431789
0.00096522906 0.021373184 -0.033043846 -0.0004349134 -0.00801213 -0.010674819 -0.014715991 -0.008213453
-0.006003694 -0.022150641 0.027998628 -0.0010582178 -0.02652568 -0.012264542 -0.01958178 0.00060439826
0.026392387 -0.007949043 0.026051568 0.008216628 0.01120718 0.009691102 -0.029073913 0.026748236
-0.016018894 0.029843634 0.010750642 -0.012018926 -0.026333068 0.015536398 -0.006356574 -0.016109206
-0.011564657 -0.023447003 0.010852372 -0.036837887 0.013917536 -0.0146929715 0.008239677 -0.0058115646
-0.02323827 0.015343341 0.008495535 0.02321271 -0.027317496 0.0344808 -0.031842537 0.007833181
-0.001888047 -0.039908115 -0.021807222 -0.024352137 0.018302066 -0.0009620643 0.014662123 -0.011099357
0.02718349 0.009862905 -0.0071983216 0.035877086 0.019393587 -0.028705928 0.002996134 -0.0019484482
-0.004611603 -0.03762506 -0.015595747 0.012864865 0.033835404 0.033456795 0.0026180034 -0.0069229277
0.0022849834 -0.014896769 0.025552187 0.0068885526 -0.013497876 0.005410489 0.01889918 0.041005872
-0.017026022 -0.0008921771 -0.0060900147 -0.016134636 6.2375875e-07 -0.030770019 -0.020925561 -0.04280291
-0.008184733 -0.006220995 0.010019111 0.008116766 0.008819016 0.0010502045 0.003443281 0.006704225
0.021729406 0.025158776 -0.007716575 0.01574835 -0.0014383007 -0.018008672 0.014703257 -0.0018889599
-0.014401146 -0.0006676197 0.031362556 0.021576254 -0.034898724 -0.001756366 0.0128673855 0.015830582
0.0063154968 0.0034342804 0.0194523 -0.010496755 -0.0062026456 -0.025328122 -0.014224742 0.049582716
0.014394627 0.017070737 0.022490513 0.012739471 -0.01435389 -0.014787653 0.013627676 0.013704784

action_model._continuous_distribution.mu.bias f4 [2]
00000000: 1785 3dbb 2240 47bb
-0.002891844 -0.0030403216
