python/results/minion_walk_003/Minion/Minion-10827.onnx (onnx, 71890 bytes, 7 tensors)

network_body._body_endoder.seq_layers.0.weight f4 [128, 3]
0	0xbeb057a7	-0.34441873
1	0x3f87462e	1.0568292
2	0x3e303f1b	0.17211573
3	0x3c9a3a05	0.018826494
4	0x3f9d5c84	1.2293859
5	0xbec97b61	-0.39351943
6	0xbf6cb986	-0.92470586
7	0xbda76c7c	-0.081749886
8	0x3f2a0683	0.66416186
9	0x3f06d1de	0.5266398
10	0xbfb0aea2	-1.3803294
11	0xbf49f35a	-0.7888695
12	0xbf1587ce	-0.58410347
13	0xbf92e0fa	-1.1474907
14	0xbd8f1aa0	-0.069875
15	0xbef389f0	-0.47566175
16	0x3f082580	0.5318222
17	0xbf5d3d91	-0.8642207
18	0x3d9f5e35	0.077816404
19	0xbf7ac265	-0.9795287
20	0x3f9686d4	1.1759896
21	0xbe96e3c6	-0.29470652
22	0xbd7ce979	-0.061746094
23	0xbe3067cc	-0.17227095
24	0x3f3897c1	0.7210656
25	0xbdedd962	-0.11613728
26	0xbf311cbf	-0.6918449
27	0xbef7e1ae	-0.48414367
28	0xbe449915	-0.19199021
29	0x3f147a70	0.57999325
30	0x3f011c1e	0.5043353
31	0x3dd31043	0.10305836
32	0xbe01d223	-0.12677817
33	0xbe17d808	-0.14828503
34	0x3b81ebce	0.0039648777
35	0x3f026f44	0.5095103
36	0x3f0687f4	0.525512
37	0xbdcb23d6	-0.099189445
38	0x3ed29f4f	0.41137168
39	0x3f5b9026	0.8576683
40	0xbe6994eb	-0.22810714
41	0xbf350d9b	-0.70723885
42	0x3e42c180	0.19019127
43	0x3e5e149c	0.2168755
44	0xbf571855	-0.840215
45	0xbe5a7236	-0.2133263
46	0x3ed3376b	0.41253218
47	0x3e51dcc9	0.20494379
48	0x3f12e266	0.57376707
49	0x3e52bf7c	0.20580858
50	0x3d867581	0.06565381
51	0xbd62bcac	-0.055355713
52	0x3e2f3fe5	0.17114218
53	0x3d9189ee	0.07106386
54	0xbf3942b7	-0.72367424
55	0x3f8402a5	1.0313307
56	0x3f0623a4	0.52398133
57	0x3e0ced2c	0.13762349
58	0x3e899cbe	0.26877397
59	0x3e1a50a3	0.15069823
60	0xbe5587fa	-0.20852652
61	0x3ec41eeb	0.3830484
62	0x3edc5eb1	0.43040994
63	0xbe9cd41f	-0.30630586
64	0xbf1734fb	-0.59065217
65	0x3e9e7ae5	0.30953136
66	0xbee95d39	-0.45578936
67	0x3e86fc80	0.26364517
68	0x3dbc958a	0.0920821
69	0xbfab35ae	-1.3375757
70	0x3e406b65	0.18790968
71	0x3f64ddad	0.8940075
72	0xbf1acf05	-0.60472137
73	0xbf0e5306	-0.55595434
74	0xbecf5750	-0.40496302
75	0x3e8e2e1c	0.27769554
76	0x3e5ac6c0	0.2136488
77	0xbf006f26	-0.501696
78	0x3e3e76f3	0.18600063
79	0xbea6ebcb	-0.3260177
80	0x3c8bfad3	0.017087376
81	0xbe82404e	-0.25439686
82	0xbc5f77ec	-0.013639431
83	0x3f857f04	1.0429387
84	0xbf99720d	-1.198793
85	0xbf8987a9	-1.0744525
86	0xbef65900	-0.48114777
87	0x3e451d96	0.19249567
88	0x3f341707	0.70347637
89	0x3e22cdab	0.15898769
90	0x3cb51d95	0.022108832
91	0x3f0c90a4	0.54908204
92	0xbf652475	-0.89508754
93	0x3f20bb1b	0.627855
94	0x3e94cae9	0.29061058
95	0xbe8e54fc	-0.27799213
96	0x3f368a7e	0.7130507
97	0xbf9c4d89	-1.2211162
98	0x3f0817b2	0.53161156
99	0xbf646f4b	-0.8923232
100	0x3e4e887b	0.2016925
101	0xbf0772df	-0.52909654
102	0x3fb0f6c7	1.382531
103	0xbecc6ad6	-0.3992526
104	0x3fbed596	1.4908931
105	0x3f0aad1e	0.54170406
106	0xbe79eef0	-0.24407554
107	0xbd62bea5	-0.055357594
108	0x3bf0b92d	0.0073462934
109	0xbd2e4127	-0.042542603
110	0xbfa64708	-1.2990427
111	0x3c63d52d	0.013905806
112	0xbc47ba42	-0.012190403
113	0x3e8c2475	0.27371565
114	0x3e52174c	0.205167
115	0x3e4178da	0.18893757
116	0x3d38e157	0.045136776
117	0x3fc12c57	1.5091656
118	0xbf4114c4	-0.7542231
119	0xbe86da4f	-0.2633843
120	0xbe1edf8a	-0.15514961
121	0xbf3f832e	-0.7480954
122	0xbd9a4ed4	-0.075345665
123	0xbc8a8e39	-0.01691352
124	0xbf0db9fb	-0.5536191
125	0x3ebdad19	0.37046126
126	0x3e108878	0.14114559
127	0x3e94f2a7	0.2909138
128	0xbece09f8	-0.4024198
129	0x3de4e0f8	0.11175722
130	0x3f419d25	0.7563041
131	0xbed2a410	-0.41140795
132	0xbe9c1eda	-0.30492288
133	0x3e6dd21a	0.23224679
134	0xbfa003f2	-1.2501204
135	0x3e16e4d9	0.14735736
136	0x3d9f6b28	0.0778411
137	0xbfe1ad78	-1.7631063
138	0xbf465b4b	-0.7748305
139	0xbe288ac5	-0.16459186
140	0xbecbbb90	-0.39791536
141	0xbecd629b	-0.40114293
142	0x3eab3899	0.33441618
143	0x3ea106ef	0.31450602
144	0x3d24774b	0.04015283
145	0xbf857206	-1.0425422
146	0x3f42eafd	0.76139814
147	0x3f7bebcf	0.9840669
148	0x3e9fb1b0	0.31190252
149	0xbf3e5bf8	-0.74359083
150	0xbf2e28df	-0.68031114
151	0x3ec3ed02	0.3826676
152	0x3c7ef57b	0.015561457
153	0x4005d05a	2.0908418
154	0xbd70ac35	-0.05875798
155	0xbe8d48e7	-0.27594683
156	0xbf51bf50	-0.81932545
157	0x3d924399	0.071417995
158	0xbf251bdb	-0.6449563
159	0x3e94f3fc	0.29092395
160	0xbec7600b	-0.38940462
161	0xbed0b3c9	-0.40762165
162	0xbe3a7efd	-0.18212505
163	0x3ed45a7e	0.4147529
164	0xbb9718e8	-0.0046111234
165	0xbf3c16f9	-0.73472553
166	0x3f03f678	0.51547956
167	0xbf3e6145	-0.7436717
168	0xbf9ba4a2	-1.2159617
169	0xbf94a10d	-1.1611649
170	0x3ee623b2	0.44949108
171	0xbeb3dabd	-0.35127822
172	0x3f1060d2	0.56397736
173	0xbe78b258	-0.24286783
174	0xbdf77384	-0.1208258
175	0xbf8c3489	-1.0953532
176	0x3eb2d717	0.34929726
177	0x3d72584e	0.059166245
178	0x3c5c76f1	0.013456092
179	0xbf1cbbce	-0.6122407
180	0x3efdaa7d	0.49544135
181	0x3e7ee4ba	0.2489194
182	0xbf94cb38	-1.1624517
183	0x3f1afae3	0.6053907
184	0x3e9c6ae1	0.30550292
185	0x3e9c5e76	0.30540818
186	0xbeaa0e2b	-0.33213934
187	0x3c9c49a3	0.019078081
188	0x3e32ded2	0.17467812
189	0xbf98afff	-1.192871
190	0xbf278200	-0.6543274
191	0xbda42742	-0.080153
192	0x3f1f2d9b	0.62178963
193	0x3f2ce2c3	0.6753351
194	0x3e98716a	0.29774028
195	0xbf055206	-0.5207828
196	0x3e5d33a5	0.21601732
197	0xbcee5837	-0.029094798
198	0x3ed52704	0.4163133
199	0x3f880cb5	1.0628878
200	0x3f56fdef	0.8398122
201	0xbf450786	-0.76964605
202	0x3f3b47d3	0.7315647
203	0xbe12651d	-0.14296384
204	0x3e789333	0.24274902
205	0xbe3d12b8	-0.18464172
206	0xbf8e757d	-1.1129605
207	0xbf532dc2	-0.82491696
208	0x3b3ad164	0.0028506154
209	0xbf47615f	-0.7788295
210	0xbf1cb1bc	-0.612087
211	0x3f41ed4f	0.7575273
212	0x3e66a324	0.2252317
213	0x3ea07ba0	0.31344318
214	0x3f123659	0.5711418
215	0x3eec3efe	0.4614181
216	0x3fabf36c	1.3433661
217	0xbf671480	-0.90265656
218	0xbf83daec	-1.0301185
219	0x3e75754d	0.23970528
220	0x3d5d820f	0.05407911
221	0x3e95c980	0.29255295
222	0x3cd7b8cb	0.026333233
223	0x3d750bb2	0.059825607
224	0x3d28e33d	0.041232336
225	0x3f264e28	0.64963007
226	0x3edbb3b1	0.4291053
227	0x3e5b278f	0.21401809
228	0xbf09b78f	-0.53795713
229	0xbf361dd7	-0.7113928
230	0x3d72cd20	0.059277654
231	0x3d3cef00	0.046126366
232	0x3ea0279d	0.31280223
233	0x3f2cd1a3	0.6750738
234	0x3d2ffe1e	0.042966954
235	0x3c03012d	0.007995886
236	0xbe8022db	-0.25026593
237	0xbe1a3dde	-0.15062663
238	0xbfbd1916	-1.4773281
239	0xbdcd8159	-0.10034437
240	0xbf101e0c	-0.5629585
241	0x3d91776e	0.071028575
242	0x3f6f92d1	0.935834
243	0xbea8f125	-0.3299648
244	0xbf59e288	-0.85111284
245	0xbe165dfe	-0.14684293
246	0xbea17449	-0.3153403
247	0xbee9857a	-0.45609647
248	0x3ba445ad	0.005013189
249	0x3e83dd81	0.25754932
250	0x3eb0a7da	0.3450306
251	0xbf68d7c2	-0.9095422
252	0xbee7437d	-0.45168677
253	0x3e6ac1d5	0.22925504
254	0xbf0fadf7	-0.56124824
255	0x3e96c781	0.29449084

network_body._body_endoder.seq_layers.0.bias f4 [128]
0	0xbac109c3	-0.0014727641
1	0xbb915608	-0.0044353046
2	0xbb8e21dc	-0.0043375324
3	0x3c100589	0.008790382
4	0x3afa57a3	0.0019099604
5	0xbb39afd9	-0.0028333573
6	0x3b6d7bdd	0.0036237158
7	0xbaff2e22	-0.0019468705
8	0x3b68a274	0.003549722
9	0x3ad872a5	0.0016513659
10	0x3bd41c1f	0.006473079
11	0xbb4c261d	-0.0031150647
12	0x3b94bcbe	0.0045391014
13	0x3ba75c37	0.0051074284
14	0x3b993982	0.004676045
15	0xbb1feea9	-0.0024403727
16	0x39d32d7b	0.00040278942
17	0xbae4695a	-0.0017426417
18	0xbae9d105	-0.0017838782
19	0x3b07ed60	0.0020740852
20	0xbb723c89	-0.0036962351
21	0x3b3a1bf2	0.0028398004
22	0xbc4b5fe5	-0.012413
23	0xb845313b	-4.701431e-05
24	0x3a86f9d1	0.001029784
25	0x3b91f1d0	0.004453875
26	0xb9d4c0d5	-0.00040579462
27	0x3a9826fd	0.0011608299
28	0x3b9e4a4a	0.0048306333
29	0x3b8839c6	0.0041572778
30	0x3b69cc8a	0.0035674893
31	0x3bb89b17	0.0056337225
32	0xbb9d68b6	-0.0048037423
33	0x39b3f1b6	0.0003432163
34	0xbb8e5ae4	-0.004344331
35	0x3bb82c16	0.00562049
36	0x3976ee43	0.00023549148
37	0x3b41ae26	0.0029553263
38	0x3b7efb04	0.0038906941
39	0xbc2aa7d6	-0.010415992
40	0x3aa3f53e	0.0012509001
41	0xbab0b082	-0.0013480338
42	0xbac545ef	-0.0015050749
43	0xbbb1fbd2	-0.0054316306
44	0x3aa403c2	0.0012513327
45	0x3a8a4427	0.0010548875
46	0xbaa69dc3	-0.0012711812
47	0xbba81a81	-0.0051301126
48	0xbbb4c88e	-0.005517072
49	0x3bd8f920	0.006621495
50	0xbace4b2c	-0.0015738956
51	0x3c612faa	0.013744274
52	0xba94eea3	-0.0011362623
53	0x3bfb77be	0.0076741865
54	0xb98ba8f7	-0.00026638035
55	0x39f786fd	0.00047212085
56	0xbbb97d5a	-0.005660695
57	0xbb5495ce	-0.0032437923
58	0xb97f8865	-0.00024369506
59	0x3b0497c1	0.0020232054
60	0x3bad9f3c	0.005298523
61	0x3bb8e2b3	0.005642259
62	0xbb404b81	-0.0029341879
63	0x3af92b21	0.0019010046
64	0x3bc97b87	0.006148759
65	0xba3f460c	-0.00072965096
66	0xbb28d7d4	-0.002576341
67	0xbacf13e5	-0.0015798776
68	0x3bb38ca5	0.0054794126
69	0x3b58b731	0.0033068175
70	0xbb03051e	-0.0019992064
71	0x3b354afb	0.00276631
72	0x3c056e5f	0.00814399
73	0x3ad86cb3	0.0016511887
74	0xbb1074c4	-0.0022042254
75	0x3bdfd30e	0.0068305796
76	0xbad8b200	-0.001653254
77	0x3b21e3e0	0.0024702474
78	0xb6f30058	-7.2420044e-06
79	0xba3911c4	-0.0007059837
80	0xbaf94762	-0.0019018466
81	0xba93041d	-0.0011216436
82	0xbb0863a5	-0.0020811346
83	0xbbb76f90	-0.005598016
84	0x38455929	4.7051497e-05
85	0x3aa893d1	0.0012861436
86	0x3becc9d7	0.0072262096
87	0xbad10913	-0.0015948139
88	0x3b89a818	0.0042009465
89	0x3bd921b3	0.0066263317
90	0x3bbfd6f3	0.0058544814
91	0xbb6e4e08	-0.0036362428
92	0xbbbb5ca0	-0.005717829
93	0x39ce9da2	0.00039408827
94	0xbbc93ebc	-0.0061415117
95	0xba97547b	-0.0011545563
96	0x39619bba	0.00021515685
97	0xbb7b89c5	-0.0038381678
98	0xbc107596	-0.008817097
99	0xbbd67dcc	-0.006545758
100	0xbc08e9bb	-0.008356507
101	0x3b68189b	0.0035415057
102	0xbb8c03fa	-0.004272935
103	0x3bc16ab7	0.005902614
104	0xbac32d63	-0.0014890846
105	0xbb08a91a	-0.0020852746
106	0x3b978148	0.004623566
107	0xbbee25b8	-0.00726768
108	0xbbbf3074	-0.0058346335
109	0xbbea0c73	-0.0071425973
110	0xbc17053e	-0.009217558
111	0x3b2f2168	0.0026722793
112	0x3b6ee385	0.003645153
113	0xbb8c1fe9	-0.004276265
114	0xba5c2d82	-0.0008399115
115	0xbacd68ea	-0.0015671526
116	0xb714b4a6	-8.863548e-06
117	0xbacd8a1e	-0.0015681421
118	0x3b4350a1	0.0029802697
119	0xb95c2852	-0.00020995855
120	0x3b80c97a	0.003930268
121	0xbbdaf78e	-0.006682343
122	0x3be80c77	0.007081564
123	0x3b621150	0.0034495182
124	0x3bde6595	0.006787012
125	0x3af50fad	0.0018696688
126	0xbabf94bc	-0.001461647
127	0xbb38035a	-0.002807817

network_body._body_endoder.seq_layers.2.weight f4 [128, 128]
0	0xbdb25e29	-0.08709366
1	0xbd01f3d7	-0.031726684
2	0xbd04d791	-0.032432143
3	0xbe1344b9	-0.14381684
4	0xbd9f3f06	-0.07775693
5	0x3c646ce4	0.013941977
6	0xbcc89b9c	-0.024488263
7	0x3bde1e44	0.0067785103
8	0x3d473456	0.048633896
9	0xbdfc8406	-0.12329869
10	0xbc82362d	-0.015894974
11	0x3de3450f	0.11097156
12	0xbd45db8c	-0.04830508
13	0xbd1717a7	-0.03688779
14	0xbd8a8747	-0.06764083
15	0xbddb7626	-0.107158944
16	0xbc074f17	-0.008258603
17	0xbd36335b	-0.04448257
18	0xbc5f5f74	-0.013633598
19	0xbaf0aca0	-0.0018361993
20	0xbdccbc34	-0.099968344
21	0x3d9f68ab	0.07783636
22	0x3cd1d290	0.0256131
23	0xbd97b00a	-0.07406624
24	0x3d5b8190	0.053590357
25	0xbe1eef58	-0.1552099
26	0x3d2c491f	0.04206192
27	0x3c985c1f	0.018598614
28	0xbc4aae52	-0.012370663
29	0xbde1de32	-0.110287085
30	0xbd211891	-0.03933007
31	0xbde0c5bf	-0.10975217
32	0x3c20ac6f	0.009806736
33	0x3d3cd29c	0.04609929
34	0xbd47efad	-0.048812557
35	0x3d80ce55	0.06289355
36	0x3d22a534	0.03970833
37	0x3d1ae6c5	0.037817735
38	0xbbdbf461	-0.006712482
39	0xbdaf9c84	-0.08574775
40	0xbc412e5c	-0.011790838
41	0xbc4be448	-0.012444563
42	0x3c9fba14	0.019497909
43	0xbe055258	-0.13019693
44	0x3e147add	0.14499994
45	0x3e00933c	0.12556165
46	0xbd3d080e	-0.04615026
47	0x3d478df3	0.048719358
48	0x3c6c4a1a	0.014421964
49	0x3de4a0b6	0.11163466
50	0x3e004a93	0.12528448
51	0xbc3bedd8	-0.011470281
52	0x3d4c8302	0.049929626
53	0xbe2a4051	-0.16626097
54	0x3d4d50c0	0.050125837
55	0xbce8a088	-0.02839686
56	0x3ce0a93e	0.027424451
57	0xbd36290e	-0.044472747
58	0x3e019ebf	0.12658213
59	0x3d87434d	0.066046335
60	0x3db3e4aa	0.087838486
61	0xbbef7872	-0.0073080594
62	0x3e2d016a	0.1689507
63	0x3e2455f1	0.16048409
64	0xbd1b3399	-0.037891004
65	0x3d860c6a	0.065453365
66	0xbdbca81f	-0.09211754
67	0x3ab18b6a	0.0013545577
68	0x3db2355d	0.087015845
69	0x3d1132d7	0.035448875
70	0x3d4d0a72	0.05005879
71	0xbc3168f4	-0.010828245
72	0xbd852b4f	-0.06502401
73	0xbcd39c98	-0.025831506
74	0xbd4ccecd	-0.050001908
75	0x3c63fe6d	0.01391564
76	0xbb65f336	-0.0035087592
77	0xbd8cb32f	-0.06870114
78	0x3d11290b	0.035439532
79	0x3c2eca3b	0.010668333
80	0xbc47b3b2	-0.012188839
81	0xbda41f5c	-0.08013794
82	0xbdf1a800	-0.117996216
83	0xbe1b2d62	-0.15154031
84	0x3dcad6b5	0.09904233
85	0xbd06474b	-0.032782834
86	0x3dd6a3fc	0.10480496
87	0xbcf12dc1	-0.029440762
88	0xbd2f264f	-0.042761143
89	0x3d1f7028	0.03892532
90	0x3c4491c6	0.011997646
91	0x3db8be88	0.09020716
92	0xbd627ac5	-0.055292863
93	0x3cf87528	0.030329302
94	0xbd130a5d	-0.035898555
95	0xbddbdc5f	-0.10735392
96	0xbe06472f	-0.13113092
97	0x3dcc8814	0.09986892
98	0x3da28c85	0.07936958
99	0xbc80e9ef	-0.015736548
100	0xbd1a9ce8	-0.037747294
101	0x3d0ba836	0.034095965
102	0xba7ccec4	-0.00096438476
103	0x3cd36dd3	0.025809204
104	0x3ccc0462	0.024904434
105	0x3ddbc2a8	0.10730487
106	0x3cbbc3a8	0.022920445
107	0xbcc2d58e	-0.023783471
108	0xbd837b4f	-0.064200036
109	0x3df2664d	0.118359186
110	0xbc274afc	-0.010210749
111	0x3da43ff8	0.080200136
112	0xbcb48620	-0.022036612
113	0xbdc4c5f6	-0.096080706
114	0x3e841d65	0.25803676
115	0xbd8059e6	-0.06267147
116	0x3db53b28	0.08849174
117	0xbdca66b8	-0.09882873
118	0x3e1eed51	0.15520217
119	0xbdfb645a	-0.12275
120	0xbd0b4966	-0.034005545
121	0x3e16a718	0.14712179
122	0x3d7498ae	0.05971592
123	0x3d513947	0.051080015
124	0xbd893aa9	-0.06700642
125	0x3d1f2904	0.038857475
126	0x3e27b331	0.1637695
127	0xbd4055e0	-0.046956897
128	0xbcbced08	-0.023062244
129	0x3d1c859a	0.03821335
130	0x3c10360e	0.00880195
131	0xbdf317bd	-0.11869762
132	0x3b2dc2f8	0.0026513916
133	0xbd063a31	-0.03277034
134	0x3de0a21d	0.10968421
135	0xbcf1db8e	-0.029523637
136	0xbdb518cc	-0.0884262
137	0xbd1da923	-0.03849138
138	0xbcbaa8b1	-0.022785516
139	0xbd9f947a	-0.077919915
140	0xbc307232	-0.010769414
141	0xbc3462ca	-0.011009881
142	0xbdec7797	-0.115462475
143	0x3d3e9618	0.04652986
144	0xbc56d59c	-0.013112452
145	0xbcd81dce	-0.0263814
146	0xbd822639	-0.06354947
147	0xbe198c2c	-0.14994878
148	0xbddb8344	-0.10718396
149	0xbcb9dee9	-0.0226893
150	0xbb0e9bd6	-0.0021760366
151	0x3e2a23c3	0.16615205
152	0x3d30bdec	0.043149874
153	0xba4bf4f8	-0.00077803386
154	0xbcf80664	-0.030276485
155	0xbd528f4f	-0.0514062
156	0x3d831e24	0.06402233
157	0x3b565509	0.0032704493
158	0x3d2fc0d5	0.04290851
159	0x3dcd6e53	0.10030808
160	0xbd831576	-0.06400578
161	0x3c21c15d	0.009872762
162	0xbcb39b1a	-0.021924544
163	0xbdc43ed7	-0.09582298
164	0xbe0f8b4b	-0.1401798
165	0xbdb1525e	-0.086582884
166	0x3db4c97c	0.088274926
167	0xbe436f42	-0.1908541
168	0xbcbc3215	-0.0229731
169	0x3d917765	0.07102851
170	0x3c537bed	0.012907964
171	0x3d5fdd7c	0.054654583
172	0x3e0d9023	0.13824515
173	0x3ad02a93	0.0015881829
174	0x3df32014	0.11871353
175	0x3c73be96	0.014876982
176	0x3e1f8a95	0.15580209
177	0xbdfe93a3	-0.12430503
178	0xbe032556	-0.12807211
179	0xbd93bc4e	-0.07213651
180	0xbe521063	-0.20514064
181	0xbe3a911a	-0.18219414
182	0xbddb2ae9	-0.10701544
183	0x38b0b13e	8.425348e-05
184	0xbd5f1598	-0.054463953
185	0xbc6206e5	-0.013795589
186	0xbdf227fc	-0.11824033
187	0xbd4e9d68	-0.050443083
188	0xbd982390	-0.07428658
189	0xbdc051a5	-0.093905725
190	0x3db56219	0.08856601
191	0xbd5f4a7f	-0.054514404
192	0x3cf0fbd1	0.02941695
193	0xbd4576eb	-0.048209112
194	0x3ca54af0	0.020177335
195	0xbd78d3e8	-0.060748965
196	0x3c4150ae	0.011799021
197	0x3e2247ef	0.15847753
198	0x3e413081	0.18866159
199	0xbd97ca51	-0.07411636
200	0x3d30e3f7	0.043186154
201	0x3b54205e	0.0032367925
202	0x3d0a3455	0.033741314
203	0xbd3a5539	-0.04549143
204	0x38c61246	9.4447794e-05
205	0xbcb03f11	-0.021514447
206	0xbe260168	-0.16211474
207	0x3a058b60	0.0005094316
208	0xbd16e58a	-0.03684
209	0x3b9a9133	0.004717016
210	0x3b249dde	0.002511851
211	0xbd331efa	-0.043730713
212	0xbd9027eb	-0.07038864
213	0x398e83c0	0.00027182512
214	0x3d122e8e	0.03568893
215	0x3d206de1	0.03916729
216	0xbd7ec40c	-0.062198684
217	0x3d7ce277	0.06173941
218	0x3e1c1f28	0.1524626
219	0x3c274613	0.010209578
220	0x3e19734f	0.14985393
221	0x3dbb3f5e	0.09142946
222	0x3e0c0e6c	0.13677377
223	0xbdab9e1a	-0.08379765
224	0x3db07c80	0.086174965
225	0xbd830563	-0.06397512
226	0x3d06cd9d	0.03291093
227	0x3cf4a06f	0.029861657
228	0xbd927f3a	-0.07153173
229	0x3daa2c2f	0.083092086
230	0xbd82113e	-0.06350945
231	0x3d0d215a	0.034455635
232	0x3d80d79b	0.062911235
233	0x3d10a0fd	0.03530978
234	0xbd9ba806	-0.07600407
235	0x3d9295c0	0.07157469
236	0xbda0eb30	-0.078573585
237	0xbd8a212a	-0.06744607
238	0xbe3d4ee6	-0.18487129
239	0x3dbd370d	0.09239016
240	0x3e4c11f2	0.1992872
241	0xbd982297	-0.074284725
242	0xbd647721	-0.055777673
243	0x3a33e68c	0.0006862662
244	0xbdc3fd1b	-0.095697604
245	0x3d8db2bd	0.06918857
246	0xbe03629c	-0.12830585
247	0xbdd89af1	-0.10576428
248	0xbe57ea83	-0.21085553
249	0xbd896d9e	-0.06710361
250	0xbd03f304	-0.03221418
251	0x3deff645	0.11716894
252	0x3bf2eceb	0.0074134967
253	0xbe48ba6b	-0.19602363
254	0xbc9424f9	-0.018084036
255	0x3e230eb6	0.1592358

network_body._body_endoder.seq_layers.2.bias f4 [128]
0	0xbb51b855	-0.003200074
1	0xbb2a7da3	-0.0026014827
2	0x3b47e43f	0.0030501036
3	0x3bba64d0	0.0056882873
4	0xbb9976e3	-0.004683362
5	0x3a168ee9	0.0005743341
6	0x391dd734	0.00015052856
7	0xbaef41de	-0.0018253883
8	0xbb60068c	-0.003418359
9	0x38cb0c13	9.682043e-05
10	0xba68b96c	-0.00088777277
11	0xbb71cd9f	-0.0036896241
12	0xba9d42a1	-0.0011998006
13	0x3b0bd1ef	0.0021334847
14	0x3bb67b47	0.005568895
15	0x3a638797	0.0008679567
16	0xba67bb80	-0.00088398904
17	0xbb3a1840	-0.0028395802
18	0x3bb620f4	0.0055581275
19	0xbb2fa1ac	-0.0026799245
20	0xbb41d0e4	-0.0029573971
21	0x3b64e618	0.0034927186
22	0x3b42ad42	0.002970532
23	0xba9c4916	-0.0011923637
24	0x3b88095e	0.0041515073
25	0xbb94fcf3	-0.0045467555
26	0xbbdafcba	-0.0066829594
27	0xba8b3ac2	-0.001062237
28	0xbad40e56	-0.0016178589
29	0xba6d9797	-0.0009063421
30	0xbb351d33	-0.0027635812
31	0xbb22e0d2	-0.0024853242
32	0x3b748ab4	0.0037314119
33	0x3ba9e89c	0.0051852
34	0x3b7ab15c	0.0038252687
35	0x3b0557b1	0.0020346458
36	0x3b2919e8	0.0025802795
37	0xbb904a1b	-0.0044033653
38	0xba33d5ea	-0.0006860184
39	0xbb1e590e	-0.0024161967
40	0xbb0ffcd4	-0.0021970766
41	0xb952c9a3	-0.00020102276
42	0xbafcfa63	-0.0019300695
43	0x3a062caa	0.000511835
44	0x3a713c13	0.0009202372
45	0xbb523971	-0.0032077695
46	0xbb957ffa	-0.004562375
47	0x3a51c858	0.0008002571
48	0xba3ddcd1	-0.0007242682
49	0xba37b791	-0.00070082495
50	0x3a82978d	0.0009963379
51	0x3be41e18	0.0069615953
52	0xbb4cf896	-0.0031276098
53	0x3a6d3946	0.0009049367
54	0x399cfc2d	0.00029942524
55	0x3bf0b1b8	0.0073454045
56	0x3ba6cdcd	0.0050904513
57	0x3b95cc57	0.0045714783
58	0xbb89df58	-0.004207533
59	0x3b594b43	0.0033156432
60	0xbb82f12c	-0.003996035
61	0xbac0822e	-0.0014687234
62	0xbad9dfb8	-0.001662246
63	0x3abc79a2	0.0014379511
64	0xbb58ad60	-0.0033062324
65	0xb8c4aab5	-9.377805e-05
66	0x3b96f558	0.004606884
67	0x3b45fd9d	0.003021098
68	0x3bf1ef57	0.007383268
69	0xba3ad769	-0.00071274355
70	0xbb55ed0f	-0.0032642519
71	0x3a5b3441	0.00083619735
72	0x3c36d6fb	0.011159654
73	0x3b179942	0.002313212
74	0x3b2dcdb6	0.0026520318
75	0xbb87e0f5	-0.00414669
76	0x3b4060f7	0.002935467
77	0xbac37a7f	-0.0014913826
78	0x3b813e7a	0.0039442154
79	0xbb2dd0e7	-0.002652222
80	0x3a7d625e	0.0009665842
81	0x3b8ac171	0.004234486
82	0xbafb5e90	-0.0019177962
83	0xbb68d637	-0.0035528073
84	0xbb866b18	-0.004102122
85	0xb9b26870	-0.00034028618
86	0xba7e7d1c	-0.0009707974
87	0xbb812405	-0.0039410614
88	0xbbbdcd89	-0.005792324
89	0xbb406f1b	-0.00293631
90	0xbb00c68a	-0.0019649589
91	0x3b0875c1	0.002082214
92	0xbb5db2c6	-0.003382848
93	0xbab98be4	-0.001415607
94	0x3b9795ab	0.004625996
95	0x3aa69cbc	0.0012711505
96	0xbb868560	-0.004105255
97	0x3b19216a	0.0023365864
98	0xba5edd75	-0.00085016276
99	0xbbae25a9	-0.005314548
100	0xbbe88bee	-0.007096759
101	0xbb7a8788	-0.0038227756
102	0xbb85fc7d	-0.004088937
103	0xbbddb6ed	-0.006766191
104	0xbabd42e9	-0.0014439496
105	0xba41923d	-0.0007384157
106	0x38d9e6ba	0.000103903425
107	0xbab9d377	-0.0014177401
108	0xbb7c1b43	-0.0038468398
109	0x3a21cfc0	0.000617262
110	0xbaaed94f	-0.001333991
111	0xbb138b33	-0.002251339
112	0xbbb2a8a8	-0.0054522343
113	0xba40ffda	-0.00073623436
114	0xbb5e83ae	-0.0033953
115	0xbb0f49ef	-0.0021864136
116	0x3a330ac1	0.00068299106
117	0xba83cbb1	-0.0010055212
118	0xbb5169ce	-0.0031953934
119	0x3a621836	0.00086248235
120	0x3a728487	0.00092513155
121	0xba01609e	-0.00049353566
122	0xbc0ee03b	-0.008720453
123	0x3b4a9673	0.0030912429
124	0x3b758ad1	0.0037466774
125	0xbaf44bf1	-0.0018638355
126	0xbb610afc	-0.0034338823
127	0xbb3730a9	-0.0027952588

action_model._continuous_distribution.log_sigma f4 [1, 2]
0	0xbcf7e066	-0.030258369
1	0x3c1bfc1b	0.009520556

action_model._continuous_distribution.mu.weight f4 [2, 128]
0	0x3d137fcf	0.03601056
1	0x3cbcf11a	0.023064185
2	0xbc90a210	-0.017655402
3	0xbc52cb96	-0.0128659215
4	0xb9ac0f62	-0.00032817858
5	0xbbc4d3f6	-0.006006713
6	0x3a64a924	0.00087227137
7	0x3d5626bb	0.05228303
8	0x3ce16638	0.027514562
9	0xbc41d19b	-0.011829759
10	0x3b828938	0.003983643
11	0x3ca356a9	0.019938784
12	0xbc31ba78	-0.01084768
13	0xbc0db8e0	-0.008650035
14	0xbc30f26a	-0.0107999835
15	0xbaa125dd	-0.0012294609
16	0x3aef299e	0.0018246656
17	0x3c491a7e	0.012274383
18	0xbcb8e457	-0.022569818
19	0x3c94fb70	0.018186301
20	0x3cacfab5	0.02111564
21	0xbca4f7e9	-0.020137744
22	0xbceb5735	-0.028728107
23	0x3b426b9c	0.002966619
24	0x3b5d6f23	0.0033788166
25	0x3c8fa21c	0.017533354
26	0x3c173540	0.009229004
27	0x3d742483	0.059605133
28	0xbafd9724	-0.0019347412
29	0x3c2a50bc	0.010395225
30	0x3cb70859	0.022342848
31	0x3bc14c51	0.00589899
32	0xbc1eae68	-0.009685136
33	0xbce175cf	-0.027521996
34	0xbd15e013	-0.036590647
35	0x3b1407c3	0.0022587634
36	0xbcb36677	-0.021899445
37	0x3c0dd93f	0.008657753
38	0x3d0b10cc	0.033951566
39	0x3c4594d2	0.012059407
40	0x3bcc95bf	0.006243437
41	0x3bb3b22b	0.0054838858
42	0x3d0fdc8a	0.03512243
43	0x3a262fe9	0.00063395366
44	0xbab13ce7	-0.0013522179
45	0x3cbd447b	0.023103943
46	0x3b98a2de	0.004658087
47	0xbb9b5e81	-0.0047414904
48	0xbbbe0f4a	-0.0058001624
49	0x3c31a9c7	0.010843701
50	0xbbf8a20f	-0.0075876783
51	0xbc5c94e9	-0.013463237
52	0x3cef2762	0.029193584
53	0xbc1de919	-0.009638094
54	0x3ca01ca2	0.019544903
55	0xbcab8956	-0.02093951
56	0xbbf93e84	-0.0076063294
57	0xbcf44a6c	-0.029820643
58	0x3c17a9b4	0.009256769
59	0xbd0b10e5	-0.03395166
60	0x3c103d35	0.008803655
61	0xbbe35c2f	-0.0069384794
62	0x3cb35d1b	0.021894982
63	0xbc4b8c6e	-0.012423618
64	0x3cd7ca2d	0.026341522
65	0xbbab9ff6	-0.0052375747
66	0xbc0040bd	-0.007827935
67	0xbcf8168e	-0.030284192
68	0xbccde239	-0.025132285
69	0x3c96fd9c	0.018431477
70	0x3b76b672	0.0037645367
71	0xbad42759	-0.0016186043
72	0xbcb11fd9	-0.021621631
73	0xbc0df3a0	-0.008664042
74	0xbc47c76b	-0.012193541
75	0x3ccf2b49	0.025289195
76	0xbb226ff7	-0.0024785975
77	0x3c905452	0.017618332
78	0xbc44b91d	-0.012007025
79	0x3cf243e2	0.029573385
80	0xbc2007d0	-0.009767488
81	0xbc5307d1	-0.012880282
82	0x3cb0d7b3	0.021587228
83	0x3ca8c578	0.020601973
84	0x3ce87696	0.028376859
85	0x3c84312b	0.016136726
86	0x3ab60acc	0.0013888716
87	0x3d6794a4	0.05653824
88	0x3c69902f	0.014255567
89	0x3c18aa07	0.009317881
90	0x3c9b3a79	0.01894878
91	0xbafffd5d	-0.0019530464
92	0x3c2ce08d	0.010551584
93	0x3bfac7cb	0.0076532117
94	0xbc8e8392	-0.017396722
95	0xbc5760fa	-0.01314568
96	0x3c5ed277	0.013599983
97	0xbc26b708	-0.010175474
98	0x3c5a1122	0.013309749
99	0x3c132920	0.008981973
100	0x3cb09ef3	0.021560168
101	0x3c150865	0.00909624
102	0x3c95797d	0.018246407
103	0x3b4b5535	0.003102613
104	0x3cc28a52	0.023747597
105	0x3c58c455	0.013230403
106	0xbc8edf7f	-0.017440556
107	0x3cefd753	0.02927748
108	0x3bad443f	0.0052876766
109	0x3b144627	0.0022624822
110	0x3c18c434	0.009324122
111	0xba85bd18	-0.0010203449
112	0x3c18b216	0.009319803
113	0x3c8fe6ac	0.017566048
114	0x3d49db09	0.049281154
115	0x3ce1ff02	0.027587418
116	0x3bc68bea	0.0060591595
117	0xbbea0167	-0.0071412805
118	0x3d25f1de	0.040513866
119	0x3bcaf473	0.0061936914
120	0xbd01e2e4	-0.03171052
121	0xbc2d73db	-0.010586704
122	0x3ca56895	0.02019147
123	0xbcb2c057	-0.02182023
124	0xbc9d99bd	-0.019238347
125	0xbbaed0bc	-0.0053349417
126	0x3cec90be	0.028877612
127	0x3ba6d9ce	0.0050918823
128	0x3aab515d	0.0013070513
129	0x3bf9540d	0.0076088966
130	0xbacf75df	-0.0015827975
131	0x3c4fffa0	0.012695223
132	0x3b2d3d4e	0.0026434246
133	0xbb9daea8	-0.0048120804
134	0xbccc00b0	-0.024902672
135	0x3c027122	0.007961543
136	0xbbd88a7f	-0.006608307
137	0xbc1099b5	-0.008825709
138	0xbc688050	-0.014190748
139	0xba93c989	-0.0011275272
140	0xbd120fe1	-0.035659675
141	0xbbd900a9	-0.006622393
142	0x3bf95074	0.0076084677
143	0x3c0abbaf	0.008467599
144	0xbcbbccd0	-0.02292481
145	0x39b4b914	0.0003447017
146	0x3bb20405	0.005432608
147	0xbd19ee08	-0.03758052
148	0xbbd6c57a	-0.0065543028
149	0xbc1463b6	-0.009056976
150	0xbbef7a40	-0.0073082745
151	0x3c837978	0.016049132
152	0x3cdf2c07	0.027242674
153	0xbb954ea5	-0.0045564943
154	0xba6bc0a8	-0.00089932466
155	0x3ca3e7d6	0.020008009
156	0xbaaa4332	-0.0012989996
157	0xbc851f05	-0.016250143
158	0x3cbee798	0.023303792
159	0x3c78d7e4	0.015188191
160	0x3c9148df	0.017734943
161	0x3d140e0b	0.036146205
162	0xbb354cdc	-0.002766422
163	0x3cb076ce	0.021541025
164	0xbc46976f	-0.0121210655
165	0xbb719fa9	-0.0036868847
166	0x3c968eba	0.018378604
167	0x3b8901d0	0.0041811243
168	0x3c4bb5ca	0.012433479
169	0x3c74738c	0.014920127
170	0x3ca4e495	0.020128528
171	0xbca2b5c3	-0.019862061
172	0x3cebe401	0.028795244
173	0x3beb579a	0.007182074
174	0x3a8fb12a	0.0010962833
175	0x3cc5c29f	0.024140654
176	0x3b3b1180	0.0028544366
177	0xbb910d10	-0.004426606
178	0x3c9f080f	0.019413022
179	0x3bab6349	0.0052303416
180	0xbcd6a8e3	-0.026203578
181	0xbc32cad2	-0.010912614
182	0x3d1f5b4c	0.038905427
183	0x3b96c695	0.0046013095
184	0x3c1c7967	0.009550429
185	0xbb3ca35a	-0.0028783889
186	0xbb7649f8	-0.003758071
187	0xbd04b118	-0.032395452
188	0x3bb462ac	0.0055049267
189	0xbcaab457	-0.020837946
190	0x3c620d97	0.013797185
191	0xbc825c6d	-0.015913213
192	0xbc0d4581	-0.008622528
193	0x3a207f9e	0.0006122532
194	0x3c0c26f6	0.008554211
195	0x3c95f014	0.018302955
196	0xbb01a0c5	-0.0019779664
197	0x3c41b6fb	0.011823411
198	0xbaa4db5a	-0.0012577579
199	0xbce0c8b7	-0.027439458
200	0xbb7fd8b7	-0.0039039084
201	0x3c9f3ee1	0.019439163
202	0x3bdb7376	0.0066971136
203	0xbc353267	-0.01105938
204	0x3ce2e417	0.027696652
205	0x3c8a44cd	0.01687851
206	0x3be8bc20	0.0071025044
207	0xbc8d08d9	-0.017216133
208	0xbcb6631e	-0.02226406
209	0xbbaaba11	-0.005210169
210	0x3cde3feb	0.027130088
211	0x3c239eac	0.009986561
212	0xbcd4e33b	-0.025987258
213	0x3cffb172	0.031212542
214	0xbb4c8a54	-0.003121038
215	0xbcaa9370	-0.020822257
216	0xbab4c654	-0.0013792017
217	0x3c08bbfc	0.0083456
218	0x3cc7163f	0.0243026
219	0x3c8d11aa	0.017220337
220	0xbcbd3466	-0.023096275
221	0x3c98e31c	0.018662982
222	0x3b7b4f90	0.0038346983
223	0x3b862ae8	0.0040944703
224	0xbb43b1e8	-0.002986068
225	0x3c15c43c	0.009141024
226	0x3d15fb21	0.03661645
227	0xbd34cebc	-0.04414247
228	0xbc677fac	-0.01412956
229	0xbb7de265	-0.0038739678
230	0xbbc4f6ad	-0.0060108514
231	0x39765875	0.00023493341
232	0xbd02829b	-0.031862836
233	0x3c982f5a	0.018577266
234	0xbb078a5b	-0.0020681832
235	0x3c97b921	0.018520894
236	0xbb280e1e	-0.002564318
237	0x3cbe5299	0.023232745
238	0xbceef9fc	-0.029171936
239	0xbb0da02a	-0.0021610358
240	0xbc8e9d91	-0.017409118
241	0x3cb3b23b	0.021935573
242	0x3c5a4991	0.013323204
243	0xbd06e26c	-0.032930776
244	0x3c82a348	0.015947
245	0xbac0939b	-0.0014692427
246	0xbce7d6c9	-0.02830066
247	0xbc3269a6	-0.010889446
248	0xbcae8e65	-0.021308133
249	0xbd39c20a	-0.045351066
250	0xbbf2d3a5	-0.007410484
251	0xbc8382bf	-0.016053556
252	0xbae29e37	-0.0017289583
253	0xbb8827ed	-0.00415515
254	0xbc5146fe	-0.0127732735
255	0xbcbde83b	-0.023182025

action_model._continuous_distribution.mu.bias f4 [2]
0	0xbb87c0e3	-0.004142867
1	0x3a86cd51	0.0010284578
