python/results/minion_walk_003/Minion/Minion-2304.onnx (onnx, 71890 bytes, 7 tensors)

network_body._body_endoder.seq_layers.0.weight f4 [128, 3]
00000000: fde2 18be 35e7 a13e c151 d13e e768 d5bc
00000010: da8e 16bf 037f 1cbe 7962 0f3e 6a5b 8c3e
00000020: b96e d23c d47d 1d3d 9209 1cbf 67e4 c2be
00000030: 4b2c 783f c205 f13e 37f5 37bf f315 003e
00000040: c209 a5be 53c0 e93e a197 16be 45c4 9fbe
00000050: b1a5 c7be 8ddf 193f 53e5 f3be 06b6 14be
00000060: 6fc9 c13e f979 a03e ad30 19bf 24c7 01bf
00000070: aafc 90bf 67b8 413e 1558 163f 4283 4fbf
00000080: b97b 6c3e 8055 613e 78aa 083e c9ab 283f
00000090: 2c43 c33e 9bed 46bf 7730 4b3f 9117 dc3e
000000a0: 7643 923e 0f2e d4bd bc60 4e3e cf9c 5bbf
000000b0: 79f2 173e 08c0 853e 4831 c93e 5976 77be
000000c0: 68c3 0fbf 4948 8b3d 9518 b8be 0fae 44bf
000000d0: 0355 92bf 5e6e d5be a73a 86be db30 eabe
000000e0: 0682 3f3f c535 88be 01bd 373f 143e 3d3d
000000f0: 5b3e 34be 9ba6 353f 08ed 1bbf 031a 8abd
00000100: b594 0d3f 7cad 93bd 32d0 653d 441f 4fbf
00000110: aef1 39bf ff5d 9f3e 6d2f 813f eda1 b73e
00000120: 9a44 113d 9217 b4be 352d 19bf 1bd2 ac3d
00000130: e4a8 8e3e 558c f73d ef81 f5be 98f5 b33e
00000140: d7f7 0b3f e2ad 5d3e 35c8 39be 4acb 8fbf
00000150: 9603 ebbe 9c1e 2bbf 86e0 fe3c d667 fabe
00000160: 8960 5ebf c587 9abf a2f4 913e d38e f3bd
00000170: cc07 96bd 36a9 ce3e 6431 143f 1ff8 f33e
00000180: b534 3abd 105c 6b3f 4c74 e7be b5ba 65be
00000190: 4731 e33c acca b2be e44d b53f 3450 ca3e
000001a0: 9d03 863d 914c ee3d 2d2c 063e e7b3 18be
000001b0: 4ea6 3cbf e9b7 e73d 91a6 9ebe 0023 d5bf
000001c0: 84cb c6be 4f78 b7bd d332 323f 56df e6be
000001d0: 5cad 0cbe 6063 e63d 3a7e b5bf e586 e8be
000001e0: aa07 e43e 4ba9 38be f5af 8e3f 81b4 dfbe
000001f0: c73b 14bf d8e9 23bf 53be 2f3f 10e2 283f
00000200: 7dbf a2bd 7f0a 563f 10e2 5fbf 88ef a13d
00000210: 5f90 20bc 1213 8dbe 41e3 433f 1dcb 663f
00000220: ba1e dcbb eaed 98bd 0d4c e93d 11a3 7cbf
00000230: 60dd 11bf bc5e 953d 518b 2cbf 8602 13bc
00000240: 18b5 dd3e 7407 503e b9c3 50bd 8d32 dd3d
00000250: 1310 1b3f c8bb b1be 278f 12bf 44ec 823b
00000260: 1faf 36bf f963 44be cc05 2a3e f9cd 3e3e
00000270: b279 eb3e 5f90 863e 0f53 e73e 6501 fbbe
00000280: 0843 e6be 27c6 d53e 6929 113f b951 42bf
00000290: 22a3 f13e 5742 ec3e d1ea 583f 241a 343f
000002a0: 9984 8cbf 7781 023f 1d0c 2cbd 488b 5dbe
000002b0: 021a 37bd 3de8 e3be 7fff 033f 59d4 7dbe
000002c0: 6e36 2c3f 0860 cf3e 5b56 233f 6a8d fbbe
000002d0: 3bdf f3be fd46 7abf 194a e03e c156 bd3d
000002e0: 2998 9dbe 0c9f 433d 7f6b 423f 123e 06bf
000002f0: a41a e0be e48c 083f 8689 6cbf 7197 9a3e
00000300: 9e25 ed3d db49 eabf 9a9b 60be 3fb5 b8bd
00000310: 4e3e 383e ad0a 513f 63de 36bf b2e3 6e3a
00000320: a62b 06be f00b cfbe 3f1a 7abf e09c 4fbe
00000330: 7ef8 293e b4f6 353f 67a3 2bbe 11b4 363e
00000340: f7ef 63bf db0e 203f f0eb 97bf d9c6 17bf
00000350: f22f 953f bcf6 533f 8607 163f cd1b 2abf
00000360: 997a f03e bbac 783f c5b4 49bd bf6d 663f
00000370: e093 573e 8be3 09bf 3b4e 69be 0ba7 cfbe
00000380: ce9e 3bbf 8c83 ffbc bcaa 3bbf 7521 633e
00000390: c1d9 803e afef a4bf 401b e8bd 52fa 3f3f
000003a0: 69dd 9b3e 8d03 f93d 16e4 38be b1cc f63e
000003b0: 37f7 ea3e e291 c8be 052b 503e c221 8d3f
000003c0: 039b d4be 41b4 b53f e4a4 25bf bc31 0ebd
000003d0: d2ed c0bf b116 a5be 7c4c 91bd 3cdf 8a3f
000003e0: 6bc1 d43e 09a2 833f d9e4 23bf ed04 e53d
000003f0: 2f79 303f 6d6b 6b3e 6ee1 243f a586 20bf
-0.14930339 0.3162171 0.40882686 -0.026050998 -0.58811724 -0.15282826 0.14002408 0.27413493
0.025687562 0.038450077 -0.60952103 -0.38064882 0.96942586 0.47074705 -0.71858543 0.12508373
-0.32234007 0.45654544 -0.1470628 -0.3120443 -0.389936 0.60106736 -0.47635898 -0.14522561
0.37848994 0.31343058 -0.598399 -0.5069449 -1.1327107 0.18918 0.5872815 -0.8105966
0.23094071 0.22005272 0.13346279 0.65887123 0.38137186 -0.7770631 0.79370826 0.4298673
0.28567094 -0.103603475 0.20154089 -0.85786146 0.1483859 0.2612307 0.3929541 -0.2416624
-0.5615754 0.06800897 -0.35956255 -0.7682809 -1.1432194 -0.41685766 -0.26216623 -0.457404
0.74807775 -0.26603523 0.7177277 0.04620178 -0.17601912 0.70957345 -0.60908556 -0.067432426
0.55305034 -0.07210824 0.056106754 -0.8090708 -0.726344 0.311264 1.0092598 0.35865727
0.035465814 -0.35174233 -0.59834605 0.08438512 0.27863228 0.12087313 -0.47950694 0.3514831
0.5467505 0.21648362 -0.18142779 -1.1233914 -0.45901173 -0.6684358 0.03111292 -0.48907346
-0.8686605 -1.2072684 0.28506953 -0.11892476 -0.07325706 0.40363473 0.57887864 0.4765024
-0.04546042 0.9193735 -0.45205915 -0.22434504 0.027733458 -0.3492025 1.4164395 0.39514315
0.06543658 0.11635698 0.13102789 -0.14912377 -0.7369126 0.11314375 -0.30986455 -1.6651306
-0.38827145 -0.08958494 0.696088 -0.45092267 -0.13738006 0.11249423 -1.4179146 -0.45415416
0.44537097 -0.1803333 1.1147448 -0.436924 -0.57903713 -0.6402869 0.68649787 0.65969944
-0.0794668 0.83609766 -0.8745432 0.07907015 -0.009800046 -0.27553612 0.76518637 0.90153676
-0.00671753 -0.074672535 0.11391459 -0.9868632 -0.56978416 0.0729346 -0.6740008 -0.00897277
0.43302226 0.20315343 -0.050967906 0.108006574 0.605714 -0.34713578 -0.57249683 0.00399545
-0.71360964 -0.19178762 0.16603774 0.1863326 0.45991284 0.2628202 0.45180556 -0.490245
-0.44973016 0.4175274 0.5670381 -0.7590595 0.47194773 0.46144363 0.847333 0.7035239
-1.0977966 0.509788 -0.04200374 -0.21635163 -0.044702537 -0.4451312 0.5156173 -0.24788035
0.67270553 0.40502954 0.63803643 -0.49131328 -0.4763125 -0.9776457 0.43806532 0.092450626
-0.3078015 0.0477591 0.75945276 -0.5243846 -0.43770325 0.5333998 -0.92397344 0.30193666
0.115794405 -1.8303789 -0.21934357 -0.09018945 0.17992517 0.81656915 -0.71433085 0.0009112909
-0.13102588 -0.40438795 -0.976963 -0.20274687 0.16598698 0.71079564 -0.16761552 0.17842127
-0.8903803 0.6252267 -1.1868877 -0.5928779 1.1655257 0.8279836 0.5860523 -0.6644867
0.46968535 0.97138566 -0.04924466 0.9001121 0.21052504 -0.5386283 -0.22783749 -0.4055713
-0.7328919 -0.031190656 -0.73307395 0.22180732 0.25166133 -1.2885646 -0.113333225 0.74991333
0.3044236 0.121588804 -0.18055758 0.48203042 0.45891735 -0.391738 0.2032891 1.1025927
-0.41524515 1.4195634 -0.6470473 -0.0347154 -1.5072577 -0.32243875 -0.07094666 1.0849376
0.41553816 1.0283824 -0.6402107 0.1118258 0.6893491 0.22990198 0.6440648 -0.6270545

network_body._body_endoder.seq_layers.0.bias f4 [128]
00000000: 810d 5eb9 dd38 4ebb 623f 213b 3eb4 6abb
00000010: da7b 8fbb 5cb1 63bb 8970 653b 513b a4b9
00000020: cf80 61bb 29b1 4ebb c5ca 243b a1cf 2fba
00000030: 1db1 aeba f6be 233b a086 54bb a9a7 1dbb
00000040: 8c97 59bb f3cb a3bb 595a 32bb a08e 133b
00000050: 8227 23bb 3265 ddba ff7a de3a 9171 ecb8
00000060: a85d 10b7 c2d8 8dba 6ca8 0fba 1f47 b739
00000070: 5d9d 733a 6415 933a 770b 88ba 81f9 45bb
00000080: 7516 cc3a 1de5 dc3a 1f89 2e3b eef5 e7ba
00000090: 2ecf 1b3b 3009 dbba 8bd7 97ba 8847 113b
000000a0: a1b2 6d3b 1ccf 37bb 3774 07bb 1f93 a538
000000b0: 32ad 5abb e85c 503b ba8e e0ba 7572 d73a
000000c0: ffa2 143b 285f deba b88e 1d3a 7712 1fbb
000000d0: 77c9 483a c544 d23a 80ec b0ba 42c1 f1ba
000000e0: 625f 23ba 1143 3c3b f1fb 5f3b 38c8 6939
000000f0: 0e6a 613b 4c50 ac3a aa3b 413b 28c5 053a
00000100: 7238 c2ba 95f8 de39 f4f6 39bb 0d82 513b
00000110: 1577 2f3b 4b77 b83a cabe 2f3b 5be8 8bbb
00000120: 5dce c63a 343b f8ba 38dd 41bb 5424 223a
00000130: 8fc5 1a3b 4b2e 593b 253c 213b 48e9 b5b9
00000140: 60f4 bc38 ba33 4c3b 46e4 83ba e672 1e3b
00000150: 6ae7 0e3b f4a3 81bb 0c13 e2ba 43ed 8e3b
00000160: 541a feba e6f3 66bb 7ffd 0fbb 3bd0 583b
00000170: e2cf 3e3b a433 8bba aff4 a03a e7cd d9b8
00000180: aa6f 33b8 6afe 2fbb 0c13 83ba 2fa4 c1ba
00000190: 2bcb c2ba 4dae 083b 0e96 873b 1e14 2c3a
000001a0: 4079 ffb9 1e37 4a3b cdcc bb3a cb79 853b
000001b0: cf18 053b 6695 cdba ce11 0c3b 95c2 19bb
000001c0: fb4f 503b e54f 1e3b 5f6b 03bb cf85 5cba
000001d0: 5569 1fbb 7e3d 643b 818e 31bb 5c03 40bb
000001e0: b25e ea3a 929b 563b ae2b 623b 5478 6aba
000001f0: 2764 1b3a e725 a23a 8cdb 723b 1f39 4fbb
-0.000211766 -0.0031466999 0.002460443 -0.0035813 -0.004378778 -0.0034743166 0.0035009703 -0.00031324712
-0.0034409051 -0.00315387 0.0025145274 -0.00067066593 -0.001332793 0.0024985648 -0.0032428876 -0.0024056232
-0.0033201901 -0.004998678 -0.0027214496 0.002251543 -0.0024895375 -0.001689112 0.0016973912 -0.0001127451
-8.604875e-06 -0.0010822045 -0.0005480114 0.0003495747 0.00092931633 0.0011221585 -0.0010379393 -0.003020853
0.0015570658 0.0016852949 0.0026632024 -0.0017697194 0.0023774612 -0.0016711112 -0.0011584623 0.002216788
0.0036269801 -0.002804703 -0.0020668635 7.8952165e-05 -0.0033367393 0.0031793658 -0.001713238 0.0016437309
0.002268016 -0.0016965615 0.00060103415 -0.002427248 0.0007659415 0.0016042223 -0.0013498217 -0.0018444436
-0.00062321697 0.0028726498 0.0034177268 0.00022295199 0.003439549 0.0013146489 0.0029485025 0.0005102926
-0.0014817847 0.00042528348 -0.0028375955 0.0031968385 0.002677386 0.0014073638 0.00268166 -0.0042696423
0.0015167702 -0.0018938542 -0.002958132 0.0006185223 0.002361629 0.0033139165 0.00246025 -0.00034696818
9.010057e-05 0.003115876 -0.0010062538 0.0024177372 0.0021805414 -0.0039563123 -0.0017248108 0.00436178
-0.0019386509 -0.003524059 -0.0021971164 0.00330831 0.0029115607 -0.0010620249 0.0012279953 -0.000103857186
-4.278092e-05 -0.0026854523 -0.0010000183 -0.0014773662 -0.0014861574 0.0020855844 0.004137761 0.0006564277
-0.00048727728 0.0030855606 0.0014328003 0.0040733567 0.0020308977 -0.0015684783 0.0021372917 -0.0023461927
0.0031785953 0.0024156508 -0.0020053012 -0.0008412273 -0.0024324257 0.0034826691 -0.0027092996 -0.0029298877
0.0017881005 0.0032746536 0.0034510898 -0.0008944322 0.00059277046 0.0012370915 0.003705713 -0.003161974

network_body._body_endoder.seq_layers.2.weight f4 [128, 128]
00000000: 9bc7 e13d 6015 8bbd 20b5 c53d 2a33 ef3d
00000010: 1ee3 a53d bb99 833d 5ed7 c6bc c8b6 b2bd
00000020: 113e 903c fe12 453d 7842 02bc c6ba 15bc
00000030: f1f3 2ebd 64db 0ebd 599a 8fbd 12c1 4abd
00000040: 47b4 8b3d e25f 973d ee7b 95bc aa77 d9bd
00000050: 129e ce3d e94f dbbd 3e05 113d 9c09 b83c
00000060: 5d50 a1bd cc33 9dbc e8a1 39be f986 d0bd
00000070: e110 cd3d 7570 d73c babc 223d 0810 fc3d
00000080: 7ef9 de3b 584e 193d c4df dc3d 6b10 c4bc
00000090: 58c8 bf3d 524f 00be ecaf 2e3e ff91 233d
000000a0: 27d9 1f3e 4185 bc3d 2b2c 2abd c363 743d
000000b0: 0720 ae3d 2f10 553c de5c 69bc 6dfe 5c3d
000000c0: 5c24 53bd 3840 91bd c414 3bbc d82b b9bd
000000d0: 6c1e f43d 76f2 89bd e4e4 47bd 11a3 a63d
000000e0: de7d dc3d 94bc 97bd 07d1 fa3d e98f 23bd
000000f0: 7985 093c a913 b7bc dd78 ef3d 16e5 663b
00000100: 84b0 0ebe 6fbf a2bc 502a ad3c d417 86bc
00000110: e33c 1fbd 6cb3 263d 076a 92bc 28f8 c7bd
00000120: 9b31 653b e23d a6bd 99da 47bd 6e5a fb3c
00000130: 100d 98bc f781 37be e754 943d 3c04 a3bc
00000140: ae81 803d ec87 dc3c 6b2e c2bd 430a 053c
00000150: 36ad 8fbb 6e1a e5bd aa52 8d3d b8dc 8cbd
00000160: 1541 ebbc de7e a7bb d2ec 36bd 04ed b13d
00000170: 0220 1bbe d238 f4bc 2add 643c 74d8 b73d
00000180: 248f 53be e964 833c 7d05 f83d b6f3 67bd
00000190: 76a8 7f3c 45b3 4cbc 27de c5bd 49c8 a9bd
000001a0: 8e13 433c 733e 043c 9a79 15be 29f1 ad3d
000001b0: 5417 0cbd ad4d 99bc fda2 d1bc ed37 0dbd
000001c0: cc02 9dbd 7871 01be c845 0f3d fd0b 893c
000001d0: 3964 1ebc b79c 5abd 1d2c e73c 2d23 d7bc
000001e0: a786 a7bd 40c9 603c cdd0 39be 3bfe a3bd
000001f0: 8238 4d3d 64b1 10bc c427 83bc 59c3 00bd
00000200: 446f 893d 1250 e43c a306 6e3c e2cd 00bd
00000210: 3d42 cd3c 3796 cd3d 2bc7 1fbd 1437 423b
00000220: c997 80be 908e b3bc 5f9c 023e 4652 98bd
00000230: a230 c1bd 8daf bdbd bc86 063e 1ef4 253c
00000240: f28e 5dbd 85a4 ab3d a858 353d 1e7a 173d
00000250: c0cc 62bd bbe0 95bd 889f 90bd b027 093e
00000260: 7403 d33c 472a 92bd e721 b93d a117 c7bd
00000270: c34d 80bd 5ce3 a83d be45 423c 6af5 cbbc
00000280: 6cd2 793c 71b1 263d 6106 12be 543a fbbc
00000290: f961 96bd d4cd 583c d6b5 b9bd 865d b63d
000002a0: 213f a23c 38b5 dbbd 2b4f f23c a885 573d
000002b0: 5e93 c8bc 6d63 5d3e ccf9 bb3d 35da 9fbd
000002c0: 9b31 0c3d 7143 76bc 04f8 f0bc 031c 923c
000002d0: ec2b 073c 6ced 903c b2fa f43b 3426 083e
000002e0: 1f2e 06bd edc5 083e d355 b33d 03c3 b33d
000002f0: 347b 973d a39a 373d 074e 9a3a aa73 49be
00000300: ce1e dc3d bd79 96bb 35e5 26bd 63b9 6a3d
00000310: 30f5 0cbe 4fe3 4a3d fe71 c8bc 4170 023d
00000320: ee30 10bd c14f a23d 6847 4fbb 82df 5f3d
00000330: c394 213e 84cc 9d3d 1e0f 163b 1663 cdbb
00000340: db55 b3bc ba6a 22bd a2d6 a63d ed85 613a
00000350: 5754 e13c f437 01be 9e59 93bc 6c0f 20bd
00000360: f2b0 09bb 8e91 b6bc 92e6 81bd 9beb 253c
00000370: 74b8 553d 1139 8ebd b03c 343e 54c2 71bd
00000380: f0bb aebd dc7e 6fbd 2433 053d 1ea4 823c
00000390: 184c ccbc 6ae2 dbbc 3e67 bebd 766c abbc
000003a0: 085d 54be a39f 423e b0fe c438 6cc5 00be
000003b0: 73e4 113e 0da1 b93d 58fc 15be 40ce 38be
000003c0: d4f2 143e e746 23be f9c4 29bd ae13 533e
000003d0: bc72 e53c 7042 2b3d cb50 aa3d 5381 943b
000003e0: 151a 683d 476c ab3c 62a0 e9bd f4a9 cb3d
000003f0: b09f df3b 4209 95bb 4159 d93d 6d0e 063d
0.110244 -0.06791186 0.096536875 0.11679681 0.0809996 0.06425806 -0.024272617 -0.08726269
0.01760772 0.048113815 -0.007950418 -0.009138769 -0.04271311 -0.034877196 -0.07011861 -0.049500532
0.068214945 0.07391335 -0.01824757 -0.10618527 0.10088743 -0.10708601 0.03540539 0.02246552
-0.07876656 -0.019189738 -0.18128169 -0.10181994 0.10012985 0.02629874 0.039730765 0.12307745
0.006804644 0.03742823 0.107848674 -0.02393361 0.093643844 -0.12530258 0.17059296 0.039934155
0.15610181 0.09205104 -0.041546028 0.059665453 0.085022025 0.013004347 -0.014243333 0.053953577
-0.051548347 -0.07092327 -0.011418525 -0.09041566 0.11919865 -0.06735699 -0.04880227 0.08136571
0.10766195 -0.07409015 0.122469 -0.039932165 0.008393639 -0.022348242 0.11692975 0.003523176
-0.13934523 -0.019866673 0.02113834 -0.016368784 -0.038876425 0.040698454 -0.017872823 -0.09764129
0.0034972194 -0.08117272 -0.048792455 0.030682769 -0.018560916 -0.17920671 0.07242756 -0.01989948
0.062747344 0.026920281 -0.0948151 0.008120122 -0.004384662 -0.11186682 0.069005325 -0.06878036
-0.028717557 -0.0051115593 -0.044659443 0.08687785 -0.15148929 -0.02981225 0.013968745 0.08976832
-0.20660073 0.016039329 0.12110422 -0.056628905 0.015604129 -0.012493913 -0.09661513 -0.082901545
0.011906518 0.00807153 -0.14597169 0.08493263 -0.034201935 -0.018713797 -0.025590414 -0.034477163
-0.07666549 -0.12640941 0.034978658 0.01672935 -0.00966745 -0.05337211 0.028219277 -0.02626189
-0.0817998 0.013719857 -0.18146057 -0.08007475 0.05010272 -0.008831356 -0.016010173 -0.031436298
0.06710675 0.027870212 0.0145279495 -0.031446345 0.025055999 0.10038417 -0.0390083 0.002963488
-0.25115803 -0.021918565 0.12754963 -0.074375674 -0.09433104 -0.09261999 0.13137335 0.010129003
-0.0540914 0.08380989 0.044274002 0.036981694 -0.055371046 -0.073182546 -0.07061678 0.13394046
0.025758483 -0.0713697 0.090396695 -0.09721304 -0.06264832 0.0824649 0.011857448 -0.024897296
0.015247922 0.040696565 -0.14260246 -0.030667461 -0.073429056 0.013232667 -0.090678856 0.08904557
0.019805493 -0.10727924 0.029578766 0.0526177 -0.024484333 0.21619959 0.09178504 -0.078052916
0.034226995 -0.015030728 -0.029415138 0.017835623 0.008250218 0.017691337 0.0074761743 0.13295823
-0.03275883 0.13356753 0.08756604 0.0877743 0.07396546 0.044825207 0.0011772522 -0.19673029
0.10748063 -0.004592149 -0.040745933 0.057305705 -0.13765407 0.049533185 -0.024468418 0.031845335
-0.035202913 0.07925368 -0.0031628255 0.054656513 0.15779404 0.07705024 0.0022897194 -0.0062679155
-0.021891525 -0.039652564 0.08146407 0.00086030253 0.027506037 -0.12619 -0.017987069 -0.039077207
-0.0021010009 -0.022286203 -0.06342806 0.0101269735 0.05217786 -0.06944478 0.17601275 -0.059023216
-0.0853194 -0.058470592 0.032519475 0.015947398 -0.024938628 -0.026841361 -0.09297036 -0.020925742
-0.20738614 0.19006209 9.3934475e-05 -0.1257531 0.14247303 0.09063921 -0.14647043 -0.18047428
0.14545757 -0.15945016 -0.041447613 0.20612976 0.028008811 0.041811407 0.08316191 0.004532018
0.0566655 0.020925654 -0.11407544 0.09944525 0.006824456 -0.0045482228 0.10612727 0.0327286

network_body._body_endoder.seq_layers.2.bias f4 [128]
00000000: 7604 d0ba 2f73 493b db6b 03bb 7dd6 72bb
00000010: ffd7 853a 7216 8f3a f2ba 233b 885f 433b
00000020: 6ad7 58bb 302c aeba 0923 b73a a9e0 cf3a
00000030: 3a0f 59bb 55b7 8a3a 8301 023b 671b ecba
00000040: be0e 53bb 76d3 223b 7c42 2bba 5ae3 4fb9
00000050: 9ef3 05bb 68d9 acba cd14 903a 21e1 3e3b
00000060: c00f 573b c460 f03a b603 a33a 5204 2b3a
00000070: 9018 293b 2830 403b b860 b2ba e054 e53a
00000080: 8aad d7b9 1a77 2939 3f92 d4ba 0ebe 9eba
00000090: 2c04 a1ba f2ed 343b 7690 17bb d25c 54bb
000000a0: 13a9 13bb b38d d63a a7fb 00bb 26fb 27b9
000000b0: 03e2 b8b8 e79a ba39 9c23 02bb e656 08bb
000000c0: ec29 42b9 18cd 31ba 9af8 1a3a fbae 473b
000000d0: b634 93ba 676c daba 6d85 f1b9 335c c03a
000000e0: 7950 1c3a a9b6 053b ae14 ff3a 26ac 3f3b
000000f0: b9d9 c3ba 7b03 b1ba eec2 e9ba 8d7e 803a
00000100: c09e 16bb 9067 4fbb f81b 123b a5b9 383b
00000110: 8f2e 2d3a 3926 4dbb 8561 95ba a8a1 85bb
00000120: 1e75 f6ba a319 fc38 f6c1 baba 79fe 373b
00000130: f566 133a d0b7 3f3b 80fc 59bb f9db 5cbb
00000140: 94e5 bdba a69f 8bb9 5a15 7839 57fa 6c3b
00000150: 34c1 8d3a e3b0 823a daa9 26bb 3320 3739
00000160: bbd4 8a3a 1f15 ceba 2746 67bb 00d8 3e3b
00000170: 1411 1abb 826c 03bb 85c6 99ba 1da4 f4b9
00000180: e63b 0e3b 2f23 e33a a43f 023b 8ae5 d4b9
00000190: 9e4a ac3a fc74 223a eecb bdb9 b732 dfba
000001a0: 26e4 c1ba e56b 913a 5bbc 5e3b 5a99 d738
000001b0: 2c14 4c3b 2300 9f3a dd2f 13bb bd14 8a38
000001c0: 0721 56bb 6b8b 21bb f540 773a ac42 d33a
000001d0: 90b5 5b3b da17 0eba aa8b a9ba a827 32b8
000001e0: c80d 4c3b 90a6 c5ba a604 19ba 7aba e0ba
000001f0: 9e17 cbba 7a7f 55bb 3bdb 3fbb e809 3d3b
-0.001587047 0.003073882 -0.00200533 -0.0037054115 0.0010211467 0.0010916723 0.0024983254 0.002981158
-0.003308738 -0.0013288315 0.0013972233 0.0015859801 -0.0033120648 0.0010583202 0.0019837327 -0.0018013538
-0.0032204832 0.0024845279 -0.0006533039 -0.00019825753 -0.0020439397 -0.0013187351 0.0010992527 0.0029125887
0.0032815784 0.0018339385 0.0012437019 0.0006523776 0.0025801994 0.0029325578 -0.0013609147 0.0017496608
-0.00041137292 0.00016161465 -0.0016217901 -0.0012111084 -0.0012284569 0.0027607647 -0.0023126877 -0.0032403958
-0.0022531196 0.0016369134 -0.0019681246 -0.00016019921 -8.815902e-05 0.00035592096 -0.001985765 -0.0020803749
-0.00018516899 -0.00067825755 0.00059116783 0.0030469287 -0.0011230919 -0.0016664386 -0.00046066512 0.0014675915
0.0005962919 0.0020403063 0.0019461119 0.0029246896 -0.0014942206 -0.0013505066 -0.0017834583 0.000980334
-0.0022982806 -0.0031647421 0.0022294503 0.0028186825 0.0006606364 -0.00313033 -0.0011396861 -0.004078109
-0.0018803214 0.000120210716 -0.0014248479 0.0028075262 0.0005622947 0.0029253848 -0.0033262074 -0.003370045
-0.0014487975 -0.00026631093 0.00023659077 0.0036159956 0.0010815025 0.0009970929 -0.002543083 0.00017464235
0.0010591963 -0.0015722847 -0.0035289617 0.0029120445 -0.0023508715 -0.002005369 -0.0011732137 -0.0004666158
0.0021703183 0.0017329211 0.0019874359 -0.0004060681 0.0013144796 0.00061972416 -0.0003620083 -0.0017028664
-0.0014792725 0.0011094777 0.003398678 0.00010280563 0.0031139953 0.0012130778 -0.0022458949 6.5842156e-05
-0.0032673494 -0.002464975 0.00094319816 0.0016117892 0.0033524968 -0.0005420424 -0.00129353 -4.247544e-05
0.0031136144 -0.0015079547 -0.00058371795 -0.0017145418 -0.0015494709 -0.0032577203 -0.0029274959 0.0028845016

action_model._continuous_distribution.log_sigma f4 [1, 2]
00000000: a638 ca3b cd5a 37ba
0.006171304 -0.00069944264

action_model._continuous_distribution.mu.weight f4 [2, 128]
00000000: 5977 973b cc4f bc3c 75e2 3abb e327 01bd
00000010: ee3a 0fbc 6c4a 463c 31d4 bb3b ae73 a53c
00000020: 856e 87bc 6bfe 3cbb 6cbe a9bb 8a2a 923c
00000030: eea9 d0bc 28db 113c 2fc3 bd3b 2aeb d4bc
00000040: 4393 f4bc 265f 573c 83de 9cbc ffcb 50bb
00000050: 1c4d d7b9 6049 1d3c 68c0 59bc 7b43 dc3c
00000060: 5adb 2e3b d452 a5ba cc84 db3c 944d 623c
00000070: de76 563c 5c38 d13c d09a 0bbc baf2 853a
00000080: 1467 1c3c d601 abbc 7831 7fba f017 913b
00000090: c40c b1bc 9a12 dd3b 16ac 05bc d769 ecbc
000000a0: c6e8 dcbb da5b 5039 4d57 d8ba 8951 aa3b
000000b0: c73b 4ebb aba7 8bbc 2813 b7bb 541c 11bc
000000c0: 53c4 ebbc 1841 363c 4742 16bd 8e08 8e3c
000000d0: 28b7 aebc c39b 97bc bc68 7e3c 5b97 6fba
000000e0: 24f2 943c 4cbd 7e3c 5a88 f4ba 28f5 873c
000000f0: 312c b3bb a518 d9bb 6df9 c5ba 1014 fb3b
00000100: c372 72ba 5771 c7bc a623 b03c 8878 883c
00000110: f2c5 b73c 61d8 bebc 3342 35bb 074f 72ba
00000120: 2a5f 8cba 9141 e0bb 2ed2 1fbc 2425 473c
00000130: ede8 c13c e351 093d 46d6 83bc 8861 07bb
00000140: d11f 00bd d304 273c 1433 83bc f4e7 983c
00000150: 2e54 61bc 04b4 3a3b 175d c2bc bc97 a93c
00000160: 0e1e 49bc 37ab acbc 23b5 b0bc ba9c 8d3c
00000170: fb5f 2abb 5e78 38bb 7dfa 0ebb b25e a6bc
00000180: c6c5 5f3c 8606 383a 326a 563d 48e7 81bc
00000190: d848 c73c 95d6 e6bb e284 9f3b f458 15bc
000001a0: 8017 85bc 99ff c73c 1369 5b3c b268 8b3b
000001b0: 8739 a73c 4e14 223d d069 02bc 7377 b7ba
000001c0: 6447 a2bc ce73 1fbc 1377 4a3c db5d 143b
000001d0: ce81 053c 5a38 4bbc 665c 5bbc c21a aabc
000001e0: 5258 dc3c ddfe 143c b096 a9bc 8c42 9fb9
000001f0: 8cec dcbc 016f b5bc 3043 26bd deab f33b
00000200: b8fd cf3c ca04 15bd c13f 123d be6f 253d
00000210: 17a1 a6bc 3830 0f3c e692 97bc 3139 9dbc
00000220: a3f3 bc3c d64a 5ebb 7bfe cdbc 6414 0f3b
00000230: 5fd0 f93c c8bf 0b3c c604 d7bc 3b9d 04bc
00000240: df6f f83c a151 febb acc9 91bc 51d1 b4ba
00000250: b47a 783c 8c70 cc3c cdb0 13bd c92e 23bc
00000260: 48b5 95bc d165 20bd 49f6 9e3b 55d0 743c
00000270: 9ce0 68bb 62c9 a8bc 4feb 39bb 35f6 8bbc
00000280: 694c 0e3c ed44 ddbc 9dbd b73c 621e b83c
00000290: efe6 15bc 6bf5 65bc 75ed cc3c 4fe1 db3c
000002a0: 597a b33c a613 b1bc 0a4c a93c b5e8 3d3b
000002b0: 56fc bfbb 4d3c acbc 7466 2e3b 738c fa3c
000002c0: 5624 eabc bbb0 b33c a241 5fbd 0389 c7bc
000002d0: bf45 1cbc 6151 d1bb 63ea 803c c5fe 60bc
000002e0: 8ce5 ba3c 2d61 81bb d443 aebc 6639 79bc
000002f0: 5733 cabb 7587 a1bb a1ce cb3c 527c 5239
00000300: 2c73 b03b c59f 073d 05b3 8f3a 072f 5fbc
00000310: 21c3 993c d2df 7f3c 29f6 ae39 920d 4739
00000320: 0064 283d 2be0 b8bb 04d5 35bb c61f 23bc
00000330: 09b3 2c3c de1d 0fbc 08cd 953c a85d c93b
00000340: a11f 46bc f4ea 0b3c 7360 b2bc 7fcf 87bc
00000350: 0391 11bd d655 943b 0af7 a33b fcac 523c
00000360: 07bb f1bc ace5 bfbb d749 c83c 3de1 ebbb
00000370: e1e6 333c a7c2 023c 95b4 4f3c 50e7 63bc
00000380: e8fa 67bb 9199 b1bc 820f 173c 6f78 8fbc
00000390: 3e40 883b f240 4bbc a4ca 623c 01e5 8dbb
000003a0: f045 b0bb 3e5d ab3c c49b 96bc 6235 853a
000003b0: 8fd5 00bd be87 193c 5e0b c33c 8610 2c3b
000003c0: 64be 793c 10ee a538 d91b 243c 1846 febb
000003d0: f6c0 57bc 8a68 0fbc 7404 4ebc 7a82 cabc
000003e0: 253e 62bc f23b 233d b2a4 2ebc ee32 033d
000003f0: 3a9c babb 3f38 903c 367e 9c3c 9844 0bbc
0.0046223816 0.022987269 -0.0028516327 -0.03153218 -0.008742077 0.0121027045 0.0057320823 0.020196762
-0.016532192 -0.0028838168 -0.0051801708 0.01784255 -0.025471654 0.008902349 0.00579109 -0.025991041
-0.029855376 0.013145244 -0.01914907 -0.0031859872 -0.00041065447 0.0096000135 -0.013290502 0.026887646
0.0026681037 -0.0012613186 0.02679672 0.013812441 0.013089864 0.02553957 -0.008520797 0.0010219433
0.00954606 -0.020874899 -0.00097348494 0.0044279024 -0.021612532 0.0067466022 -0.008158704 -0.028859062
-0.006741616 0.00019870643 -0.001650551 0.005197708 -0.0031468736 -0.017047724 -0.0055870004 -0.008856852
-0.028780138 0.011123918 -0.0366843 0.017338064 -0.02132757 -0.01850689 0.0155279 -0.000913968
0.018181868 0.015548062 -0.0018656359 0.016596392 -0.0054679145 -0.0066252523 -0.0015104242 0.0076623037
-0.0009248668 -0.024346037 0.021501373 0.016659036 0.022433255 -0.023296537 -0.0027657866 -0.00092433434
-0.0010709513 -0.0068437536 -0.009754701 0.012154851 0.023670638 0.03352536 -0.016093384 -0.0020657498
-0.031280342 0.010194021 -0.016015567 0.018665291 -0.01375298 0.0028488645 -0.02372603 0.020702235
-0.012275232 -0.021077735 -0.021570748 0.017286647 -0.002599715 -0.0028147916 -0.0021816783 -0.020308826
0.013657993 0.0007020015 0.05234737 -0.015857354 0.024326727 -0.007044623 0.004868136 -0.009115446
-0.016246557 0.02441387 0.013391751 0.004254424 0.020413173 0.039570145 -0.007959798 -0.0013997391
-0.019809432 -0.0097322 0.012357491 0.002263895 0.008148624 -0.012403572 -0.013388729 -0.020764712
0.026897583 0.009093967 -0.020701736 -0.00030376425 -0.026968263 -0.022147657 -0.04059142 0.0074362596
0.025389537 -0.03638152 0.03570533 0.04038977 -0.020340485 0.008739524 -0.018502664 -0.01919231
0.023065394 -0.0033919117 -0.02514576 0.0021832222 0.030494867 0.008529611 -0.026247393 -0.008094127
0.030326782 -0.007761196 -0.01779636 -0.0013795291 0.015165973 0.02495601 -0.036057282 -0.009959885
-0.018274918 -0.0391596 0.004851137 0.014942248 -0.0035534268 -0.02060384 -0.0028369015 -0.017085174
0.00868521 -0.027010405 0.022429282 0.022475425 -0.009149297 -0.014035563 0.025015572 0.026840834
0.021908926 -0.021615814 0.020666141 0.0028977816 -0.005858938 -0.021024847 0.002661136 0.03058455
-0.02858178 0.021934858 -0.05450595 -0.024357324 -0.009538113 -0.006387875 0.015736764 -0.013732617
0.022814535 -0.003948352 -0.021272577 -0.015211439 -0.006170671 -0.004929478 0.024878802 0.00020073474
0.0053848233 0.033111352 0.0010963386 -0.013622052 0.018769803 0.015617328 0.0003337127 0.00018983174
0.041110992 -0.0056419573 -0.0027745375 -0.009956306 0.010540732 -0.008735148 0.018286243 0.006145198
-0.012092502 0.008539904 -0.021774506 -0.016578434 -0.035538685 0.004526834 0.0050038146 0.0128586255
-0.029508127 -0.0058562364 0.024449272 -0.0071984814 0.010980339 0.007980979 0.012677331 -0.01391013
-0.0035397355 -0.021679671 0.009220006 -0.017513482 0.004158049 -0.012405621 0.013842259 -0.004330278
-0.005379431 0.020918485 -0.018384822 0.0010163004 -0.031453665 0.009370742 0.023809131 0.0026254966
0.015243147 7.912156e-05 0.010016405 -0.0077598207 -0.013168564 -0.008752951 -0.012574304 -0.02472042
-0.013808762 0.03985209 -0.010659384 0.032030992 -0.005694893 0.017604945 0.01910315 -0.008500241

action_model._continuous_distribution.mu.bias f4 [2]
00000000: 3573 0a3b 0915 edba
0.0021125798 -0.0018087934
