python/results/minion_walk_003/Minion/Minion-24681.onnx (onnx, 78034 bytes, 7 tensors)

network_body._body_endoder.seq_layers.0.weight f4 [128, 15]
0	0xbe1c468a	-0.15261284
1	0xbe2c3422	-0.16816762
2	0xbe7e6d95	-0.2484649
3	0xbd37c211	-0.04486281
4	0xbdb20c8b	-0.08693799
5	0xbf12e690	-0.5738306
6	0xbb7a7c9f	-0.0038221253
7	0x3e328648	0.17434037
8	0xbe84023e	-0.2578296
9	0x3dd97112	0.106172696
10	0x3a7fa511	0.0009752075
11	0x3e36ad55	0.17839558
12	0xbd42fcac	-0.047604248
13	0xbdae34fd	-0.085062005
14	0xbcd6ab3b	-0.026204696
15	0xbe9a161f	-0.30095002
16	0x3e8f90ea	0.28040248
17	0x3db54bbc	0.08852336
18	0x3e3e45da	0.18581334
19	0x3c977053	0.018486178
20	0xbd390a6e	-0.045175962
21	0xbdf10647	-0.117687754
22	0xbdc7736a	-0.0973881
23	0x3e0283f9	0.12745656
24	0xbdd0eb25	-0.102011
25	0x3e99eac4	0.30061924
26	0xbe223dc4	-0.15843874
27	0xbd8a999c	-0.0676758
28	0xbccd6115	-0.025070706
29	0x3db606c6	0.08888011
30	0x3cdf2791	0.027240546
31	0x3dae4169	0.0850857
32	0xbe6b62e1	-0.22986938
33	0xbea3457e	-0.31888956
34	0x3e2b17dc	0.1670832
35	0xbe85b5cc	-0.26115263
36	0x3c0238e0	0.00794813
37	0xbe3fe0ba	-0.1873807
38	0x3e130b26	0.14359722
39	0x3d8521c1	0.06500579
40	0x3ed453bc	0.41470134
41	0x3bb8b2c6	0.005636546
42	0xbeab82db	-0.33498272
43	0x3e8d1d9d	0.27561656
44	0xbe7583be	-0.23976037
45	0xbea92b66	-0.33040923
46	0x3f0d1aee	0.55119216
47	0xbe562523	-0.20912604
48	0x3e290a5e	0.16507861
49	0xbec90635	-0.39262548
50	0xbdaf9855	-0.08573977
51	0x3d8185c7	0.06324344
52	0xbe759eb8	-0.23986328
53	0xbd2c349f	-0.04204237
54	0xbea83ed0	-0.32860422
55	0xbe31461c	-0.17311901
56	0x3e3e3854	0.18576175
57	0x3c5a44fe	0.013322113
58	0x3d91ab5a	0.07112761
59	0x3ed88e6a	0.42296153
60	0xbeba0c67	-0.36337587
61	0xbe63682e	-0.2220771
62	0x3db1c192	0.08679499
63	0xbe236259	-0.15955485
64	0xbdc1d368	-0.09464151
65	0xbe0eed42	-0.13957694
66	0xbda72049	-0.08160455
67	0x3e20d517	0.15706287
68	0x3bc6c5be	0.006066053
69	0xbeb24c5a	-0.34823877
70	0xbe8a3126	-0.26990622
71	0x3e836802	0.2566529
72	0x3e44a907	0.19205104
73	0xbc3449f7	-0.011003963
74	0x3dab8611	0.083751805
75	0x3d061f32	0.032744594
76	0xbe828dcf	-0.25498816
77	0x3eb582c4	0.3545133
78	0x3e331ff7	0.17492662
79	0x3f084439	0.532291
80	0xbe6f41bd	-0.23364921
81	0xbe221dfc	-0.1583175
82	0xbdee4c57	-0.116356544
83	0x3eca9206	0.39564532
84	0x3db96bc2	0.09053756
85	0xbc9b521c	-0.018960051
86	0x3e2cb41e	0.16865584
87	0xbd522ff9	-0.05131528
88	0xbea09694	-0.31364882
89	0xbe904c93	-0.28183421
90	0xbe432ea4	-0.1906076
91	0x3d135449	0.035969052
92	0xbd6cd4ce	-0.057820134
93	0xbed86c00	-0.42269897
94	0x3cf1956e	0.029490199
95	0xbc4a4552	-0.012345629
96	0x3d97ac97	0.07405966
97	0x3dd31a99	0.103078075
98	0x3dc9c804	0.09852603
99	0xbc416334	-0.011803437
100	0xbe7f8579	-0.2495326
101	0x3e4a7464	0.19770962
102	0x3de615a7	0.112345986
103	0x3f313890	0.6922693
104	0xbe0aee92	-0.1356757
105	0x3d92664d	0.071484186
106	0xbce337e4	-0.027736612
107	0x3e37dd43	0.17955498
108	0x3e077e94	0.1323188
109	0xbea61a08	-0.32441735
110	0x3e0f899a	0.14017335
111	0xbe0fa4dc	-0.14027733
112	0xbec95407	-0.3932192
113	0x3d8d4bb1	0.068992026
114	0x3e859166	0.26087493
115	0xbeaa2896	-0.3323409
116	0xbe51cf28	-0.2048918
117	0x3e2c3c95	0.16819985
118	0x3da2f240	0.07956362
119	0x3e7e1d5c	0.24815887
120	0x3de63488	0.11240488
121	0x3e3ceac9	0.18448938
122	0x3c4a8eaa	0.012363115
123	0x3c2ca089	0.010536321
124	0xbe331adf	-0.1749072
125	0x3ea7f6d7	0.3280551
126	0xbe6e634d	-0.23280068
127	0x3e226260	0.1585784
128	0xbd776802	-0.060401924
129	0x3e12eeae	0.14348862
130	0xbea3e400	-0.32009888
131	0x3d5a067c	0.05322884
132	0x3e8e6f51	0.27819303
133	0xbeb9a7d6	-0.3626086
134	0x3dc3b03d	0.09555099
135	0x3e2a1246	0.16608533
136	0x3c9eeed4	0.019400991
137	0x3d5e044e	0.054203324
138	0xbf0bc39e	-0.54595363
139	0x3d3ea698	0.046545595
140	0xbe129315	-0.1431392
141	0xbe60e511	-0.21962382
142	0xbeaf9018	-0.34289622
143	0x3e7e8df3	0.24858837
144	0x3e0c3fe2	0.13696244
145	0x3d80e148	0.06292969
146	0x3e158270	0.14600539
147	0xbd4fb1f1	-0.050706808
148	0x3e1c10a0	0.15240717
149	0x3e278183	0.16357999
150	0x3e15bf37	0.14623724
151	0xbe28082d	-0.16409369
152	0xbf00be0f	-0.50290006
153	0x3d10adbd	0.03532194
154	0x3dd61db3	0.104548834
155	0x3e754108	0.23950589
156	0xbe3362ba	-0.1751813
157	0xbe38b11e	-0.18036315
158	0xbdc1131c	-0.09427473
159	0x3a8bc86c	0.0010664589
160	0xbe193807	-0.14962779
161	0x3dade305	0.08490566
162	0xbe6953d2	-0.22785881
163	0x3c8d638a	0.017259378
164	0x3bfb6851	0.0076723476
165	0x3f0ecc1f	0.55780214
166	0xbe7cea2b	-0.24698703
167	0xbe13c2c0	-0.1442976
168	0xbdc8b3f7	-0.097999506
169	0xbe030d3e	-0.1279802
170	0x3c2512d1	0.010075287
171	0x3e3f5976	0.1868647
172	0x3e06d394	0.13166648
173	0x3f082ce5	0.53193504
174	0xbddff7d5	-0.10935942
175	0x3e23836b	0.159681
176	0x3d5626bd	0.052283037
177	0x3da85d12	0.08220877
178	0xbe486faa	-0.19573846
179	0x3da07fbc	0.078368634
180	0xbe152b4e	-0.145673
181	0x3cfdb64e	0.030970719
182	0x3df0cad8	0.117574394
183	0x3ef7f97c	0.4843253
184	0xbd89bb7a	-0.067252114
185	0xbec38c6b	-0.38193068
186	0xbe84c70a	-0.25933105
187	0x3ef0c448	0.4702475
188	0x3e534db9	0.20635118
189	0x3e0846ab	0.13308208
190	0xbc788ee3	-0.015170786
191	0xbc2940da	-0.010330403
192	0xbca5e681	-0.020251514
193	0xbd66e3fb	-0.056369763
194	0xbea26518	-0.31717753
195	0xbdd374bd	-0.103250004
196	0x3e162f20	0.14666414
197	0xbf098a14	-0.53726315
198	0xbdb50c92	-0.08840288
199	0xbe430c87	-0.19047748
200	0xbe58ca60	-0.2117095
201	0xbda34b78	-0.07973379
202	0xbeb69f56	-0.3566844
203	0xbd9f602b	-0.077820145
204	0xbe8c216f	-0.27369258
205	0x3efc5399	0.4928253
206	0xbf066c02	-0.52508557
207	0xbdfdb0d4	-0.12387243
208	0x3ef23977	0.47309467
209	0xbf2d0bc6	-0.6759609
210	0xbe6c0b75	-0.23051246
211	0x3cef2bf7	0.029195769
212	0xbdd5e4b4	-0.10444012
213	0x3df12cc1	0.11776114
214	0x3e87fbc4	0.2655927
215	0x3e718f2b	0.2358977
216	0xbe462079	-0.19348325
217	0x3e2d03fb	0.1689605
218	0xbcb97217	-0.02263741
219	0xbea13c34	-0.31491244
220	0x3f1235f8	0.571136
221	0xbe374289	-0.17896475
222	0x3d07c45b	0.033146244
223	0x3db42e59	0.087979026
224	0xbec2b761	-0.38030532
225	0xbdf3a317	-0.11896341
226	0x3ccd9a57	0.025098009
227	0xbee3570c	-0.4440235
228	0xbedb5e53	-0.428454
229	0xbde0eef5	-0.109830774
230	0x3dbcd170	0.092196345
231	0x3ef0c221	0.4702311
232	0x3e07152a	0.13191667
233	0x3f05d5dd	0.52279454
234	0x3c8ab27f	0.016930817
235	0x3f438d18	0.76387167
236	0xbdbd03bb	-0.09229227
237	0xbe7b831c	-0.24561733
238	0xbeba9881	-0.36444476
239	0xbda8072c	-0.08204493
240	0xbac0da8e	-0.0014713572
241	0x3e167b3f	0.14695452
242	0x3dd5ec53	0.10445466
243	0x3ec00dfc	0.3751067
244	0x3eb3ee4e	0.3514275
245	0xbbb545f4	-0.0055320207
246	0x3e845ceb	0.2585214
247	0x3eeb4006	0.45947284
248	0x3ceba92f	0.028767196
249	0x3e0f83fc	0.14015192
250	0xbeba9616	-0.3644263
251	0x3dd3be5f	0.10339045
252	0xbe379159	-0.1792654
253	0x3d968a9b	0.07350656
254	0x3d245959	0.04012427
255	0xbeb29494	-0.3487898

network_body._body_endoder.seq_layers.0.bias f4 [128]
0	0x3b983116	0.0046445234
1	0xbb2e53f7	-0.002660034
2	0x3cce6798	0.025195882
3	0x3d6ef157	0.05833563
4	0x3cd5e465	0.026109884
5	0x3b3c8063	0.0028763048
6	0x3d103922	0.035210736
7	0x3ccc7a58	0.024960682
8	0x3d880683	0.06641867
9	0x3c213402	0.00983906
10	0xbc164fee	-0.00917433
11	0xbc4bf24c	-0.012447905
12	0x3d9761f1	0.07391728
13	0x3c1b8c17	0.009493849
14	0x3b92a62a	0.0044753747
15	0x3cbf9af9	0.023389326
16	0x3d58651d	0.052830804
17	0x3d43e07d	0.04782151
18	0x3d2e4df7	0.04255482
19	0x3d3a8a1b	0.045541864
20	0xbc37cb67	-0.0112179285
21	0x3d2d0167	0.042237666
22	0xbc382dc0	-0.011241376
23	0x3d3d8cb0	0.04627675
24	0x3ca9f617	0.020747228
25	0x3cb075b9	0.02154051
26	0x3ca7a5de	0.020464834
27	0x3d8b4dc2	0.068019405
28	0x3c76a489	0.015053877
29	0x3cd0f590	0.025507718
30	0x3a2ba9e8	0.00065484503
31	0xbb097794	-0.0020975815
32	0x3d511fa4	0.051055565
33	0x3d63b9a6	0.05559697
34	0x3c9a77d1	0.018855961
35	0x3caeec8f	0.021353034
36	0x3d91bf65	0.07116584
37	0x3d8e6132	0.06952132
38	0x3d3a6ea6	0.04551568
39	0xbcf2addf	-0.029623924
40	0x3d60ab19	0.05485067
41	0x3b9040bc	0.004402248
42	0xbd25d57c	-0.040486798
43	0x3d25417a	0.040345646
44	0x3d096432	0.03354282
45	0x3d41da0c	0.047327086
46	0xbcdcd685	-0.02695776
47	0x3b288d32	0.0025718925
48	0xbd5b6f9b	-0.053573232
49	0x3ccc00db	0.024902752
50	0xbc5c0ea3	-0.013431224
51	0x3aa9ebe3	0.0012963976
52	0x3c125ef2	0.00893377
53	0xbd2e5abb	-0.042566996
54	0xbd032c62	-0.03202475
55	0x3d465497	0.048420515
56	0x3d26dd24	0.04073824
57	0xbbcb09c7	-0.006196234
58	0x3cadc975	0.021214226
59	0x3d4516ed	0.048117567
60	0x3d8bac3c	0.068199605
61	0xbc93617a	-0.017990816
62	0x3d88c0d3	0.06677403
63	0x3d8beab3	0.06831875
64	0x3a6acace	0.0008956612
65	0x3cd5eb4e	0.026113179
66	0x3d6408a1	0.05567229
67	0x3c8b227c	0.016984217
68	0xbcb9ba88	-0.022671953
69	0x3cd42d32	0.025900457
70	0x3cdb1491	0.026743205
71	0xbb5a9c59	-0.003335735
72	0x3d18e154	0.037324265
73	0x3d075ec2	0.033049352
74	0xbc63e0d0	-0.01390858
75	0xbacf3f53	-0.0015811719
76	0xbd56be45	-0.05242755
77	0xbd44f6f6	-0.048087083
78	0xbc9a3106	-0.018822204
79	0x3ae81ae2	0.0017708207
80	0x3cb2a6f4	0.021808125
81	0xbccfe06e	-0.025375571
82	0xbcf5d1fa	-0.030007351
83	0xbb57137e	-0.0032818015
84	0xbc8ccd4f	-0.017187743
85	0xbbc5dffa	-0.006038663
86	0xbbbbbafa	-0.0057290765
87	0x3d0f5a7c	0.034998402
88	0x3d24500f	0.040115412
89	0x3c89b279	0.016808735
90	0x3c89ea0b	0.016835233
91	0xbbb6e4a5	-0.005581456
92	0xbc8993b4	-0.016794063
93	0x3d25c589	0.040471587
94	0xbce9db09	-0.028546827
95	0xbd182ce2	-0.03715218
96	0x3d7f536c	0.062335417
97	0x3c936e66	0.017996978
98	0x3c1faec5	0.009746258
99	0x3d7a3517	0.061085787
100	0x3c68f785	0.0142191695
101	0xbc0ae9ba	-0.008478576
102	0x3c5097ff	0.012731551
103	0x3be0ba6c	0.0068581607
104	0x3ca317cf	0.019908814
105	0x3cf09dde	0.029372152
106	0xbca43dd9	-0.020049023
107	0x3bec67a9	0.0072145057
108	0x3d3e88ea	0.04651729
109	0xbd3b820e	-0.045778327
110	0xba0ecc4e	-0.0005447314
111	0x3c352f9f	0.011058717
112	0x3c91525d	0.01773947
113	0x3d9b2e77	0.07577222
114	0x3c79d4f7	0.015248529
115	0xbd2d5219	-0.042314623
116	0x3dae083e	0.08497666
117	0x3c233cb9	0.009963208
118	0x3d452464	0.048130408
119	0x3d714eb0	0.058912933
120	0x3d65a3ba	0.056064345
121	0xbcf6f353	-0.030145323
122	0x3d94b191	0.072604306
123	0x3d972aa4	0.0738118
124	0xbc88b74b	-0.016688963
125	0x3cfca681	0.030841114
126	0x3b33b5bd	0.0027421557
127	0x3d3e6bce	0.04648953

network_body._body_endoder.seq_layers.2.weight f4 [128, 128]
0	0xbdfb274c	-0.12263355
1	0xbd804f3b	-0.06265112
2	0x3df033c4	0.117286235
3	0x3de3e263	0.11127164
4	0xbdc59fc0	-0.096496105
5	0x3da4e473	0.08051386
6	0xbd180a62	-0.037119277
7	0xbdcc84c4	-0.099862605
8	0x3e131b90	0.14365983
9	0x3c02dd72	0.007987367
10	0x3dcde51f	0.10053467
11	0xbdaf274e	-0.08552419
12	0x3d50af46	0.050948404
13	0xbcb53e1a	-0.022124339
14	0xbaf428d6	-0.0018627893
15	0x3c4f601a	0.01265719
16	0xbce64370	-0.028108329
17	0xbce1bb3b	-0.027555099
18	0xbc936466	-0.01799221
19	0xbd33ee21	-0.04392827
20	0xbd6fe0ca	-0.058563985
21	0xbdc9760c	-0.09836969
22	0x3cf37016	0.029716533
23	0xbdc0cc86	-0.0941401
24	0x3cd00604	0.025393493
25	0xbd39e2e5	-0.0453824
26	0xbe091c37	-0.1338967
27	0xbc860762	-0.016360942
28	0xbd8bef7c	-0.068327874
29	0xbbbfd248	-0.005853925
30	0xbd9aa9c8	-0.075519145
31	0x3e0a4956	0.13504538
32	0xbd906878	-0.07051176
33	0x3daa81ce	0.083255395
34	0x3e2089a0	0.156775
35	0x3ca3d939	0.02000104
36	0xbd5ba2e4	-0.05362214
37	0x3ce77d0a	0.028257865
38	0x3d01166d	0.031515528
39	0x3dc23d59	0.094843574
40	0x3d665b99	0.056239698
41	0x3e027b1b	0.12742274
42	0xbd859656	-0.06522815
43	0x3c968bc6	0.018377196
44	0x3d6a4534	0.057194903
45	0x3d8ed912	0.069749966
46	0xbd14693a	-0.036233164
47	0x3dccbec9	0.09997327
48	0x3e6eb625	0.2331167
49	0x3d6511c5	0.05592515
50	0xbd880e67	-0.06643372
51	0xbd95a8e9	-0.07307608
52	0xbd3d919b	-0.04628144
53	0x3d4f9802	0.050682075
54	0xbdd4e854	-0.103958756
55	0xbdd864a1	-0.105660684
56	0x3dc0306c	0.09384236
57	0xbd811871	-0.0630349
58	0xbdddc3da	-0.10828371
59	0x3df076a4	0.11741379
60	0xbcee9bd4	-0.029127039
61	0x3dccd85b	0.10002204
62	0xbdf5621c	-0.119816035
63	0xbd88f267	-0.066868596
64	0x3ce8424a	0.028351922
65	0x3e5d14e3	0.21589999
66	0xbcc1c998	-0.023655698
67	0xbd1bf5a0	-0.038076043
68	0x3e03f7a8	0.12887442
69	0x3bf833bb	0.007574526
70	0xbba5aa74	-0.00505572
71	0x3e503d5c	0.20335907
72	0xbd9fd04d	-0.07803402
73	0x3da3fa2e	0.08006702
74	0xbbf0f94a	-0.0073539363
75	0xbdc48f6e	-0.095976695
76	0xbc9095d6	-0.017649572
77	0x3d34966a	0.04408876
78	0x3d83c1c2	0.06433441
79	0x3ca5ca10	0.020237952
80	0xbe0d0d69	-0.13774647
81	0x3bcf4739	0.006325629
82	0xbd5fa72f	-0.054602798
83	0x3aa660e1	0.0012693667
84	0x3d0dd0a1	0.034622792
85	0x3db0737e	0.086157784
86	0xbd286ec2	-0.041121252
87	0x3e2db68b	0.16964166
88	0x3da4d98a	0.08049305
89	0x3ccddeb2	0.025130603
90	0x3d35c199	0.044374082
91	0xbd63c2e8	-0.0556058
92	0xbe0fe919	-0.14053763
93	0x3d85c3ff	0.06531524
94	0xbdede42b	-0.11615785
95	0x3de1bdb0	0.11022508
96	0xbe2c0962	-0.16800454
97	0xbd22c65c	-0.03973995
98	0x3baa97b8	0.0052060746
99	0xbc43445d	-0.011918155
100	0x3de4ae1d	0.11166022
101	0xbd0cb0ab	-0.03434817
102	0x3c3b64e4	0.011437628
103	0x3d7093ab	0.058734577
104	0xbb2b69cc	-0.002615559
105	0x3d08cd68	0.033399016
106	0x3d9721df	0.07379507
107	0xbd939574	-0.0720624
108	0x3dc74f10	0.09731877
109	0x3dc15fbf	0.0944209
110	0x3a8e3ee6	0.0010852485
111	0xbd9a3ab0	-0.07530725
112	0x3cb29a07	0.021801962
113	0xbe840f68	-0.25793004
114	0x3dc46e0a	0.09591301
115	0x3e17cbde	0.14823863
116	0x3e150bbf	0.14555262
117	0xbe0bee7d	-0.13665195
118	0x3c0050f1	0.007831798
119	0xbe7488ae	-0.23880264
120	0xbc4ef39e	-0.012631325
121	0x3e638a61	0.22220756
122	0xbe223e6a	-0.15844122
123	0x3d693083	0.05693103
124	0xbcf2e5ba	-0.029650558
125	0xbd93cdc4	-0.07216981
126	0xbe1a344f	-0.15059017
127	0xbdccf8d0	-0.10008395
128	0xbd749e84	-0.059721485
129	0x3c2c88a0	0.010530621
130	0x3c72635f	0.0147942
131	0x3dc6a7db	0.09699985
132	0xbdf3b3fb	-0.11899563
133	0x3df1428c	0.11780271
134	0x3c842a09	0.016133325
135	0x3cece140	0.028916001
136	0xbdb98178	-0.09057897
137	0xbdb1eb50	-0.086874604
138	0xbc1512c5	-0.009098713
139	0xbcf628cb	-0.030048748
140	0x3d8f3c8c	0.0699397
141	0xbda95bd7	-0.0826947
142	0x3da4e741	0.08051921
143	0x3e014d06	0.12627038
144	0x3da27a30	0.07933462
145	0xbe83c701	-0.25737765
146	0x3e7bbbf7	0.24583422
147	0x3d974a6c	0.07387242
148	0x3d4345ae	0.047673874
149	0x3cab9cea	0.020948846
150	0xbccf2a0a	-0.0252886
151	0x3d275ff2	0.040862985
152	0x3d8c6119	0.068544574
153	0xbe10b062	-0.14129785
154	0xbd61a706	-0.055090927
155	0x3d93f85b	0.072251044
156	0x3e3caa74	0.18424398
157	0x3e0de7bf	0.13857935
158	0xbe0ca50f	-0.1373484
159	0x3d57bdf9	0.052671406
160	0xbd6c91a8	-0.057756096
161	0x3de4e479	0.1117639
162	0x3d4c0dfa	0.049818017
163	0xbd6e0590	-0.058110774
164	0x3e3ae8c5	0.18252857
165	0x3de7bc94	0.11315265
166	0xbe064de7	-0.13115655
167	0xbde4983c	-0.11161849
168	0x3dbfedc2	0.093715206
169	0x3d11a64c	0.035558984
170	0x3dae28cb	0.085038744
171	0x3dfca8ed	0.123369075
172	0xbca5a34c	-0.020219468
173	0xbd8dbcf8	-0.069208086
174	0x3e483159	0.19550075
175	0x3d6da75b	0.05802093
176	0xbd09e442	-0.03366495
177	0x3b1db16d	0.0024062053
178	0xbcf39fd6	-0.029739302
179	0xbce881c9	-0.028382199
180	0xbc1ec8ca	-0.0096914265
181	0xbe5166c4	-0.20449358
182	0x3d60c6c7	0.05487707
183	0xbe28c722	-0.16482213
184	0x3de7625b	0.11298057
185	0xbcaed645	-0.021342406
186	0xbea478ea	-0.321235
187	0xbc8afe24	-0.016966887
188	0x3d29790a	0.041375197
189	0xbcbb9cc4	-0.0229019
190	0xbe1e0891	-0.15432955
191	0xbd9eb57d	-0.0774946
192	0x3afc70a9	0.001925965
193	0xbdc2e210	-0.09515774
194	0x3d837978	0.06419653
195	0x3dda3d99	0.1065628
196	0xbe0d203d	-0.13781829
197	0xbc52e456	-0.012871822
198	0x3cdd3ef5	0.02700756
199	0x3e696ddc	0.22795814
200	0x3e4b09f6	0.19828019
201	0x3bf3eb4c	0.007443821
202	0x3ceebb0f	0.02914193
203	0x3dd526c3	0.10407784
204	0xbd735620	-0.059408307
205	0xbae115a9	-0.0017172593
206	0x3dc7365c	0.09727165
207	0x3e15b31f	0.1461911
208	0xbdc7af70	-0.09750259
209	0xba81fd21	-0.0009917357
210	0xbce712d6	-0.028207224
211	0xbd9b2af3	-0.07576551
212	0x3dd3c3af	0.10340058
213	0xbdf1c09f	-0.11804318
214	0x3e7f3c4a	0.24925342
215	0x3de1fc84	0.11034492
216	0xbd8bdbe3	-0.068290494
217	0x3d8bd422	0.068275705
218	0x3e28da2b	0.16489474
219	0x3c59b6aa	0.013288179
220	0xbbb5a2ef	-0.005543105
221	0xbdc5f741	-0.096663006
222	0xbb29661a	-0.002584821
223	0x3d2fb2e4	0.042895213
224	0xbb57a8e1	-0.0032907056
225	0x3c8176bb	0.015803685
226	0xba10311c	-0.0005500482
227	0x3cb545e6	0.022128057
228	0x3d846138	0.064638555
229	0x3d55b146	0.052171014
230	0xbe0bf154	-0.13666278
231	0xbd06168f	-0.032736357
232	0xbcd1ed4d	-0.02562585
233	0x3d809d2c	0.06279978
234	0x3d8a785a	0.067612365
235	0xbd30f25e	-0.04319989
236	0xbe2b194f	-0.16708873
237	0x3c62c35e	0.0138405245
238	0xbd83f738	-0.064436376
239	0x3d5e586e	0.054283552
240	0xbd937389	-0.07199771
241	0xbe006e92	-0.12542179
242	0xbcca2ea6	-0.024680447
243	0x3dc0b81c	0.09410116
244	0x3e49d11c	0.19708675
245	0x3c0ce3bf	0.008599221
246	0xbe062b99	-0.13102569
247	0xbda7afa6	-0.08187799
248	0x3d3f6349	0.046725545
249	0xbd1c1475	-0.038105447
250	0xba2a6b63	-0.0006500987
251	0x3c5740fb	0.013138051
252	0x3d2f6299	0.04281864
253	0x3dcf84f9	0.101327844
254	0xbd8893a9	-0.06668789
255	0x3cf6879f	0.030093966

network_body._body_endoder.seq_layers.2.bias f4 [128]
0	0x3bae12af	0.005312286
1	0x3bfc7cd5	0.007705311
2	0xbcaf824d	-0.021424437
3	0xbccdd966	-0.025128078
4	0x3cb21395	0.021737853
5	0x3d35f5a4	0.044423714
6	0x3dc87e71	0.09789742
7	0xbc12b3d7	-0.00895401
8	0xbd05ca03	-0.032663357
9	0x3da3fd0f	0.080072515
10	0xbce6b34a	-0.028161664
11	0x3d55a66e	0.052160673
12	0xbce88b29	-0.02838667
13	0xbd232dd4	-0.039838627
14	0xbd157be1	-0.036495093
15	0xbce267c4	-0.02763737
16	0xbd0a19f0	-0.033716142
17	0x3d85d701	0.06535149
18	0x3d3f41df	0.04669368
19	0x3c8495c7	0.0161847
20	0x3c585d69	0.0132058645
21	0xbd7c9c61	-0.061672572
22	0xbaa01aed	-0.0012215056
23	0x3d89b0cb	0.06723174
24	0xbd20d6fa	-0.039267518
25	0xba91a782	-0.0011112543
26	0x3d7063b7	0.058688845
27	0xbca44ec8	-0.020057097
28	0xbcbbd23f	-0.022927402
29	0xbd0da514	-0.03458126
30	0xbd3ed0f3	-0.04658599
31	0xbcb9b075	-0.02266715
32	0x3d030099	0.03198299
33	0xbd2012d7	-0.039080467
34	0xbd1f9cb1	-0.038967792
35	0x3d74d730	0.05977553
36	0xbc84fe95	-0.016234675
37	0xbd36a82b	-0.04459397
38	0x3d0a84c8	0.033818036
39	0x3d531c17	0.05154046
40	0x3d52448a	0.051334895
41	0xbb8c9734	-0.0042904858
42	0xbd323466	-0.043507002
43	0xbd25d56d	-0.04048674
44	0xbc89e653	-0.01683346
45	0xbd287473	-0.04112668
46	0x3d518910	0.051156104
47	0x3d791848	0.060814172
48	0x3da63d9f	0.08117222
49	0xbd61e008	-0.055145293
50	0x3d7ecf68	0.062209517
51	0xbd160a4a	-0.036630906
52	0xbce5a25a	-0.028031517
53	0x3d4be071	0.04977459
54	0x3ac0fb08	0.0014723251
55	0xbcdb7e94	-0.026793756
56	0x3d5e5c48	0.054287225
57	0x3bba7aaa	0.005690892
58	0xbce35ade	-0.02775329
59	0xbc265de4	-0.010154221
60	0x3d4e5fb7	0.05038425
61	0xbd5caf8c	-0.053878352
62	0x3d269892	0.040672846
63	0x3ce10938	0.027470216
64	0x3d5c4ea7	0.053785946
65	0x3d6c7ede	0.057738177
66	0x3d9fcd81	0.07802869
67	0xbd8d0dfc	-0.06887433
68	0xbd2e4bb0	-0.04255265
69	0xbd7e0479	-0.062015984
70	0xbd71a7b2	-0.058997817
71	0xbbcdfd61	-0.0062863086
72	0x3d8a3252	0.06747879
73	0xbd5c4700	-0.05377865
74	0x3c27c186	0.010239011
75	0xbd08a001	-0.033355717
76	0x3cff0503	0.03113032
77	0xbd72b7ae	-0.0592572
78	0x3d237088	0.03990224
79	0xbd0b448a	-0.03400091
80	0x3ca2dc66	0.019880485
81	0x3d6468d5	0.055764038
82	0xbd58130a	-0.052752532
83	0xbd81f4d8	-0.06345528
84	0x3d23906c	0.039932653
85	0x3d6b7a4c	0.05748968
86	0xbd006a83	-0.031351577
87	0xbcca6974	-0.024708487
88	0x3c8138f5	0.01577423
89	0xbc94daf7	-0.018170817
90	0x3cf6b7a9	0.030116873
91	0xbc0c46d0	-0.008561805
92	0x3c00b2cb	0.007855128
93	0x3d908a58	0.07057637
94	0xbd052aca	-0.03251151
95	0xbc8d50d2	-0.017250452
96	0xbd1c2450	-0.038120568
97	0xbd598676	-0.053106748
98	0x3d996226	0.074894235
99	0x3d6fcfd1	0.0585478
100	0x3d82b448	0.06382042
101	0xbd5ad866	-0.05342903
102	0x3d921136	0.07132189
103	0xbceb8a6e	-0.028752532
104	0xbd9561ba	-0.072940305
105	0xbce26c00	-0.027639389
106	0x3c4aa827	0.012369192
107	0x3d1a16ad	0.03761928
108	0xbcdce296	-0.026963513
109	0x3d764533	0.060124587
110	0x3c6eb6f6	0.0145699885
111	0xbb6c7654	-0.0036081271
112	0xbbe7b456	-0.0070710583
113	0xbd23b842	-0.039970644
114	0x3cb620fb	0.022232523
115	0xbb704517	-0.0036662275
116	0xbc2ebf40	-0.010665715
117	0x3ced2425	0.0289479
118	0xbd213e99	-0.03936634
119	0x3c227642	0.00991589
120	0xbd2f9630	-0.04286784
121	0xbdb5ace2	-0.088708654
122	0xbbf0c53d	-0.0073477314
123	0x3d8c8157	0.06860607
124	0xbd4abcbc	-0.049496397
125	0xbb97d7b4	-0.004633868
126	0xbc11af87	-0.008891947
127	0xbd51ed6a	-0.051251806

action_model._continuous_distribution.log_sigma f4 [1, 2]
0	0xbd1a5422	-0.03767789
1	0xbcd495ef	-0.0259504

action_model._continuous_distribution.mu.weight f4 [2, 128]
0	0x3c842f5a	0.01613586
1	0xbc4ab9a5	-0.012373363
2	0x3bf4cc03	0.007470609
3	0xbc8bbd85	-0.017058143
4	0x3cdb6e02	0.026785854
5	0x3b24ab22	0.0025126417
6	0xba21fcc6	-0.0006179329
7	0xbb7f26be	-0.0038933004
8	0x3d169cfb	0.036770802
9	0x3d3a9603	0.04555322
10	0xbbe5e467	-0.007015753
11	0xbba4adc0	-0.0050255954
12	0xbbcc0ba8	-0.0062269755
13	0xbbafd8b8	-0.005366411
14	0xbbeb0ddd	-0.0071732835
15	0x3ce55379	0.027993904
16	0xbc331009	-0.010929116
17	0xbc7d5b66	-0.015463686
18	0xbc65bbf1	-0.0140218595
19	0x3cb8a213	0.02253822
20	0xbd3e5d57	-0.046475735
21	0x3d4e6bb2	0.050395675
22	0x3da4511d	0.08023284
23	0x3bb31604	0.005465271
24	0x3d92d182	0.07168867
25	0x3d068a83	0.03284694
26	0x3d22dd79	0.039761994
27	0x3cfadb0d	0.03062203
28	0x3cd91346	0.026498448
29	0x3cf490c6	0.02985419
30	0x3c057de7	0.008147693
31	0x3d425243	0.047441732
32	0xbcc52891	-0.024067195
33	0x3cb0a994	0.021565236
34	0x3aec28a3	0.0018017482
35	0xbd345b0c	-0.04403214
36	0xbc239aad	-0.009985608
37	0x3c5979e1	0.013273687
38	0xbca6ebf8	-0.02037619
39	0xbd0a2a7a	-0.033731915
40	0xbcb653af	-0.0222567
41	0xbc2990a4	-0.010349426
42	0x3c302256	0.010750374
43	0xbcba0f44	-0.022712357
44	0xbb8eba3b	-0.0043556965
45	0x3c4319ad	0.011907977
46	0xbbfd4a77	-0.007729824
47	0xbcc786cf	-0.024356274
48	0xbce38c19	-0.027776765
49	0x3b7d811d	0.0038681694
50	0x3c8ca716	0.017169517
51	0x3d2d0337	0.042239394
52	0x3abd1792	0.001442658
53	0xbc8f7e38	-0.01751624
54	0xbbfb24de	-0.007664307
55	0xbc96926e	-0.01838037
56	0xbd60d6ac	-0.054892227
57	0x3d213933	0.03936119
58	0xbcdb8e04	-0.026801117
59	0x3db7e759	0.08979673
60	0xbcba3cc4	-0.022734053
61	0x3bcef223	0.006315486
62	0xbb73c2b5	-0.0037194912
63	0x3cb58df7	0.02216242
64	0xbbe62894	-0.0070238803
65	0xbc88e777	-0.016711934
66	0xbcca0abe	-0.024663325
67	0x3d8b5bfd	0.06804655
68	0x3c3bcbd8	0.011462174
69	0x3c698a48	0.01425416
70	0x3d2df8a6	0.042473458
71	0x3b803e96	0.003913711
72	0xbd099efe	-0.033598892
73	0x3cda9720	0.02668339
74	0x3cbb945d	0.022897894
75	0xbb06b3ce	-0.002055395
76	0xbcbc0f96	-0.02295665
77	0x3d1f0086	0.03881886
78	0x3be5b02b	0.0070095262
79	0x3d49afd4	0.04923995
80	0xb9300a31	-0.00016788465
81	0xbd5e347c	-0.05424927
82	0x3c289cf2	0.010291325
83	0xbb5563b4	-0.0032560648
84	0x3d076c77	0.033062425
85	0x3b2a79e3	0.0026012592
86	0x3cf252d7	0.029580517
87	0x3d61c392	0.05511815
88	0xbcd80667	-0.02637024
89	0x3aa639a6	0.0012681975
90	0xbc40610e	-0.01174189
91	0xbcf19208	-0.029488578
92	0x3cfa1cd1	0.030531319
93	0xbc3cf580	-0.011533141
94	0x3ba6f870	0.005095534
95	0xbab427f2	-0.0013744815
96	0x3d1a8b4b	0.037730496
97	0x3c9e8ab4	0.019353248
98	0x3c69a30f	0.014260068
99	0x3cc1beec	0.023650609
100	0xbc3a70a5	-0.011379396
101	0x3be71e8e	0.007053203
102	0xbc40807a	-0.011749381
103	0xbc6ffbcf	-0.014647438
104	0x3d0e2214	0.03470047
105	0x3c8605f5	0.016360262
106	0xbcb0502d	-0.021522606
107	0x3bc9ea2b	0.006161948
108	0xbb6e0924	-0.0036321366
109	0x3d198f3a	0.037490107
110	0xbcca9f47	-0.024734152
111	0x3c4a9a4f	0.012365892
112	0x3d394897	0.045235243
113	0x3d1fd3c5	0.03902032
114	0xbbe16154	-0.0068780575
115	0xbc022753	-0.007943946
116	0xbc6205b8	-0.013795309
117	0x3d052f3f	0.03251576
118	0x3be8157b	0.007082639
119	0x3c7d8204	0.015472893
120	0xba8ad465	-0.0010591863
121	0x3c5345bc	0.012895044
122	0x3cf913a7	0.030404879
123	0xbc05bf6c	-0.008163314
124	0x3d54809e	0.05188047
125	0xbd00ace3	-0.031414878
126	0x3c96529d	0.01834994
127	0x3bb3f4fe	0.005491852
128	0x3c564041	0.013076843
129	0xbb1db5a5	-0.0024064567
130	0x3b97503b	0.0046177185
131	0xbd0e57ad	-0.034751583
132	0x3c88a970	0.016682357
133	0x3ce094c0	0.02741468
134	0x3d3042ef	0.043032583
135	0xbc847df1	-0.016173335
136	0xbc41cadd	-0.0118281515
137	0x3c5e0f53	0.013553458
138	0xbd841328	-0.06448966
139	0x3c96380c	0.018337272
140	0xbd3a1418	-0.04542932
141	0xbd093e5f	-0.033506747
142	0xbd534e8e	-0.051588587
143	0xbcf341de	-0.029694494
144	0xbd2f2e10	-0.042768538
145	0x3cec1006	0.028816234
146	0x3b904b78	0.004403528
147	0x3d1af714	0.03783329
148	0xbc9139cd	-0.017727757
149	0xbd70de06	-0.058805488
150	0xbcdbeb5b	-0.026845625
151	0x3d3ece93	0.046583723
152	0xbd807bbd	-0.06273601
153	0x3b9f09eb	0.0048534772
154	0x3d28e678	0.041235417
155	0xbbcb6462	-0.006207035
156	0xbca7dece	-0.020491984
157	0xbc0f0f3d	-0.00873166
158	0xbccda15c	-0.025101356
159	0xbd110a8a	-0.03541044
160	0x3b4cd64c	0.003125566
161	0xbc3c3a79	-0.01148855
162	0xbc45e2ec	-0.012078028
163	0x3d0cba7c	0.034357533
164	0xbc4571fc	-0.012051102
165	0xbd135dca	-0.035978116
166	0xbb20c06f	-0.0024528762
167	0x3c1f9167	0.009739256
168	0x3cd13ab9	0.025540696
169	0xbbc8860b	-0.006119495
170	0xbdd184b2	-0.10230388
171	0xbd0e19b5	-0.034692485
172	0xbcc33456	-0.023828667
173	0xbc2cac00	-0.010539055
174	0x3c8f89f1	0.01752183
175	0x3cb1677c	0.02165579
176	0x3cfebdfc	0.031096451
177	0xbd626ed5	-0.05528148
178	0x3ce3fdf5	0.027831057
179	0xbc4fd82e	-0.012685819
180	0xbb08f4f4	-0.0020897957
181	0x3d12f710	0.03588015
182	0x3b3c7d64	0.0028761262
183	0xbcc59531	-0.024118992
184	0x3c840a41	0.01611817
185	0xbb59727f	-0.0033179817
186	0xbcd32d11	-0.025778325
187	0x3bc2ff9f	0.0059508826
188	0x3c7f2968	0.015573837
189	0xbbe4e30e	-0.006985075
190	0x3c3118f5	0.010809173
191	0x3cdd058a	0.02698018
192	0x3c10369e	0.008802084
193	0x3d431bf1	0.04763407
194	0x3d5538ee	0.052056246
195	0xbdb762ee	-0.08954416
196	0xbc61b64b	-0.013776372
197	0xbd4919d1	-0.049096886
198	0xbd938376	-0.072028086
199	0x3b613c5d	0.0034368255
200	0x3d060159	0.03271613
201	0xbced1999	-0.02894287
202	0x3ce3f368	0.027826026
203	0xbcacd274	-0.021096446
204	0xbb108449	-0.0022051504
205	0xbd815f6c	-0.063170284
206	0x3cfaf036	0.03063212
207	0xbc698bf4	-0.014254559
208	0x3c515395	0.012776275
209	0x3d276c01	0.040874485
210	0xbcbe986d	-0.023266042
211	0xbc956e67	-0.01824112
212	0x3c4e6d79	0.0125993425
213	0x3c95f398	0.018304631
214	0xbc002a25	-0.007822548
215	0x3c5d60b2	0.0135118235
216	0xbc492e8f	-0.012279167
217	0xbbb1ad0e	-0.005422241
218	0xba878e03	-0.0010342005
219	0xbca7d66e	-0.02048799
220	0x3c90717d	0.01763224
221	0x3cacd225	0.021096298
222	0xbd227cc6	-0.039669774
223	0xbc95b489	-0.018274562
224	0xbcb9f104	-0.022697933
225	0xbc15cf68	-0.009143688
226	0x3d0ef045	0.034897108
227	0x3b8bbe9f	0.004264667
228	0x3c0de1e5	0.0086598145
229	0xbc9cf17c	-0.019158117
230	0x3d37f37f	0.04490995
231	0xbd110c20	-0.035411954
232	0xbda9d177	-0.082919054
233	0xbbbc03b9	-0.0057377485
234	0xbbf5cb86	-0.0075010685
235	0x3cb2a0ec	0.02180525
236	0xbc878fa4	-0.016547985
237	0x3bf61cbe	0.0075107506
238	0xbc4be918	-0.012445711
239	0x3ba72ba1	0.0051016365
240	0x3bc836aa	0.006110032
241	0xbc8935b0	-0.016749233
242	0x3c9e1f42	0.019302014
243	0xbbe9223c	-0.0071146768
244	0xbcccb6c3	-0.024989491
245	0x3d6d6540	0.057957888
246	0xbc11189c	-0.008855965
247	0x3cb521ea	0.022110898
248	0xbc219229	-0.009861507
249	0xbd418bb8	-0.047252387
250	0x3c605ee2	0.013694497
251	0x3c82b1a4	0.015953846
252	0xbda7e25d	-0.08197472
253	0xbca224fe	-0.01979303
254	0x3bb0d172	0.0053960616
255	0xbcf00c1f	-0.029302655

action_model._continuous_distribution.mu.bias f4 [2]
0	0xbd0d6b8b	-0.03452639
1	0x3d7a4ffe	0.061111443
