python/results/minion_walk_003/Minion/Minion-2961.onnx (onnx, 71890 bytes, 7 tensors)

network_body._body_endoder.seq_layers.0.weight f4 [128, 3]
000000 6a 0d 94 bf 4e d2 17 bf 69 ea 6b 3e 24 2a d5 3d
       -1.1566594 -0.59305274 0.23038639 0.10408428
000010 5f 28 be bd 0e c7 60 bf 60 2d cd 3e 89 96 30 3e
       -0.09285044 -0.87803733 0.4007368 0.17244925
000020 a7 aa 28 be b1 84 e8 3e 5a d8 cf 3e 5b 1a 22 bf
       -0.16471349 0.45413736 0.4059475 -0.63321465
000030 26 ed 72 bf f1 92 02 be ea ed 99 bf ce 4a 05 bf
       -0.9489311 -0.12751366 -1.2025731 -0.5206727
000040 4e 5b ed 3d 30 12 9b bd f0 d1 c0 3e 35 af 92 3c
       0.115896806 -0.07571828 0.3766017 0.01790581
000050 9f 65 63 bd f0 76 ba 3f e7 37 22 bf 65 a3 ba bf
       -0.055516835 1.4567547 -0.6336655 -1.4581114
000060 75 e9 98 bf 17 6d dc 3e b8 c0 73 bd a0 d1 f0 be
       -1.1946245 0.4305198 -0.059509963 -0.4703493
000070 0d b0 0f be 74 e2 cf 3f c8 f4 0e be 06 d3 e2 3e
       -0.14032002 1.6240983 -0.13960564 0.44301623
000080 a6 09 97 be f4 69 09 3f 26 79 9a be 83 e6 20 3f
       -0.2949955 0.53677297 -0.30170554 0.6285173
000090 46 83 a1 3d 07 f1 2a be 92 17 af 3e 49 48 21 3f
       0.078863665 -0.16693507 0.3419767 0.63000923
0000a0 23 cc 8d 3e dd 43 b1 3e 35 fb 16 3f 26 fd 08 3f
       0.27694806 0.34622088 0.5897706 0.53511274
0000b0 a5 75 3f 3f 68 5a d4 be 0e 7d 36 3e b2 2a 3b 3f
       0.74788886 -0.41475224 0.17821142 0.7311202
0000c0 e4 06 bd 3f a5 92 f4 bc 2d 85 30 3e 65 65 bb be
       1.4767728 -0.029855082 0.17238303 -0.36600795
0000d0 13 fa 6d bf d2 62 80 3f e5 10 ad 3e 03 ab 3f be
       -0.9295971 1.0030158 0.33801952 -0.1871758
0000e0 3c 8a 87 3e 5f 6e be 3f 1a 07 0a 3e 48 dc 9c 3f
       0.26472652 1.4877433 0.13479272 1.2254725
0000f0 89 77 13 3e 29 06 4a 3e ef d9 30 3e 88 83 db 3e
       0.14401068 0.19728912 0.17270635 0.42873788
000100 b6 71 6b bf 41 9b dc bc 13 8d 5f bf 66 ad 99 3e
       -0.91970384 -0.0269295 -0.8732464 0.30015105
000110 d7 15 12 3d 50 f0 42 bf dd 67 c9 be f0 34 48 be
       0.03566536 -0.7614794 -0.39337054 -0.19551444
000120 c5 d0 84 3e 01 4c a4 be 3d 04 88 3e c3 b3 91 3d
       0.2594053 -0.32089236 0.26565734 0.07114365
000130 a9 2a 46 bf b0 7b 7f 3f 34 74 25 3f cc 51 e0 be
       -0.77408844 0.9979811 0.64630437 -0.43812406
000140 a1 46 de 3e be b4 f4 bd 24 28 04 bb 07 74 35 bd
       0.4341326 -0.11948536 -0.0020165527 -0.044300105
000150 88 1e 23 be e2 66 d7 bd 9a 1e 27 3e be 29 b6 3d
       -0.15929615 -0.1051767 0.16320267 0.088946804
000160 e3 95 9a 3d 73 b3 fb 3e 07 c4 1e bf 37 cd d7 be
       0.0754812 0.49160346 -0.62017864 -0.42148754
000170 1f b5 40 3f 68 5c 8e 3f 33 52 51 be 68 c9 16 3f
       0.7527637 1.112195 -0.20441513 0.5890107
000180 a2 db 30 bf ff 8b 6b 3f 9e 04 24 bf c9 13 7c bd
       -0.69085133 0.9201049 -0.64069545 -0.061542306
000190 22 d8 8f bf 40 56 05 bf 7c 11 8a bf 0e 55 80 3e
       -1.1237833 -0.5208473 -1.0786586 0.25064892
0001a0 98 a8 94 bc 2c f9 86 3e fa 4b c4 be c4 8e 2f 3f
       -0.018146798 0.26361978 -0.38339216 0.6857722
0001b0 a2 07 35 3c b5 a4 cd 3e 44 5f b9 be 8e 8b 25 bf
       0.011049183 0.40164724 -0.36205494 -0.6466607
0001c0 31 39 12 3e 5e b3 a6 3e c1 84 98 be d8 ee ab bd
       0.1427963 0.3255872 -0.29788783 -0.08395165
0001d0 9e c3 81 3f a5 de 33 3f c5 d1 3c 3f 3d 12 45 be
       1.0137823 0.70261604 0.7375758 -0.19245239
0001e0 82 5d 89 3f 9b c7 83 be bf 7f 44 3f 99 6a 3e 3f
       1.0731661 -0.25738224 0.76757425 0.74381405
0001f0 b8 da 55 be bb 36 41 be 5b a1 13 3e e5 62 77 bf
       -0.20884216 -0.18868534 0.14417021 -0.96635276
000200 03 98 9c 3f a8 ad a2 3d fc 81 b5 bd 58 0f a9 3d
       1.223389 0.079432786 -0.08862683 0.0825488
000210 29 cd 65 be 3e 64 04 be 14 e4 f9 3e 64 b0 01 bc
       -0.22441544 -0.12928864 0.48806822 -0.00791559
000220 98 7d e2 be 2f b4 c5 3e 4f 29 25 bf 89 08 0a be
       -0.44236445 0.38614032 -0.64516157 -0.13479818
000230 e2 39 7b be 46 2f c8 3e ee f5 64 be 32 a3 30 3e
       -0.245338 0.39098567 -0.2235944 0.17249754
000240 b6 05 92 be 94 93 2d bf 52 92 4c 3e 8c 17 8c bf
       -0.28519982 -0.6780331 0.19977692 -1.0944686
000250 e2 74 32 bf 39 6b 7a be 39 2b e0 be 81 95 d1 3e
       -0.697096 -0.24454965 -0.43782976 0.40934375
000260 c4 3b 3b 3f f8 70 3d be d3 ff 89 3f 0b 1a a4 3d
       0.7313807 -0.18500125 1.0781196 0.0801278
000270 16 fa 7b 3f ed 0e 71 3d 93 ca 0c 3f c9 60 26 3f
       0.98428476 0.058852125 0.54996604 0.6499143
000280 14 ef 4f 3f 60 23 69 bf 19 d4 e1 3e 40 c8 20 bf
       0.8122418 -0.910696 0.4410713 -0.6280556
000290 bf e3 97 be 27 43 0a bf 6a 62 0c bf 53 58 78 3c
       -0.29665944 -0.54008716 -0.5483767 0.015157777
0002a0 d5 1c 16 3f 0f 25 ba be 24 cb fb bd 3e 27 fa 3c
       0.58637744 -0.36356398 -0.122946054 0.03053629
0002b0 cb e2 10 3f 75 38 3c bf 2d be 9b 3f b2 32 bb 3f
       0.5659606 -0.73523647 1.2167412 1.4624846
0002c0 86 62 3c bf 99 f9 b5 bd ad 9c 3b bf ca 97 81 be
       -0.73587835 -0.088854976 -0.73285943 -0.25311118
0002d0 a7 fd f3 be c9 03 13 3e ca c4 15 3e 4b 17 8c be
       -0.4765446 0.14356913 0.1462585 -0.2736152
0002e0 47 be 5b 3e ff 04 07 3f f1 9c 4d bf 44 80 82 be
       0.21459304 0.52742 -0.803176 -0.25488484
0002f0 25 0f 7e bf 91 f6 1d bf 88 95 3a 3e ae 83 76 3e
       -0.9924186 -0.61704355 0.18221104 0.2407367
000300 88 12 d0 be 32 27 68 3f 3a db 68 bf 90 84 b9 be
       -0.40639138 0.9068481 -0.90959513 -0.3623395
000310 4f 0c c1 bd 3a e6 f7 bd bb 17 c9 be 2d 68 3a bf
       -0.09426176 -0.12104459 -0.39275917 -0.7281521
000320 c6 32 37 3f 77 7d d6 be 81 6a 8b 3f 6a 07 4f be
       0.7156185 -0.41892597 1.0891877 -0.20217672
000330 6e 95 42 3d fe 5b f0 be d2 3a c9 be 0b 32 01 bf
       0.04750579 -0.46945184 -0.3930269 -0.50466985
000340 1d 0b 44 bf 89 94 23 bf 90 79 70 3f ce 04 1a 3e
       -0.7657946 -0.6389852 0.9393549 0.15040895
000350 15 16 cb be a9 5b 93 be 52 32 80 3f fd 8a b7 be
       -0.39665285 -0.2878087 1.0015357 -0.35848227
000360 41 f4 72 bd bd b9 a1 3e 35 94 af bf 2b 72 d0 be
       -0.05931497 0.3158702 -1.3717104 -0.40712103
000370 c7 c7 c7 3e 3f cb c8 bd 58 de 95 bf 19 65 5a bd
       0.39019606 -0.09804391 -1.1708479 -0.05331907
000380 63 c1 12 bf 84 73 a2 3c 47 a0 7b 3f ee e1 27 bf
       -0.57326335 0.019830473 0.9829144 -0.65579116
000390 b2 48 42 3f 8f 7a 23 be 30 10 ef 3e fd 0a 52 3d
       0.75892174 -0.15964721 0.46692038 0.05128001
0003a0 7b c2 21 3e e8 7e 87 bf 13 c4 b9 be e0 80 fa bd
       0.15796845 -1.0585604 -0.36282405 -0.12231612
0003b0 85 f7 1d be c5 7b a4 be ef 51 68 3f 4c 15 85 bf
       -0.15426452 -0.3212568 0.9075002 -1.0397124
0003c0 4f 13 46 be de de 43 3f c5 c9 44 3f 4a 6c c4 3d
       -0.19343303 0.76511943 0.76870376 0.09590967
0003d0 d5 bb 90 3f 13 c9 69 3e ed 12 59 3e 9c 7a 00 bf
       1.1307322 0.2283061 0.21198626 -0.5018709
0003e0 16 aa 05 3f 83 eb 32 bd 2c 16 85 bf 5d a6 8c 3c
       0.52212656 -0.043681633 -1.0397391 0.017169172
0003f0 3f e5 28 3f 87 43 37 bf 6a 4c e5 3d d3 c6 ac 3e
       0.659748 -0.71587414 0.111962155 0.3374544

network_body._body_endoder.seq_layers.0.bias f4 [128]
000000 41 09 9b 3b 99 8b 87 ba 55 e8 51 bb a4 2b ad ba
       0.0047313278 -0.0010341286 -0.003202935 -0.0013211858
000010 d4 bc 49 3b fe 6b d2 b7 6d 80 f1 ba 70 bd db 3b
       0.0030782716 -2.5084239e-05 -0.0018425115 0.0067059323
000020 5b 48 5a 3a 5b 92 1a ba e7 f1 91 38 54 f6 11 3a
       0.0008326822 -0.00058964425 6.9591966e-05 0.0005568017
000030 0b ce f0 3a 75 5d 2a bb 31 76 cb ba 0a 44 0f bb
       0.0018371952 -0.0025995646 -0.0015522895 -0.0021860623
000040 45 88 b3 3a c3 76 23 bb 16 ca 50 bb 64 fd 2d bb
       0.0013697228 -0.0024942614 -0.0031858734 -0.0026548738
000050 46 62 90 38 5f 4a a3 3b 6a 79 a7 bb bf 35 c4 b9
       6.88476e-05 0.004983231 -0.005110909 -0.00037424077
000060 09 77 1a 3b 20 02 dc 39 17 43 67 ba 80 04 d8 b5
       0.0023569486 0.00041963253 -0.0008821948 -1.6094564e-06
000070 07 4e ad 3a 5a b2 14 3b 81 00 4b bb ff f0 b9 3a
       0.0013222106 0.0022689314 -0.0030975642 0.0014186202
000080 bd 6d 24 bb 76 cb 82 3b 73 bb ea 39 27 a0 c8 b8
       -0.0025089823 0.0039915396 0.0004477162 -9.566574e-05
000090 5e 02 c5 ba 81 fe 12 3b f9 34 22 3b b2 a0 e4 ba
       -0.0015030613 0.0022429528 0.0024750812 -0.001744291
0000a0 92 09 a4 3b f4 f5 c1 bb b8 3b e7 39 5f 3e 3a 3a
       0.0050060237 -0.0059192125 0.00044104247 0.0007104631
0000b0 6e 18 1a ba 1e 4f d1 ba 5c f7 27 ba 36 d4 20 ba
       -0.0005878274 -0.0015969013 -0.0006407404 -0.00061351375
0000c0 d1 d6 cc 39 04 98 be 3b 86 3f ca 3a f7 92 82 3a
       0.00039069963 0.0058164615 0.0015430308 0.0009962012
0000d0 e2 4c b9 ba 6f 7f f0 ba 6f 51 56 3a 38 19 a4 39
       -0.0014137293 -0.0018348525 0.00081755867 0.00031299307
0000e0 d8 5b e3 39 c7 e4 f2 38 1b 30 a6 bb 29 23 ae b8
       0.00043365243 0.00011582072 -0.0050716526 -8.303516e-05
0000f0 f7 4d 1f 3b 74 06 d3 3a 17 38 d9 3a 95 94 2e 3b
       0.0024307945 0.0016099946 0.0016572502 0.0026638855
000100 af bd 81 38 27 19 49 3a 68 22 b5 39 26 3c b2 ba
       6.186531e-05 0.00076712895 0.00034548645 -0.0013598248
000110 dd 2c 8a 3b f8 22 92 bb 7d 74 a2 3a 69 9d e1 bb
       0.004216774 -0.004459735 0.0012394335 -0.00688522
000120 b0 db 4e bb 02 0c 8e b9 9b 02 e4 3a af 38 45 bb
       -0.003156405 -0.00027093297 0.0017395796 -0.00300936
000130 ef 33 d4 3a 50 ca 68 bb 2e fa f5 39 31 04 21 3a
       0.0016189794 -0.0035520978 0.0004691644 0.0006142287
000140 49 a1 16 3b f7 69 9d ba 5e f7 49 3b 21 f5 6c bb
       0.0022984317 -0.0012009729 0.0030817608 -0.003615685
000150 e3 72 0d 3b 32 97 01 b8 c5 72 66 3a ea 9f bb 3a
       0.002158337 -3.089681e-05 0.00087909057 0.0014314626
000160 ef 0c 46 3b f0 c7 8c bb 39 aa 63 3a 95 b2 22 bb
       0.0030220111 -0.0042962953 0.0008684728 -0.0024825681
000170 46 c9 5e 3a 2b 1b 80 ba 7f 1c 96 3a 6f ee ec 39
       0.000849862 -0.0009773722 0.0011452584 0.00045191075
000180 ba d7 6b bb a8 87 a2 39 a4 3f bc 3a 79 03 40 bb
       -0.0035986737 0.0003100012 0.0014362228 -0.0029298945
000190 f4 2b 6d 3a bb e9 22 ba a8 97 e4 3a 93 4e ad 39
       0.0009047382 -0.0006214638 0.0017440217 0.00033055674
0001a0 a0 04 48 ba 92 df 3c b9 ba 04 8f 3b b8 ac 90 3a
       -0.0007630084 -0.00018012364 0.004364577 0.0011037802
0001b0 fc 47 45 3b df 8c 1e bb fe 1f 9d ba fb 48 c8 ba
       0.003010272 -0.0024192852 -0.0011987684 -0.0015280539
0001c0 52 7b 43 3a e9 ec 25 3b 8e ad ce ba 55 d0 89 ba
       0.0007457036 0.0025318211 -0.0015768276 -0.0010514358
0001d0 a5 81 cc bb 86 9d 3b ba 8f 64 ef ba 62 50 1b bb
       -0.006241041 -0.00071569567 -0.0018264222 -0.0023699035
0001e0 7a c2 c5 bb 66 cc a8 3a d4 64 6b bb 78 ee ae ba
       -0.0060351463 0.0012878298 -0.0035918253 -0.0013346216
0001f0 bc 2e 7b 3b 49 b4 3e bb be 93 d9 3a aa 8f da 39
       0.0038327416 -0.0029099158 0.0016599817 0.00041687238

network_body._body_endoder.seq_layers.2.weight f4 [128, 128]
000000 93 4d ee 3d e4 5f e6 bd 32 de 51 3d 11 5b ab bb
       0.1163589 -0.112487584 0.051237293 -0.005229362
000010 0f 50 56 3d 29 1c fe 3c 11 9f 2c bc 1e 05 87 3d
       0.052322444 0.031019287 -0.010535971 0.06592773
000020 8f c4 07 be bc 31 32 3d 18 a2 87 3e 28 9d 97 bd
       -0.13258575 0.04350446 0.26490855 -0.07403022
000030 96 0a 91 3b e6 5e 53 3e 53 57 09 3e c6 2c 77 ba
       0.004426311 0.2064167 0.13412218 -0.0009428974
000040 a2 99 9b bd bc 0a af 3b 59 6f d8 bd 70 a9 3d bc
       -0.075976625 0.005341856 -0.10568113 -0.011576042
000050 dd 3b cb 3d da aa e5 3d 87 68 9a 3d d6 b5 76 bc
       0.099235274 0.11214228 0.07539468 -0.0150580015
000060 7b 75 fc bd 25 d0 1d 3e 8c 3f 32 bd 8b ae b3 3d
       -0.12327095 0.15411432 -0.043517634 0.08773526
000070 1c 49 f7 bd 8d a5 0e 3d 10 5b 8b 3d f9 40 2e 3d
       -0.120744914 0.03482585 0.06804478 0.04254243
000080 fc 27 60 3c 34 68 bd 3b b7 14 bc bd 8c 06 3e be
       0.013681408 0.0057802442 -0.091836385 -0.18557185
000090 c1 12 46 bd b6 c4 e7 39 a7 0b 06 3d 3c 68 18 bd
       -0.04835773 0.00044206314 0.032725956 -0.03720878
0000a0 7d 04 00 3e 60 0b 35 bd 48 80 b8 3d 45 37 1b bd
       0.12501712 -0.0442003 0.09008843 -0.037894506
0000b0 3d 44 a0 bd 8d a4 61 bd 0f 5c 14 3d 79 6e 8e 3c
       -0.078255154 -0.05508857 0.036220606 0.017386662
0000c0 8f 39 e2 bc 32 07 52 bd eb e1 8c bd 74 9a c9 bd
       -0.027615337 -0.051276393 -0.06879028 -0.09843913
0000d0 9a 99 bd 3c 1c e4 1f 3d 3c 00 92 3d 55 b8 7b bd
       0.023144532 0.0390359 0.07128951 -0.06145509
0000e0 a8 e7 a0 3d 11 cc ae bd 7b e7 ce bd b4 db be 3d
       0.07856685 -0.08535016 -0.10102745 0.09319249
0000f0 31 44 19 be ed e0 53 3d 5d 10 1e bd 4a a0 ec bc
       -0.14967419 0.051728178 -0.038589824 -0.028885026
000100 5f b8 01 be e8 ca 1f be 15 d0 48 bb d4 7e 83 3d
       -0.12667988 -0.15604746 -0.0030641605 0.06420675
000110 e6 69 0d bd 63 ed b2 bd f0 6b f0 bd 71 53 fe 3d
       -0.03452482 -0.08736684 -0.117393374 0.12418259
000120 92 e6 d8 bd 00 cf 2c 39 4b e0 14 3d 04 d0 bd bd
       -0.10590853 0.00016480312 0.036346715 -0.092681915
000130 15 f3 8f bb 8f 06 2e bd 57 82 3d bd b9 18 b9 bc
       -0.0043929913 -0.042486724 -0.04626688 -0.022594796
000140 64 a2 09 bd 9f df e1 3c de b9 60 bc ca dd 19 bd
       -0.033602133 0.027572451 -0.013716189 -0.03756503
000150 fc 6a 1c bc 6d bf e3 3c 24 26 d0 3d 8b 88 96 bc
       -0.009546991 0.02780124 0.10163525 -0.018375656
000160 63 82 da 3c c3 1c 82 3d 62 8a 17 bb fc 70 4f 3b
       0.026673501 0.06353142 -0.0023123254 0.0031653037
000170 5b 1d 78 3d cf 62 8f 3d bd 02 20 3e 85 04 8d 3b
       0.06057487 0.07001268 0.15626045 0.0043035173
000180 f0 a7 2c be 6c 72 03 bc d4 93 c8 bd ab 46 03 be
       -0.16860938 -0.008022886 -0.09793821 -0.12819926
000190 9f 2c 71 3d 9c 50 ec 3d 16 15 de bd f8 91 96 bd
       0.058880445 0.115388125 -0.108438656 -0.0735206
0001a0 80 cc 46 bd 8c 81 b9 bd ce b4 ba 3c 61 08 a1 3b
       -0.04853487 -0.09057912 0.022791293 0.004914329
0001b0 2a e9 89 bd b0 d6 28 bc 1e 90 74 bd c5 3e 10 3d
       -0.06733926 -0.010305092 -0.059707753 0.03521611
0001c0 bf 71 d4 3d 00 ce 0e be 9d 30 a1 3c 1b e7 06 bd
       0.10373258 -0.1394577 0.019676501 -0.032935243
0001d0 d5 c9 12 be 7e 75 ef bc 70 cc 43 bc f7 82 14 bd
       -0.14334805 -0.02923083 -0.011950597 -0.03625771
0001e0 19 70 a2 bd 21 90 80 bd 32 d0 c8 bc 87 43 06 3e
       -0.07931537 -0.062774904 -0.024513338 0.13111697
0001f0 57 d8 7d 3d 33 a8 e1 bb 87 f4 7e 3c 1b 96 0e bd
       0.061973896 -0.006886506 0.01556123 -0.03481112
000200 1b 8b 0e be b1 b2 c8 bd d7 a5 f8 bd a4 20 05 be
       -0.13920252 -0.09799708 -0.121410064 -0.13000733
000210 f1 d0 85 3d e9 aa fd bd 1a 6e ca 3d 2b bb 15 be
       0.06533993 -0.12386114 0.098842815 -0.1462218
000220 19 fc d8 3d 2f 73 b8 3d 85 42 08 3c 74 f0 1d bd
       0.10594959 0.090063445 0.008316641 -0.038559392
000230 8b 3e 7f bc 36 99 0d be 63 0f 10 be 50 46 05 3d
       -0.015578876 -0.13827977 -0.1406837 0.03253776
000240 46 ac ad 3d 8c 8a 29 bd 1b e1 2b 3d 8f 83 2c bb
       0.08480124 -0.041391894 0.041962724 -0.0026323532
000250 ad ff 12 be 89 ec a9 bd 12 b9 ce 3d fe ea 8d bd
       -0.14355345 -0.082970686 0.10093893 -0.06929587
000260 75 61 8b bd d6 11 a4 3a 36 75 78 3b 39 ce 15 3e
       -0.06805698 0.0012517523 0.003791166 0.14629449
000270 70 97 f8 bb 3f 5f 5c 3c fd da 00 bc 54 bc 90 3d
       -0.007586412 0.013450443 -0.007864711 0.07067171
000280 92 c5 41 3d 6c 7d b1 3d 91 1e b6 3d 3b 0f 3e 3c
       0.04730756 0.086665004 0.08892549 0.011600311
000290 61 b0 a6 3d 24 e6 e1 bc 85 3c 51 bb 06 d8 00 bc
       0.0813911 -0.02757556 -0.0031926942 -0.007864004
0002a0 7d 01 e7 bc f2 94 18 3e 49 4a 00 bd b8 e1 a4 bc
       -0.028198952 0.14900568 -0.031320844 -0.020127162
0002b0 26 14 3f 3e 8d 5d 22 bd 1b 7c a0 bd 10 4d 0d 3d
       0.1866003 -0.03964 -0.07836171 0.03449732
0002c0 bd 34 89 3d 76 59 81 3d 08 cc 9e bc d6 d5 32 3e
       0.06699512 0.063158914 -0.019384399 0.17464384
0002d0 6a 46 04 3e d6 57 01 be 7f 37 7b 3d 5f d3 33 3d
       0.12917486 -0.12631163 0.061332222 0.04390275
0002e0 fb 12 34 3c 25 54 b6 3d 4f e5 2b 3e b5 9f a3 bd
       0.010990853 0.08902768 0.16786693 -0.07989446
0002f0 0b 61 cb 3d b0 02 38 3e e6 49 99 3d 74 55 4b bc
       0.09930619 0.17969775 0.07484798 -0.01241051
000300 65 39 30 be 1a 29 d5 bc 32 ba 84 3d 71 6b a9 3d
       -0.17209394 -0.026020575 0.064808264 0.08272446
000310 bc f4 c0 bc 1f 7a 69 bd 41 fb a8 3d 1a 71 7e bd
       -0.023554198 -0.05700123 0.08251048 -0.06211958
000320 cc 70 44 bc af 5e 7d 3c 83 07 30 3c 5b 5f 5e bd
       -0.0119897835 0.015464469 0.010743978 -0.054290157
000330 cb e8 46 3e 45 b2 c7 3d 8a a6 71 3b d6 a1 60 bc
       0.19424741 0.09750799 0.0036872947 -0.01371046
000340 c6 f1 a7 3c dc 4a 57 bd 69 4d 1f 3d ed 8d 29 bd
       0.020501029 -0.052561626 0.038892183 -0.041395117
000350 0d b5 b6 bc 23 6f 44 bd f8 45 cb bd 01 71 42 3a
       -0.022303129 -0.04795755 -0.09925455 0.00074173516
000360 29 cd e2 3c 57 a5 34 bd 4b e8 88 3d 07 c2 0c 3d
       0.027685719 -0.044102993 0.06684931 0.034364726
000370 ef f6 e0 bd 48 e9 0c bc 66 24 8b 3c 13 63 a3 3c
       -0.10984599 -0.00860054 0.01698513 0.019944703
000380 28 21 e2 3d cf 3b 95 3d ec e5 cf bd 1f ba 7e 3a
       0.1104148 0.07286798 -0.10151276 0.0009717065
000390 1c 0f 01 3e 7b 7d 92 3d 7d 0a 9a 3d 3e 3f 13 3c
       0.1260342 0.0715284 0.07521532 0.008987246
0003a0 2f 63 08 bd 6c ea 53 3e b9 11 be bd f6 8f 9b 3d
       -0.033297714 0.20694894 -0.09280724 0.07595818
0003b0 cd 90 ea 3c 9b 49 9d 3d b5 5f 64 bd 76 4b ee bc
       0.0286335 0.07680055 -0.055755336 -0.029088717
0003c0 01 29 2d 3e f7 78 91 3d 62 28 67 bd fb d6 90 3b
       0.16910173 0.0710315 -0.056434996 0.004420159
0003d0 a2 c6 5b 3d 32 29 92 3d 29 4f 31 3b 46 77 ed bb
       0.053656228 0.07136764 0.002705524 -0.0072468845
0003e0 3f 52 b0 3d 35 45 85 bd 5f 22 6a bc b8 6b cc bd
       0.08609437 -0.06507341 -0.014290421 -0.09981483
0003f0 a0 6d e6 bd 03 9d cb bd 6a 60 af bd d7 09 ed 3c
       -0.11251378 -0.09942057 -0.085633114 0.028935356

network_body._body_endoder.seq_layers.2.bias f4 [128]
000000 16 22 9b 37 ac e0 bf 39 8d 2f ce ba eb cf 9e ba
       1.8493312e-05 0.00036597752 -0.0015730724 -0.0012116408
000010 ee ad ca ba 1c 9a f7 3a a7 ff 3f ba f3 e8 a9 3a
       -0.0015463212 0.0018890533 -0.0007324167 0.0012963101
000020 b1 9c ae 3a 7c a5 bf ba e7 6c 98 b9 38 b0 8d b9
       0.0013321844 -0.0014621462 -0.00029072838 -0.0002702491
000030 d3 88 e2 39 38 f7 75 3a 84 51 80 3a c6 cb 41 3a
       0.0004320802 0.0009382847 0.0009789919 0.00073927303
000040 75 0f d4 3a 52 e2 08 ba a4 d9 7d ba 4f 81 84 b9
       0.0016178923 -0.00052217126 -0.0009683615 -0.00025273344
000050 7c e4 ba ba a9 ab 52 3a 4a 34 0b 3b d8 68 96 3a
       -0.0014258767 0.00080364436 0.0021240884 0.0011475338
000060 26 98 59 b8 c2 ec 52 ba 38 ab 47 b8 3f fa f4 39
       -5.187853e-05 -0.0008046144 -4.7604757e-05 0.00046725755
000070 4d 7e b2 3a d2 3f 2f ba ec d1 7d 3a 92 b3 65 3b
       0.0013617963 -0.000668523 0.0009682465 0.003504966
000080 d0 b0 02 ba 7d 69 d6 39 44 e7 b2 3a 79 26 15 3a
       -0.00049854536 0.00040895856 0.0013649245 0.0005689632
000090 48 e7 62 ba 9e 3c fe 39 21 4f a3 3a e3 c6 3c ba
       -0.00086556794 0.0004849182 0.0012459495 -0.0007201267
0000a0 b4 87 03 3a d1 c8 d2 ba 51 87 2f bb 0c 92 f1 38
       0.0005017475 -0.0016081576 -0.0026783536 0.00011518979
0000b0 9b 71 86 39 e3 82 46 3a 62 d1 a0 3a 26 10 72 ba
       0.00025643114 0.0007572604 0.0012269432 -0.00092339737
0000c0 92 18 13 bb 32 d2 58 3a 00 9e ac ba 81 3b 9e 3a
       -0.0022445065 0.00082710676 -0.0013169646 0.0012072177
0000d0 fd 6a 25 3a 56 76 65 b9 db 41 3a ba 78 4a 96 3a
       0.0006310193 -0.00021883225 -0.000710515 0.0011466285
0000e0 40 0a f2 3a 40 1f 59 3a 1e 08 9c 3a dd 8a b1 3a
       0.001846619 0.00082825497 0.0011904275 0.0013545413
0000f0 b5 65 0f b9 df 43 21 ba 41 f0 af 3a 10 bb 08 ba
       -0.00013675432 -0.0006151776 0.0013423042 -0.0005215863
000100 ad 15 b0 b9 f6 33 39 3b 3a fa 39 ba d8 fe 2b 3a
       -0.00033585486 0.002825973 -0.00070944766 0.0006561107
000110 76 15 65 ba bf 08 9a 3a da 62 e3 3a b7 c6 83 38
       -0.00087388547 0.0011751874 0.0017348186 6.28358e-05
000120 ff a7 89 3a 39 2b dc 3a 04 0f 5c ba de 44 11 ba
       0.0010502337 0.0016797549 -0.00083945715 -0.0005541573
000130 e5 fe e1 ba 0d dd 2f ba a0 8a 10 bb c0 ad c2 ba
       -0.0017242102 -0.00067086593 -0.0022055283 -0.0014852807
000140 3e b0 5b 38 6e 07 15 3a 18 00 bc ba f4 9c 87 3a
       5.2377807e-05 0.0005685006 -0.001434329 0.0010346458
000150 74 eb 32 ba b9 f1 3c ba 8f 04 88 38 66 c2 10 39
       -0.00068252464 -0.00072076503 6.4858345e-05 0.00013805329
000160 95 cd c6 ba f0 f4 a9 ba de 65 b4 3a fc cf fc ba
       -0.0015167469 -0.0012966674 0.0013763269 -0.0019288058
000170 d9 6f 1f b9 3a a3 d6 ba 95 1f b6 3a 0c 83 cd 39
       -0.00015205088 -0.001637555 0.001389491 0.00039198285
000180 53 10 88 3a 19 d7 6d ba ec 58 86 3a 80 63 2e ba
       0.0010380842 -0.00090728846 0.001024989 -0.00066524
000190 81 ec a4 39 f4 2e 10 ba f1 ba fe b9 8c 36 af ba
       0.00031456727 -0.00055001606 -0.00048585937 -0.0013367697
0001a0 9e 38 34 3a c6 90 99 38 1c 5f 58 ba be 27 7b 3a
       0.00068748917 7.322575e-05 -0.00082539185 0.0009580812
0001b0 a3 dc 8a b8 4a 02 8c b8 e1 da 01 ba 70 98 11 bb
       -6.6214496e-05 -6.6761466e-05 -0.0004953575 -0.0022216104
0001c0 92 49 dc 39 59 5c 86 3a b7 68 8a 38 3c 94 e4 3a
       0.00042016484 0.001025091 6.5998574e-05 0.0017439197
0001d0 62 0a d4 3a f2 b7 82 3a 20 09 8d bb fa 7b c2 39
       0.0016177411 0.0009973033 -0.0043040663 0.00037094933
0001e0 85 05 e6 3a a2 19 02 3b 15 bf d9 39 8c 67 8a ba
       0.0017549252 0.0019851704 0.00041531833 -0.0010559424
0001f0 3e 29 86 3a e8 d8 c4 b9 39 99 8a ba aa 75 38 3a
       0.001023568 -0.0003754564 -0.0010574228 0.0007036576

action_model._continuous_distribution.log_sigma f4 [1, 2]
000000 fc 6f a1 bb 82 47 0b bc
       -0.0049266797 -0.0085009355

action_model._continuous_distribution.mu.weight f4 [2, 128]
000000 fe f6 53 bb bc 50 87 3a 53 eb ad ba e9 a0 93 bc
       -0.0032343264 0.0010323743 -0.0013268985 -0.018021064
000010 b1 b8 ad bc 83 7b 83 3a e4 97 b9 bc 2f 6e 7f 3b
       -0.021206232 0.0010031316 -0.022655435 0.0038975587
000020 5e bc 01 3d 71 47 6d bc 71 3c 2d bc a9 88 64 bc
       0.03167378 -0.014482365 -0.010573492 -0.013948598
000030 2a b5 dd 3c ad 14 fa 3b 1f e3 34 3c 9b 92 a4 bc
       0.027063925 0.0076318593 0.011040478 -0.020089438
000040 ef 0d 27 3d af ad c2 bc c5 6c 21 ba 92 32 27 bd
       0.040784772 -0.02376446 -0.00061578705 -0.040819712
000050 37 91 84 bc 54 8b d0 ba 21 f2 b1 bc 03 61 17 3c
       -0.016182525 -0.0015910664 -0.021721901 0.009239438
000060 49 68 ba 3c d1 fa 0c 3c 36 fc 9d 3b 8a eb 13 bc
       0.022754805 0.008604721 0.0048213257 -0.009028325
000070 ba 92 fe 3c 0d a4 32 bc 95 d0 9f 3c 37 69 35 3b
       0.031075824 -0.010903371 0.01950864 0.002768112
000080 05 2d 3a 3c 90 41 01 bc f5 fa 41 bc 7f 2e 47 bc
       0.011363273 -0.0078891665 -0.011839618 -0.012157082
000090 28 e1 be bc b3 b1 29 3c 88 4c 10 bd 60 d7 34 bc
       -0.023300722 0.010357308 -0.035229236 -0.0110376775
0000a0 6d fc 0a bd e3 9a a3 bb 0f d4 8a bc 06 e4 95 3c
       -0.03393214 -0.004992829 -0.01694682 0.018297207
0000b0 c1 11 71 3c 0c c4 16 3d f9 af 6b bc 1e 9b 8b bb
       0.0147137055 0.03680806 -0.014385217 -0.004260435
0000c0 10 96 75 bb 0e 52 70 3b 51 fd ad bb 78 b8 90 bb
       -0.0037473477 0.0036670002 -0.0053097387 -0.0044165216
0000d0 4b 46 a9 3c 50 ff 45 3c 06 da b4 bc 14 77 7e 3c
       0.020663401 0.012084797 -0.022076618 0.01553132
0000e0 48 d0 24 3d 93 26 eb 3b 2a 18 f2 3c bd 40 44 bb
       0.040237695 0.0071762293 0.029552538 -0.0029945814
0000f0 07 6f 32 bc 37 61 25 bd 6e 78 a7 3c 5a 3d 12 bc
       -0.010890729 -0.040375914 0.020443168 -0.00892576
000100 38 ed 10 ba 11 bc fe bc d8 f1 72 b8 23 82 b4 3c
       -0.00055285124 -0.031095536 -5.792253e-05 0.02203471
000110 a4 98 ee bc 93 03 21 3c 92 c1 ef 3c 94 fa 78 bc
       -0.02912552 0.009827512 0.029267106 -0.015196461
000120 3a 42 86 3c 8b b2 14 3c 40 b1 ad bc e1 ef fe bb
       0.016389001 0.009075771 -0.021202683 -0.0077800606
000130 25 4a 1b bc ad 33 21 bd 1c 78 1e bc 24 85 98 bc
       -0.009478127 -0.039355922 -0.009672191 -0.018618174
000140 92 e2 87 3c 2b 95 dc 3a 09 97 d2 3c 72 0e 05 3a
       0.01658753 0.0016829123 0.025706785 0.00050757
000150 43 70 b1 bc 32 47 ba bb e5 f2 e6 bc b2 29 ee 3c
       -0.021659976 -0.0056847567 -0.028191993 0.029072616
000160 0d 71 05 bc 77 72 84 bb c8 67 a0 38 ba c0 d6 bc
       -0.008144629 -0.0040419656 7.648725e-05 -0.026214946
000170 2a 9e a5 3a e4 d8 11 bc fd 35 12 3d 7d fd d1 3b
       0.0012635638 -0.008901808 0.03569602 0.006408392
000180 fb 98 3a 3c ca 14 19 bc b8 57 03 bd 47 07 43 bc
       0.011389012 -0.009343335 -0.032066077 -0.0119035905
000190 5d 68 86 3c 59 29 0a bd e7 81 b1 bc 32 65 58 bc
       0.016407186 -0.03373084 -0.021668388 -0.013207721
0001a0 c1 9b 77 3b f4 73 35 3c 7b 5c e6 ba 6c c9 10 3d
       0.0037782046 0.011075009 -0.0017575169 0.03534834
0001b0 59 6a 04 3c 68 16 df bc ab 32 c5 3b cc 82 72 bb
       0.008081996 -0.027232364 0.006018003 -0.003700423
0001c0 ac fe 5d 3c c5 1e 3b 3c 57 de bb bc 8c 51 4b bc
       0.013549488 0.01142091 -0.022933168 -0.012409579
0001d0 29 81 68 bc ab e9 15 3a 3b a8 ea 3a c1 3d e6 bc
       -0.01419095 0.0005718718 0.001790292 -0.028105618
0001e0 b2 b8 45 3c 56 84 98 bc da d7 d9 3b 19 c8 94 3a
       0.012067961 -0.01861779 0.006648046 0.0011351138
0001f0 0d ae be 3c d7 f7 62 bc 56 13 22 3d 15 a2 d1 3c
       0.023276353 -0.013853035 0.03956922 0.025589982
000200 fb b9 ad bc a3 bf a0 3c 09 2c 42 39 72 df c9 3b
       -0.021206846 0.01962263 0.00018517686 0.00616067
000210 6e 6b cd 3c 24 1b ac bc 43 48 51 3c b3 9a de ba
       0.02507564 -0.021009035 0.012773576 -0.001698336
000220 3d 71 09 bd 31 af d8 bb c6 6f 70 3d dc 10 cc 3b
       -0.033555258 -0.0066126813 0.058700345 0.0062275957
000230 8e 50 9a 3b e9 c7 0a bd 92 22 bd 3c 94 49 8d bb
       0.00470931 -0.033882055 0.023087773 -0.0043117497
000240 f9 45 4c bb bf 88 9b bb 9e d7 c4 bb 01 80 43 3c
       -0.0031169637 -0.004746526 -0.006007149 0.011932374
000250 c5 70 0b 3d ba 3b 31 bd 9c b2 6a ba 15 5f 19 3b
       0.034043092 -0.04326985 -0.00089530065 0.002340262
000260 66 fc 01 3c 7a 57 a4 bb 6f 46 b5 3c 23 4c c3 bb
       0.007933712 -0.005015311 0.022128312 -0.005960004
000270 45 46 4c 3c 74 2a e9 ba 4e ac 67 bb e6 97 3c 39
       0.012467925 -0.0017789141 -0.0035350504 0.00017985664
000280 66 47 85 bc 02 43 ef bc 59 e6 f2 3b e2 66 3b 39
       -0.016269397 -0.029206757 0.0074127135 0.00017872037
000290 51 fb 1e bd 47 ad 51 3b f4 ff 8e 3c 4f fb aa 3b
       -0.038813893 0.003199415 0.017456032 0.0052179466
0002a0 4c 58 a8 3a 51 4e 55 3c 05 7d 59 3c 1f 0a 45 3b
       0.0012843697 0.01301916 0.013274436 0.0030065847
0002b0 fc a1 4b bc 80 2c 94 3c a1 e8 48 bc 72 29 23 bc
       -0.012428757 0.018087626 -0.012262494 -0.009958612
0002c0 e5 db b4 3b c7 08 0b 3a 23 21 c5 3b 26 83 27 bb
       0.0055193775 0.0005303737 0.006015913 -0.0025560348
0002d0 94 27 1e 3b 84 72 14 bc 66 52 91 bc 73 22 ba bc
       0.0024132477 -0.009060506 -0.017739486 -0.022721505
0002e0 e5 d6 8e 3c 07 5d 1a 3c 89 2d 83 3c 81 90 07 3d
       0.017436454 0.0094215935 0.016012924 0.033096794
0002f0 ae 70 cd bc 65 19 8b ba 25 43 ef b9 a0 e5 c9 bc
       -0.025078144 -0.0010612427 -0.0004563566 -0.024645627
000300 6a b9 6b bc 34 23 41 3c d1 bd 0e bc e3 02 3a 3c
       -0.014387468 0.011788178 -0.008712248 0.011353227
000310 eb bf 6d bc 65 a7 17 bb 32 73 b3 bb 9f af 89 bb
       -0.014511089 -0.0023140546 -0.005476379 -0.004201844
000320 b3 63 85 3c 70 6f ca 3c 9d db 9b bb ea 88 cb 3b
       0.016282892 0.02471134 -0.0047564046 0.00621139
000330 47 77 86 3c 94 56 6b 39 f1 8a 00 3d 89 30 9f 3a
       0.016414298 0.000224436 0.031382505 0.0012145202
000340 d8 f2 76 3c 90 68 b9 3c 7a 3a c7 3c 96 73 d1 3b
       0.015072547 0.022632867 0.024319876 0.0063919527
000350 72 4a 16 bc b0 6f e3 bb df 83 66 bd 95 96 ce bb
       -0.009173023 -0.0069408044 -0.056278106 -0.006304572
000360 01 c5 16 3b 11 36 3c 3c 0c ce 8b bc 75 20 9f 3c
       0.0023005607 0.0114875 -0.017066024 0.019424656
000370 5e 74 94 bc b4 1c 1c 3a ae 0f 7d bc 90 50 ad bc
       -0.018121894 0.0005955205 -0.015445633 -0.02115658
000380 cb ca 27 3b 21 56 ec ba 4a 0d 98 bb e2 01 52 bc
       0.0025603052 -0.001803104 -0.004640256 -0.012817832
000390 d4 af 8c bb c0 8f b1 bb 01 9a 87 3b 00 6f cb bb
       -0.0042934213 -0.0054187477 0.0041382317 -0.0062083006
0003a0 14 09 81 bc cf c8 07 3b 69 ae 61 3c 3c a6 a6 3b
       -0.0157514 0.0020719056 0.013774493 0.0050857347
0003b0 7f bc 43 3c 1e f6 9d 3b 63 66 9c bc 32 60 63 3b
       0.011946796 0.004820599 -0.01909179 0.0034694788
0003c0 29 e1 f2 ba 0a e7 10 3c 56 8a 64 3c bf 26 09 bd
       -0.0018530238 0.0088441465 0.0139489975 -0.033484217
0003d0 86 20 f4 bc 10 d6 e9 3b f8 80 26 39 b6 98 c5 3c
       -0.029800665 0.007136114 0.00015879038 0.02412067
0003e0 d3 4e a2 3b a4 53 fa bc e1 99 cf bc f5 3d 4c ba
       0.0049532442 -0.030557461 -0.02534193 -0.0007791215
0003f0 72 8c e3 3c b2 a1 f9 bc 64 24 06 bc f6 2d ad bc
       0.02777693 -0.03047261 -0.008187387 -0.02114008

action_model._continuous_distribution.mu.bias f4 [2]
000000 05 cd 60 3a ae cf e3 b9
       0.0008575472 -0.00043451547
