python/results/minion_walk_001/Minion.onnx (onnx, 71890 bytes, 7 tensors)

network_body._body_endoder.seq_layers.0.weight f4 [128, 3]
-0.57304305 0.5949292 -1.087264 -0.78108007 -0.55136955 -0.11970199 -0.041576356 0.07590633
-0.6545383 -0.9270457 0.23365842 -0.081910476 -0.2248365 0.41578332 -0.9645564 -0.8029434
0.774677 -1.0895486 -0.2819627 0.016176898 0.058078315 -0.3528078 -0.29017532 0.51340926
-0.20070992 0.42561224 0.2164565 -0.3567261 1.1757512 1.1683006 0.74034244 0.039922707
-0.74117476 -0.74083143 0.40524477 0.71195763 -0.53113306 -0.06913601 -0.055925857 0.42003363
-0.7297101 0.48003972 -0.24789624 0.34223798 -0.20914932 -0.44463417 0.43163046 -0.8261687
-0.175287 0.2533889 -0.78837436 -0.64872974 -0.5088071 -0.04605454 -0.17737591 0.42043975
0.09276236 -0.12828611 -0.029606134 0.4529782 0.45810437 -0.31211093 1.4408569 0.46186668
-0.4124763 -0.20816156 -0.50535935 -0.25772992 0.3996991 0.107463144 1.8841051 -0.5747034
0.7221844 0.13681073 0.06583002 -0.0093530705 -0.1019545 0.59962225 -0.21562801 0.38195214
0.38188004 0.38045916 -0.27287754 -0.027246254 -0.552063 0.36692816 -0.70048213 0.11673801
-0.16237918 -0.23723204 0.7534924 -0.611873 -0.30254695 -0.2389648 -0.1808321 -0.18427257
-0.012603701 0.43735468 -0.61026996 -0.062091257 0.27714628 0.16920602 0.101998955 -0.49918732
0.7475143 0.07388044 0.3014409 -0.4427085 0.3355996 0.13558835 0.58333457 -0.46919647
0.67246 0.70846564 0.7349637 -1.054616 -0.21229777 0.56046724 -0.28463265 -0.3902409
0.03562571 0.025952458 0.48850417 0.20448337 0.13635482 -0.35974017 -1.1960293 0.36630198
-0.9388471 -0.42039588 0.36303645 0.15278922 -0.25788084 -0.04288006 -0.29531524 0.0040206695
-1.3545748 -0.53986436 -0.38261724 -0.15127094 -1.1749057 0.21824026 0.5203375 -0.35821187
-0.68267477 -0.25528824 -0.36902878 0.38104945 -0.66160476 -0.29732224 -0.35869458 -0.28987047
0.101655915 -1.2154396 0.75703615 -0.6990933 0.89604795 0.6686018 0.34579328 0.12282907
0.98398346 0.89476615 -0.9383962 0.8555683 0.111916326 -0.32181516 0.34803307 -0.8069728
0.4019526 -0.43504545 0.3379201 -0.35851076 -1.4292629 0.3912142 0.62420297 -0.55608684
0.40944645 -0.9560158 -0.499123 0.124239944 0.38160786 -0.16929756 -0.19685331 0.60394573
-0.026436048 0.63159364 -0.29035747 -0.21912481 -0.38257107 0.3607377 0.85167843 0.122432135
0.038323782 0.13281201 0.34731457 -0.07763033 -0.31025904 1.3896207 0.43189818 -0.5807829
0.7042125 -0.37727726 0.13053173 -0.29058266 0.8419701 0.22910352 -0.6907612 -0.10844229
0.47886112 -0.36528245 -0.5545419 -0.16222084 0.0360206 -0.057618707 -0.65385586 0.37977436
0.7540964 0.14316429 0.6104216 0.04647263 0.19566567 1.3576688 0.07866187 -0.69444096
0.66779447 -0.25045055 0.37736893 0.14330715 -0.3305325 -0.7968519 0.008567765 0.32848638
-0.347069 0.22469333 0.31853977 0.75987285 -0.7326478 -1.1638371 -0.53512716 -0.6418513
-0.014290744 -0.46856597 -0.39501515 0.5487786 -0.57843846 0.14824799 -0.56028014 0.23032182
0.65343434 0.06822015 -0.588268 -0.29066685 1.7700493 -0.7283232 0.6194631 -0.76640636
00000000: f3b2 12bf 484d 183f 772b 8bbf ddf4 47bf
00000010: 8e26 0dbf 5126 f5bd f84b 2abd c774 9b3d
00000020: d28f 27bf de52 6dbf 2744 6f3e aec0 a7bd
00000030: 8a3b 66be 8de1 d43e 2bed 76bf b38d 4dbf
00000040: 3b51 463f 5476 8bbf 6a5d 90be 6a85 843c
00000050: 87e3 6d3d 39a3 b4be dc91 94be ca6e 033f
00000060: e786 4dbe d9e9 d93e c6a6 5d3e cea4 b6be
00000070: 047f 963f e08a 953f 1587 3d3f fe85 233d
00000080: a1bd 3dbf 21a7 3dbf 3e7c cf3e db42 363f
00000090: 56f8 07bf 2e97 8dbd 8312 65bd a60e d73e
000000a0: 48ce 3abf c4c7 f53e 83d8 7dbe d139 af3e
000000b0: 3d2b 56be 17a7 e3be abfe dc3e cb7f 53bf
000000c0: 6f7e 33be 31bc 813e e7d2 49bf 2713 26bf
000000d0: 2f41 02bf afa3 3cbd 08a2 35be e143 d73e
000000e0: 31fa bd3d 6f5d 03be 9088 f2bc c2ec e73e
000000f0: a88c ea3e 01cd 9fbe 006e b83f ca79 ec3e
00000100: 1830 d3be 4e28 55be 3b5f 01bf 2df5 83be
00000110: 5ca5 cc3e a315 dc3d 5b2a f13f c31f 13bf
00000120: 14e1 383f 1d18 0c3e e4d1 863d 9f3d 19bc
00000130: 85cd d0bd d880 193f 97cd 5cbe 3b8f c33e
00000140: c885 c33e 8bcb c23e 9bb6 8bbe 8933 dfbc
00000150: 0054 0dbf 02de bb3e cc52 33bf 5614 ef3d
00000160: ba46 26be f5ec 72be e1e4 403f b5a3 1cbf
00000170: 6fe7 9abe 30b3 74be 0d2c 39be f3b1 3cbe
00000180: c17f 4ebc f4ec df3e a73a 1cbf 6753 7ebd
00000190: 1ee6 8d3e 5844 2d3e d4e4 d03d 7b95 ffbe
000001a0: 195d 3f3f a14e 973d 7656 9a3e b0aa e2be
000001b0: b6d3 ab3e acd7 0a3e 6a55 153f 853a f0be
000001c0: 5726 2c3f 015e 353f 9526 3c3f a8fd 86bf
000001d0: 9664 59be c87a 0f3f 5fbb 91be a8cd c7be
000001e0: 44ec 113d 409a d43c 381d fa3e 1764 513e
000001f0: 99a0 0b3e dd2f b8be 7d17 99bf ef8b bb3e
00000200: 4958 70bf 213e d7be eadf b93e c774 1c3e
00000210: f508 84be 00a3 2fbd 8f33 97be d2bf 833b
00000220: b562 adbf 8d34 0abf 68e6 c3be c5e6 1abe
00000230: 4f63 96bf 607a 5f3e d734 053f 8c67 b7be
00000240: c6c3 2ebf 24b5 82be 57f1 bcbe ea18 c33e
00000250: ee5e 29bf 9f3a 98be d1a6 b7be e769 94be
00000260: fa30 d03d 8693 9bbf 1fcd 413f c7f7 32bf
00000270: 6663 653f 7d29 2b3f d10b b13e cf8d fb3d
00000280: 57e6 7b3f 650f 653f bc3a 70bf 8606 5b3f
00000290: 6334 e53d f5c4 a4be 6431 b23e c595 4ebf
000002a0: bbcc cd3e 47be debe dd03 ad3e b98e b7be
000002b0: 16f2 b6bf 3a4d c83e c4cb 1f3f b55b 0ebf
000002c0: f7a2 d13e 74bd 74bf 0d8d ffbe 8371 fe3d
000002d0: 1b62 c33e 575c 2dbe ea93 49be 309c 1a3f
000002e0: 6990 d8bc 1fb0 213f bca9 94be 4162 60be
000002f0: 5be0 c3be 9db2 b83e 9907 5a3f b3bd fa3d
00000300: 66f9 1c3d dfff 073e 37d3 b13e a7fc 9ebd
00000310: 46da 9ebe 17df b13f c221 dd3e 30ae 14bf
00000320: 4547 343f 7c2a c1be 1caa 053e 40c7 94be
00000330: 5a8b 573f 1d9a 6a3e bad5 30bf fe16 debd
00000340: 492d f53e 4d06 bbbe 75f6 0dbf 381d 26be
00000350: 568a 133d 9801 6cbd 1963 27bf c971 c23e
00000360: 760c 413f a999 123e 9744 1c3f 165a 3e3d
00000370: 955c 483e 17c8 ad3f 7919 a13d e2c6 31bf
00000380: 94f4 2a3f 0e3b 80be 8036 c13e 1cbf 123e
00000390: 8e3b a9be 7cfe 4bbf d05f 0c3c 5e2f a83e
000003a0: 07b3 b1be 0216 663e a517 a33e 0787 423f
000003b0: ce8e 3bbf 9df8 94bf 18fe 08bf 5e50 24bf
000003c0: ba23 6abc e1e7 efbe 6d3f cabe c17c 0c3f
000003d0: 8b14 14bf 52ce 173e 856e 0fbf 7cd9 6b3e
000003e0: 7947 273f 02b7 8b3d bb98 16bf 49d2 94be
000003f0: fa90 e23f 6473 3abf 2295 1e3f 3533 44bf

network_body._body_endoder.seq_layers.0.bias f4 [128]
0.0 0.0 0.0 0.0 0.0 0.0 0.0 0.0
0.0 0.0 0.0 0.0 0.0 0.0 0.0 0.0
0.0 0.0 0.0 0.0 0.0 0.0 0.0 0.0
0.0 0.0 0.0 0.0 0.0 0.0 0.0 0.0
0.0 0.0 0.0 0.0 0.0 0.0 0.0 0.0
0.0 0.0 0.0 0.0 0.0 0.0 0.0 0.0
0.0 0.0 0.0 0.0 0.0 0.0 0.0 0.0
0.0 0.0 0.0 0.0 0.0 0.0 0.0 0.0
0.0 0.0 0.0 0.0 0.0 0.0 0.0 0.0
0.0 0.0 0.0 0.0 0.0 0.0 0.0 0.0
0.0 0.0 0.0 0.0 0.0 0.0 0.0 0.0
0.0 0.0 0.0 0.0 0.0 0.0 0.0 0.0
0.0 0.0 0.0 0.0 0.0 0.0 0.0 0.0
0.0 0.0 0.0 0.0 0.0 0.0 0.0 0.0
0.0 0.0 0.0 0.0 0.0 0.0 0.0 0.0
0.0 0.0 0.0 0.0 0.0 0.0 0.0 0.0
00000000: 0000 0000 0000 0000 0000 0000 0000 0000
00000010: 0000 0000 0000 0000 0000 0000 0000 0000
00000020: 0000 0000 0000 0000 0000 0000 0000 0000
00000030: 0000 0000 0000 0000 0000 0000 0000 0000
00000040: 0000 0000 0000 0000 0000 0000 0000 0000
00000050: 0000 0000 0000 0000 0000 0000 0000 0000
00000060: 0000 0000 0000 0000 0000 0000 0000 0000
00000070: 0000 0000 0000 0000 0000 0000 0000 0000
00000080: 0000 0000 0000 0000 0000 0000 0000 0000
00000090: 0000 0000 0000 0000 0000 0000 0000 0000
000000a0: 0000 0000 0000 0000 0000 0000 0000 0000
000000b0: 0000 0000 0000 0000 0000 0000 0000 0000
000000c0: 0000 0000 0000 0000 0000 0000 0000 0000
000000d0: 0000 0000 0000 0000 0000 0000 0000 0000
000000e0: 0000 0000 0000 0000 0000 0000 0000 0000
000000f0: 0000 0000 0000 0000 0000 0000 0000 0000
00000100: 0000 0000 0000 0000 0000 0000 0000 0000
00000110: 0000 0000 0000 0000 0000 0000 0000 0000
00000120: 0000 0000 0000 0000 0000 0000 0000 0000
00000130: 0000 0000 0000 0000 0000 0000 0000 0000
00000140: 0000 0000 0000 0000 0000 0000 0000 0000
00000150: 0000 0000 0000 0000 0000 0000 0000 0000
00000160: 0000 0000 0000 0000 0000 0000 0000 0000
00000170: 0000 0000 0000 0000 0000 0000 0000 0000
00000180: 0000 0000 0000 0000 0000 0000 0000 0000
00000190: 0000 0000 0000 0000 0000 0000 0000 0000
000001a0: 0000 0000 0000 0000 0000 0000 0000 0000
000001b0: 0000 0000 0000 0000 0000 0000 0000 0000
000001c0: 0000 0000 0000 0000 0000 0000 0000 0000
000001d0: 0000 0000 0000 0000 0000 0000 0000 0000
000001e0: 0000 0000 0000 0000 0000 0000 0000 0000
000001f0: 0000 0000 0000 0000 0000 0000 0000 0000

network_body._body_endoder.seq_layers.2.weight f4 [128, 128]
-0.0072747357 0.022017423 0.001967406 -0.00090213615 0.3229295 -0.034340587 0.032307465 -0.006449797
-0.111986175 -0.085607596 -0.07100253 -0.19885524 -0.19418745 0.08918445 -0.141746 -0.07919039
0.04354229 0.017521104 0.1346794 0.07121953 -0.013786908 -0.09023636 -0.0330272 0.08826831
0.17926972 0.039957035 0.05106105 0.12736015 -0.034017812 0.060114823 -0.044153906 -0.03215304
0.0668727 0.00656553 0.049802817 -0.010955712 -0.15996373 0.058825012 0.05103565 0.12072896
0.14664657 0.07253986 -0.020125099 0.051953882 0.05394936 0.0026979675 0.052414242 0.10663798
0.11410032 -0.103649594 0.1928961 -0.07739817 -0.13852337 0.119596496 0.047361176 -0.028249852
0.057751928 0.20642011 -0.048396073 -0.082977206 -0.10783866 0.010938168 -0.041504465 -0.08907056
0.21921657 -0.02790456 0.04786997 0.02672838 0.042545296 -0.104218185 -0.044474408 -0.006971188
-0.012482359 0.050314408 0.0712316 -0.12620974 -0.11073158 0.076416686 -0.029463056 0.02789156
0.12742005 0.049204852 -0.06920906 0.029023495 0.042394552 0.03813206 -0.039056383 -0.16431646
-0.07551011 -0.057029217 0.03662307 0.11693646 -0.04015046 -0.086156204 -0.14788692 0.016855408
0.05974961 -0.07795505 -0.01880057 -0.0134709 -0.031374987 -0.19398953 0.025988746 0.020245634
0.025733287 -0.17281468 -0.0695375 -0.06876355 0.049394555 0.04718471 -0.01960517 0.10339199
-0.03246389 0.021397272 0.124826804 0.0072310925 0.046418842 0.095598765 0.18582144 0.08964823
-0.048636362 0.002053889 -0.015108324 0.082949415 -0.03756134 -0.0080720475 -0.06433021 -0.06911028
0.09585696 -0.08966054 -0.09956359 0.074212015 -0.051966805 0.19349277 0.03338928 0.015174557
-0.0012247085 0.0084285475 -0.06719046 -0.10721941 -0.03560153 0.028060155 -0.046382546 -0.037969716
-0.11823928 0.027501995 0.16409196 0.23402393 -0.043663025 0.1325653 -0.048000425 0.03247111
0.16694233 0.12358666 -0.029305473 -0.16584443 0.02667023 0.049319595 -0.14412631 0.00011611046
-0.11907841 -0.06346858 0.17520997 0.049040724 0.123232946 0.023910515 0.061979562 0.23243521
0.117490895 0.0277294 -0.15231608 -0.015584815 -0.035593815 0.036096353 -0.054824244 0.12456083
0.048036706 0.22949886 0.027717877 -0.104366034 -0.1829833 -0.023718625 -0.04738356 -0.09741806
0.15093541 -0.03249895 -0.16417412 -0.10145888 0.075855576 -0.0649848 -0.088754065 0.010119753
-0.15595892 -0.11953287 0.17917188 0.07915741 0.06524015 0.056967698 -0.11360695 -0.10165267
-0.029442718 -0.17515285 1.6238473e-05 -0.062378395 0.030377839 -0.020214709 0.10612847 -0.025907796
-0.009828833 0.11951815 0.051976066 -0.02022534 0.013651101 0.067453854 -0.115599826 0.21169019
-0.039782897 0.01950464 -0.01171226 -0.26320738 -0.13071021 0.00046929868 0.16049087 -0.027301865
-0.05955478 -0.00539384 -0.050861314 -0.056056798 0.0071219513 0.107571356 -0.07979807 0.07070949
-0.11325521 -0.052161306 -0.072344825 0.02686404 0.1896415 0.08706544 0.012708504 0.001827742
-0.18649212 -0.0038930872 -0.010090177 -0.084144466 -0.0798659 -0.0027160852 -0.051493175 0.11973994
-0.026153404 0.11368151 0.07073214 -0.09181801 -0.0012310813 0.054267365 0.12271477 -0.028126163
00000000: e860 eebb e25d b43c 98ef 003b 557d 6cba
00000010: 0457 a53e b7a8 0cbd d554 043d d258 d3bb
00000020: 0259 e5bd 0953 afbd c669 91bd b5a0 4bbe
00000030: 13d9 46be 56a6 b63d dd25 11be 922e a2bd
00000040: 6659 323d 6b88 8f3c 66e9 093e 8cdb 913d
00000050: 7ce2 61bc d7cd b8bd 8747 07bd 04c6 b43d
00000060: 7b92 373e fda9 233d 6425 513d b36a 023e
00000070: 4356 0bbd f63a 763d bada 34bd e8b2 03bd
00000080: 8ef4 883d a823 d73b 0afe 4b3d 967f 33bc
00000090: 88cd 23be 7ff2 703d c20a 513d bf40 f73d
000000a0: 852a 163e c78f 943d 64dd a4bc 98cd 543d
000000b0: 01fa 5c3d 62d0 303b 51b0 563d 0365 da3d
000000c0: 6ead e93d 3d46 d4bd 8e86 453e ef82 9ebd
000000d0: 12d9 0dbe 02ef f43d cbfd 413d 3c6c e7bc
000000e0: 498d 6c3d cb5f 533e f63a 46bd f4ef a9bd
000000f0: 84da dcbd 0036 333c 9600 2abd a06a b6bd
00000100: 4f7a 603e 1b98 e4bc 4d13 443d 7af5 da3c
00000110: fa43 2e3d 5870 d5bd cc2a 36bd 906e e4bb
00000120: cf82 4cbc 7b16 4e3d e0e1 913d 203d 01be
00000130: 3dc7 e2bd 5a80 9c3d 825c f1bc d77c e43c
00000140: 677a 023e 078b 493d 7bbd 8dbd aec2 ed3c
00000150: e9a5 2d3d 5d30 1c3d 96f9 1fbd 9342 28be
00000160: 0ba5 9abd 7897 69bd 1202 163d 627c ef3d
00000170: cf74 24bd aa72 b0bd ab6f 17be 5a14 8a3c
00000180: 02bc 743d e6a6 9fbd a703 9abc 0db5 5cbc
00000190: 0f83 00bd 31a5 46be 5ae6 d43c 2cda a53c
000001a0: 9dce d23c 55f6 30be ad69 8ebd e7d3 8cbd
000001b0: f251 4a3d c144 413d 059b a0bc 2ebf d33d
000001c0: dbf8 04bd 5549 af3c 32a5 ff3d cdf2 ec3b
000001d0: af21 3e3d 49c9 c33d fa47 3e3e 7e99 b73d
000001e0: ec36 47bd 8a9a 063b e788 77bc 62e1 a93d
000001f0: ebd9 19bd 9f40 04bc 8fbf 83bd b189 8dbd
00000200: a750 c43d f29f b7bd ffe7 cbbd 78fc 973d
00000210: 25db 54bd f822 463e 33c3 083d b59e 783c
00000220: 6686 a0ba e417 0a3c 279b 89bd da95 dbbd
00000230: e9d2 11bd 69de e53c a0fb 3dbd 2286 1bbd
00000240: 7027 f2bd dd4b e13c b907 283e f8a3 6f3e
00000250: 00d8 32bd 33bf 073e 189c 44bd 6d00 053d
00000260: eef2 2a3e 011b fd3d 0812 f0bc 1fd3 29be
00000270: 877b da3c 5803 4a3d d995 13be 5480 f338
00000280: 62df f3bd d1fb 81bd 3e6a 333e edde 483d
00000290: 8e61 fc3d fcdf c33c 48de 7d3d 7f03 6e3e
000002a0: 119f f03d c428 e33c bff8 1bbe 7457 7fbc
000002b0: d2ca 11bd c5d9 133d 638f 60bd c019 ff3d
000002c0: 23c2 443d c001 6b3e 9a10 e33c dcbd d5bd
000002d0: f95f 3bbe 904d c2bc 4415 42bd 1f83 c7bd
000002e0: d08e 1a3e 9e1d 05bd 431d 28be acc9 cfbd
000002f0: 2b5a 9b3d c016 85bd b1c4 b5bd 52cd 253c
00000300: b2b3 1fbe a6cd f4bd d578 373e 481d a23d
00000310: a19c 853d f656 693d c3aa e8bd 462f d0bd
00000320: db31 f1bc 455b 33be db37 8837 7d80 7fbd
00000330: f2da f83c 5199 a5bc e259 d93d 963c d4bc
00000340: 1d09 21bc efc5 f43d dbe4 543d 9daf a5bc
00000350: dea8 5f3c 3f25 8a3d 9abf ecbd 50c5 583e
00000360: 64f3 22bd 32c8 9f3c c7e4 3fbc 1ec3 86be
00000370: e6d8 05be 340c f639 b857 243e 29a8 dfbc
00000380: b7ef 73bd cfbe b0bb f453 50bd d09b 65bd
00000390: 425f e93b 5f4e dc3d 2c6d a3bd 23d0 903d
000003a0: 59f2 e7bd 18a7 55bd 8629 94bd fa11 dc3c
000003b0: 6231 423e 5e4f b23d 5437 503c d890 ef3a
000003c0: caf7 3ebe 2a23 7fbb 4551 25bc ef53 acbd
000003d0: bc90 a3bd 5900 32bb 82ea 52bd 373a f53d
000003e0: aa3f d6bc dad1 e83d 03dc 903d 150b bcbd
000003f0: 3c5c a1ba 7547 5e3d e251 fb3d d768 e6bc

network_body._body_endoder.seq_layers.2.bias f4 [128]
0.0 0.0 0.0 0.0 0.0 0.0 0.0 0.0
0.0 0.0 0.0 0.0 0.0 0.0 0.0 0.0
0.0 0.0 0.0 0.0 0.0 0.0 0.0 0.0
0.0 0.0 0.0 0.0 0.0 0.0 0.0 0.0
0.0 0.0 0.0 0.0 0.0 0.0 0.0 0.0
0.0 0.0 0.0 0.0 0.0 0.0 0.0 0.0
0.0 0.0 0.0 0.0 0.0 0.0 0.0 0.0
0.0 0.0 0.0 0.0 0.0 0.0 0.0 0.0
0.0 0.0 0.0 0.0 0.0 0.0 0.0 0.0
0.0 0.0 0.0 0.0 0.0 0.0 0.0 0.0
0.0 0.0 0.0 0.0 0.0 0.0 0.0 0.0
0.0 0.0 0.0 0.0 0.0 0.0 0.0 0.0
0.0 0.0 0.0 0.0 0.0 0.0 0.0 0.0
0.0 0.0 0.0 0.0 0.0 0.0 0.0 0.0
0.0 0.0 0.0 0.0 0.0 0.0 0.0 0.0
0.0 0.0 0.0 0.0 0.0 0.0 0.0 0.0
00000000: 0000 0000 0000 0000 0000 0000 0000 0000
00000010: 0000 0000 0000 0000 0000 0000 0000 0000
00000020: 0000 0000 0000 0000 0000 0000 0000 0000
00000030: 0000 0000 0000 0000 0000 0000 0000 0000
00000040: 0000 0000 0000 0000 0000 0000 0000 0000
00000050: 0000 0000 0000 0000 0000 0000 0000 0000
00000060: 0000 0000 0000 0000 0000 0000 0000 0000
00000070: 0000 0000 0000 0000 0000 0000 0000 0000
00000080: 0000 0000 0000 0000 0000 0000 0000 0000
00000090: 0000 0000 0000 0000 0000 0000 0000 0000
000000a0: 0000 0000 0000 0000 0000 0000 0000 0000
000000b0: 0000 0000 0000 0000 0000 0000 0000 0000
000000c0: 0000 0000 0000 0000 0000 0000 0000 0000
000000d0: 0000 0000 0000 0000 0000 0000 0000 0000
000000e0: 0000 0000 0000 0000 0000 0000 0000 0000
000000f0: 0000 0000 0000 0000 0000 0000 0000 0000
00000100: 0000 0000 0000 0000 0000 0000 0000 0000
00000110: 0000 0000 0000 0000 0000 0000 0000 0000
00000120: 0000 0000 0000 0000 0000 0000 0000 0000
00000130: 0000 0000 0000 0000 0000 0000 0000 0000
00000140: 0000 0000 0000 0000 0000 0000 0000 0000
00000150: 0000 0000 0000 0000 0000 0000 0000 0000
00000160: 0000 0000 0000 0000 0000 0000 0000 0000
00000170: 0000 0000 0000 0000 0000 0000 0000 0000
00000180: 0000 0000 0000 0000 0000 0000 0000 0000
00000190: 0000 0000 0000 0000 0000 0000 0000 0000
000001a0: 0000 0000 0000 0000 0000 0000 0000 0000
000001b0: 0000 0000 0000 0000 0000 0000 0000 0000
000001c0: 0000 0000 0000 0000 0000 0000 0000 0000
000001d0: 0000 0000 0000 0000 0000 0000 0000 0000
000001e0: 0000 0000 0000 0000 0000 0000 0000 0000
000001f0: 0000 0000 0000 0000 0000 0000 0000 0000

action_model._continuous_distribution.log_sigma f4 [1, 2]
0.10405134 0.10405134
00000000: de18 d53d de18 d53d

action_model._continuous_distribution.mu.weight f4 [2, 128]
-0.030338911 -0.0049950182 -0.021169797 0.01684453 -0.008247039 0.003941982 -0.010956209 0.0387998
0.00850137 -0.035478145 -0.015991142 -0.03385054 0.025509624 0.005244545 -0.003060086 -0.016212976
-0.0047861626 0.022873927 -0.017141301 -0.018200554 0.026541134 0.016321762 -0.012309305 -0.012669866
0.014694104 -0.020190155 -0.04099342 0.001616943 0.012200641 -0.03810858 0.0051475475 -0.016305514
0.012542303 -0.0039914097 0.012722758 0.047641613 -0.003804033 -0.0036285084 -0.00031935918 0.0031488896
0.017222257 0.01948483 0.030253975 -0.006455687 -0.018930847 0.023792636 0.014224768 0.0031737385
0.013269315 0.0011194493 0.0035148484 -0.010006091 -0.014216262 -0.010388951 -0.022242216 -2.7677563e-05
0.0018212221 -0.011116019 -0.012929249 0.015313506 0.00611039 0.009539272 -0.002271336 -0.023624184
-0.022271125 -0.020081328 0.018297886 0.01044974 0.016693672 -0.008268795 0.03581999 0.029786605
0.009514735 0.00020911607 0.0005913803 0.015004508 0.001454076 -0.002193104 0.029474303 0.00863613
0.0020829039 -0.051822614 0.007634426 -0.017432908 0.026251793 0.014396287 -0.016963447 -0.04881566
-0.015514006 0.02112302 -0.008558187 0.0080288425 -0.047406442 0.0015435002 0.023118285 -0.010151844
0.015178769 0.01137801 0.051127177 0.009192973 -0.0035745574 -0.014730388 -0.00062577013 0.006203705
0.0025134494 0.011182844 -0.010169798 0.010776355 -0.01618864 -0.019090112 -0.007748297 -0.018323405
-0.026355091 0.026198683 -0.00016953806 0.01520343 -0.0037424031 0.016287467 0.004808244 0.013885291
0.011669206 -0.018479584 -0.0051103085 0.00046131588 -0.0012938482 0.017974792 -0.0036820397 -0.0075260024
-0.004241371 0.0057717822 0.014801298 -0.015381018 -0.041447476 -0.032831576 -0.00132108 -0.00958229
-0.0026198186 0.014550961 -0.010098818 0.021848861 -0.002312716 0.018364059 -0.010976374 0.010229299
0.0072028856 0.0019713023 -0.014573825 -0.015271825 -0.025790894 -0.01505671 -0.0038673342 0.0024111315
-0.032018527 0.022531888 0.017732957 0.039661836 -0.006252105 0.040740408 0.0048921076 0.0026728483
-0.011159289 -0.033199925 0.0060374592 -0.005235659 0.011547287 0.020192789 -0.008596442 -0.024863448
-0.0012223395 0.00076004746 -0.043032844 0.017316366 -0.0195684 -0.031703092 0.00398309 0.009854577
-0.016057357 0.009320659 -0.005274452 0.00036729223 -0.0063941055 -0.010427436 0.0022376755 -0.0017565005
0.053260483 -0.022562824 0.0057386532 -0.0039800406 -0.005243484 0.038777363 -0.018145818 0.012084855
0.008928392 -0.013064566 0.00543417 -0.011507097 0.0018746661 0.0062755095 -0.012529044 -0.015790729
0.018935483 -0.011126737 -0.00089438766 0.00057049486 0.0013471071 -0.0056843846 0.016605373 0.012463191
0.0014242284 0.025203142 -0.0057662856 -0.0027042383 0.004784624 -0.006581527 0.0007255089 -0.0042517367
0.0322744 0.021971462 0.010516771 -0.019077973 -0.014506741 0.041336115 0.016031785 0.02223596
0.0025705341 -0.023037923 -0.02717689 -0.0008243529 0.021781495 -0.012019275 -0.009561056 0.012422424
-0.025169006 -0.008200971 0.04735514 0.0063295546 -0.007721958 -0.02673242 -0.009207247 -0.001031509
-0.01068871 -0.016545933 0.011841468 0.006923652 0.017880393 0.023324266 -0.0060513434 0.0073243813
-0.0015678874 0.004931759 -0.006310567 0.0030368927 0.0010155843 -0.009499606 0.017226884 -0.0056463527
00000000: 4f89 f8bc 40ad a3bb 486c adbc 8afd 893c
00000010: 971e 07bc be2b 813b ac81 33bc 8aec 1e3d
00000020: 5549 0b3c 8851 11bd dbff 82bc dda6 0abd
00000030: 8ff9 d03c 6fda ab3b b98b 48bb 13d1 84bc
00000040: 3ed5 9cbb 1a62 bb3c ea6b 8cbc 5419 95bc
00000050: cb6c d93c 37b5 853c f8ac 49bc 4595 4fbc
00000060: 8abf 703c d365 a5bc b7e8 27bd 9bef d33a
00000070: 33e5 473c be17 1cbd c2ac a83b 2493 85bc
00000080: 3b7e 4d3c 5fca 82bb 1d73 503c da23 433d
00000090: 154d 79bb 45cc 6dbb aa6f a7b9 9a5d 4e3b
000000a0: b115 8d3c a69e 9f3c 2fd7 f73c 3a8a d3bb
000000b0: dd14 9bbc c6e8 c23c 000f 693c 7ffe 4f3b
000000c0: 8a67 593c 7cba 923a 5f59 663b 96f0 23bc
000000d0: 53eb 68bc 6b36 2abc 4f35 b6bc 1d2d e8b7
000000e0: 13b6 ee3a f71f 36bc 33d5 53bc 80e5 7a3c
000000f0: ab39 c83b 9b4a 1c3c b2da 14bb 8187 c1bc
00000100: ef71 b6bc 9981 a4bc 73e5 953c 6335 2b3c
00000110: 2bc1 883c d779 07bc fbb7 123d 0a03 f43c
00000120: b1e3 1b3c 2b46 5b39 dc06 1b3a 78d5 753c
00000130: b296 be3a 2eba 0fbb 1874 f13c 8e7e 0d3c
00000140: 5481 083b f343 54bd 352a fa3b 75cf 8ebc
00000150: 000e d73c 67de 6b3c edf6 8abc eef2 47bd
00000160: 752e 7ebc 2f0a ad3c a337 0cbc 688b 033c
00000170: 422d 42bd 464f ca3a 8f62 bd3c eb53 26bc
00000180: 5fb0 783c d56a 3a3c bb6a 513d 209e 163c
00000190: 1f43 6abb ba57 71bc b90a 24ba 7348 cb3b
000001a0: afb8 243b 3f38 373c 399f 26bc 4f8f 303c
000001b0: 0a9e 84bc de62 9cbc 6de5 fdbb f71a 96bc
000001c0: a2e6 d7bc 9f9e d63c 07c6 31b9 cf17 793c
000001d0: 1b43 75bb 4b6d 853c 798e 9d3b 227f 633c
000001e0: 3330 3f3c 7f62 97bc 6074 a7bb c5dc f139
000001f0: 5796 a9ba df3f 933c 604e 71bb af9c f6bb
00000200: 33fb 8abb 3821 bd3b 2581 723c aa00 7cbc
00000210: d4c4 29bd 677a 06bd 1728 adba 0aff 1cbc
00000220: 43b1 2bbb 2767 6e3c 8375 25bc 62fc b23c
00000230: f090 17bb 3970 963c 40d6 33bc ca98 273c
00000240: 2f06 ec3b f730 013b 0dc7 6ebc ad36 7abc
00000250: 6d47 d3bc 6bb0 76bc 1a73 7dbb 1304 1e3b
00000260: dc25 03bd cb94 b83c b544 913c 7374 223d
00000270: 75de ccbb 6adf 263d f94d a03b f42a 2f3b
00000280: 73d5 36bc a5fc 07bd e1d5 c53b e48f abbb
00000290: d530 3d3c 596b a53c 17d8 0cbc 6eae cbbc
000002a0: e836 a0ba ec3d 473a 3543 30bd 0ddb 8d3c
000002b0: e94d a0bc 1adb 01bd 9584 823b 1775 213c
000002c0: b88a 83bc adb5 183c 4fd5 acbb 2191 c039
000002d0: a585 d1bb d6d7 2abc f7a5 123b 603a e6ba
000002e0: aa27 5a3d acd5 b8bc 500b bc3b 006b 82bb
000002f0: 88d1 abbb 03d5 1e3d 8aa6 94bc 8eff 453c
00000300: 6448 123c c30c 56bc 1f11 b23b 4388 3cbc
00000310: 5bb7 f53a caa2 cd3b 9f46 4dbc 8f5b 81bc
00000320: 961e 9b3c eb4c 36bc 5775 6aba 438d 153a
00000330: 6a91 b03a 1344 babb fe07 883c 6932 4c3c
00000340: 2dad ba3a d276 ce3c 1cf3 bcbb 9739 31bb
00000350: 56c8 9c3b daa9 d7bb 1430 3e3a 2752 8bbb
00000360: 2932 043d 7ffd b33c 894e 2c3c 6949 9cbc
00000370: afad 6dbc 0f50 293d 1755 833c 3028 b63c
00000380: 6876 283b 07ba bcbc 12a2 debc 6319 58ba
00000390: 1b6f b23c 7eec 44bc faa5 1cbc 6c87 4b3c
000003a0: 3b2f cebc 5e5d 06bc 77f7 413d 2768 cf3b
000003b0: 7b08 fdbb f3fd dabc fed9 16bc b333 87ba
000003c0: b31f 2fbc 568b 87bc b702 423c cddf e23b
000003d0: e779 923c 8812 bf3c 594a c6bb 5d01 f03b
000003e0: 9281 cdba 989a a13b dfc8 cebb 9b06 473b
000003f0: 5b1d 853a 3ca4 1bbc 651f 8d3c 0a05 b9bb

action_model._continuous_distribution.mu.bias f4 [2]
0.0 0.0
00000000: 0000 0000 0000 0000
