python/results/minion_walk_003/Minion.onnx (onnx, 78034 bytes, 7 tensors)

network_body._body_endoder.seq_layers.0.weight f4 [128, 15]
000000 94 74 31 3e 6e 4a 9c 3c 25 e9 66 3e e4 0d 29 be
       0.17329627 0.01907846 0.22549875 -0.16509205
000010 e8 5d b9 3e e8 dd 8b be 32 41 07 3d c0 92 90 be
       0.36204457 -0.2731774 0.03302116 -0.2823696
000020 7c a6 08 be c9 b1 a4 be 54 2a 8b 3e a2 ea 0b 3f
       -0.13344759 -0.3216689 0.2718073 0.54654896
000030 71 b2 bd 3e a6 2c a6 3e 4a 20 4b bc 87 83 a6 3e
       0.37050202 0.3245594 -0.012397835 0.32522222
000040 76 1a 24 3e 3a f2 6a 3e 31 73 93 3e d5 a5 0e 3e
       0.16025719 0.22943965 0.28798822 0.13930447
000050 69 4d 98 3e 86 95 10 bf 32 3a 76 bd 80 95 4f 3e
       0.2974656 -0.56478155 -0.060114093 0.20271873
000060 b2 1d cd be 74 71 c1 3e 1b 6e d5 be d1 46 18 be
       -0.40061718 0.3778187 -0.41685566 -0.14870764
000070 5d 73 fa bd 78 29 33 be 40 e9 e7 3d 04 6d c3 3e
       -0.12229035 -0.17496288 0.11323786 0.3816911
000080 9e c9 3f 3e 2a 60 05 bf 3c c0 46 be ae cc 16 3e
       0.18729255 -0.5209986 -0.19409269 0.14726517
000090 c3 94 48 3d 60 15 94 3e c5 25 a0 bd 91 ba 75 3e
       0.048969995 0.28922558 -0.07819704 0.2399695
0000a0 ad 83 d5 bd 31 3f 99 bd 0d 18 b3 be ce 60 53 3e
       -0.10425506 -0.07482756 -0.34979287 0.20642397
0000b0 06 5c 34 be 0e 56 a4 3e b9 c7 2b 3e 42 bb 93 3e
       -0.17613229 0.32096905 0.16775407 0.28853804
0000c0 ef 7b 47 bf ff 19 0b be 3e 87 70 be 93 bf 87 be
       -0.7792348 -0.13584135 -0.23489091 -0.26513347
0000d0 15 67 a4 3e a3 71 0a 3d 1c ac 28 3e a6 ef 34 3d
       0.32109895 0.03379978 0.16471905 0.04417386
0000e0 c6 3d 4f 3e e1 9f b2 3e 95 8f ee be 0d 6e 3a be
       0.20238408 0.34887603 -0.4659392 -0.18206044
0000f0 58 90 74 be 6c a0 b9 3e 39 4a ec 3d 53 c0 26 bd
       -0.23883188 0.36255205 0.11537594 -0.04071076
000100 c0 7c 96 bc af 6b ea 3d 9a 34 27 be 98 c4 8b be
       -0.018370032 0.1144632 -0.1632866 -0.27298427
000110 5b 82 63 be dc c7 a7 3e 59 6a e1 3e cf f8 f1 bd
       -0.22217695 0.32769668 0.4402645 -0.118150346
000120 e4 41 31 3e 95 35 da bd 97 30 44 be 86 23 78 be
       0.17310292 -0.10654751 -0.1915916 -0.24232301
000130 ab 7a d8 3e 2d c6 5e bd 66 f3 f3 bd de 9f d0 be
       0.42281088 -0.054388214 -0.11911659 -0.4074697
000140 ce dc 17 3f c5 51 a8 3d 01 86 48 3e 0c 71 1b bc
       0.59321296 0.08218721 0.19582368 -0.009487402
000150 1c 0f 22 bd 12 b9 82 3e 39 23 00 3e 9c 05 20 be
       -0.03956519 0.25531822 0.12513436 -0.1562714
000160 4c cf 97 bd e6 2d 64 bd 8c e2 f4 be 6b de 4f 3d
       -0.074125856 -0.055707835 -0.47829092 0.050749224
000170 b8 3a c8 3e 83 a2 e5 be 74 26 7f 3e 6b 32 ba 3d
       0.391073 -0.4485055 0.24917012 0.09091648
000180 a0 2f d5 3e 51 92 c6 3d 94 06 9a be 91 fa a5 3e
       0.41637897 0.096958764 -0.30083144 0.3241773
000190 6e 04 3d 3e 20 dd 9e 3d bd 23 dc 3c 0a fa 00 3d
       0.18458721 0.0775702 0.02687251 0.031488456
0001a0 fe ba 29 3f 24 0c b6 be 75 ef c0 be 5c 6a 94 bc
       0.6630095 -0.35556138 -0.3768269 -0.018117122
0001b0 30 80 6f be a8 f3 a8 3d f7 b7 15 be 35 7b b5 be
       -0.23388743 0.08249599 -0.14620958 -0.35445562
0001c0 43 4e 03 3f c9 34 75 be 54 e1 43 3e 65 c5 33 bd
       0.5129129 -0.23945917 0.19128925 -0.043889422
0001d0 2a 2e 00 3e a2 06 62 3e 33 62 da be 74 06 38 3e
       0.1251761 0.22072843 -0.42653045 0.17971212
0001e0 27 22 cb 3c 79 e3 89 3d 9f b2 cb 3e d7 29 0d be
       0.024796559 0.0673284 0.39784715 -0.13785492
0001f0 f9 14 5d bd 20 95 58 be dd 17 85 3e a0 6e af be
       -0.05397508 -0.21150637 0.2599477 -0.34264088
000200 d1 7b ad 3c 2e d8 f4 3d c8 30 b1 bd 77 1f 1d be
       0.021177204 0.119552955 -0.086518824 -0.15344034
000210 29 79 05 3d ef ff 03 bf 8d 62 19 3d 3f b9 b9 be
       0.03258625 -0.515624 0.0374475 -0.36274144
000220 72 95 e5 be c7 fc 07 3d 19 5d 97 3d 67 19 9f bd
       -0.4484058 0.03320005 0.07390804 -0.07768517
000230 e2 e6 fe 3e d9 42 7e be e2 c5 49 be 25 8c 71 3e
       0.49785525 -0.24830188 -0.19704393 0.23588617
000240 64 f1 85 be b2 4b 8d bd 9c 1c 7f 3e 45 3f 01 3f
       -0.2616073 -0.06899203 0.24913257 0.50487167
000250 80 48 2f be 86 cc 68 bc c6 39 4c 3e fb e6 7f 3e
       -0.171175 -0.014208918 0.19943914 0.24990456
000260 35 ab 5e be 7e f6 80 3d 24 fe f3 bd c2 49 b1 bd
       -0.21744998 0.06297015 -0.11913708 -0.08656646
000270 1f 01 af be be 38 31 3e a0 27 15 be 72 d8 2e bd
       -0.34180543 0.17306802 -0.14565897 -0.042686887
000280 3f 3c 1e 3e b5 24 17 be 52 b7 14 be 93 df 8f 3d
       0.1545267 -0.14760096 -0.14523056 0.07025065
000290 8b 1d 42 be 94 16 bf 3d 41 23 0c 3e 61 98 14 be
       -0.18956582 0.09330478 0.13685323 -0.14511253
0002a0 23 b9 d1 be 58 5e d3 be ad 08 09 bc d1 12 b6 bc
       -0.4096156 -0.41282916 -0.008363885 -0.02222577
0002b0 3f 01 0e be f5 6a 49 be 23 37 8d 3e bb 85 94 bd
       -0.13867663 -0.19669707 0.27581128 -0.072520696
0002c0 ca 0d 34 3e 38 72 43 be 26 71 9e 3e b8 9b 2b 3c
       0.17583385 -0.1908654 0.309457 0.010474138
0002d0 2d 4e 14 3e a2 9e b9 bd 42 1b c6 3e cc d6 50 3d
       0.14482947 -0.0906346 0.3869267 0.050986096
0002e0 b2 c5 08 be 7a 3f bf be b1 61 8e 3e 22 43 78 3c
       -0.13356665 -0.37353116 0.27808908 0.015152724
0002f0 a9 60 75 3e 96 d1 09 bd c7 e0 c7 be 3e f5 85 bb
       0.23962654 -0.033647142 -0.3903868 -0.004088073
000300 58 1a 6a 3d 62 a4 67 3e 03 a2 1f 3e 7a 0d a6 3e
       0.05715403 0.22621301 0.15589146 0.32432157
000310 7f 0a 90 3e 3b 07 fa 3d e1 be 88 3e c0 d3 ad bd
       0.28133008 0.1220841 0.2670813 -0.08487654
000320 5a 93 a8 3e 1f ff 0d 3f 22 ed ba be d0 e6 4f 3e
       0.3292492 0.5546741 -0.36509043 0.20302892
000330 0d 8d f1 3e 30 a0 01 bd 3d 8b a2 bc 3d 38 7b be
       0.47177926 -0.031646907 -0.019841785 -0.24533172
000340 98 05 99 be 52 cd 88 be 1d 98 e1 3d 6a e7 50 ba
       -0.2988708 -0.26719147 0.110153414 -0.00079690537
000350 6b 7b 08 be e6 ab fa 3d 2b d0 a4 be 7f 43 dc bd
       -0.1332833 0.12239818 -0.3219007 -0.10755061
000360 7a 7d ff 3b 9e 61 f7 3d 81 2c b4 3e aa 12 3e be
       0.0077969404 0.12079166 0.35190204 -0.18561807
000370 ac 94 55 3e f4 33 1a bd 89 b2 2e bf 24 c1 50 be
       0.20857495 -0.037647203 -0.68241173 -0.20386177
000380 27 55 06 3e 7a 9e 55 3c d5 b5 a8 bd a8 2b 98 be
       0.1311842 0.013038272 -0.08237807 -0.29720807
000390 09 09 f0 3d 60 6c 23 be 9a 34 31 3e 54 a2 ea 3c
       0.11720473 -0.1595931 0.17305222 0.028641857
0003a0 52 27 c2 bd 73 e9 3c bf 06 c9 3b 3e df f6 51 be
       -0.09480156 -0.73793715 0.18338403 -0.2050433
0003b0 09 4e 25 3e 82 19 74 bc 57 62 c7 bc c8 2a 1f 3e
       0.1614305 -0.01489866 -0.024338884 0.15543664
0003c0 cd 6b 58 be df c1 9b 3d f3 8c c0 bd 40 a1 5f bb
       -0.21134873 0.07605337 -0.09401884 -0.0034123212
0003d0 ee 22 8d 3d e3 b3 b1 3d 6c 96 c9 3d 91 6e d5 be
       0.06891428 0.08676889 0.09843144 -0.41685918
0003e0 92 6a 96 be 4b eb 36 be 04 4b 7a be 78 84 a3 3e
       -0.29378182 -0.17863195 -0.24442679 0.31937003
0003f0 f8 e8 e2 3e 67 31 44 bd 31 c0 60 3e 26 d6 ba 3e
       0.44318366 -0.047898676 0.21948315 0.36491507

network_body._body_endoder.seq_layers.0.bias f4 [128]
000000 56 84 2e bb bb 46 a6 3b 3a a3 86 3b 55 6d 46 3a
       -0.0026629171 0.0050743497 0.0041088136 0.00075693923
000010 b6 6c 38 3b ef 58 d5 3b d6 89 d8 3c 18 d8 d0 3b
       0.0028140969 0.006510846 0.026432913 0.0063734166
000020 53 38 16 3c 29 1d 1d 3c 5e 19 56 bb 3e cb 7a 3b
       0.009168702 0.009589472 -0.0032668929 0.0038268114
000030 fa 8d 1e 3b 3c 11 a8 3b 4e e6 1e 3c 2f 2b 7f bb
       0.0024193511 0.0051290076 0.009698464 -0.0038935652
000040 af ef 91 3c 66 78 48 ba 92 e7 44 bc de 4b 9f 3c
       0.017814485 -0.00076473353 -0.012018101 0.019445356
000050 ed 25 9f 3b 6b d2 ff b9 9a a1 22 39 58 8b de ba
       0.004856816 -0.00048794164 0.00015509725 -0.0016978784
000060 3f 63 bb 3b f5 1d cb 3c 8d 75 a5 3b 0c 13 d7 b9
       0.005718618 0.024794558 0.0050494135 -0.00041022187
000070 f5 19 23 bc af 00 f8 3b dd 6a 4a 3b 75 9b 5f bc
       -0.009954919 0.007568441 0.003088645 -0.013647904
000080 9c 3a 98 3a 1e 1a 52 bb 06 29 63 3b 56 64 81 ba
       0.0011614147 -0.0032059024 0.0034661903 -0.0009871821
000090 a7 ac 57 bb 0b 63 0a 3b ea 43 8d bb 64 12 7b 3b
       -0.0032909305 0.0021116163 -0.0043110745 0.0038310522
0000a0 8a 25 95 3b 3e 26 59 3b 12 50 4d bb 32 c0 33 3c
       0.004551594 0.0033134366 -0.0031328243 0.010971116
0000b0 ad 2e 79 3b 92 02 6a 3c 2a e1 d2 3b 00 2a 8d b9
       0.0038022206 0.014282839 0.006435533 -0.00026924908
0000c0 83 d8 b1 3b 1f ee 84 3a b3 de 03 3b 04 e6 1e bb
       0.0054274215 0.0010141766 0.0020121753 -0.0024245987
0000d0 60 a9 f0 bb 5d 86 54 bb 26 5a 64 39 5c 79 e1 bb
       -0.00734441 -0.003242872 0.00021777357 -0.0068809222
0000e0 ed b9 af bb 5d e1 8b bb c1 22 1d 3a b6 a4 cc 3b
       -0.0053627403 -0.0042688088 0.00059942534 0.006245221
0000f0 b8 2b e3 3b c8 01 2f 3c 5b 2c 64 3a 9e 1d 4f b9
       0.006932702 0.010681577 0.0008704119 -0.00019752092
000100 39 24 26 bc 20 49 2a bc 09 36 82 3b 91 b2 29 3c
       -0.010140472 -0.010393411 0.0039737266 0.010357515
000110 c8 2b ca 3c fd a2 0b bc b9 16 bb 3b de b1 5e bc
       0.02467908 -0.008522746 0.005709496 -0.0135922115
000120 d3 32 1e ba 4a 3c be bb 81 ba 67 3b e7 2d 91 39
       -0.0006034795 -0.005805527 0.0035358968 0.00027690755
000130 5d f1 7e bc 68 a3 99 bb 23 62 23 ba 6c 5b dc bb
       -0.015560475 -0.004688669 -0.000623258 -0.0067247655
000140 14 1e 9a 3b b1 66 53 bc 68 56 82 bb 98 6e 84 b9
       0.0047032926 -0.0129029015 -0.0039775856 -0.000252594
000150 b0 c0 ed 3b 2b 53 67 3a 55 21 ac bc d8 3d 22 3b
       0.007255636 0.00088243437 -0.021011988 0.00247561
000160 4c 07 ef ba 01 56 07 3c f9 3f 16 bc 09 c4 22 3c
       -0.0018236428 0.008260251 -0.009170526 0.009934434
000170 a9 a2 b9 3b 5f 1c 02 bc 30 57 32 3b aa 19 f9 3b
       0.0056651426 -0.0079413345 0.0027212612 0.0076019363
000180 44 e6 a7 bc 6e 98 00 bb 2a 3f 10 bc 82 12 ce bb
       -0.020495541 -0.0019622105 -0.008804122 -0.0062888274
000190 ef 1d c1 bb 6f e8 2f bc b0 f9 53 3c 19 2f 58 3c
       -0.005893461 -0.010736569 0.012937948 0.013194823
0001a0 37 c6 39 bc 46 3b 0f 3c af e9 81 bb e3 07 a7 bb
       -0.011338762 0.008742159 -0.003964625 -0.0050973757
0001b0 ad 77 1a bc ad d0 57 bb b0 e7 7e bc c1 e1 5f bb
       -0.009427947 -0.0032930777 -0.015558168 -0.003416166
0001c0 45 e9 8f bb 16 ec a4 3b 2a 4b 5e bb 79 04 24 ba
       -0.0043918216 0.0050330264 -0.0033919313 -0.000625677
0001d0 0c 5b 33 3c e0 10 b4 3b 7e e4 eb ba 36 4b 9f bc
       0.010947 0.0054951757 -0.0017997173 -0.019445043
0001e0 08 f8 25 bb dd 2a 9c bb 30 be cf 3b 0a 62 e1 3b
       -0.002532484 -0.004765852 0.006339811 0.0068781422
0001f0 26 4b db bb f1 ee ed 3b 50 ec 75 bb 81 03 f3 3c
       -0.006692308 0.00726115 -0.0037524886 0.029664757

network_body._body_endoder.seq_layers.2.weight f4 [128, 128]
000000 8d 04 7b 3d 11 a6 11 3e 77 04 e3 bd 02 53 1f bb
       0.061283637 0.14223506 -0.11084836 -0.002431095
000010 40 05 ac bd 83 25 3d bd d5 fd f3 3b 78 be 70 bd
       -0.08399439 -0.046178352 0.0074460306 -0.058775395
000020 f1 66 c3 3d e3 e1 be bc 29 b4 16 bd 94 0a 1e be
       0.09541119 -0.02330107 -0.036792908 -0.15433723
000030 f1 e1 30 bd 29 3e 87 bc 40 e4 c2 3d cd 62 f7 bd
       -0.043184225 -0.016509132 0.095161915 -0.12079392
000040 79 44 a8 3d 9a ef 6d 3d aa 88 06 be 31 4d 80 bd
       0.08216185 0.05808983 -0.1313807 -0.06264723
000050 fd c5 07 be 29 e0 73 3d 35 cd 02 bd c0 72 f7 3c
       -0.1325912 0.059539948 -0.031933982 0.030206084
000060 ed be 1a 3d 5f 03 aa 3c 23 9b 4c 3d 4e ac 60 3d
       0.037779737 0.02075356 0.049952637 0.054851823
000070 f2 76 f9 3d f9 c4 26 3d 73 e4 4d bd 5f 30 4c 3d
       0.1218089 0.04071519 -0.050266694 0.049850818
000080 4a 6a de bd ad 65 5b bd 15 43 25 3c 12 8f ac bc
       -0.10860117 -0.053563762 0.010086794 -0.021064315
000090 b4 2f 9f 3d f5 51 c0 bb 93 b8 7a 3c c8 85 ab 3c
       0.077727705 -0.005869145 0.015302795 0.020937815
0000a0 36 f7 1b 3d a6 e6 a0 3b a6 62 a0 3d 97 b5 ee ba
       0.038077556 0.004910308 0.07831316 -0.0018212077
0000b0 dd 14 c0 bd ea bd 23 be 81 61 95 bd 1e 96 cd bc
       -0.09378979 -0.15990415 -0.07293988 -0.025095996
0000c0 ee 18 c8 3d 99 b6 a0 b9 6f 73 9a bc 46 ed 34 3d
       0.0977038 -0.00030653624 -0.018853871 0.044171594
0000d0 a3 a3 0e 3e 95 f6 0f bd 90 23 4a bd ee 4d cc 3d
       0.1392961 -0.03514727 -0.04935032 0.099758014
0000e0 f3 37 65 bd 3f b0 6e bd ef 5b b6 bd 8f 12 fb 3c
       -0.05596156 -0.05827355 -0.08904254 0.030648498
0000f0 8e 17 da bd ed 52 90 bc fc 46 0e 3e 32 bc 3c bd
       -0.10649024 -0.017617667 0.13894266 -0.046077915
000100 17 d4 80 3c 51 39 08 bd 21 db 2e bd 5b 83 96 3b
       0.015726132 -0.033257786 -0.042689446 0.0045932955
000110 da 17 5e bd 97 e9 aa bc da 50 83 3d 68 ce 3f 3d
       -0.054221965 -0.020863337 0.064119056 0.046827704
000120 84 3d 2d 3e e7 3b 82 3d 60 25 df bd b6 ac d9 bc
       0.16917998 0.06359082 -0.108958006 -0.026571613
000130 cd 48 9f bd 34 1a c1 bd 3f a5 12 3e 32 b3 9f 3a
       -0.077775575 -0.09428826 0.14320849 0.0012184142
000140 b9 e6 ab 3d 4c bc b2 3b 72 5c 78 bd e1 81 b6 3c
       0.08393616 0.0054545756 -0.060635038 0.022278728
000150 c5 e1 e9 3d 0a 59 90 bd 6b da 8a bc 34 ac 9e 3d
       0.11420015 -0.07048233 -0.016949853 0.07747689
000160 c8 e1 e2 bd 0b 0c 18 3c ee 0b 80 bc e7 be 20 3a
       -0.110782206 0.009280215 -0.015630689 0.0006131962
000170 62 24 97 3d 9c 92 10 3e bd 47 41 bc 29 8b 94 bd
       0.07379986 0.14118427 -0.011796889 -0.07253105
000180 78 d8 44 3d c7 a2 f5 bd 73 11 b7 bd 07 c2 ec 3d
       0.048058003 -0.11993938 -0.08938875 0.11560445
000190 cb ae 17 be 2c be 43 be 1f a9 f9 bd 46 ba d5 3d
       -0.14812772 -0.19115514 -0.121904604 0.104359195
0001a0 0d 92 05 bd cd 2b c5 bc ce b8 e9 bc 76 b1 3c bd
       -0.032609988 -0.024068737 -0.028530505 -0.046067677
0001b0 ae b6 3a bb 1a e9 f4 3b 10 99 d3 39 0e 5a 28 bb
       -0.0028490233 0.007474077 0.00040359097 -0.0025688442
0001c0 7e 45 b2 bd c9 0a 48 3b b9 29 d9 3d 15 b0 20 bb
       -0.08704661 0.0030524007 0.10603661 -0.0024519016
0001d0 3c 0a 0e be 59 5d ee bc a4 8e 11 3c f6 98 93 bc
       -0.13871092 -0.029097246 0.008884106 -0.018017273
0001e0 cc 43 a2 3b 98 7e ab bd fa c0 b0 3d c0 a5 10 be
       0.0049519297 -0.08373755 0.08630557 -0.14125729
0001f0 5f ea 82 3c 3d a7 be bc 5b 99 cf bd 33 3b 41 3d
       0.015980897 -0.023273105 -0.10136672 0.047175597
000200 52 cc 65 bd 35 9e f7 3d 0f c7 88 3d 81 b4 e2 bd
       -0.05610306 0.120907225 0.066785924 -0.11069585
000210 1a b1 b8 bd 70 65 38 be 44 78 5c 3d 56 06 c7 3d
       -0.090181544 -0.18007445 0.05382563 0.09718005
000220 92 db c5 3c 69 30 28 bd 67 12 a4 3b 3a 86 27 3e
       0.02415255 -0.041061793 0.0050070765 0.16359797
000230 84 08 b8 bc f3 19 e5 bc e6 21 93 bd 28 4a 12 bd
       -0.022464998 -0.027966475 -0.071842 -0.035715252
000240 4e 6c 74 bd 07 2e 44 3d 77 95 b5 3d 38 ff 06 3e
       -0.0596736 0.047895458 0.08866399 0.13183296
000250 86 00 55 3d 0f 2c dc bb 4c bb 6c bd ec 59 e7 3d
       0.052002452 -0.0067191194 -0.057795808 0.11296448
000260 99 40 c0 bd 2b 4b 28 3e 26 83 8d bc 72 f9 29 3e
       -0.09387321 0.16434924 -0.01727445 0.16599062
000270 a9 3d 80 bd d8 4b f9 3c 9e 2b 4b 3d 1e c7 06 3d
       -0.06261761 0.030431673 0.049602143 0.032904737
000280 2d 98 90 3d 30 dd 82 bd fa b2 27 3d 80 04 a3 bc
       0.07060275 -0.063898444 0.04094217 -0.019899607
000290 79 1b f4 3d d5 aa eb bd ef 55 07 3e 5b a8 9d 3d
       0.119193025 -0.11507193 0.13216375 0.07698127
0002a0 08 73 68 3d 0a 11 4c bd 3e 87 83 bc 40 95 a8 3d
       0.056750327 -0.049820937 -0.0160557 0.08231592
0002b0 1d a8 f2 3d dc d1 73 3c 34 0c ae 3c 39 b1 31 bd
       0.11848471 0.014881577 0.021246053 -0.043381903
0002c0 12 14 90 bd a2 80 cf bd 64 54 d2 3d ba 24 73 3b
       -0.07035078 -0.10131957 0.102700025 0.0037100748
0002d0 fa ee b4 3d ca 62 2c 3c d3 79 2c bc 1d 5b 7a bd
       0.08834644 0.0105216 -0.010527092 -0.06112205
0002e0 04 14 79 3d 89 3c 09 be 32 82 27 be 6b 84 e0 3c
       0.060810104 -0.13401999 -0.1635826 0.027406892
0002f0 0d 73 84 3d 75 a6 1f bc 2d 89 b1 3c 3e b5 3e 3d
       0.06467257 -0.009744276 0.021671856 0.046559565
000300 ab 33 db bd 78 07 6c 3e ab ba af 3d 2b 2f 52 bd
       -0.10703214 0.23049724 0.08580526 -0.051314514
000310 1a f0 21 bc e3 80 90 bd 11 b4 e3 3d eb fc a5 bd
       -0.009883905 -0.07055833 0.11118329 -0.08104881
000320 14 62 a9 3b c7 3a 19 bc 1e 74 98 3c 7a 30 93 3d
       0.0051691625 -0.0093523925 0.018610056 0.071869805
000330 39 ea 93 bd 65 a4 12 3e b5 fa b6 3d ec 0f 34 bd
       -0.07222409 0.14320524 0.08934537 -0.043960497
000340 36 51 00 3d b7 8d 3f bd cb 5d e0 3d d3 91 67 3d
       0.03132745 -0.04676601 0.109553896 0.056535553
000350 93 29 19 3e 7e ea 4d 3d ed e9 98 bd 88 ba b6 bd
       0.14957266 0.050272457 -0.07466493 -0.08922297
000360 4f ee b4 3d d0 42 8f bb 6e a7 bb 3c 8b 0e 71 3c
       0.08834516 -0.0043719783 0.022906985 0.01471294
000370 65 9b fd 3c a7 8d 23 bd 6c 37 23 bd 6f 59 0c be
       0.030957887 -0.039930012 -0.039847776 -0.13705991
000380 32 b3 0b be 5c 43 2a be ad 60 99 3d 26 ea 52 3d
       -0.13642576 -0.16627258 0.074891426 0.051492833
000390 21 0a 05 be 4c 58 c3 3c 98 7d 8f 3d 66 36 be 3c
       -0.12992145 0.023845814 0.07006377 0.023219299
0003a0 a1 26 db bd 3d 6f 96 3d 0e 63 ff 3d 65 85 a1 3d
       -0.10700727 0.07345436 0.12470065 0.07886771
0003b0 b5 67 9e 3d 92 02 ea bd 63 81 0a be a2 fb fc bc
       0.07734624 -0.114262715 -0.1352592 -0.030881707
0003c0 3d 82 84 bc 45 45 ec 3d 8b d3 c9 3d f5 a7 6d bd
       -0.016175384 0.115366496 0.09854802 -0.058021504
0003d0 aa b9 bc bd 3d 2f 7c 3b c6 1a d7 3d 9c ee 3e 3c
       -0.092151 0.0038480305 0.105031535 0.011653569
0003e0 ef 0f 23 3e cc ce 6a 3b 6f 1d f3 bd aa 80 07 3d
       0.15924047 0.0035828827 -0.118708484 0.033081688
0003f0 cb 5a 1c 3c 12 8e 52 3c 87 de aa bb 92 46 10 3e
       0.009543131 0.012851255 -0.0052145156 0.1408942

network_body._body_endoder.seq_layers.2.bias f4 [128]
000000 a9 d1 43 3b 6f 32 88 3b e2 3c 17 3b 69 d4 1d 3c
       0.0029879606 0.004156403 0.002307706 0.009633162
000010 59 d0 bf 3b ef 2b 1b bc 9a 04 cf 3b c2 df 8a 3b
       0.0058536944 -0.009470924 0.006317687 0.0042381
000020 8e a5 89 3b f4 9f dd 3a 1d cf 01 ba f2 a3 23 3c
       0.004200644 0.0016908632 -0.0004951822 0.009987818
000030 6b ef ef 3b 71 b2 a8 bb 6b 93 97 3b 34 2c 15 bc
       0.007322242 -0.005148225 0.004625728 -0.009104777
000040 b1 b8 92 bb 33 f3 14 3c e5 05 e8 bb 8f d2 57 3c
       -0.0044775833 0.009091186 -0.007080781 0.01317276
000050 13 fc 2d 3b 26 69 36 bc 14 58 5b 3b bc 82 00 bc
       0.0026547953 -0.011133468 0.0033469247 -0.0078436695
000060 a3 7b a3 3b 8f 37 fd 3a 2f 42 8a 3b 2c 7a 8d 3c
       0.004989104 0.0019318926 0.0042193155 0.01727017
000070 13 77 51 bc ac 1f 54 3c 6c 39 a4 3b 74 2c 8a bb
       -0.012784737 0.012947004 0.005011728 -0.004216725
000080 e8 87 cc ba 2d 61 b5 3b 79 35 09 bc f9 7c aa 3b
       -0.0015604468 0.005535266 -0.008374565 0.005202886
000090 b7 e5 88 ba 53 2e 23 bc d0 c1 1b 3c 6f b7 ee bb
       -0.0010444437 -0.009959775 0.009506658 -0.0072850506
0000a0 5b 96 6b 3c 33 b5 06 3c 9e 5c 15 bb 54 a6 8a 3c
       0.014379109 0.008221912 -0.00227908 0.016925015
0000b0 09 f0 2e bc 2e e7 a4 3b 2c ae 04 3b 10 49 7d 3c
       -0.010677346 0.0050324416 0.0020245416 0.015459314
0000c0 be 9b d0 38 72 9c 2b 3c ca f0 e7 ba 77 11 a7 39
       9.947222e-05 0.010474311 -0.0017695662 0.00031865734
0000d0 8a be fa bb 99 93 9a 3c d0 6c 06 3c 81 cc 51 3c
       -0.0076521086 0.018869208 0.008204654 0.012805105
0000e0 31 cc 8b 3c 61 fb 50 39 d2 13 29 3c cc 44 11 3c
       0.01706514 0.00019930072 0.010319667 0.0088665
0000f0 a5 8c 13 3c 1c 0b 87 3c 05 d2 55 bc df 5e 1a bc
       0.0090057 0.01648479 -0.013050561 -0.009422033
000100 81 c7 15 bc 1b a5 e6 bb 51 e7 28 bc 06 b7 02 bc
       -0.009141804 -0.007038725 -0.010309056 -0.0079782065
000110 eb 7e 16 3c e0 d1 51 3c 8e b0 9e 3b 55 59 83 39
       0.009185533 0.012806386 0.0048428243 0.00025052825
000120 55 de 00 bc b7 86 48 3c 9c 18 67 bc 38 67 78 bb
       -0.007865508 0.01223915 -0.014104988 -0.003790332
000130 07 a1 76 3b a8 a4 3e 3c 25 5c d1 3b e4 68 13 bc
       0.00376326 0.011635937 0.0063891583 -0.008997176
000140 6c 37 34 bc eb 0f 9b 3c 0b 01 bd bb 13 cf 33 3c
       -0.010999542 0.018928489 -0.0057679466 0.010974663
000150 9b a6 e0 bb 38 10 27 3c 53 25 16 3d 6a c1 e0 3b
       -0.0068557984 0.010196738 0.03665669 0.0068589943
000160 e2 f8 25 3c f7 8e 43 3c 36 8e 0a bc 4a 69 44 3c
       0.010130139 0.011935941 -0.008456757 0.0119879935
000170 83 0f 50 3b 81 61 09 3c 3c a0 71 3b 68 f2 4c bc
       0.0031747527 0.008385063 0.0036869189 -0.012508966
000180 99 61 94 3b 3a e1 ba bb 50 e8 4a 3b 2f 9d 7b 3b
       0.004528236 -0.0057031186 0.0030961223 0.003839325
000190 6f 76 9d 3c 00 47 c6 3a 35 7c e0 39 c8 97 6d 3b
       0.019221513 0.0015127361 0.0004281715 0.0036253799
0001a0 b2 b7 10 bc a1 4c d7 ba 8f 4c 63 3c 42 61 3b 3c
       -0.008832859 -0.0016426035 0.013873233 0.011436762
0001b0 7a fd 5f bc f5 7b 48 3c 58 2e 72 b9 25 82 82 3c
       -0.013671273 0.012236585 -0.00023096183 0.015931198
0001c0 e4 c1 24 bc ac 30 ad 3b 64 24 21 bc d3 17 df 3a
       -0.010055993 0.005285343 -0.009835336 0.001702065
0001d0 de 3f c9 3a 6a 62 ad bb 66 81 80 3c 07 d5 30 bc
       0.0015354117 -0.005291273 0.015686702 -0.010792977
0001e0 71 a8 58 bc 66 2e c1 3b 5e 79 ad 39 61 e1 f9 ba
       -0.013223753 0.0058954237 0.00033087557 -0.001906436
0001f0 de 99 b0 3b c8 81 b0 3a a2 80 15 bc 5b 6e d8 bb
       0.005389436 0.0013466412 -0.009124907 -0.0066049523

action_model._continuous_distribution.log_sigma f4 [1, 2]
000000 20 1b b4 bc ca de 8b bc
       -0.02198559 -0.017074008

action_model._continuous_distribution.mu.weight f4 [2, 128]
000000 0e 98 e5 3c fd f5 bb 3b d1 66 1d bc 57 37 44 3c
       0.028026607 0.005736111 -0.009607033 0.011976085
000010 45 7b de 3b 9c e1 e0 bb 8d 18 b5 3b 8e 68 67 3c
       0.006789597 -0.0068628322 0.0055266083 0.014124049
000020 5e 54 e8 ba 4c 3f 67 3c ff ae 8a bc 48 ce d0 3c
       -0.0017725339 0.014114212 -0.016929148 0.025488988
000030 0f d6 e3 3c 45 5c 49 bb 77 45 4e ba 37 ee 25 bd
       0.027812032 -0.0030725163 -0.00078686274 -0.040510383
000040 81 f3 f2 bc f1 67 0b 3d f0 01 1b bc 2d 99 2a 3c
       -0.029657127 0.034034673 -0.009460911 0.0104124965
000050 3b 70 07 bd 59 19 f3 bc 73 a9 cb 3a bd 12 49 bc
       -0.033066016 -0.029675173 0.0015538171 -0.012272534
000060 01 31 05 3d e4 13 93 ba 47 13 78 3c a9 06 e6 3c
       0.032517437 -0.0011221138 0.015141315 0.028079348
000070 e1 9a 98 bc 8b b9 3a 3c 75 11 9a 3c 1f d7 9e bb
       -0.01862854 0.011396776 0.018807152 -0.004847422
000080 8f f5 a9 bc 48 3b bc 39 41 dc 09 bc e8 64 f1 ba
       -0.020746974 0.00035902322 -0.008414329 -0.0018416913
000090 c2 87 d5 3a 82 9b 28 bb e0 5c 6b 3c 8a b2 da bc
       0.0016291069 -0.0025727456 0.014365405 -0.026696462
0000a0 7e 82 31 3d ee fb 25 3c af 48 16 3c e9 2b 2f 3c
       0.043337338 0.0101308655 0.009172603 0.010691621
0000b0 58 1f e5 bb 68 2e 9e 3c 43 48 a2 3c cf ba 1b 3d
       -0.006992262 0.019309238 0.019809848 0.03801995
0000c0 6c 4a d6 bb 2b ef 31 3c 41 82 34 bb 12 e6 1c 3c
       -0.0065396335 0.010860245 -0.0027543458 0.009576337
0000d0 9c f0 0f bd 18 57 6c 3c 2c f7 b1 3c a4 22 86 3c
       -0.035141572 0.014425062 0.021724306 0.01637394
0000e0 30 00 da 3c 7a 6c f4 3a af 0b a1 3c 62 4b 2f 3c
       0.026611418 0.0018648051 0.019658891 0.010699125
0000f0 1d 36 f2 3c 14 79 53 3c 05 a9 8d bb 3f a9 21 39
       0.029566819 0.012907285 -0.004323127 0.00015417206
000100 fe 36 dd bc c8 14 b7 bb f2 a7 64 bc d4 e8 64 bb
       -0.027003761 -0.005587194 -0.013956057 -0.0034928815
000110 a8 a4 00 3d e4 dd a3 3b c3 80 96 3b 32 a7 bf 3b
       0.03140703 0.0050008167 0.0045929863 0.0058487887
000120 19 6e 41 3a 8e 3d 44 3c 3e a3 46 bd 01 42 75 bc
       0.00073787716 0.011977566 -0.048495524 -0.01496935
000130 4f 91 32 3c 3d dd db 3c 7f 83 1d 3c 69 db c4 bb
       0.010898902 0.026838893 0.009613871 -0.006007601
000140 d6 c3 19 bd c6 a2 1f 3d 54 63 5d bb b9 ab 0c 3d
       -0.03754028 0.038973592 -0.0033781128 0.034343455
000150 17 d6 ef 3a ec 84 63 3c c8 9d c9 3c 27 dd 19 3c
       0.0018298057 0.0138866715 0.024611369 0.009391106
000160 02 de 7b 3c 66 cb 4d 3d a4 d5 09 bc d6 3a c5 3c
       0.015372755 0.050242804 -0.008412752 0.024075907
000170 7b 05 84 3c 1d 3c 05 3c f7 ce 15 3a ee 93 0f bd
       0.016115895 0.008132008 0.0005714739 -0.035053186
000180 4a 69 2f 3d 85 85 2a bd 38 d4 cc 3c 6e 79 8b 3c
       0.04282502 -0.04163124 0.025003538 0.017025676
000190 d5 10 a6 3b 43 16 f3 ba 0f dc 0e bd d2 57 63 bb
       0.0050679245 -0.0018546063 -0.034877833 -0.0034689796
0001a0 98 c0 87 bb fb 7f 23 bc 47 d8 5b 3c 17 ef 38 3d
       -0.004142832 -0.009979243 0.013418264 0.04514989
0001b0 24 70 a7 bc 8b 8c 16 3d 2e d6 a0 3c 07 2c 00 3d
       -0.020439215 0.036755126 0.019633379 0.031291988
0001c0 4d c0 43 bc 60 01 a2 3b 37 c0 5c bc 9f 03 ba 3c
       -0.011947704 0.0049440116 -0.013473562 0.022706805
0001d0 22 70 46 3c 0d 99 51 bb 90 db 0e 3d 6c ba a5 bb
       0.0121116955 -0.0031982095 0.03487736 -0.0050576236
0001e0 ff dd 9d bc 62 ab 17 3c 38 61 44 ba f2 af f5 bb
       -0.019270895 0.009257169 -0.00074912934 -0.007497781
0001f0 04 4d 4e 3c e7 09 d4 3b e8 1a 0f bc 18 d6 8a bc
       0.012591604 0.006470907 -0.008734442 -0.016947791
000200 59 ab 84 3c a5 43 25 3d d7 cc ff 3b 73 3a eb 3a
       0.016194986 0.040347714 0.0078064012 0.0017946496
000210 d8 04 78 bb 2a ff a6 ba 8b 95 40 3d 95 2d 5d bc
       -0.0037844684 -0.001274084 0.047017615 -0.013499637
000220 a8 60 23 3d fb 8f b7 bc 5b 49 7d 3c c5 ed 3f 3c
       0.0398871 -0.022407522 0.015459384 0.0117144035
000230 8b 10 b2 bc e2 94 4a bc 30 12 f5 3b df 36 b1 bc
       -0.021736404 -0.012364598 0.0074789748 -0.02163261
000240 92 55 55 3c 54 d0 86 3b 09 0f 22 bc a4 0d 10 3a
       0.01302089 0.00411419 -0.00989128 0.00054951967
000250 fd 33 a8 3c f1 71 88 bc 63 f5 31 3c a3 cd 01 bd
       0.020532602 -0.016655894 0.010861727 -0.03169025
000260 b0 c5 a7 3b 06 15 5c 3c 1a b3 c1 bb 9e 34 a5 3b
       0.0051200017 0.013432747 -0.005911243 0.005041673
000270 ed 38 68 bc d2 4a da bc 3d ac e1 bc 48 cd 8d bc
       -0.014173728 -0.026647005 -0.02754795 -0.0173098
000280 25 a3 58 3c 62 ee a4 bc 81 1f d8 bc f3 cc 39 3c
       0.01322249 -0.020133201 -0.02638221 0.011340368
000290 11 14 31 bc 16 f6 2d bc d1 f2 28 bc 20 f8 9a bc
       -0.010808007 -0.0106177535 -0.010311798 -0.018917143
0002a0 2f 5a cc bc 35 7b fe ba 63 91 86 bc 23 f1 2a bc
       -0.024945347 -0.0019415381 -0.016426748 -0.010433468
0002b0 ca 0c 80 ba d4 c6 12 3a a9 fb 21 bd 57 fe be 3b
       -0.0009769436 0.00055990857 -0.039546642 0.0058286595
0002c0 57 d5 13 3c 85 d5 45 bc 18 6c da bc 0e e5 3a 3b
       0.009023032 -0.012074833 -0.026662871 0.0028517875
0002d0 a9 b4 3e bd 78 6d 36 bc 94 23 bb bb 06 a7 62 3c
       -0.04655901 -0.011134498 -0.0057110284 0.013833767
0002e0 6b 9e 80 3c 84 ac 8d bc 76 5e 8d bc 0e 88 66 bc
       0.01570054 -0.017294176 -0.017256957 -0.014070524
0002f0 2a f2 ce 3b 33 a1 94 3a e8 0c 6a bb 2b 40 ca bb
       0.0063154893 0.0011339545 -0.003571326 -0.0061722
000300 7a 4b 24 bc 36 e5 87 3c de 91 91 3a 00 a1 3e bc
       -0.010027761 0.016588788 0.0011106094 -0.011635065
000310 14 b4 e7 bb cb 91 72 3a 61 bd 12 3c a5 e1 84 bc
       -0.0070710275 0.0009253292 0.008956284 -0.016220877
000320 1a 46 92 bc 52 7b 96 b9 5b 20 9b 3c bf 86 95 3c
       -0.017855693 -0.0002870211 0.018936327 0.018252729
000330 4d ad 3d 3b 9e ca b7 3a c6 d6 00 3d 09 4c 35 bc
       0.0028942407 0.0014022177 0.031454824 -0.0110654915
000340 92 64 36 3b 5d c9 d2 bc 6b e0 0e bd b6 80 85 bc
       0.002783094 -0.025730783 -0.03488199 -0.016296726
000350 c3 19 9a bb 53 ff 2b 3c 41 45 4c 3a 04 31 ce bb
       -0.004702778 0.010497886 0.0007792302 -0.006292464
000360 1b 78 ac 3b 9f fc 75 3c e0 bc a1 3a c7 9a 8c 39
       0.005263341 0.015013843 0.0012339614 0.000268182
000370 ba 1e bb bc 39 50 4c bc 4b c5 2e bc 14 14 06 bb
       -0.0228418 -0.012470298 -0.0106671555 -0.0020458745
000380 1f 6b b4 3c 94 0e d9 bb 15 b9 14 3c 1f b8 dd bc
       0.022023736 -0.0066240523 0.00907733 -0.027065335
000390 34 93 c7 3b ac cd fd bc fb 19 f3 3c d9 49 05 bd
       0.006090546 -0.030981861 0.029675474 -0.03254113
0003a0 ef 31 ac bb 7e 86 9a 3c 8f b8 1b bc 63 da 89 bc
       -0.005254976 0.018862959 -0.009504451 -0.016827768
0003b0 16 c6 f5 ba d4 42 c4 3c 47 33 e2 39 71 14 45 3b
       -0.0018751051 0.023957647 0.00043144284 0.0030071998
0003c0 6b 68 53 bc a5 06 27 3d 43 dc 4b bc c3 05 52 bc
       -0.012903313 0.04077782 -0.012442651 -0.0128187565
0003d0 74 af 69 bc fa a5 bb bc a4 32 f6 3b 87 a2 cf bb
       -0.014263023 -0.022906292 0.007513361 -0.0063365134
0003e0 36 65 18 3c f0 f8 97 bc 1c 68 84 3c ab 75 f2 3c
       0.009301474 -0.01855132 0.016162924 0.029597124
0003f0 25 a0 49 3c b0 79 9d bb 83 9a 6f bb fd 84 fd 3c
       0.012306248 -0.004805766 -0.0036560602 0.030947203

action_model._continuous_distribution.mu.bias f4 [2]
000000 15 47 61 3c a8 6a 6b 3b
       0.013749857 0.0035921726
