python/results/minion_walk_002/Minion/Minion-1762.pt (torch, 427995 bytes, 36 tensors)

network_body._body_endoder.seq_layers.0.weight f4 [128, 3]
00000000: a442 023f 8b54 cf3e 9df4 093f c9b0 c3bd
00000010: aba9 4ebf caa8 40bf 0827 b0bc 3cf6 3dbf
00000020: d00c 1abe 2918 72be d7e1 303f 47e1 353f
00000030: 64d4 c9bb b1dd 743f e160 513f ef36 12bf
00000040: 449a 27be 48c2 00be 70fd 683e 1eff 18bf
00000050: 6db2 61bf cd4e c8be d72a 68be 04a1 abbc
00000060: 9665 e4be feb9 67be dc98 22bf 39b6 f0be
00000070: 78fc 4a3d e537 833e 7e54 0f3f 27a5 92bd
00000080: e546 2cbf 7860 893e 4635 51be d5e5 6cbf
00000090: d802 a3bf 1bce 17bf 757d a43d 2871 5fbf
000000a0: b2b3 ef3e 50c7 1b3f d1f6 333f 6e13 2c3c
000000b0: 9144 68be 0c9d fbbe f233 613e d5b3 73bf
000000c0: 7023 973e 8351 52bf 47fb 67be bba7 cf3f
000000d0: 9827 ab3e 4e01 4ebc c448 b63e 6b58 84bc
000000e0: ff46 ea3e 985e b2bc 5d32 79bb 9705 0c3f
000000f0: f26c 00bf 18f8 90bd 08ca fb3e 3b52 7fbf
00000100: 45b2 03bf c75e c6bd 91d9 193f b592 48bc
00000110: e4a9 45bf 2313 0a3f 76bd 923e 4100 c53f
00000120: 63fe 3bbf deb7 a3be 8e00 8f3d 55ad dcbe
00000130: 2f76 48be bb7c b43e fd71 e5bd 776e be3b
00000140: ad0b 81be d827 813e 69ec 583f 0a8a fa3d
00000150: ad29 89bb a311 dc3d 1ae2 aabe 060a 6e3d
00000160: 95ff 39bf 9fbf 20bf 7334 7bbd 25fc 233f
00000170: 0517 3f3f 0333 dcbd cc0c b3be 1115 1f3e
00000180: 5693 803f a9a6 b7be eedf 513e f434 9ebf
00000190: aa2c bd3e 601f 81bf cdf8 ddbe 7776 57be
000001a0: 7de9 1dbf fa10 2bbf 72aa 1cbd eff6 4bbe
000001b0: 94d8 443f 751a 6e3e 1704 9ebe e977 7b3e
000001c0: db1a 583f d091 093f eb85 c63d 2355 1cbf
000001d0: 837a aa3e e19f 2e3d c23f 8ebf 0215 083f
000001e0: 0c4b a8be a37e f63e f173 563d eb44 e83d
000001f0: 2a6c 1f3e 3e8a 7d3f bedb 283d 7287 593e
00000200: be7b 593e 3cc8 893e 4712 04bf f88c 4dbf
00000210: 9e53 b0be ab6d c03f 785c 9e3d a3ce bdbe
00000220: dfc0 d63e 1e05 00be d8f6 213e 7cfc 833e
00000230: b7ab 90be 8e2c b8be 2855 25bf 45eb 45be
00000240: 292a b1bf 5545 30bf 41c1 2cbf 5c21 3ebf
00000250: c82f 9b3e ddf4 9bbf 8fea bebd d189 68be
00000260: 9165 833f 040c ed3e 10c1 1c3f c25c 02bf
00000270: 3997 3cbf e888 9c3e 5127 ee3e af2f 853f
00000280: 21f1 23bf 682d 92be 0822 fbbe 61c7 2c3f
00000290: 8f3b ca3e 690c 9ebd 335e 7c3f 3d78 fd3e
000002a0: 826a 853e 701d 5ebd 0f2c c53f 32c3 d0bd
000002b0: 3c97 413f 3665 b53e 4029 f2be 0f53 693e
000002c0: 0344 2cbe 4845 1bbe 138c 12bf ccf9 423e
000002d0: 0557 e6be cbff 63be 8867 1fbf 1c52 21bf
000002e0: 5ffc 2cbf 28a7 3d3e c9f5 a63d 186f e53e
000002f0: 026d 97be fc0a 383f bfe2 343f 2c2b 203d
00000300: 09a4 11bf 62ff 6d3f d247 15be 7167 f13e
00000310: 0aa8 05bf 8144 563e 20e7 be3e 0612 6cbe
00000320: c4fb 203e 46eb 013f 8b93 063d 124f 23be
00000330: 140a 4dbf f6e1 15be 66fd b2be 8882 ebbd
00000340: 94a2 34bf 54a0 8fbd d189 25bf 3176 303f
00000350: 193c 64be 25e1 c2be 1a13 20be aff0 243e
00000360: 0bfd 08be 6c01 a53e 6d35 0e3f 4d5e 2dbf
00000370: e2a2 f4be 3afe cdbd b5d8 963f e923 633f
00000380: b4fe 7bbf c9cd 283e 8342 03bf e652 9dbe
00000390: 0f20 87be 7075 69bf 2379 3e3f c3fc e5be
000003a0: ae8d d53e 72c1 b8bd 544b 933e 1791 233f
000003b0: 6099 4a3f 0e20 b5bd 0db0 5bbf 8d0a 6e3f
000003c0: b885 38bc d635 6abf f2b5 b63e c2ce 67be
000003d0: 9204 51be bff0 a23e f2c5 bd3f 33ae 593e
000003e0: 3421 29bf e088 03bf 17dc 80be f5a1 103e
000003f0: 9fbe a43e e85e 83be 671d 083f f4c0 2abf
0.50882936 0.4049419 0.53888875 -0.095552035 -0.8072764 -0.7525755 -0.021502987 -0.7420385
-0.1504395 -0.23642029 0.69094604 0.7104687 -0.006159352 0.95650774 0.8178845 -0.5711507
-0.16367441 -0.12574112 0.22752929 -0.5976428 -0.8816288 -0.3912262 -0.22672592 -0.020950802
-0.44608754 -0.22629544 -0.63514495 -0.47014025 0.04955718 0.25628582 0.559883 -0.071604066
-0.67295676 0.26831412 -0.20430478 -0.92538196 -1.2735243 -0.59298867 0.080317415 -0.8728204
0.46816784 0.60851 0.70298487 0.010502679 -0.22682406 -0.49143255 0.21992472 -0.95196277
0.29519224 -0.82155627 -0.22654448 1.6223062 0.33428645 -0.012573553 0.3560239 -0.016155442
0.4575729 -0.021773621 -0.0038024404 0.5469603 -0.5016624 -0.0707857 0.49177575 -0.9973485
-0.5144389 -0.09686046 0.60097605 -0.012242009 -0.7721236 0.5393545 0.28660172 1.5390702
-0.7343504 -0.31976217 0.06982528 -0.43100992 -0.19576333 0.35251412 -0.11203382 0.0058115083
-0.2520422 0.2522571 0.84735733 0.1223336 -0.0041858763 0.107455514 -0.33375627 0.058115028
-0.7265561 -0.6279239 -0.061329316 0.6405662 0.746445 -0.10751917 -0.349707 0.1553538
1.0044963 -0.3586934 0.20495579 -1.235991 0.36948138 -1.00877 -0.43353882 -0.21041285
-0.616844 -0.6682278 -0.038248487 -0.19918416 0.7689297 0.2325228 -0.30862495 0.24557461
0.8441598 0.5373812 0.096935116 -0.6106741 0.33296594 0.04263294 -1.1113207 0.53157055
-0.32869756 0.4814349 0.052356664 0.1134127 0.15568605 0.99039066 0.041225187 0.21243075
0.2123861 0.2691058 -0.5159039 -0.80293226 -0.34438795 1.5033468 0.07732481 -0.37071714
0.41944024 -0.12501952 0.1581682 0.25778568 -0.28256008 -0.35971493 -0.64583063 -0.1932803
-1.3840991 -0.6885579 -0.6748238 -0.7426965 0.30309892 -1.2184101 -0.09322082 -0.22708823
1.0265371 0.4629823 0.6123209 -0.5092279 -0.7366825 0.305732 0.4651437 1.0405177
-0.6403981 -0.28550267 -0.490494 0.6749173 0.39498565 -0.07717211 0.98581237 0.49505797
0.26057822 -0.054227293 1.5404071 -0.101934806 0.7562139 0.3542878 -0.47297096 0.2278559
-0.1682282 -0.15163147 -0.57244986 0.19040602 -0.44988266 -0.22265546 -0.6226735 -0.63015914
-0.6757259 0.18520796 0.081523485 0.4481132 -0.29575354 0.7189176 0.7065849 0.039103672
-0.5689092 0.9296781 -0.14578179 0.47149232 -0.5220953 0.2092457 0.3728571 -0.2305375
0.15721041 0.50749624 0.03285555 -0.15948132 -0.80093503 -0.14636979 -0.34958953 -0.11499506
-0.70560575 -0.07013002 -0.64663416 0.68930346 -0.2228855 -0.38062397 -0.15632287 0.16107439
-0.13377778 0.32227647 0.5555027 -0.67722017 -0.4778052 -0.100582555 1.1784884 0.8872667
-0.9843552 0.16484751 -0.51273364 -0.3072731 -0.26391646 -0.9119482 0.7440359 -0.44919404
0.41709656 -0.09021272 0.28768408 0.63893265 0.7914028 -0.088440046 -0.8581551 0.9298485
-0.01126235 -0.914884 0.35685688 -0.22637466 -0.204119 0.318243 1.4826033 0.21257858
-0.6606629 -0.5138073 -0.25167915 0.14124282 0.32176682 -0.25658345 0.53169864 -0.66700673

network_body._body_endoder.seq_layers.0.bias f4 [128]
00000000: 117e 1c3c 2d2d bcbb 074b 10bc efff 303c
00000010: 2798 c13b 5194 993b 550f 30bc 809c 48bc
00000020: abc5 b33b 3dbb 083b bff6 fa3b eeac 07bc
00000030: a83d 3bbc 06f6 1a3c 7776 263c 4fa8 3e3c
00000040: 2b48 ccbb c40e 27bb c981 1fbc 4841 4b3b
00000050: 46f0 bfbb 6872 42bc 8237 043b 7718 cfba
00000060: 3887 183c 191f bbbb c2fb ddbb d20b 443c
00000070: 0e77 b73b f016 253a 2e1b 243c 5c0b 3fbb
00000080: f201 d8bb 1ab5 16bb c45a 213c 663d 403c
00000090: ac14 fa3b 752c 353c dae3 2ebc 8409 a03a
000000a0: 2476 a13b 23b1 06bc 63f5 08bc e5b3 763b
000000b0: 8192 8d3b c701 f13b 9aa5 443c 65a1 23bc
000000c0: 60c6 093c 35c6 803b 7df7 eabb 4e77 37ba
000000d0: 5a1b 88bb 9398 243c 7a9c 423c 9655 1abb
000000e0: ed67 f73b e119 563c 9c62 27bc 4537 2fbc
000000f0: 14da 873a 86d9 41bc 4c7b afb9 3692 353c
00000100: b303 623a 850e 53bc eee5 fb3b 03a6 92bb
00000110: a72e 0e3c 9936 7c3b 5e3b 223c 70bc e13b
00000120: 97c2 343c 6861 3a3c 107c 103c a0cc 0f3c
00000130: c70b e03a aa51 68bb de66 f33b 6ce6 313a
00000140: 6beb 44ba 5763 da3b acda c0bb c52a a339
00000150: 4398 bfbb 6792 a33b e92a c2bb af13 db3b
00000160: 86e1 cf3b 9af2 b33b 0eeb 8fbb a52a 8abb
00000170: 88e5 b13a 4a4a 0f3c 4853 af3b 2f16 333c
00000180: b1c8 1d3c e263 64bb fddd 9a3b 66d7 34bc
00000190: b716 bebb 377f 50ba 728e 153b f89a 27bc
000001a0: 3323 0a3c eb5b bfbb 6e4a 54bc 3452 ebbb
000001b0: f31d 073c b438 8839 a31c 0fbb 1ed3 823b
000001c0: 063f b0bb 5b96 1b3c 48f6 13bc 3df1 6d3b
000001d0: 04d9 f1bb 3443 fd38 7ea3 bfbb b2d2 70b9
000001e0: 709c 13bc 49a2 ba3a 7c4b 2fbc bd33 bd3a
000001f0: 185e 02bb f994 4a3b bf59 583b 3a8c 343c
0.009551541 -0.00574269 -0.00880695 0.010803207 0.0059080306 0.00468687 -0.010745843 -0.012244344
0.0054862103 0.0020863556 0.007658809 -0.008280976 -0.011428274 0.009458071 0.01016008 0.011636808
-0.006234189 -0.0025490979 -0.009735533 0.0031014252 -0.0058575002 -0.011868097 0.0020174687 -0.0015800138
0.009309582 -0.0057104942 -0.0067743966 0.011965709 0.005598909 0.00062976684 0.010016246 -0.0029151058
-0.006592029 -0.0022996129 0.0098483 0.0117333885 0.007631859 0.011057963 -0.010674441 0.0012209867
0.0049274135 -0.008220944 -0.008359286 0.0037643847 0.004320443 0.007354948 0.012002373 -0.00998721
0.008409113 0.003929878 -0.007170616 -0.0006998674 -0.004153651 0.010046142 0.011878127 -0.0023549548
0.0075502307 0.013067693 -0.010216381 -0.01069433 0.0010364675 -0.011831647 -0.00033470464 0.011082223
0.0008621767 -0.01288188 0.007687322 -0.0044753565 0.008678115 0.0038484691 0.00990185 0.0068889186
0.011032722 0.0113757625 0.008818641 0.008776814 0.0017093354 -0.0035449066 0.007428034 0.00067863497
-0.00075118867 0.0066646743 -0.0058854427 0.00031121648 -0.0058470084 0.0049918178 -0.0059255254 0.006685696
0.006344023 0.005491567 -0.0043920344 -0.0042165094 0.0013572434 0.008745739 0.005350504 0.010930582
0.009630368 -0.0034849574 0.00472617 -0.011037683 -0.0058010477 -0.0007953527 0.00228205 -0.0102298185
0.008431244 -0.005839815 -0.012957199 -0.0071814302 0.008246887 0.00025982189 -0.0021837137 0.0039924523
-0.0053786067 0.009496297 -0.009030886 0.003630712 -0.0073806066 0.00012076498 -0.005848347 -0.00022966674
-0.009009466 0.0014239039 -0.010699149 0.0014434975 -0.001989251 0.0030911549 0.0033012477 0.011019761

network_body._body_endoder.seq_layers.2.weight f4 [128, 128]
00000000: fd84 8abe 0a52 023d 9d9c 6bbd 1f70 1fbe
00000010: ac82 65bd 745f babd ddb0 b1bd b813 d33d
00000020: 2f41 84bb ef71 1cbd cacd 763d da48 c0bc
00000030: 265c d93d 6dc2 45be 64e2 a4bd ce23 9e3b
00000040: 381a 103e 33a7 b23d 84cf 0a3e c5a5 89bd
00000050: eeba c6bc 034a 0d3e 2d09 9b3d d680 80bb
00000060: dc49 17be d8d9 873d a4bc 17bb f8bd ef3d
00000070: 3b06 1dbe 9d14 5e3c f6b6 203e 13f9 123e
00000080: b754 64bd bb29 1cbd 368e 82bd 027d fe3d
00000090: 6a6b e13d 86f1 cc3d 8bc3 ac3c c765 c4bd
000000a0: c679 bebd 8928 5c3d 1dbb 093e 3aff 23be
000000b0: 5f94 49be 1fb7 81bd e611 d53d 407b e5bd
000000c0: 7283 673d a1a0 a2bc b0eb 5f3c 7f75 8bbd
000000d0: 58c6 bd3d a0e3 48bd 2723 23bd 1a8f abbd
000000e0: bf7e 373d 8393 cebc 54ee 8f3c d28f 783d
000000f0: f706 e7bd c224 74bd 38b5 65bd 7466 23bc
00000100: 1563 433e 9905 bf3d 8cf0 253e 6851 04bd
00000110: 199b 773d 9f1a e33d 78de cbbd 0d14 c1bd
00000120: 2996 4cbd ad7b e43d bbda 4f3b 1e49 0fbe
00000130: 3557 7c3d 8b71 1ebe 15da 14bc 1b37 c9bd
00000140: e68d 5e3d 1c46 f43d 36ea bb3d 61f2 2c3d
00000150: 11a5 36bc a8c2 82bd 5262 063d 369b 43bc
00000160: 23db 253d 1619 92bd 78a7 edbb cbc5 033e
00000170: 3ecd cabd 9d47 3e3e 5605 033d d100 0e3b
00000180: 9d55 183d c084 aebc 22a2 1dbe 33e5 5cbd
00000190: cc48 0e3d 90b9 95bc 89b9 0a3a 5ea8 93bd
000001a0: 08d6 1fbe e0ae 79bd 7b3b 193d 0a3e c3bd
000001b0: e2b2 843d 2f9a 8b3d 1c04 93bd 61cd 48bb
000001c0: 6084 e43d 5fa7 b53c 02d6 0b3e 6bc7 5cbd
000001d0: 0552 6a3c 73fc 4a3d 0550 d6bc 2ef2 48be
000001e0: 558e 723d eba8 1ebc cea3 d4bd ba56 9b3d
000001f0: 5b11 42bd 2166 ad3c 7692 7a3d 6d6c 83bc
00000200: 2242 00bd d74d a5bc f0e1 013b a30b 253e
00000210: a522 823d 1fcd 65bd 9488 00bc 864d b5bd
00000220: 3851 183e cfe5 3a3e 1642 afbd 0532 59be
00000230: 9fcf 4fbe 090c 90bd 3340 02bb f148 ccbd
00000240: e91c e83d 8700 9bbc b628 cebc f1f1 71bd
00000250: 2aea 0a3c 1614 903d 70b1 c2bc e260 4abe
00000260: b433 3abc ac22 0b3d 65cf d7bc ad76 c1bd
00000270: 91fc a83d 6536 5b3d e0ac 27be 5f6c d83c
00000280: 93af 213d c9e6 50bd 76fb 6cbe 39c8 07be
00000290: 8b63 0d3e 4b00 fb3d e120 363d 9f9a dabd
000002a0: 3dc9 623e f6cb 06bd ae3b bebb 693a 0dbe
000002b0: ca87 aa3c 594a 88bb fec7 72bd 22f3 fabd
000002c0: 9ba4 d4bc e658 a93d bbac 153e 17a4 5a3e
000002d0: 24a8 d23d 4ced 8a3b e457 8f3d c2cc c1bd
000002e0: efe0 c63c 09d2 a93c cf2f 8b3d 41b4 8d3b
000002f0: 7801 88bd f913 9bbd 667f da3d 1359 763d
00000300: e96f febd 5285 ea3c 8562 08be 7902 0e3d
00000310: 85ba 4bbc 339d 02be 154a 853d c57f 8cbd
00000320: db4a b9bd 3b35 f3bd 4358 a83c 2ba2 8c3a
00000330: 0e79 74bd c05f c5bc 50f6 4e3d 3876 85bb
00000340: 4559 0d3d 8fef 04be a21b 26be 718a 2ebd
00000350: c849 7f3d 39ce f83b 758e 01be f0bc 883d
00000360: e998 ec3b 2b40 e0bc cd94 a13d 0a94 ee3d
00000370: ed8a 033d 7e13 a4bb 79cb 0f3d 4aad 2d3d
00000380: 8db7 3abd 112d b0bd 0382 863d 8c43 71bd
00000390: 5c11 cd3d da19 02be db79 a23d c958 58bd
000003a0: f36b 84bd 1650 2abe 2332 98bd 7187 ccbd
000003b0: 9487 e43d 0f89 a33c e3e2 ef3c 08db 8e3d
000003c0: 9001 4fbd 766d a03d b223 c8bd 0bbc 0a3d
000003d0: 9bec e03d 3442 56bb 5243 963d 863a fdbd
000003e0: c320 ab3d 9fe5 2d3d 42d9 4b3e 2e4a a2bd
000003f0: 3279 103d 506b 1a3d 0d8e 7a3d e136 d0bd
-0.27054587 0.03181652 -0.057522405 -0.15570115 -0.05603282 -0.091002375 -0.08676312 0.103064954
-0.004036091 -0.038194593 0.06025485 -0.023472238 0.10613279 -0.19312449 -0.08050993 0.0048260456
0.14072502 0.08723297 0.13555723 -0.06721071 -0.024259057 0.13797764 0.075701095 -0.0039216084
-0.14774269 0.06633347 -0.002315321 0.117061555 -0.15334408 0.013554719 0.15694794 0.14352827
-0.055744853 -0.038125735 -0.06374781 0.12426187 0.11006816 0.100070044 0.021089336 -0.09589725
-0.0930057 0.053749595 0.13450284 -0.1601533 -0.19685505 -0.06333756 0.104038045 -0.11205149
0.05652184 -0.019851984 0.013667032 -0.0680952 0.09266347 -0.049045205 -0.039828446 -0.08376904
0.04479861 -0.025216823 0.017569698 0.060684033 -0.11280625 -0.059605367 -0.056081027 -0.009973157
0.19080766 0.093272395 0.16205043 -0.032304198 0.060450647 0.11089062 -0.09954542 -0.094276525
-0.04994789 0.11156402 0.0031716067 -0.13992736 0.061606605 -0.15473 -0.009085198 -0.09824964
0.054334544 0.11927435 0.091755316 0.042223338 -0.011147753 -0.06384784 0.03280861 -0.011938861
0.04049219 -0.07133691 -0.00725263 0.12868421 -0.09902428 0.18582006 0.03198751 0.0021667967
0.037191022 -0.021303535 -0.1539388 -0.05392952 0.034737393 -0.01827696 0.0005291929 -0.07209848
-0.1560899 -0.06095779 0.03741024 -0.095333174 0.06479432 0.068165176 -0.07178518 -0.0030639993
0.11158061 0.022174535 0.13655856 -0.053901117 0.014301782 0.04955716 -0.026161203 -0.19623634
0.05921777 -0.009683828 -0.10382806 0.07584901 -0.047379833 0.021166863 0.061174832 -0.016042912
-0.03131307 -0.020178718 0.0019818507 0.1611772 0.06354264 -0.05610382 -0.007845063 -0.08852677
0.14874732 0.18251728 -0.08557527 -0.21210487 -0.20294045 -0.070335455 -0.0019874691 -0.0997485
0.11333639 -0.01892115 -0.025165897 -0.059068624 0.008478681 0.07035081 -0.02376625 -0.1976352
-0.011364866 0.033968613 -0.02634401 -0.09446464 0.08251298 0.05351867 -0.1637454 0.026418863
0.03947408 -0.051001344 -0.231428 -0.13259973 0.13807504 0.12255915 0.04446495 -0.10674023
0.22147079 -0.032909356 -0.005805454 -0.13791813 0.020816702 -0.0041592536 -0.05927276 -0.12253405
-0.025957396 0.08268909 0.14616673 0.21351658 0.102859765 0.004239714 0.06999186 -0.094628826
0.024277179 0.020730035 0.06796228 0.0043244665 -0.06640905 -0.07572169 0.106688306 0.06014354
-0.12423689 0.028628025 -0.13318832 0.034670327 -0.012434606 -0.12755279 0.06508271 -0.068603076
-0.09047481 -0.11875387 0.020549899 0.0010729482 -0.05968576 -0.024093509 0.05052787 -0.0040729307
0.034508962 -0.1298201 -0.16221479 -0.042612497 0.062326223 0.007592943 -0.12652 0.06676662
0.0072203767 -0.027374348 0.078897096 0.1164933 0.03211491 -0.0050072065 0.035106156 0.04240159
-0.045585204 -0.08602346 0.065677665 -0.05890231 0.10013077 -0.12705174 0.07933398 -0.052819047
-0.06465902 -0.16632113 -0.07431438 -0.09986771 0.11158672 0.019962816 0.029282993 0.06975371
-0.0505386 0.07833378 -0.09772433 0.033870738 0.10982629 -0.0032693269 0.07337059 -0.12364678
0.08355858 0.042455312 0.19907096 -0.07924305 0.03527183 0.037699997 0.061170626 -0.10166717

network_body._body_endoder.seq_layers.2.bias f4 [128]
00000000: cc1e 2dbc 205d 2dbc e52b 7ebb 5531 49bc
00000010: 73fa 1d3c e4c2 0bbc 4309 423b 5def 183c
00000020: 37b6 4dbc 4606 83ba 48ca 323c ad78 153c
00000030: bc16 bf3b 3f9f 2138 d9c9 06bc 6064 333c
00000040: 5eeb f6bb 8f79 5abc c4be 26bc 3238 ee3a
00000050: 4bb6 47bc 1e93 c6bb 83b2 cc3b 455a 5c3c
00000060: 3d11 1a3c 147a 923a fd5a bc3b 8e43 3c3c
00000070: 42a2 f83b 9040 473c 9082 d2bb 6450 0c3c
00000080: be36 ba3a 2ace eabb c5a7 47bc ec15 413c
00000090: 9505 2bbc 6c53 053b 7e90 2ebc def8 dcbb
000000a0: b3d2 313c 9e09 35bc 6944 d5bb c7b5 29bc
000000b0: 5251 41bc 8258 15bc fdd8 473c f65d aaba
000000c0: fc8c 343c dbb1 053c 2d6a 18bb 8c38 023c
000000d0: 3e97 1c3c 7ab6 0bbc d0c5 0ebb 0cd3 1abc
000000e0: 682f fe3b 8250 01bb 1741 453c 7cc7 333c
000000f0: ab8b 1abc c47c 103c b0dd e43b 70cd 89bb
00000100: 6c16 113c d758 72bb 4baa d2bb ea1b f0ba
00000110: 4307 41bc 2846 1f3c 7a23 04bc 1eb4 2c3c
00000120: 93aa 4abc a067 1abc c926 933b bfa1 2c3c
00000130: 21a9 50bc 2e35 a0ba 8461 9bbb de5d fdbb
00000140: 7e27 263c 8c34 0bbc 4e38 943b a9f5 123c
00000150: 854a 2dbb 5c93 1f3c 0ac3 103c fdce 5b3b
00000160: 73f5 ee3b 5233 233c e9cd d13b d07e 3abc
00000170: 0f7b c93b 8ec6 1a3c 5972 42bc 7b4f 0dbc
00000180: 1a7c 3b3c e3eb 56b9 7f40 183c 70db c93b
00000190: d34f e2bb 774b 1e3c d29b 2dbb 73ed 25bc
000001a0: d10d 1c3c f0c1 32bc 337e e839 311e 143c
000001b0: 5619 b83b 1b0c 443c 8e0e 323c 9f8b 1a3c
000001c0: 792d 49bc 38e7 0f3c 4403 8d3b bef3 2a3c
000001d0: 2347 99bb 0073 a6bb e836 3b3c 4b67 ddba
000001e0: 0081 2ebb c4f3 14bc 69c5 43bc 2cdf e5bb
000001f0: 01e7 313c 830a d93b 0ce3 2e3c f66d 01bb
-0.010566425 -0.010581285 -0.0038783487 -0.012279828 0.009642231 -0.008530352 0.0029607571 0.009334412
-0.01255565 -0.0009996376 0.010912485 0.00912301 0.0058315676 3.85337e-05 -0.008226835 0.010949224
-0.007535382 -0.013334646 -0.010177318 0.0018174706 -0.012189458 -0.006060018 0.006246866 0.013449256
0.009403524 0.0011175298 0.0057481513 0.011490716 0.007587702 0.012161389 -0.0064242557 0.0085640885
0.0014206988 -0.00716569 -0.0121859955 0.011785012 -0.010438343 0.0020343913 -0.010654567 -0.0067435345
0.010853457 -0.011049656 -0.0065083993 -0.0103582805 -0.011799173 -0.00911534 0.01219773 -0.0012997973
0.011019941 0.00816008 -0.0023256645 0.007948052 0.009557543 -0.0085273925 -0.0021785386 -0.009449732
0.007757116 -0.0019731824 0.012039444 0.010972854 -0.0094327135 0.008818809 0.006984435 -0.0042053983
0.008855443 -0.0036979222 -0.006428992 -0.0018318866 -0.0117815165 0.009721316 -0.008065099 0.01054099
-0.01236977 -0.00942412 0.0044907075 0.01053661 -0.012735636 -0.001222288 -0.0047418494 -0.007732137
0.010141252 -0.008496415 0.0045233136 0.008969703 -0.0026442122 0.009739723 0.008835563 0.0033540123
0.0072924434 0.009960966 0.00640272 -0.0113827735 0.006148703 0.009446753 -0.011868083 -0.008624907
0.011443162 -0.00020496505 0.009292721 0.006160192 -0.0069064884 0.009661547 -0.0026490581 -0.010127413
0.009524778 -0.010910496 0.00044344514 0.009040401 0.0056182547 0.011965777 0.010867728 0.009432702
-0.012278908 0.008783154 0.004303368 0.010434089 -0.0046776696 -0.005079627 0.011426665 -0.0016891746
-0.0026627183 -0.009091321 -0.011948922 -0.0070151296 0.010858298 0.0066235675 0.010674249 -0.001974938

action_model._continuous_distribution.log_sigma f4 [1, 2]
00000000: 6343 d53b 0e5f 74bb
0.0065082773 -0.0037288102

action_model._continuous_distribution.mu.weight f4 [2, 128]
00000000: cab8 553c 35e2 16bc d0ea 073d 2aa3 96bc
00000010: 8015 493c a5e3 c6bc 2ecd 303d 4988 013d
00000020: 9a66 4dbc c963 b1bc 2f21 7bba 4433 38bc
00000030: f901 aa3c 4b43 bfbc c03d 903c 75a8 a03c
00000040: e711 183c 8399 2d39 196c 9f3c 1a40 8e3c
00000050: f131 553b 7d48 07bc 4fe6 413c bef7 3f3c
00000060: 3b82 f0bb a4e7 68bc 1b27 c0bc 0485 b3ba
00000070: 5069 02bc 9612 c23b 236c c63c 1a63 33bc
00000080: 0443 193d 6b66 1ebc 5380 90bc 0f7d 773b
00000090: 42cc 15bb b448 1d3d 1017 95bb 7c2e a23c
000000a0: eb85 a93a 8b3d 47bc 0f9c edbc 88fe 853c
000000b0: 8c90 08bc 4adf d2ba e94f 593b 613a b3bc
000000c0: 122e 673c dad5 54bc 6fe3 e83b 5a4f 91bc
000000d0: fb84 00bc 1acb 183c 27f4 b63c f203 b13b
000000e0: be38 a5bc e8ad 193d 6e72 ca3a 75e5 2b3b
000000f0: 754c c2bc ab01 f9bb 11f3 1b3d 70bb a8bc
00000100: f806 033d 48c5 84bc 0b51 a7bc 691c 893c
00000110: 3995 e1bc c2ac e23a 3083 a73c 9268 0f3d
00000120: b2cb cc3a 251d 9cbc a628 f2bb 1082 d43c
00000130: c71d 8cbc 16ad 3b3c febd 31bd cbab 023d
00000140: fa4f 37bb 9c44 e53c 1be6 3cbd 8b1f a6bb
00000150: 3e39 753c 446f b3bb 875e 26bc 5284 9c3c
00000160: 19c8 13bc ab44 823c 54a0 2e3d fc83 9dbc
00000170: 00dd 87bc 69da 3c3c 9a69 81bc 27c1 e03b
00000180: 87af 673b be58 853c 9485 473c 5c40 803c
00000190: da05 833c 2125 b0bc 61dc 573c 7dd0 22bb
000001a0: 08af 98bc a94f 10ba 10e0 e0bc e08e 00bc
000001b0: 40fb 263d 1d31 903a fe2e 553c 3e31 d93c
000001c0: 4174 ecbb 34f4 83bc e47d 40bc 3fc5 e43b
000001d0: 9497 2e3c 5b51 d73c e34c 593c 1451 1dbd
000001e0: f7dc f73c fd72 ce3b a58b ae39 e740 fd3c
000001f0: 02f1 463b b348 92bc e9d0 7b3b a4be 003c
00000200: 1951 0bbd 03df adbb e8d5 3dbc 1c88 0dbd
00000210: a519 1a3c 11cf fbbb 240a ce3b adc3 b33c
00000220: 3683 edbc cf09 e6b9 dede 823b bd9c 1d3c
00000230: a75a 1c3c 852b 153c 2073 cabc de3d 7f3d
00000240: 5e50 42bc a101 48bc f436 e6bc deef 5cba
00000250: ef92 27bc 68dc cfba 5db9 2b3b fd0d 883c
00000260: 252d 563c ef32 003b 5d9d 8a3c 7319 263d
00000270: d02e b83b 83c7 eb3c 4586 8abc b0ea 383c
00000280: db24 38ba 137b 03bc bd9b f4bc dfbf a83c
00000290: 531e b3bc b667 cc3a a363 29bc bb0f 2ebc
000002a0: 7c22 ba3b c3cc 6dbc 1103 eebb 7fa7 17bd
000002b0: f863 34bd 0c2c 29bd a331 8b3c 36d7 5e3b
000002c0: 8b48 843c 5c9b 2c3c 82e0 d2ba 1951 803c
000002d0: da26 853c 5bd9 95bc 95e4 b0bb 673f 2dbd
000002e0: 9f18 a03c ced5 51bc 62d9 293d 791b 843c
000002f0: 0199 b5bc c20b 4a3c e6e5 7c3c 67ae 273b
00000300: ded5 b63c eb8e 25bb 4b4b 25bc 269a 18bb
00000310: 452e 3ebd e650 8f3c 3150 c3bc 7482 223d
00000320: aa4c 14bd 380e 44bc 0f71 f838 568c d73c
00000330: a340 1cbd a99f afba 3c17 24bc 3ff3 ebbc
00000340: e37f c53b 8cb0 d1bc ad66 7c3c 3f2f 063c
00000350: 5010 b2bb 48eb 683c c09f 673c f128 903b
00000360: 07b1 c93b ca07 403c b99c 5d3c e1fb 6cbc
00000370: c67f e53b ab18 3b3c ef55 12bd 9a07 88bc
00000380: a1d5 ed3c 646b 89bb 7b77 883c a4c6 683b
00000390: baef 99bc dd01 0c3d 56a8 a5bb 5182 4bbc
000003a0: 896b 0a3d 1a41 05bd 7721 5d3b c575 413c
000003b0: c7c7 383c 0750 553b b286 4f3c 8f3d 883c
000003c0: b891 6dbc eb80 a93c 542d 323c 7d01 cc3b
000003d0: aea5 bebb e0d1 70bc fe3c 0c3d fc9e e6bb
000003e0: bacd 12bc 3f2f 8fbc cf5b b1bc 1a4e debc
000003f0: 1573 a93b 50ac db3b 5702 643c ae4f cfbb
0.013044545 -0.009209205 0.03318292 -0.01838835 0.012273192 -0.024278471 0.043164425 0.031624112
-0.012536669 -0.021654027 -0.0009579835 -0.011242691 0.020752894 -0.023347517 0.01760757 0.019611577
0.009281612 0.00016555753 0.019460725 0.01736455 0.0032530988 -0.008257029 0.011834695 0.011716781
-0.0073397434 -0.014215384 -0.023456147 -0.0013696258 -0.007959679 0.005922626 0.024221485 -0.010948921
0.037417427 -0.009667973 -0.017639315 0.003776375 -0.0022857343 0.038399413 -0.0045498684 0.019797556
0.0012933587 -0.012160669 -0.029005079 0.016356722 -0.008335244 -0.0016088274 0.0033159202 -0.021878423
0.014110105 -0.012990439 0.0071071903 -0.017738033 -0.007844205 0.009325767 0.022333218 0.0054020816
-0.020168658 0.037519366 0.001544548 0.0026229296 -0.023718098 -0.007599076 0.038073603 -0.02059719
0.031989068 -0.016207352 -0.020424386 0.01673718 -0.027536975 0.0017293917 0.020448297 0.035011835
0.0015624671 -0.019056866 -0.0073900996 0.025940925 -0.017104043 0.011454841 -0.04339408 0.031902116
-0.0027971254 0.027986817 -0.046117883 -0.005069678 0.014967261 -0.0054759104 -0.010154373 0.019106064
-0.009019875 0.015901884 0.04263337 -0.019227974 -0.016584873 0.011526682 -0.015797425 0.006858963
0.0035352425 0.016277667 0.012177844 0.015655689 0.015994001 -0.02150208 0.013175101 -0.0024843507
-0.018638149 -0.00055050344 -0.027450591 -0.007846564 0.040766954 0.0011000965 0.013011692 0.026512738
-0.007216007 -0.016107656 -0.011748765 0.0069815214 0.010656256 0.02628391 0.01326296 -0.0384074
0.030256731 0.0063003288 0.0003329191 0.030914737 0.0030356054 -0.017856931 0.003842408 0.007857952
-0.034012888 -0.005306126 -0.011586644 -0.034553632 0.009405528 -0.0076845963 0.00628783 0.021943891
-0.02899323 -0.00043876327 0.003993853 0.009619889 0.009543098 0.009104614 -0.024713099 0.06231486
-0.011859981 -0.01220742 -0.028102376 -0.0008428077 -0.010227903 -0.0015858533 0.0026203014 0.016608233
0.013072287 0.0019561609 0.01692074 0.040551614 0.005620815 0.028781658 -0.016909728 0.011286423
-0.0007024535 -0.008024949 -0.029859418 0.020599304 -0.021865046 0.0015594873 -0.010338697 -0.010623868
0.0056803804 -0.014514151 -0.007263549 -0.03702497 -0.04404065 -0.041301772 0.016991442 0.0034002787
0.016147872 0.010535087 -0.0016088637 0.01566367 0.016253877 -0.01829212 -0.005398343 -0.042296793
0.01954299 -0.012807323 0.041467078 0.016126381 -0.022167685 0.012331905 0.015435671 0.002558613
0.022318777 -0.0025262188 -0.010088752 -0.002328524 -0.046430845 0.01749463 -0.02384195 0.03967519
-0.036205925 -0.011966281 0.0001184662 0.026312035 -0.03814758 -0.0013399023 -0.010015305 -0.028802512
0.006027208 -0.02559688 0.015405339 0.008189975 -0.0054340735 0.014216252 0.014137208 0.004399412
0.0061551365 0.011720607 0.013526135 -0.0144643495 0.007003757 0.0114194555 -0.035726484 -0.016605187
0.02903253 -0.00419371 0.016658535 0.003551879 -0.018791068 0.034181464 -0.0050554676 -0.012421207
0.03379396 -0.03253279 0.003374187 0.011807864 0.011278099 0.003254892 0.012666391 0.016630916
-0.014500074 0.020691356 0.010875065 0.0062257634 -0.0058180904 -0.014698476 0.034237854 -0.0070379954
-0.008960182 -0.017478583 -0.021650223 -0.027136851 0.0051711896 0.006703891 0.0139165735 -0.006326637

action_model._continuous_distribution.mu.bias f4 [2]
00000000: 4e79 a83a ac1c 333c
0.0012853534 0.010932129

exp_avg f4 [128, 3]
00000000: 338e 27b7 5aa4 21b9 9b40 4eb7 3861 38b7
00000010: 2a6e fa38 c3c8 63b9 35ce 0436 595e 5c38
00000020: 6ba7 bbb8 8f88 da37 6dc7 4fb9 db05 2137
00000030: 0a89 0038 4dfb f3b8 35ed 2cb8 de58 2937
00000040: 3908 0838 4abe 87b9 69ae 40b8 4a15 2139
00000050: 66f9 1d39 76f7 23b8 5d9f 0539 521e 5ab8
00000060: 7a91 22b7 91ee b4b7 0a8b 2438 29f7 1838
00000070: c7f2 8ab8 35ff 07b9 f506 7f36 fb1e 2eb9
00000080: 82de 8539 3630 71b8 1285 a538 a48e 6939
00000090: f4ec 9bb8 0bcd 0239 9968 83b8 b928 2d38
000000a0: e22a 1cb9 f2ae 9c39 f13a ba37 234c ceb8
000000b0: 3477 8a38 d146 2e38 5935 d1b8 9963 8838
000000c0: fada 9ab8 b84f 6137 498d ba39 0af4 9cb8
000000d0: 740a 2ab8 99fa bf39 b2b5 af36 6783 a638
000000e0: f663 c437 e6f3 1937 70ff 07b8 1857 05b9
000000f0: 077a dd37 073c 1d38 504b 5cb9 94bf a2b7
00000100: 2f57 4938 a1fe f6b7 7ab5 a0b7 f5a6 cbb8
00000110: b815 ba39 0a94 9037 23a9 88b7 62be 1fb9
00000120: 52fe 4037 f472 14b8 1925 6b37 6e4f 12b7
00000130: b23b 3d38 60ab abb8 33b9 58b7 d085 5b38
00000140: defa d8b7 af20 8838 2833 d6b8 002f 2eb7
00000150: 059b cfb6 becc efb8 c3cf 2139 8fa3 c1b6
00000160: 9c89 2e38 ae5e 91b8 a9d0 1738 126b 5cb9
00000170: 58d4 5e38 00ca 26b6 224b 1335 080f 57b9
00000180: 2562 8637 1963 3138 5d58 06b9 2774 2d38
00000190: 4fd2 90b8 d438 e738 7f5a d538 3db8 c0b8
000001a0: 6d09 a4b9 d7e8 be37 b9d0 50b8 8741 d4b8
000001b0: 0930 9638 a26b 4ab8 9218 79b9 9fd9 23b6
000001c0: f92f 54b9 d1de ab37 6d5a 5a36 42c7 cc38
000001d0: 2533 c7b8 eb69 bfb6 64c1 ca37 6249 6b37
000001e0: 20ba 9f37 708b 35b8 9bda 17b9 5d7c 38b7
000001f0: 9ee8 2438 99c5 9eb6 3bc3 eeb6 db55 1038
00000200: ec87 8b38 e8ae 4c38 6aa9 bc37 a7d7 11b9
00000210: 0bee 6736 7517 8cb8 0f5d e1b7 f28e 3638
00000220: 16b0 97b8 ed10 74b9 935a d037 5080 5fb9
00000230: 628a 9eb8 2be1 01b8 6672 7a38 02d9 f638
00000240: b5c2 3d38 67d3 c0b7 0fef bdb9 662c 8f37
00000250: c1a7 af37 ee1d 93b9 60d7 ffb6 dc19 6e38
00000260: fac2 ce38 15e9 ddb7 4232 8cb8 7aa5 9639
00000270: 8077 cab6 1770 1638 97b4 3638 bbd5 7337
00000280: 5091 a3b7 4969 36b8 435f 9638 09c9 a8b9
00000290: fa73 2a39 6940 1c38 c7a5 47b8 b513 deb8
000002a0: 4793 1336 c92b c2b8 5c76 f2b8 60ec 3738
000002b0: 599d 76b9 f0e6 9d38 957e 10b8 37e7 6d38
000002c0: 3334 3839 a64c f8b7 4e7a bc38 59b6 c5b8
000002d0: 11c1 9237 5f23 2a38 1b18 0ab9 0ce7 11b8
000002e0: 3add c338 a9b6 a136 691c 9b38 0b2e 97b6
000002f0: 215b c4b9 9168 9138 0f24 23b9 2f3c 9eb9
00000300: 15ce a138 6089 0cb9 3853 2539 09c6 8eb7
00000310: d306 8738 73df c237 9dc0 28b7 92cb aab8
00000320: bca8 83b8 5ecd 34b8 6a0b 84b7 c9cb 1139
00000330: 602f ea37 14a8 3ab8 0a3e 7cb9 48c4 f236
00000340: 0178 eb37 fd30 03b9 d66b 9038 261d f3b8
00000350: 832f 5cb9 1e91 1638 d9bd 31b8 7a07 9338
00000360: b432 5bb5 372f c2b8 20cb b238 2a85 a938
00000370: 36d5 e3b8 825d 44b9 4106 b4b7 7bb0 0ab9
00000380: 3d36 7538 e4a0 eab6 a332 d0b8 1131 3939
00000390: a4fc 2237 50a2 93b7 c091 78b9 eb17 0437
000003a0: 4139 86b8 344e 1439 e6ac 3537 207a a4b8
000003b0: e7cc a338 f194 ca35 6f39 9836 10ee feb8
000003c0: a9f8 3636 dacd ce36 056c 3eb9 0d45 71b5
000003d0: 5023 5636 397c 4638 7a5c f6b5 cd43 5036
000003e0: 7abd 1039 9964 07b8 3127 7238 2948 4f39
000003f0: 11ce 2a36 fc2a 9d37 9ece d4b7 18d8 29b7
-9.987084e-06 -0.00015415382 -1.2293599e-05 -1.098989e-05 0.000119414486 -0.00021723197 1.978956e-06 5.2539956e-05
-8.948039e-05 2.6051215e-05 -0.0001981535 9.597711e-06 3.0645206e-05 -0.00011633951 -4.1228912e-05 1.0093876e-05
3.2432585e-05 -0.00025890983 -4.59388e-05 0.00015362087 0.00015065595 -3.9092694e-05 0.00012743236 -5.200349e-05
-9.689824e-06 -2.1568763e-05 3.9230137e-05 3.646981e-05 -6.6255736e-05 -0.00012969675 3.800201e-06 -0.00016605474
0.00025533518 -5.7503777e-05 7.8925994e-05 0.0002227375 -7.435112e-05 0.0001247415 -6.2660496e-05 4.128434e-05
-0.00014893294 0.00029884983 2.2200375e-05 -9.837027e-05 6.602556e-05 4.1550786e-05 -9.9758334e-05 6.503537e-05
-7.38408e-05 1.3429606e-05 0.0003558195 -7.4841155e-05 -4.0540894e-05 0.0003661707 5.2365585e-06 7.9399724e-05
2.3411569e-05 9.176298e-06 -3.2424403e-05 -0.00012716313 2.6402076e-05 3.748762e-05 -0.00021008891 -1.9401115e-05
4.800333e-05 -2.9444056e-05 -1.9157993e-05 -9.7108925e-05 0.00035492866 1.7235074e-05 -1.6291224e-05 -0.00015234345
1.1503305e-05 -3.5393008e-05 1.4015729e-05 -8.720772e-06 4.5116707e-05 -8.1858365e-05 -1.2917723e-05 5.233829e-05
-2.5866026e-05 6.491073e-05 -0.00010213844 -1.0382151e-05 -6.1871274e-06 -0.00011434544 0.00015431554 -5.770889e-06
4.161299e-05 -6.931774e-05 3.6195535e-05 -0.00021020722 5.3126685e-05 -2.4853507e-06 5.48711e-07 -0.00020509597
1.6019747e-05 4.229238e-05 -0.00012812154 4.135459e-05 -6.905628e-05 0.000110255234 0.00010173488 -9.1895905e-05
-0.0003128754 2.275819e-05 -4.9785453e-05 -0.00010121153 7.1615046e-05 -4.8260794e-05 -0.00023755644 -2.4415565e-06
-0.00020235767 2.0488545e-05 3.2537166e-06 9.764593e-05 -9.498586e-05 -5.704574e-06 2.4170331e-05 1.4024177e-05
1.9040948e-05 -4.3283624e-05 -0.00014481919 -1.099621e-05 3.931729e-05 -4.7317703e-06 -7.1156805e-06 3.4412235e-05
6.653354e-05 4.8800284e-05 2.2490236e-05 -0.00013908614 3.4560242e-06 -6.6800894e-05 -2.6865424e-05 4.352531e-05
-7.23304e-05 -0.00023275959 2.483771e-05 -0.00021314737 -7.559803e-05 -3.09657e-05 5.9711187e-05 0.00011770615
4.5242447e-05 -2.2986625e-05 -0.00036227002 1.7067603e-05 2.0939742e-05 -0.00028060324 -7.624665e-06 5.6767705e-05
9.859163e-05 -2.645379e-05 -6.6850815e-05 0.0002873352 -6.0339808e-06 3.586718e-05 4.356037e-05 1.4533692e-05
-1.949878e-05 -4.3490236e-05 7.170301e-05 -0.0003219324 0.00016255668 3.7253285e-05 -4.759969e-05 -0.000105894556
2.1990434e-06 -9.2587965e-05 -0.000115615054 4.385074e-05 -0.00023519005 7.529359e-05 -3.4450164e-05 5.672054e-05
0.00017567053 -2.9599596e-05 8.9873196e-05 -9.427657e-05 1.749446e-05 4.05641e-05 -0.00013169686 -3.4785873e-05
9.339531e-05 4.8194383e-06 7.396268e-05 -4.505511e-06 -0.0003745193 6.933616e-05 -0.00015558324 -0.0003018095
7.715464e-05 -0.00013402617 0.00015766628 -1.7019936e-05 6.438573e-05 2.3230654e-05 -1.0058427e-05 -8.1441496e-05
-6.277996e-05 -4.3106607e-05 -1.5740941e-05 0.00013904193 2.7917034e-05 -4.450239e-05 -0.00024055704 7.235012e-06
2.8070064e-05 -0.00012511383 6.886541e-05 -0.00011592572 -0.00020998534 3.5897938e-05 -4.2376898e-05 7.010899e-05
-8.165764e-07 -9.259435e-05 8.5255364e-05 8.083352e-05 -0.00010863917 -0.00018726851 -2.1460584e-05 -0.0001322645
5.8463065e-05 -6.9924736e-06 -9.927645e-05 0.00017661254 9.714775e-06 -1.7599348e-05 -0.00023705419 7.873382e-06
-6.400282e-05 0.00014143513 1.0828697e-05 -7.842877e-05 7.810612e-05 1.509352e-06 4.536639e-06 -0.000121560064
2.7264853e-06 6.1632427e-06 -0.00018160052 -8.987998e-07 3.190904e-06 4.732257e-05 -1.8355342e-06 3.103388e-06
0.00013803496 -3.2280197e-05 5.7733796e-05 0.0001976794 2.545192e-06 1.8735875e-05 -2.5368583e-05 -1.0123498e-05

exp_avg_sq f4 [128, 3]
00000000: e9a3 6530 481e 4332 00da 0334 f632 1b32
00000010: 8265 eb31 ac98 5834 e369 ed2f 6aab da2f
00000020: 22ff c331 ce2c 5d30 f701 6d32 0570 a633
00000030: 5531 bf2f f18f fb31 4354 7a33 f99f a430
00000040: 5e00 0c31 c5ac 8d33 c4eb be32 5e2e 4432
00000050: 3510 1134 5a2d 1430 0204 7531 259b 7132
00000060: 8ee0 9f31 7e98 0231 7542 6133 6dc8 4830
00000070: 3eed d731 07b0 2034 a8ec 2232 ea9b 4b32
00000080: 88b7 6a34 b436 7732 9d46 b831 825f 1434
00000090: 986b f730 74a6 9331 a4b4 b332 603e 3531
000000a0: ac16 b632 272f 8d34 f3d9 b031 8cea 9b31
000000b0: 5a9c 7633 cd23 4431 a0fd 8d31 8a07 0333
000000c0: 6804 de31 8b6f 1b31 8b66 b333 3ebb 6632
000000d0: a196 9b31 e76e 3534 883d 782f 2523 5531
000000e0: dd9a 0133 9b4c a82e c597 d731 7d37 3534
000000f0: c18f d22f 9eb5 0232 e34c 3a34 c5a3 112f
00000100: 4b50 1830 091a 4b31 91a9 a832 d3fc 6932
00000110: 5365 cd34 ffa8 3a2f 93fe 3132 534b 3634
00000120: 6c55 b72e 05ba b930 0b65 3b32 f5a5 9630
00000130: d33d a231 bf55 8f33 40fa d630 1f1e fa30
00000140: b08d 2d32 43fd f130 3093 2331 e078 fd31
00000150: e1d0 d132 6588 1c32 fbb1 a134 d178 7c30
00000160: ba2f 2e30 67c3 1532 fbba b130 987f c132
00000170: 3466 1b34 7aee 8c2f 136c c131 6c60 2034
00000180: 0426 6130 dcee 6931 d71f a933 a2ff d532
00000190: 432f b532 a0e9 d434 7894 3832 da66 0c32
000001a0: 30e4 1734 b740 ca2f 0114 cd30 0014 b431
000001b0: f8be 1632 180d 3531 33a0 be33 45d6 1030
000001c0: a4d0 6432 8d54 ea33 9141 6a2f 4de7 5731
000001d0: 0cdb 4133 0958 8f2e cf14 8830 297c e832
000001e0: df81 4431 ae7b c131 ce99 8a33 8e9f 9e2e
000001f0: 15e3 f02f 5144 1431 0f3d ac2f 03d3 9b30
00000200: ab35 8432 7b19 2231 16d3 1130 59ec 7432
00000210: fcf4 4732 1f5a e932 87c2 e234 f277 9631
00000220: e166 3a32 c15d 3e34 2f6f 6c32 076a 8432
00000230: 5917 a833 6025 0c30 5a9c b830 12ac 6232
00000240: d2bc 6031 dc00 8831 574c cf33 7cbb 0631
00000250: 1154 2631 28a5 5733 94ce 712e 8907 e830
00000260: ab9f 9f32 4779 fd30 9722 0531 ced2 4333
00000270: c6e4 5230 cfa0 7630 f695 7b32 b5d0 aa30
00000280: 2af5 8b30 bada a632 03c1 2231 5936 0733
00000290: d019 2834 671c 2f30 5708 c730 1a2c 2833
000002a0: 47d5 da2e a156 fe31 edb1 a333 ece5 c730
000002b0: 783f 5332 7dc6 f932 7982 e330 e484 a131
000002c0: a8b6 8433 18ad d42f fe1c 2131 46d4 ce32
000002d0: d749 cc30 1a12 a130 c1c6 3432 3cb0 2230
000002e0: a54c f730 274d 3532 3714 9b31 b5bb 3331
000002f0: 2a59 df33 02a4 1d32 6fae 1232 ea07 9933
00000300: 00fd d231 6e8a 0632 0547 3c34 2323 c62f
00000310: a411 8f30 3fba 9331 0330 ac2f 06cc c031
00000320: 0401 b133 7f06 2631 ed57 6830 c5e5 c432
00000330: 7613 9d31 e9bc c731 4d97 a433 e835 3431
00000340: e909 0031 6a97 5d33 4309 8e31 f005 c931
00000350: fcbb 3f33 c56f 9030 4082 1631 d387 f832
00000360: 3133 1330 a198 a131 9af7 7032 00e0 2531
00000370: 878c 0232 5a28 1433 19fa 4731 8b1b a631
00000380: 4c21 aa32 352b 4332 c705 1332 f38a 4a34
00000390: db3a 362f 303c 0632 919a 5d34 73d7 b930
000003a0: f111 9d31 65d7 0833 a41d ef2e 47a6 0a32
000003b0: 0678 f833 d2f8 b72d 3071 6a31 3bf5 d433
000003c0: beb8 4a2e f474 1b31 80f8 9333 7e3b 432e
000003d0: bb67 d02f e903 8f31 ba29 0630 9a9f 9e30
000003e0: 528b 5b32 f8c9 bf30 d1ab 0632 a9d0 3934
000003f0: 8c4e ab2e 4c2c 8e30 5cfc b332 877f 8030
8.3542645e-10 1.1357379e-08 1.2279634e-07 9.033775e-09 6.8509403e-09 2.017211e-07 4.3185286e-10 3.9775766e-10
5.704252e-09 8.0463003e-10 1.3795662e-08 7.7503536e-08 3.477775e-10 7.3214257e-09 5.8284297e-08 1.1978037e-09
2.037289e-09 6.597251e-08 2.2226125e-08 1.1419244e-08 1.3510073e-07 5.3906535e-10 3.565447e-09 1.4063322e-08
4.653038e-09 1.9004172e-09 5.2447337e-08 7.30444e-10 6.284295e-09 1.49652e-07 9.4834505e-09 1.1851606e-08
2.1859717e-07 1.438973e-08 5.3631326e-09 1.381832e-07 1.8002195e-09 4.2971866e-09 2.0920488e-08 2.6374423e-09
2.1197899e-08 2.6297604e-07 5.147052e-09 4.5377586e-09 5.741854e-08 2.8542104e-09 4.132474e-09 3.050767e-08
6.4615513e-09 2.2618873e-09 8.3539895e-08 1.3430336e-08 4.5282182e-09 1.6897285e-07 2.2577329e-10 3.1015557e-09
3.0176e-08 7.6533634e-11 6.2745777e-09 1.6877125e-07 3.830092e-10 7.608291e-09 1.7350571e-07 1.3245856e-10
5.541138e-10 2.9555187e-09 1.9634884e-08 1.3619871e-08 3.825795e-07 1.6976641e-10 1.03606395e-08 1.6977474e-07
8.3370505e-11 1.3513392e-09 1.0907807e-08 1.0961104e-09 4.721849e-09 6.6745535e-08 1.5641675e-09 1.8198455e-09
1.0102141e-08 1.7607039e-09 2.3803288e-09 7.377011e-09 2.442579e-08 9.111408e-09 3.0118085e-07 9.1848756e-10
6.3368655e-10 8.717371e-09 1.2931588e-09 2.252618e-08 1.4472681e-07 2.56353e-10 5.629326e-09 1.4936239e-07
8.1908547e-10 3.4041738e-09 7.8754674e-08 2.4912712e-08 2.1092665e-08 3.9658062e-07 1.07439675e-08 8.172458e-09
1.4145985e-07 3.678957e-10 1.4921399e-09 5.240963e-09 8.77457e-09 2.634641e-09 8.8767045e-08 5.269139e-10
1.3318786e-08 1.0911854e-07 2.130547e-10 3.1418097e-09 4.5135536e-08 6.518525e-11 9.901217e-10 2.7064816e-08
2.8595577e-09 5.6311e-09 6.454103e-08 7.213351e-11 4.3817097e-10 2.1575668e-09 3.1330002e-10 1.1337707e-09
1.5391228e-08 2.3588587e-09 5.3050664e-10 1.42564085e-08 1.16390275e-08 2.7165752e-08 4.2237318e-07 4.3792108e-09
1.0850017e-08 1.7729236e-07 1.3762288e-08 1.5415038e-08 7.8273565e-08 5.0984816e-10 1.34322e-09 1.3194056e-08
3.2703622e-09 3.9582186e-09 9.653075e-08 1.960614e-09 2.4203965e-09 5.0208797e-08 5.4980534e-11 1.6882363e-09
1.8582645e-08 1.8442642e-09 1.937371e-09 4.55937e-08 7.672266e-10 8.97228e-10 1.464422e-08 1.2428446e-09
1.0183261e-09 1.9424409e-08 2.3683817e-09 3.1481566e-08 1.565561e-07 6.370499e-10 1.4481526e-09 3.915566e-08
9.951378e-11 7.4022215e-09 7.6226435e-08 1.4544503e-09 1.2296248e-08 2.9077677e-08 1.6553506e-09 4.7008246e-09
6.179954e-08 3.8685566e-10 2.3445064e-09 2.4078087e-08 1.486394e-09 1.1719437e-09 1.052257e-08 5.91857e-10
1.7993399e-09 1.0553129e-08 4.513392e-09 2.6154627e-09 1.04004656e-07 9.175894e-09 8.53798e-09 7.126057e-08
6.140567e-09 7.831302e-09 1.7534701e-07 3.6040956e-10 1.0409633e-09 4.299437e-09 3.1320732e-10 5.6111302e-09
8.2423895e-08 2.4159872e-09 8.452606e-10 2.292189e-08 4.571514e-09 5.813139e-09 7.6643666e-08 2.622409e-09
1.8632085e-09 5.1593283e-08 4.133797e-09 5.850545e-09 4.4641624e-08 1.0509146e-09 2.1901911e-09 2.8932766e-08
5.3551036e-10 4.7030686e-09 1.4026137e-08 2.413799e-09 7.598948e-09 3.4495635e-08 2.9100475e-09 4.834367e-09
1.9805746e-08 1.1360318e-08 8.55784e-09 1.8863265e-07 1.6573713e-10 7.813512e-09 2.063846e-07 1.3521756e-09
4.571341e-09 3.1860868e-08 1.0873727e-10 8.070464e-09 1.1570232e-07 2.091519e-11 3.4115821e-09 9.9166265e-08
4.6093566e-11 2.2621949e-09 6.890423e-08 4.4390706e-11 3.7908685e-10 4.1622923e-09 4.8808213e-10 1.1541375e-09
1.27791555e-08 1.3954482e-09 7.838893e-09 1.7305378e-07 7.7901324e-11 1.034445e-09 2.0953102e-08 9.349471e-10

exp_avg f4 [128]
00000000: a404 a1b9 28cd 8339 17ad e338 4433 ccb9
00000010: a930 6cb9 6767 a238 7399 9539 a9b1 8439
00000020: dfea 46b8 8eca 05b9 806e b3b9 a9c9 1639
00000030: d0c7 8439 64fd a0b9 e205 4ab9 3558 58b9
00000040: a8d3 e036 31e4 ddb8 052b 2639 26ad 86b8
00000050: 981b a838 3d79 d438 d488 54b9 f620 f1b7
00000060: 2035 92b8 a775 cd38 19c6 ca38 a61d 50b9
00000070: 0b67 6fb9 6b9a a238 c1d2 d4b9 8032 8a36
00000080: 673a a438 318d 08b9 9339 29b9 71fa c2b8
00000090: a20f a8b8 5c5e d3b9 f11f 4d39 8468 4838
000000a0: 3a12 bbb8 f7af 9d38 8bd4 8c38 cc4a 3c38
000000b0: ea46 1db9 4f69 0fb9 a575 d4b9 34a2 e438
000000c0: cb43 d6b7 07b4 5b38 e195 e838 926a 17b9
000000d0: e84a 8d38 5b58 0db8 9971 27ba 0f51 cfb8
000000e0: 654f 3fb9 2066 f6b9 f8e7 d338 d009 3e39
000000f0: 0de1 9d38 cec8 4539 2b18 7637 bb27 95b9
00000100: 2915 90b9 6548 0039 80c6 28b9 2711 20b8
00000110: 8b51 a9b8 575b 8338 7626 71b9 8f15 a8b8
00000120: 97a2 46b9 2fb4 56b9 442f 87b9 b546 5cb9
00000130: 1312 0bb8 f744 02b9 7e2b 1eb9 abb0 1637
00000140: e94e 6f37 697a da36 feb6 e536 8967 e538
00000150: dfab 1c38 013a 5b38 68c0 4d38 ce03 10b9
00000160: 398f 61b9 6486 ffb7 43d4 1639 3178 c6b7
00000170: d726 c1b7 07db a6b8 f001 2bb9 606d 2eb9
00000180: 538b 66b9 e8d7 bd37 12ad fbb8 ab18 6e38
00000190: 65ac 1039 e787 0a38 203a 57b9 c20a 6439
000001a0: fd01 dbb8 9ef1 4437 552a e638 a32b 1a39
000001b0: 4a95 31b9 fa2c beb8 290e 69b8 94b8 3f38
000001c0: c438 e137 ce63 ddb8 281f 8338 c2f6 b5b8
000001d0: 49d2 6a38 d33c 4bb9 043a ce37 35b8 0cb9
000001e0: 95d8 5939 504b c437 d5c0 4239 5430 f4b7
000001f0: 687d 1db8 90f5 6ab8 2961 33b7 fcd0 4ab9
-0.0003071177 0.0002513912 0.00010856444 -0.00038948108 -0.00022524841 7.744022e-05 0.00028533823 0.0002530937
-4.742562e-05 -0.00012759326 -0.0003422387 0.00014380239 0.00025325874 -0.0003070637 -0.00019266413 -0.00020632225
6.7003602e-06 -0.00010580605 0.0001584702 -6.421869e-05 8.016004e-05 0.0001013153 -0.00020268868 -2.8744787e-05
-6.971718e-05 9.797076e-05 9.669009e-05 -0.0001984747 -0.00022831203 7.7535246e-05 -0.00040592815 4.1185995e-06
7.831008e-05 -0.00013022569 -0.00016138544 -9.297289e-05 -8.013776e-05 -0.0004031536 0.00019562223 4.7781054e-05
-8.92025e-05 7.5191194e-05 6.7153094e-05 4.4892353e-05 -0.00014999104 -0.00013676773 -0.00040523443 0.000109021
-2.5542357e-05 5.2381332e-05 0.00011090539 -0.00014440183 6.737356e-05 -3.3699307e-05 -0.0006387472 -9.8856275e-05
-0.00018244756 -0.00046996865 0.000101044716 0.00018123467 7.528262e-05 0.0001886219 1.466837e-05 -0.00028449096
-0.00027481586 0.00012234 -0.00016095676 -3.8162947e-05 -8.0737365e-05 6.26358e-05 -0.00022997879 -8.01488e-05
-0.00018943321 -0.00020475754 -0.00025784422 -0.00021007175 -3.3157015e-05 -0.00012423458 -0.00015084256 8.98183e-06
1.4263883e-05 6.5111567e-06 6.846035e-06 0.00010938856 3.7353366e-05 5.226769e-05 4.9055e-05 -0.00013734328
-0.00021511027 -3.046095e-05 0.00014384188 -2.3659408e-05 -2.302548e-05 -7.956294e-05 -0.00016308553 -0.00016634678
-0.00021986412 2.2631095e-05 -0.000120008495 5.6766596e-05 0.00013797132 3.3028333e-05 -0.00020525651 0.00021747782
-0.00010443104 1.1738766e-05 0.000109751396 0.0001470284 -0.0001693565 -9.0682835e-05 -5.5564717e-05 4.570985e-05
2.6848524e-05 -0.00010556691 6.25237e-05 -8.676715e-05 5.598579e-05 -0.00019382247 2.458413e-05 -0.00013420063
0.00020775416 2.340009e-05 0.00018573117 -2.9109571e-05 -3.754851e-05 -5.6018645e-05 -1.0691853e-05 -0.00019342074

exp_avg_sq f4 [128]
00000000: c9d8 4033 f8e5 ee32 b2b0 e130 cc34 6633
00000010: 38d2 f632 3654 0d32 0233 4133 a059 6f32
00000020: db97 0132 de55 d632 0219 4b33 1a15 bb32
00000030: 9122 9432 c0ef b733 84d0 9a32 9e1b 8e32
00000040: 2268 1e32 f3ee 9e32 c80c 5332 d37a d732
00000050: 3749 0333 096e 1a31 62c5 6b33 ec85 3233
00000060: 697b b631 2c5a a332 2fca f031 ccb9 1a32
00000070: 811a 1f33 c085 2d31 187a ba33 fc1e c232
00000080: 3050 6a32 c238 b233 59f4 0833 0a9a c331
00000090: b4cd 3532 4b3b 6233 8391 5632 edf2 8731
000000a0: f0af c232 f7f5 e330 2ba4 9a31 030f 1331
000000b0: 2383 ea33 495a 3d33 9fc5 8033 507e b731
000000c0: c880 8732 2636 2732 34fc e431 6389 0832
000000d0: dfbc 6a31 6f80 8a31 9890 0434 4e55 c631
000000e0: 3bc3 fc32 cbf2 4e33 11b4 9e32 52df 2132
000000f0: a1a1 a131 7fbe f731 0e10 3732 216b 1033
00000100: af07 0433 d365 8c31 e8aa be32 b11c 6f31
00000110: a949 c832 6263 0232 d9a7 cc32 8af7 1132
00000120: 77de a232 2cbf fe32 c5b0 9f32 11fd 1333
00000130: 3432 0633 ff48 9d32 acf2 0833 9494 6a32
00000140: 8497 1b32 0884 cd30 c17b 9f31 8b06 0633
00000150: 1909 8f31 8869 9131 1014 5331 9cae f631
00000160: 3744 0632 e6f5 8132 4bfb 0332 6c07 3c33
00000170: ebd5 2c32 91fe 8a32 5a27 9532 d006 9b31
00000180: c637 9832 7209 b932 506e 0432 8cf3 8e31
00000190: c50e 3d32 dcc2 0e31 4a58 6133 254f 9b32
000001a0: 898b e732 2906 8531 d7c3 2631 18d0 5a32
000001b0: 060b d133 5798 4b31 c232 7232 208c ad33
000001c0: 27a0 1031 79d6 4f32 87ee 7231 48df 8731
000001d0: e045 3b32 cca6 b532 a2a5 b432 2606 9032
000001e0: 2225 0c33 63e1 8f31 4257 7732 f79c de31
000001f0: 5dba bc32 604f 5032 34c2 2a32 8d3b 4532
4.490065e-08 2.7811424e-08 1.6421124e-09 5.3599067e-08 2.8733766e-08 8.2264275e-09 4.4982706e-08 1.3932009e-08
7.543316e-09 2.4951927e-08 4.7287365e-08 2.1779261e-08 1.7245187e-08 8.565212e-08 1.8022781e-08 1.6543535e-08
9.2204875e-09 1.8502282e-08 1.2284723e-08 2.5085148e-08 3.0567403e-08 2.2472497e-09 5.489472e-08 4.1565656e-08
5.3109273e-09 1.9016703e-08 7.007905e-09 9.006225e-09 3.7044178e-08 2.5250841e-09 8.683509e-08 2.2598662e-08
1.3638825e-08 8.299095e-08 3.18872e-08 5.692759e-09 1.0582358e-08 5.2673652e-08 1.2489525e-08 3.9566346e-09
2.266458e-08 1.6586331e-09 4.5006536e-09 2.1399849e-09 1.0920328e-07 4.4087106e-08 5.9964115e-08 5.340361e-09
1.5774631e-08 9.732991e-09 6.6643455e-09 7.94748e-09 3.4158842e-09 4.03093e-09 1.2346061e-07 5.7722565e-09
2.9425442e-08 4.818393e-08 1.8475506e-08 9.422211e-09 4.704092e-09 7.210303e-09 1.0655652e-08 3.3625046e-08
3.0740633e-08 4.0861123e-09 2.219663e-08 3.4795387e-09 2.3316561e-08 7.589593e-09 2.3825054e-08 8.496395e-09
1.8960447e-08 2.9656427e-08 1.8590422e-08 3.4456267e-08 3.1244966e-08 1.83104e-08 3.1885676e-08 1.3654375e-08
9.056638e-09 1.4953239e-09 4.6415782e-09 3.1205257e-08 4.162882e-09 4.232053e-09 3.0715945e-09 7.179393e-09
7.815337e-09 1.5129398e-08 7.682341e-09 4.377891e-08 1.0060357e-08 1.6181078e-08 1.7363778e-08 4.511868e-09
1.7720492e-08 2.154113e-08 7.708493e-09 4.160432e-09 1.1004606e-08 2.0774484e-09 5.2467193e-08 1.8080366e-08
2.6955393e-08 3.87151e-09 2.4267501e-09 1.2736585e-08 9.734326e-08 2.9626983e-09 1.4097795e-08 8.081429e-08
2.1045794e-09 1.2097751e-08 3.5351222e-09 3.9544013e-09 1.090072e-08 2.1147024e-08 2.1030079e-08 1.6766602e-08
3.2630062e-08 4.1874713e-09 1.4397132e-08 6.478895e-09 2.1970829e-08 1.2125241e-08 9.939459e-09 1.14804495e-08
