python/results/minion_walk_002/Minion/Minion-5944.onnx (onnx, 71890 bytes, 7 tensors)

network_body._body_endoder.seq_layers.0.weight f4 [128, 3]
0	0xbde08fa5	-0.10964898
1	0xbdeee45d	-0.116646506
2	0xbe891a5b	-0.2677792
3	0x3f47dfd5	0.78075916
4	0xbf1dbc12	-0.616151
5	0xbe45a810	-0.19302392
6	0x3dd1fe89	0.10253627
7	0xbd885284	-0.066563636
8	0xbe9e5162	-0.30921465
9	0xbf065372	-0.5247108
10	0xbf56fd5d	-0.8398035
11	0x3f16a8c4	0.58851266
12	0x3e88be48	0.26707673
13	0x3e176391	0.14784075
14	0xbdfba83c	-0.122879475
15	0xbc7e2750	-0.0155123025
16	0x3e1eb0b6	0.15497097
17	0xbeb00dbd	-0.3438548
18	0xbf5ef1a4	-0.87087464
19	0xbf386d80	-0.72042084
20	0x3f556aee	0.83366287
21	0x3f294917	0.6612715
22	0xbd99e0fe	-0.07513617
23	0xbee457f7	-0.44598362
24	0xbe8e853c	-0.27836025
25	0x3efd7cf7	0.49509403
26	0x3f86b4e7	1.0523957
27	0x3eaf56ca	0.34245902
28	0xbe911650	-0.28337336
29	0x3eceb2b7	0.40370724
30	0x3f5a3e50	0.8525133
31	0xbf884fcc	-1.0649352
32	0x3ece897b	0.40339264
33	0x3e85d275	0.26137128
34	0xbe857527	-0.26065943
35	0xbf2f842e	-0.68561065
36	0x3d8cdc6e	0.06877981
37	0xbed4f7a9	-0.415952
38	0x3dcc01d9	0.0996129
39	0x3f42dc71	0.76117617
40	0xbeaeb4a0	-0.3412218
41	0x3ed2fe0d	0.4120945
42	0xbf04611f	-0.51710695
43	0x3ea376aa	0.3192647
44	0xbfb19604	-1.3873906
45	0x3d8cf5cc	0.068828195
46	0xbf093ed1	-0.53611475
47	0x3e3328f3	0.1749609
48	0x3cacb265	0.021081159
49	0x3f89fba1	1.0779916
50	0x3e4e7cb0	0.20164752
51	0x3eba792e	0.36420578
52	0xbfc30763	-1.5236629
53	0xbe818bc9	-0.2530196
54	0x3eb16a89	0.34651592
55	0xbefcff8e	-0.49413723
56	0x3e707b0c	0.23484439
57	0x3e4f2903	0.20230488
58	0xbfff8111	-1.9961263
59	0x3ef04cda	0.46933633
60	0x3e591d12	0.21202496
61	0x3edbe176	0.4294545
62	0xbf723497	-0.94611496
63	0xbf1513e1	-0.5823346
64	0xbe72670c	-0.23672122
65	0x3f6a32ea	0.9148394
66	0xbf017b40	-0.5057869
67	0xbf42c674	-0.76084065
68	0x3dae777e	0.08518885
69	0x3f4f2f36	0.80931413
70	0x3f03e42c	0.5152004
71	0xbf1543f3	-0.5830681
72	0xbe00d3f1	-0.12580849
73	0xbecda74d	-0.40166703
74	0xbe896f4b	-0.26842722
75	0x3f8dd935	1.1081911
76	0xbe871dd3	-0.26389942
77	0x3def75c9	0.116923876
78	0xbf5e4a8d	-0.86832505
79	0x3edd1dbc	0.43186748
80	0xbbc65fed	-0.0060539157
81	0xbf453845	-0.77038985
82	0xbc60815e	-0.013702719
83	0xbda03ae7	-0.07823735
84	0x3f7b961f	0.9827594
85	0x3d98cc22	0.0746081
86	0x3f718896	0.9434904
87	0x3f9969a3	1.1985363
88	0xbe7027ce	-0.23452684
89	0xbf891416	-1.0709255
90	0xbf50c74e	-0.81554115
91	0x3f73ae3d	0.9518774
92	0x3e42ffb3	0.19042854
93	0x3ed2a84f	0.41144034
94	0xbf329ea5	-0.6977332
95	0x3fb37482	1.401993
96	0xbe9b8721	-0.30376533
97	0x3f9cea74	1.225905
98	0x3f0677cd	0.5252655
99	0x3ec30371	0.38088563
100	0xbf03ffef	-0.515624
101	0xbf13fd97	-0.5780882
102	0xbe8418e1	-0.2580023
103	0x3faf839b	1.3712038
104	0x3f1f3418	0.62188864
105	0xbf4461ef	-0.76711935
106	0xbf23ca7b	-0.63980836
107	0x3ee1ca74	0.44099772
108	0xbe5e8e70	-0.21734023
109	0x3e9b2cd6	0.30307645
110	0x3d942eb2	0.07235469
111	0xbe78a57c	-0.24281877
112	0x3f8ad8be	1.0847394
113	0xbeb29c4c	-0.3488487
114	0x3dc7060d	0.09717951
115	0x3f585ece	0.8451966
116	0x3e62496f	0.22098325
117	0xbf02014b	-0.5078322
118	0xbfa91045	-1.320809
119	0x3f09c9dc	0.5382364
120	0x3eb7527f	0.35805127
121	0xbd7c1cd3	-0.061550926
122	0xbe71d2e3	-0.23615603
123	0xbe59f623	-0.212853
124	0xbe91193b	-0.28339562
125	0xbf4aa32b	-0.79155225
126	0xbeebcbdf	-0.4605398
127	0xbe6e1f25	-0.23254068
128	0x3f840a26	1.0315597
129	0xbef2c65d	-0.47416964
130	0x3ee82a35	0.453447
131	0x3f285bbd	0.6576498
132	0xbf43c707	-0.76475567
133	0x3f57b641	0.8426247
134	0xbd4d3e54	-0.05010827
135	0xbf2940a5	-0.66114265
136	0x3f9a451d	1.2052342
137	0xbf364ee9	-0.7121416
138	0xbecc120c	-0.3985752
139	0x3e93b50c	0.28849065
140	0xbd636c97	-0.05552348
141	0xbe0b5f9e	-0.13610694
142	0x3e93c37e	0.28860086
143	0x3e5e460f	0.21706413
144	0xbf3394dd	-0.7014902
145	0x3e2ec4ea	0.17067304
146	0xbd66f9ff	-0.05639076
147	0x3ecbc50c	0.39798772
148	0xbfa881a5	-1.3164564
149	0x3eea6346	0.45778865
150	0x3e90968a	0.28239852
151	0xbf75e717	-0.9605574
152	0xbe5d9ed2	-0.21642616
153	0xbe9e184d	-0.30877915
154	0xbe68cd75	-0.22734626
155	0xbd958bf7	-0.07302087
156	0xbf17f672	-0.5936042
157	0x3e0bc758	0.13650262
158	0x3f837ce5	1.027249
159	0x3e3660e7	0.17810403
160	0x3cdfe262	0.027329627
161	0x3f355021	0.7082539
162	0xbf3b07b9	-0.7305866
163	0xbea24b7f	-0.31698224
164	0xbf4a0e75	-0.7892831
165	0x3c96bda3	0.018400973
166	0x3ec36903	0.38166055
167	0xbf0c1813	-0.54724234
168	0x3eefaf73	0.46813545
169	0xbf1f8fef	-0.62329
170	0xbe2e5127	-0.17023145
171	0x3eac2208	0.33619714
172	0xbed35fa3	-0.41283903
173	0xbf3741ea	-0.7158495
174	0xbe847824	-0.2587291
175	0x3e8f3f87	0.27978155
176	0x3f06a420	0.52594185
177	0x3e0ba80a	0.1363832
178	0x3deb627e	0.11493395
179	0xbe04e229	-0.12976898
180	0x3f11624f	0.5679063
181	0x3e0ad079	0.13556089
182	0x3d8e47c6	0.069472834
183	0x3eec75b5	0.46183553
184	0x3eea57c7	0.45770094
185	0xbbe97bcd	-0.007125354
186	0x3fb42ad7	1.4075574
187	0x3f1b6a81	0.6070939
188	0x3ebd394c	0.36957777
189	0xbe3618ab	-0.17782848
190	0x3eb4b279	0.35292414
191	0x3e8e3ad7	0.27779266
192	0x3f2412ea	0.6409136
193	0xbeac9866	-0.3371002
194	0xbf06e4df	-0.5269298
195	0xbea52ade	-0.32259268
196	0xbdc72a4a	-0.09724863
197	0xbf4f85fe	-0.8106383
198	0x3fb23fab	1.392568
199	0x3ecd96f9	0.40154245
200	0xbe426d62	-0.18987039
201	0x3e4229a7	0.18961202
202	0x3e1415cf	0.14461444
203	0x3f51c6ce	0.81943977
204	0xbde3d724	-0.11125019
205	0xbe8923a3	-0.26785
206	0xbeedce7e	-0.46446604
207	0xbe5e5ead	-0.21715803
208	0x3ec659bf	0.38740346
209	0x3f8317ab	1.0241598
210	0xbed1167a	-0.4083746
211	0xbe485018	-0.19561803
212	0x3e7957b7	0.24349867
213	0xbe613903	-0.21994404
214	0xbdfae553	-0.122507714
215	0xbeebbf5b	-0.4604443
216	0x3f24a77d	0.64318067
217	0x3ea75f4b	0.3268989
218	0xbf6fa3a7	-0.9360909
219	0xbf5609a4	-0.8360846
220	0x3f7407eb	0.9532458
221	0xbee39952	-0.44452912
222	0xbe5778c9	-0.2104217
223	0x3d89ea5f	0.06734156
224	0x3f02fd4a	0.5116774
225	0xbe775e62	-0.24157098
226	0x3dc0d046	0.09414725
227	0x3b76e0b8	0.0037670564
228	0x3f7ff338	0.999805
229	0xc01700d0	-2.3594246
230	0x3d2f677f	0.04282331
231	0x3d6b5352	0.057452507
232	0xbeeafbaf	-0.45895144
233	0xbf030468	-0.511786
234	0x3e78a857	0.24282967
235	0x3e5341a1	0.20630504
236	0xbd087672	-0.033316083
237	0xbe9e1782	-0.3087731
238	0x3f527eeb	0.8222491
239	0xbf48775d	-0.78307134
240	0x3eae2035	0.34008947
241	0x3e052ba8	0.13004935
242	0xbd9e9b84	-0.07744506
243	0x3ed394e0	0.4132452
244	0xbdbcbacd	-0.09215317
245	0x3d77b45b	0.060474735
246	0x3f7371a9	0.95095307
247	0x3ed93ad8	0.42427707
248	0xbd476510	-0.048680365
249	0x3d600a4b	0.054697316
250	0x3ec11c27	0.3771679
251	0x3ddc1dda	0.10747881
252	0x3d0692bc	0.03285478
253	0x3e4b5e34	0.19860154
254	0xbf0ab66f	-0.5418462
255	0xbf0a9bb6	-0.54143846

network_body._body_endoder.seq_layers.0.bias f4 [128]
0	0xbccc1d65	-0.02491636
1	0x3ca06ce1	0.019583168
2	0xbc19cd21	-0.009387285
3	0xbcd51e24	-0.026015349
4	0xbc957481	-0.01824403
5	0x3c82452e	0.015902128
6	0xbc55082e	-0.0130024385
7	0xbc030483	-0.007996681
8	0x3cf0eee3	0.029410785
9	0xbd00b6ac	-0.03142421
10	0xbc492186	-0.012276059
11	0x3ca9555d	0.020670587
12	0xbd0a8fd2	-0.033828564
13	0xbaf9882f	-0.0019037778
14	0x3cd0bc4c	0.025480412
15	0xbc9f1b30	-0.019422144
16	0x3d1e3058	0.038620323
17	0xbbb80ed4	-0.005617002
18	0x3c3cf94d	0.011534047
19	0xbb354422	-0.0027659019
20	0xbc283606	-0.010266786
21	0xbcd3958b	-0.025828144
22	0xbbc9cf70	-0.0061587617
23	0x3cdb68ec	0.02678343
24	0xbca9cca9	-0.020727472
25	0xbce19cd0	-0.027540594
26	0x3cc2774a	0.023738522
27	0xbca34fdf	-0.019935546
28	0x3c8ae081	0.016952755
29	0x3c04b6c7	0.008100218
30	0x3d0bee04	0.034162536
31	0x3ca1455b	0.019686392
32	0x3cfd19b0	0.030896038
33	0x3ca11fa9	0.019668417
34	0x3d06b8ac	0.03289096
35	0x3b877cb3	0.0041347384
36	0x3cd7b314	0.026330508
37	0x3cb55159	0.022133516
38	0x3c9315b5	0.017954687
39	0xbb2adb2e	-0.0026070583
40	0xbb329372	-0.0027248529
41	0xbcdc9e55	-0.026930967
42	0x3cb598be	0.02216756
43	0x3bec8f57	0.007219236
44	0x3cf1b7dc	0.029506616
45	0xbca9c8f3	-0.020725703
46	0xbb14c8b1	-0.002270263
47	0x3cb566b6	0.022143703
48	0xbcb484b0	-0.022035927
49	0xbc937955	-0.018002192
50	0xbcf1dd1b	-0.029524377
51	0x3ba6fbbb	0.0050959266
52	0x3cf900d5	0.030395905
53	0x3cb125a3	0.021624392
54	0xbca3cdbf	-0.019995568
55	0x3bd74d7b	0.0065705157
56	0xbcb791a9	-0.022408323
57	0x3c50b62c	0.012738746
58	0x3d041c93	0.032253813
59	0x3cf84422	0.030305926
60	0xbca1bd29	-0.019743519
61	0x3cfe7653	0.03106228
62	0x3ce6596d	0.028118813
63	0x3d119607	0.035543468
64	0xbcae357c	-0.021265738
65	0xbca9e167	-0.020737363
66	0x3d0f0e20	0.03492558
67	0x3ce4f4cd	0.027948761
68	0xbd092c81	-0.033489708
69	0xbc1258b7	-0.008932284
70	0xbd20f86d	-0.039299417
71	0x3ce49dab	0.027907213
72	0x3cc03eac	0.023467384
73	0x3d00d3c9	0.031451974
74	0xbc784614	-0.015153427
75	0xbd034141	-0.032044653
76	0x3b7cdf97	0.0038585418
77	0x3c51069e	0.012757925
78	0x3b802525	0.003910678
79	0x3d1ffd0d	0.039059687
80	0x3d08d3ab	0.033404987
81	0x3cad6886	0.021168005
82	0x3cfd1061	0.0308916
83	0x3d012bbd	0.031535853
84	0x3cb85852	0.022503052
85	0x3d190fc1	0.03736854
86	0x3ca5dc4a	0.020246644
87	0xbcdd9a8d	-0.027051235
88	0x3d15da30	0.036585033
89	0xbd006f47	-0.031356122
90	0x3c1cdb4a	0.009573767
91	0xbc86b281	-0.01644254
92	0x3b94f3ba	0.004545656
93	0x3a420731	0.00074015843
94	0xba951f71	-0.0011377168
95	0xbcdf3dfa	-0.027251232
96	0xbc1822e7	-0.009285665
97	0xbc88d53e	-0.016703244
98	0x3d094e48	0.03352192
99	0xba83af1b	-0.0010046692
100	0x3c768c71	0.015048132
101	0x3cbb126f	0.022835938
102	0x3ceb7e96	0.028746884
103	0xbc521740	-0.012822926
104	0xbb82109e	-0.003969266
105	0xba9de4c1	-0.0012046323
106	0x3d1d75f5	0.03844257
107	0xbcf108d4	-0.029423155
108	0xbccdea7f	-0.02513623
109	0x3c548337	0.012970737
110	0xbc069c5c	-0.00821599
111	0xbc778bbb	-0.015108998
112	0xbc5465a6	-0.012963688
113	0x3d109cec	0.035305902
114	0xbc146864	-0.009058092
115	0x3cdb223c	0.026749723
116	0x3d036fa9	0.03208891
117	0x3d34bf25	0.044127602
118	0x3ccb47c5	0.024814496
119	0x3c67df23	0.014152321
120	0xbbc04dfb	-0.005868671
121	0x3cba4ae6	0.022740792
122	0x3cf18ce9	0.029486137
123	0xbcec4abe	-0.028844234
124	0x3bd9576c	0.006632736
125	0xbc32d804	-0.01091576
126	0xbc81da39	-0.015851127
127	0xbb895e43	-0.004192145

network_body._body_endoder.seq_layers.2.weight f4 [128, 128]
0	0x3e8129db	0.25227246
1	0xbdc162b7	-0.094426565
2	0x3d3e6f52	0.046492882
3	0x3c1f8cb2	0.009738134
4	0xbd46476a	-0.04840795
5	0xbcf24a58	-0.029576465
6	0xbcb459f9	-0.022015559
7	0x3d1eca0c	0.038766906
8	0x3d0d8e5a	0.034559585
9	0x3d82fb82	0.063956276
10	0x3da979cd	0.08275185
11	0x3c8c4da4	0.017126866
12	0xbdfb5858	-0.122727096
13	0xbd9f6a68	-0.07783967
14	0xbd50de48	-0.050993234
15	0xbb95b705	-0.004568937
16	0xbcf2a5be	-0.029620048
17	0x3e22d615	0.15901978
18	0xbdc4d91d	-0.096117236
19	0xbcfb181f	-0.03065115
20	0x3cff9026	0.031196665
21	0x3d8581de	0.06518911
22	0xbdee2c3e	-0.11629532
23	0xbdbba923	-0.0916312
24	0x3c23c6ea	0.009996155
25	0x3e29eec3	0.16594987
26	0xbd9f6bfe	-0.0778427
27	0x3acced75	0.0015634733
28	0xbdc533cd	-0.09629021
29	0x3d1b4690	0.03790909
30	0x3e13b9f3	0.14426403
31	0xbca5fc91	-0.020262035
32	0xbcc41f88	-0.023940817
33	0xbc5b37b9	-0.013379985
34	0x3da530be	0.080659375
35	0xbe975dcf	-0.29563758
36	0x3cb2cd61	0.021826448
37	0xbde2c464	-0.11072615
38	0x3de85389	0.11344058
39	0x3da72516	0.081613705
40	0xbd10b38b	-0.035327476
41	0x3ccdae75	0.025107602
42	0xbd89f477	-0.06736081
43	0x3df1727a	0.11789413
44	0xbda2909c	-0.07937738
45	0x3d140208	0.03613475
46	0x3e166722	0.1468778
47	0x3da408a5	0.08009461
48	0x3db2e001	0.087341316
49	0xbca82afe	-0.020528313
50	0x3aaf4cfb	0.0013374382
51	0xbde25a5f	-0.11052393
52	0xbd51695f	-0.05112588
53	0xbcbddeca	-0.023177523
54	0xbae929bf	-0.001778893
55	0xbd912a8a	-0.07088192
56	0x3c033343	0.008007827
57	0x3c14619a	0.009056473
58	0x3c4cb55f	0.012494414
59	0x3e2eded6	0.17077193
60	0x3cc80e63	0.024420923
61	0x3cb5f6b9	0.022212373
62	0x3d47137f	0.048602577
63	0x3d4f779e	0.050651185
64	0x3c18d344	0.009327713
65	0x3e3d9a38	0.18515861
66	0xbd5ea465	-0.054355998
67	0xbd18dd15	-0.037320215
68	0x3e0a6e79	0.13518704
69	0x3dc190a3	0.094514154
70	0xbdbf7983	-0.093493484
71	0xbe51209c	-0.20422596
72	0xbd98c978	-0.07460302
73	0xbd2003e9	-0.03906623
74	0x3d3690c4	0.044571653
75	0xbdb56d17	-0.08858698
76	0x3ddb7b9f	0.10716938
77	0x3d5312ab	0.051531475
78	0xbd6910a2	-0.056900628
79	0x3d700f69	0.058608446
80	0xbdcfb44f	-0.10141813
81	0xbc319cd4	-0.010840613
82	0x3b39b750	0.0028338023
83	0x3da79952	0.081835404
84	0x3d7a85fa	0.061162926
85	0xbd6219eb	-0.0552005
86	0xbd920e10	-0.071315885
87	0x3c411719	0.011785292
88	0x3dc21476	0.09476559
89	0x3d33b309	0.043871913
90	0x3d89250d	0.0669652
91	0x3e03012c	0.12793416
92	0x3da3cf78	0.07998556
93	0x39b9adba	0.00035415386
94	0xbb0c2aeb	-0.0021387886
95	0x3d4a4226	0.04937949
96	0xbdc4ba8e	-0.09605895
97	0xbcdd7cb0	-0.027036995
98	0x3d445c70	0.047939718
99	0xbd97e9ee	-0.074176654
100	0x3cafa75c	0.021442108
101	0x3caf9bdb	0.021436622
102	0x3b15876c	0.0022816313
103	0xbdc82fe1	-0.09774757
104	0xbd37a6a6	-0.044836663
105	0x39af84d1	0.00033477557
106	0xbdd1460d	-0.10218439
107	0xbc738705	-0.014863734
108	0xbd26cf63	-0.040725123
109	0xbc9e3d42	-0.01931632
110	0x3d8305ff	0.06397628
111	0xbd5f5474	-0.0545239
112	0x3cf6eb53	0.030141508
113	0xbd99305e	-0.074799284
114	0xbd0379c9	-0.032098565
115	0xbd639281	-0.05555964
116	0xbc69fb13	-0.014281052
117	0xbe099819	-0.13436927
118	0x3e02b2da	0.12763539
119	0xbd382f7d	-0.044967163
120	0x3e2dfb76	0.16990456
121	0xbd3bd3ab	-0.04585616
122	0xbd896b4c	-0.067099184
123	0x3dc4c40f	0.09607708
124	0x3d29b83f	0.041435476
125	0x3dacfc91	0.08446611
126	0xbd94b399	-0.07260818
127	0x3c8d6be5	0.017263362
128	0xbd8046ee	-0.06263529
129	0xbdad6a17	-0.08467501
130	0xbd4c4612	-0.04987151
131	0xbdea02c7	-0.11426311
132	0xbd09a802	-0.03360749
133	0xbd59bc7e	-0.053158276
134	0x3da3dc0b	0.08000954
135	0x3df2ea6a	0.11861117
136	0xbd6fcc5a	-0.058544494
137	0x3d3a85da	0.045537807
138	0x3b9cdc69	0.004787017
139	0x3d119753	0.035544705
140	0x3d1c81d7	0.038209762
141	0xbd0db2a0	-0.03459418
142	0xbd7c0e0e	-0.06153684
143	0xbd26916c	-0.04066603
144	0xbdf7f616	-0.12107484
145	0x3c8c6309	0.017137067
146	0x3e221047	0.15826522
147	0x3e2cbe0a	0.16869369
148	0x3bbdcf1c	0.0057925116
149	0xbcbd1c4d	-0.023084784
150	0x3d89b402	0.06723787
151	0xbd8c6c9b	-0.06856652
152	0x3db354ef	0.08756434
153	0xbe350769	-0.17678608
154	0xbe4a5b19	-0.19761313
155	0xbdc389e7	-0.09547787
156	0x3c93f32c	0.01806029
157	0x3cbb4ffb	0.022865286
158	0x3bebab02	0.0071920166
159	0xbd6db7f2	-0.058036752
160	0x3d1abdc7	0.037778642
161	0x3dccd9fa	0.10002513
162	0x3deb8f46	0.115019366
163	0x3d8e20ca	0.06939848
164	0x3d23de71	0.04000706
165	0x3c8f55bc	0.017496936
166	0xbe00dad9	-0.12583484
167	0xbddeb6b4	-0.108746916
168	0x3d9dfac7	0.077138476
169	0xbd29601a	-0.041351415
170	0xbdf15e05	-0.11785511
171	0xbe43ada6	-0.1910921
172	0x3c9d7980	0.019222975
173	0xbd0d8c31	-0.034557525
174	0x3e0dc1c3	0.13843445
175	0xbe26f2f2	-0.16303614
176	0xbd6bfa01	-0.05761147
177	0xbd8b9d36	-0.06817095
178	0xbcfcaa0e	-0.030842807
179	0x3dda80f6	0.106691286
180	0xbc9f9571	-0.019480439
181	0xbd20e1d0	-0.03927785
182	0x3d2c8c98	0.04212627
183	0xbe222df0	-0.15837836
184	0x3dc72ff3	0.097259425
185	0x3d222e86	0.03959515
186	0x3e4b67f9	0.19863881
187	0xbde3c203	-0.11120989
188	0xbe32439a	-0.174086
189	0xbc1a8b6e	-0.009432657
190	0xbd9301b7	-0.071780615
191	0x3c867508	0.016413227
192	0xbc33e689	-0.010980257
193	0x3c00e9be	0.0078682285
194	0xbd5b845d	-0.05359303
195	0xbc8e6971	-0.017384263
196	0xb9856426	-0.00025442353
197	0xbd68f96e	-0.0568785
198	0xbe0b515c	-0.13605255
199	0x3c8c6c5d	0.017141515
200	0x3d40bf97	0.047057714
201	0x3dd66bef	0.104698054
202	0xbe09ba49	-0.13449968
203	0x3d3fd2e9	0.046832
204	0x3d92306e	0.071381435
205	0xbdfedbb5	-0.124442495
206	0x3bf2dd8f	0.0074116657
207	0x3db27012	0.08712782
208	0x3d108908	0.035286933
209	0xbce7dd1c	-0.028303675
210	0xbe6ac1d5	-0.22925504
211	0xbdd70aed	-0.10500131
212	0xbe35fcdf	-0.17772244
213	0xbc74c1d6	-0.014938792
214	0xbdbde2bb	-0.09271761
215	0xbd18129d	-0.037127126
216	0xbde98266	-0.11401825
217	0xbdaa76ca	-0.083234385
218	0x3cf8b32c	0.030358873
219	0x3c13bdc9	0.009017416
220	0xbe33e78e	-0.175688
221	0xbdfe5022	-0.12417628
222	0xba6775ff	-0.00088295335
223	0xbd3b3b53	-0.045710873
224	0x3c5d3e6e	0.013503654
225	0x3cdaf307	0.026727213
226	0x3de48c3d	0.11159561
227	0xbd5e90b8	-0.054337233
228	0xbcb770c2	-0.022392634
229	0xbbd86331	-0.0066036214
230	0xbcdcce0f	-0.026953725
231	0x3d67a903	0.056557667
232	0x3d908956	0.07057445
233	0xbd5ea592	-0.05435712
234	0x3c61b9fd	0.013777253
235	0xbda98816	-0.082779095
236	0x3e14c301	0.14527513
237	0x3d8acec1	0.067777164
238	0x3d889e5d	0.066708304
239	0xba2e4265	-0.0006647467
240	0x3c991a5c	0.018689327
241	0xbdb5389b	-0.08848687
242	0x3c054691	0.0081345
243	0x3e308e65	0.17241819
244	0xbd81be4a	-0.06335123
245	0x3e212cff	0.15739821
246	0xbe1d216a	-0.15344778
247	0xbc8fbdf0	-0.017546624
248	0x3d756f87	0.059920814
249	0x3d3d9c81	0.046291832
250	0x3dccafe6	0.099944875
251	0x3db77a0d	0.08958826
252	0xbdc8e29b	-0.098088466
253	0x3e2534ec	0.1613347
254	0xbd9cdbdd	-0.07659123
255	0xbd28fa1e	-0.041254155

network_body._body_endoder.seq_layers.2.bias f4 [128]
0	0xbc8d5b9a	-0.017255593
1	0xbbf3f4c1	-0.0074449484
2	0xbcfc7586	-0.030817758
3	0xbc82e046	-0.015976083
4	0x3d16386d	0.036674906
5	0x3cd97e17	0.026549382
6	0xbcf3b7c8	-0.02975072
7	0xbcb79cc2	-0.022413615
8	0x3c068329	0.008209982
9	0x3d02408c	0.031799838
10	0xbce2b0a5	-0.027672121
11	0x3d06f4d7	0.03294834
12	0xbcc4001c	-0.023925833
13	0x3c975fe8	0.018478349
14	0x3c9bd8fb	0.019024363
15	0x3baa5e88	0.0051992573
16	0x3c1319f7	0.0089783585
17	0x3cf6606f	0.03007528
18	0xbc9a91be	-0.018868323
19	0x3cd2899b	0.025700381
20	0xbd15dfa5	-0.036590237
21	0x3b8d0de3	0.004304634
22	0xbce59254	-0.028023876
23	0xbca65776	-0.020305376
24	0xbcac41a7	-0.0210274
25	0x3d059f6d	0.032622743
26	0x3c275447	0.010212964
27	0xbcba8745	-0.02276958
28	0x3d1870a3	0.037216794
29	0x3ceaed79	0.028677689
30	0x3c887b4f	0.01666036
31	0x3cb14733	0.021640396
32	0x3cc2f825	0.023799965
33	0xbbdea991	-0.0067951162
34	0x3cf9a76e	0.030475345
35	0x3ccbf88e	0.024898794
36	0x3c1954dc	0.009358611
37	0x3cdec4f0	0.027193516
38	0xbcb35fa4	-0.021896191
39	0x3d2786dc	0.040900096
40	0x3bd657c8	0.006541226
41	0xbc99c539	-0.0187708
42	0x3c2d4353	0.010575133
43	0x3cce913a	0.025215734
44	0xbcbf0c66	-0.023321342
45	0x3c8260a1	0.015915217
46	0x3cbe3b7b	0.023221722
47	0xbbc81622	-0.006106154
48	0xbca3c458	-0.019991085
49	0x3cfd282b	0.030902943
50	0x3b8389dc	0.004014237
51	0x3cdd826d	0.02703973
52	0xbcba9a40	-0.02277863
53	0xbcada52a	-0.02119692
54	0xbb9ec265	-0.004844951
55	0xbab2907e	-0.0013623384
56	0x3cde7813	0.027156865
57	0x3d2a3000	0.041549683
58	0xbd02fc31	-0.03197879
59	0x3d13038d	0.03589206
60	0x3caeebc2	0.021352652
61	0x3c5f06f2	0.013612496
62	0xbc982b9c	-0.018575482
63	0xbd17b375	-0.037036378
64	0x3c3909d6	0.011293849
65	0x3cb01825	0.021495888
66	0xbade13eb	-0.0016943192
67	0xbd08b214	-0.033372954
68	0x3cb1a892	0.021686826
69	0x3cd0e5f8	0.025500283
70	0xbd24c6fc	-0.04022883
71	0x3cd6b06d	0.026207173
72	0xbbc62760	-0.0060471743
73	0xbbb37c5b	-0.005477471
74	0xbcf8616e	-0.030319896
75	0xbcc38104	-0.02386523
76	0x3cfbc63b	0.030734172
77	0xbcb933c3	-0.02260769
78	0xb9e34d95	-0.00043354617
79	0x3cd7c348	0.026338235
80	0x3d1b5e4b	0.03793172
81	0x3cceb803	0.025234228
82	0xbcc1fe33	-0.023680782
83	0x3c54cf25	0.01298884
84	0xbbb2100a	-0.005434041
85	0x3ce96683	0.028491264
86	0x3cf03787	0.029323353
87	0x3cbc0601	0.022952082
88	0x3d09ca7d	0.033640373
89	0x3c3884d7	0.01126214
90	0xbc79e00d	-0.015251172
91	0xbccd58d5	-0.025066772
92	0x3c9209ef	0.017827002
93	0x3d0928a4	0.033486024
94	0xbd07bc6c	-0.033138677
95	0xbcdbac9a	-0.026815701
96	0xbc6f18fc	-0.014593359
97	0xbcf06081	-0.029342892
98	0x3cd302a6	0.025758099
99	0xbca8b4ff	-0.020594118
100	0xbc3ad1a4	-0.011402521
101	0xbc810471	-0.015749188
102	0xbcb889d8	-0.022526667
103	0xbc8b96ab	-0.017039618
104	0x3d06e4cf	0.032933053
105	0x3cc91e19	0.024550484
106	0xbcb2a740	-0.021808267
107	0xb998352a	-0.0002903131
108	0xbcc2193c	-0.023693673
109	0x3cdd39e9	0.027005153
110	0xbc82b74d	-0.015956545
111	0xbc843e31	-0.016142936
112	0x3ced5ecf	0.028975872
113	0xbcabf19b	-0.02098923
114	0x3c3193aa	0.0108384285
115	0x3bcf596f	0.0063278
116	0x3cf95f7c	0.030441038
117	0xbd1ff16b	-0.039048593
118	0x3cb95bea	0.022626836
119	0xbd0d1f9d	-0.034453977
120	0x3c7f5411	0.015584008
121	0x3cd16b2c	0.025563799
122	0xbc8be772	-0.017078135
123	0xbc8a4afa	-0.016881455
124	0x3d1142d0	0.035464108
125	0x3c131716	0.008977672
126	0xbcca67ef	-0.024707763
127	0xbcd2b16a	-0.025719363

action_model._continuous_distribution.log_sigma f4 [1, 2]
0	0x3bb5c932	0.005547666
1	0xbc867e51	-0.016417654

action_model._continuous_distribution.mu.weight f4 [2, 128]
0	0xbcadc480	-0.021211863
1	0x3ce670b3	0.028129911
2	0x3b962f76	0.0045832945
3	0xbd22d349	-0.03975228
4	0x3cd114f8	0.025522694
5	0x3c671791	0.01410474
6	0xbc1b668e	-0.0094849
7	0xbcc2b0d4	-0.023765959
8	0x3c7dc36b	0.015488486
9	0x3ca131e7	0.019677116
10	0xbcce6c18	-0.025198027
11	0x3b8abaf7	0.0042337137
12	0xbc40a690	-0.011758462
13	0xbc9b2b3b	-0.018941512
14	0x3cde2b5f	0.02712029
15	0xbc8bf36e	-0.01708385
16	0xbd02e78a	-0.031959094
17	0x3cc32008	0.023818985
18	0xbcd9de4b	-0.026595255
19	0x3b88c471	0.0041738083
20	0xbc548786	-0.012971764
21	0x3d38dbf1	0.045131627
22	0xbd487ac2	-0.048945196
23	0xbc8a644e	-0.016893532
24	0xbc0666be	-0.008203207
25	0x3c30ecf0	0.010798678
26	0x3b99209e	0.0046730777
27	0x3c1345cc	0.008988809
28	0x3ba32b37	0.004979517
29	0x3bc13b1e	0.00589694
30	0x3bbfd509	0.005854253
31	0x3ccb26a0	0.024798691
32	0xbc4068d7	-0.011743746
33	0xbd117509	-0.035512004
34	0x3c9b8de2	0.018988553
35	0xbbacee30	-0.0052774176
36	0x3a87d967	0.0010364474
37	0xbbd32d59	-0.006444615
38	0xbbaa8505	-0.0052038454
39	0x3c66da1c	0.014090087
40	0x3c7b0241	0.015320362
41	0xbaad3b39	-0.0013216502
42	0x3d0a286e	0.033729963
43	0x3c48e418	0.012261413
44	0xbc7c6acc	-0.015406322
45	0x3c402cad	0.011729402
46	0xbc0e542d	-0.008687061
47	0x3c2c9038	0.010532431
48	0x3c86d122	0.016457144
49	0xb9b1331c	-0.0003379815
50	0x3ccb2ac7	0.024800671
51	0xb8fe9336	-0.00012139084
52	0xbc8458a9	-0.016155558
53	0xbbc22465	-0.0059247487
54	0x3c5d83a3	0.013520154
55	0x3c9d7fc0	0.019225955
56	0x3bf3d0de	0.0074406704
57	0x3c25693d	0.010095892
58	0xbb6d9a32	-0.0036255238
59	0x3d01f7b5	0.031730372
60	0xbc9679ab	-0.018368563
61	0x3c9769c2	0.018483046
62	0xbd12db3c	-0.03585361
63	0xbc095bf3	-0.008383739
64	0xbcbdb485	-0.023157367
65	0xbc8bfda2	-0.017088715
66	0xbd048b0b	-0.032359164
67	0xbc8aa613	-0.016924893
68	0x3c1d4a88	0.009600289
69	0xbb72af3a	-0.0037030713
70	0xbbf185af	-0.0073706727
71	0x3cdf9bc4	0.027295955
72	0x3c939e2b	0.018019756
73	0xbd24aa4f	-0.04020148
74	0xbc9dfd70	-0.019285887
75	0x3c0879cc	0.00832982
76	0x3c72b80d	0.014814389
77	0xbb0d4c0e	-0.0021560225
78	0xbb1b7e5e	-0.0023726444
79	0x3cec99fa	0.028882015
80	0x3abca439	0.0014392204
81	0xbbb3bace	-0.0054849153
82	0xbc871e61	-0.016493978
83	0x3d017d29	0.031613503
84	0x3cf6a05c	0.030105762
85	0x3c77c9b2	0.0151237715
86	0x39595abe	0.00020728537
87	0x3d0cec78	0.0344052
88	0x3c8053fc	0.015665047
89	0x3c5c834b	0.013459037
90	0x3c698716	0.014253398
91	0x3b6c4ce8	0.0036056582
92	0xbcbb81bd	-0.022889012
93	0x3bf902be	0.007599204
94	0xbc52af48	-0.012859173
95	0xbc8a2566	-0.016863536
96	0xbd0dafd3	-0.034591507
97	0xbc6cad25	-0.014445578
98	0x3b40dff8	0.002943037
99	0xbd010ede	-0.03150832
100	0x3d02d127	0.031937744
101	0xbb8c6e73	-0.0042856275
102	0x3c99562f	0.018717853
103	0x3cde952e	0.027170744
104	0x3c786cca	0.015162656
105	0x3a1b4f3c	0.00059245876
106	0xbcd650ab	-0.026161512
107	0xbcdb092b	-0.02673777
108	0xbd2de57f	-0.042455193
109	0x3c82542d	0.015909279
110	0x3c85a253	0.016312754
111	0x3ce63b56	0.028104465
112	0x3c17d015	0.009265919
113	0xbc9e37d0	-0.019313723
114	0x3cd6d597	0.026224894
115	0xbd1fb54d	-0.03899126
116	0x3ba6e577	0.0050932723
117	0xbc1090e1	-0.008823604
118	0xbcd9d060	-0.026588619
119	0xbc669936	-0.014074614
120	0x3c374f93	0.011188406
121	0x3b820884	0.0039683003
122	0xbbb38021	-0.0054779206
123	0xbc9512ef	-0.018197505
124	0x3c1f5428	0.009724654
125	0x3d75dbfa	0.06002424
126	0x3ac1db29	0.0014790046
127	0xbc2772a0	-0.0102202
128	0xbbaf44f0	-0.005348794
129	0xbcaedaba	-0.021344531
130	0xbcf40f24	-0.029792376
131	0xbcd0112a	-0.02539881
132	0x3d5a13ad	0.05324142
133	0x3cc2a62d	0.02376088
134	0xbd2b6027	-0.041839745
135	0xbcb4248b	-0.021990081
136	0xbb2ac4ae	-0.0026057172
137	0x3cebb949	0.028774874
138	0xbd1af10e	-0.037827544
139	0x3d0bc4ea	0.03412334
140	0xbd08163b	-0.033224326
141	0x3cc10116	0.023560088
142	0x3ce2bd11	0.027678045
143	0x3c097806	0.008390432
144	0x3cc4c4ed	0.024019683
145	0x3cf4e301	0.0298934
146	0xbc792480	-0.015206456
147	0x3c422da2	0.0118517
148	0xbd2a4665	-0.04157104
149	0xbc6b0910	-0.014345422
150	0xbdb2da1b	-0.087330066
151	0xbc884b0c	-0.016637348
152	0xbc18e19f	-0.009331136
153	0x3d1c7ce4	0.038205042
154	0xba6954ae	-0.0008900863
155	0xbccee221	-0.025254311
156	0x3d128476	0.035770856
157	0x3c64d5f3	0.013967025
158	0x3c08ab8f	0.008341684
159	0x3cc09661	0.023509206
160	0x3cec2582	0.028826479
161	0x3b9d0466	0.004791784
162	0x3d0dd6d7	0.034628715
163	0x3c830862	0.015995208
164	0x3b19d86e	0.002347495
165	0x3cea54ea	0.028604943
166	0xbc476237	-0.012169412
167	0x3d1dbfc2	0.038512953
168	0x3ba14643	0.004921706
169	0xbba89843	-0.005145104
170	0x3c2cfc78	0.01055824
171	0x3d1b254b	0.037877362
172	0xbcd49117	-0.02594809
173	0x3b394a3c	0.0028273007
174	0x3c8a6f3b	0.016898742
175	0xba211a8f	-0.000614562
176	0xbce9fd32	-0.028563116
177	0x3d29cf24	0.04145731
178	0xbc6ec3da	-0.014573062
179	0x3caa48d2	0.020786677
180	0xbca6199f	-0.020275889
181	0xbc01963c	-0.007909354
182	0xbc136886	-0.008997088
183	0xbc3a540b	-0.0113725765
184	0x3c8a4f67	0.016883565
185	0x3d213a47	0.03936222
186	0xbd2266bd	-0.03964876
187	0x3d7d7d7e	0.061887257
188	0x3d017eef	0.031615194
189	0x3c23fa9e	0.010008482
190	0xbcb56ab5	-0.022145608
191	0xbce4a4fd	-0.027910704
192	0x3c90280a	0.017597217
193	0x3d04a08d	0.032379676
194	0x3c2e1ede	0.0106274765
195	0xbcce4227	-0.025178028
196	0x3cadb1e1	0.021202983
197	0x3ca9a8b7	0.020710332
198	0xbcf8b4d2	-0.03035966
199	0x3cc6d746	0.024272572
200	0xbb5a45b5	-0.0033305709
201	0xbb9a584c	-0.004710233
202	0xbd5f7c35	-0.054561812
203	0xbcd4a019	-0.025955247
204	0x3ce95120	0.028481066
205	0xbcaa44c1	-0.020784738
206	0x3c5269e6	0.012842631
207	0x3c98fae1	0.018674316
208	0x3c6eccf9	0.0145752365
209	0x3d00bd91	0.031430785
210	0xbce98226	-0.028504442
211	0x3cac2413	0.021013295
212	0xbc309569	-0.01077781
213	0x3d84c908	0.06483656
214	0x3cddb0b3	0.027061796
215	0x3d2e7225	0.042589325
216	0x3cc50470	0.024049968
217	0xba947eda	-0.0011329309
218	0xbc67a1c6	-0.014137691
219	0xbcbd61b4	-0.023117878
220	0x3cf2a04d	0.029617453
221	0x3cc5ec25	0.024160454
222	0xbd307a48	-0.043085366
223	0xbcd2d4a0	-0.025736153
224	0xbc79834b	-0.015229057
225	0xbce6a591	-0.02815512
226	0x3c8665a2	0.016405884
227	0xbce11e10	-0.027480155
228	0xbcee94b5	-0.029123643
229	0xba0c0c26	-0.00053423864
230	0xbd2ff2e9	-0.042956267
231	0xbd2056fe	-0.039145462
232	0x3d118b16	0.035533033
233	0x3ce2718e	0.027642038
234	0xbc869092	-0.016426358
235	0x3bd1f04a	0.0064068185
236	0xbd093019	-0.033493135
237	0x3d405e0e	0.046964698
238	0xbd04174e	-0.032248788
239	0xbcf9b467	-0.03048153
240	0x3d119ec5	0.035551805
241	0xbc359d49	-0.011084863
242	0x3c7db9da	0.015486205
243	0x3babf008	0.00524712
244	0x3d0525fe	0.032506935
245	0xbd039711	-0.03212649
246	0x3d589119	0.05287275
247	0xbd051dfe	-0.032499306
248	0x3c76a48f	0.015053882
249	0x3d0043dd	0.03131472
250	0xbc17c8c1	-0.009264172
251	0xbc82e920	-0.015980303
252	0x3d0d793f	0.034539457
253	0xbc9ef7e8	-0.01940532
254	0xbd54f552	-0.05199177
255	0xbc9c7bbe	-0.019101974

action_model._continuous_distribution.mu.bias f4 [2]
0	0x3c1dfaa9	0.009642282
1	0x3cdb35aa	0.026758987
