python/results/minion_walk_002/Minion/Minion-4898.pt (torch, 427995 bytes, 36 tensors)

network_body._body_endoder.seq_layers.0.weight f4 [128, 3]
0.05413065 -0.3170289 0.07380945 -0.40565646 0.29037783 -0.22530247 0.19916302 0.7771363
0.8379858 0.38059938 1.093076 -0.73352766 -0.079709955 0.29187748 1.845233 -0.07198945
1.4535604 -0.4970905 -0.18229954 -0.28339934 -0.7065077 -0.25251564 -0.12047288 -0.636516
0.043306604 -0.0058383592 0.3489897 0.1529506 -0.832166 -0.7170978 -0.20822136 -0.0141197415
-0.17556398 -0.7962862 0.38717008 0.54605794 0.63301075 0.5256229 0.14419356 1.189462
-1.1956593 -0.20840813 0.39828143 0.1737094 0.05199757 1.104249 0.29907227 -0.5827117
-0.3351941 -1.0830345 0.702656 0.07414835 -0.7194302 0.3918891 -0.2603135 0.2992276
-0.01747612 0.54335755 0.6382287 -0.62250537 -0.54429215 -0.24105313 0.98935324 0.4797296
0.7589798 0.957916 0.6860967 0.11965139 -0.24317257 -0.43624014 0.8681861 -1.0754806
-0.15554456 0.40622178 0.6568652 0.6079085 0.67215073 -0.22238219 0.46602702 0.015106726
-0.43333682 -0.52518624 0.9718342 1.0106056 -0.47548738 -0.52062345 -0.54585415 0.5838135
-0.5683069 0.51874083 -0.3672781 0.02146336 0.42132446 1.1862634 -0.23033437 -0.09774124
-0.3543605 1.2704235 0.039798897 -0.9891074 0.71670663 -0.3713613 0.32265 0.36119705
-0.5232329 0.051309668 -0.14012869 0.47418043 0.3216296 0.6144137 -0.14147778 -1.8041496
-0.106696874 -0.11414754 0.7635118 0.0748124 -0.20753665 -0.42620593 -0.38017896 0.20728424
0.070533395 -0.05286717 -0.44236487 0.3088903 0.014523159 -0.10142453 -0.083535165 -0.21039706
0.8185661 -1.1785085 -0.20685826 -0.16740054 0.26423126 0.08718139 0.7470236 0.095864475
0.35614893 -0.45381382 0.21152359 0.39445773 0.29090637 0.44050014 -0.13598187 0.10993832
-0.19193776 0.71498007 -0.011875733 0.81064576 -0.11476164 -0.38009417 0.091627315 0.26148283
0.2290147 0.638568 0.004135091 -0.002344814 0.93815964 -0.35105813 -0.19373739 -0.2884132
-1.8729042 1.0680546 0.26434427 -0.12722446 -0.99604183 -0.15929052 -0.8705795 0.7129583
0.9810307 0.4456341 -0.18140428 -1.3443799 -0.06829317 0.04683508 -1.0072559 0.7802447
-0.12946585 -1.1933063 0.7212668 0.49777058 0.38987446 -0.07265878 -0.5630006 -0.10475148
-0.21172966 -0.22810018 0.42869145 -0.44032744 -0.8252585 0.23116188 0.18284976 -0.60273033
0.060303234 -0.18242854 0.17810227 -0.41013685 0.5884905 0.034105223 0.48993802 -0.4630629
-0.36439425 0.11440316 0.44863322 0.14521186 0.16836709 0.67819065 -0.18097495 -0.26071727
0.7454419 0.5462935 0.11449831 0.16659115 0.62299067 -0.31473884 1.0816326 0.10771454
0.6564816 -0.17230308 -1.080867 -0.6730491 -0.19957353 -1.1090238 -0.1527069 0.1825645
-0.38317466 -0.5099037 0.366006 1.1150932 -1.0422537 -0.33267444 -0.7119738 -0.28294018
-0.5767775 -0.32007506 0.8684287 -0.4127849 0.3655677 -0.08627055 0.016946582 -0.45789874
-0.4887289 -0.6846538 0.018327214 0.036445305 -0.9851691 0.3719492 0.33068702 0.2893839
-0.028089568 -0.54902333 -0.39738393 -0.4093547 -0.635889 0.66565865 1.5160674 0.9438167
00000000: 1ab8 5d3d 9d51 a2be 6929 973d 34b2 cfbe
00000010: 67ac 943e b1b5 66be 64f1 4b3e 68f2 463f
00000020: 3d86 563f ecdd c23e eae9 8b3f 78c8 3bbf
00000030: f93e a3bd f770 953e 9830 ec3f 346f 93bd
00000040: 440e ba3f a582 febe bbac 3abe b819 91be
00000050: b0dd 34bf bb49 81be 7cba f6bd b6f2 22bf
00000060: 4462 313d b54f bfbb c7ae b23e 159f 1c3e
00000070: d508 55bf b993 37bf fb37 55be 7d56 67bc
00000080: 0bc7 33be 6ad9 4bbf 283b c63e 74ca 0b3f
00000090: fe0c 223f 398f 063f 7aa7 133e 4a40 983f
000000a0: 5d0b 99bf f168 55be 8beb cb3e e1e0 313e
000000b0: 67fb 543d 0858 8d3f 0020 993e 982c 15bf
000000c0: 909e abbe e0a0 8abf 43e1 333f 17db 973d
000000d0: 942c 38bf b0a5 c83e d047 85be 5c34 993e
000000e0: 142a 8fbc 7b19 0b3f f562 233f 835c 1fbf
000000f0: bb56 0bbf a2d6 76be 4146 7d3f 1e9f f53e
00000100: 804c 423f fc39 753f 09a4 2f3f ca0b f53d
00000110: 3b02 79be de5a dfbe 7241 5e3f 59a9 89bf
00000120: 1347 1fbe 4dfc cf3e 5128 283f e49f 1b3f
00000130: 1212 2c3f 28b8 63be 189b ee3e 3482 773c
00000140: 53de ddbe 9b72 06bf 20ca 783f 865b 813f
00000150: 1573 f3be 9447 05bf 19bd 0bbf cd74 153f
00000160: 907c 11bf 33cc 043f e00b bcbe eed3 af3c
00000170: d7b7 d73e 7bd7 973f c6dc 6bbe 8f2c c8bd
00000180: bd6e b5be 3d9d a23f 2b04 233d 2436 7dbf
00000190: 167a 373f 1123 bebe 6132 a53e d2ee b83e
000001a0: 97f2 05bf 162a 523d e57d 0fbe c7c7 f23e
000001b0: a3ac a43e 374a 1d3f 8ddf 10be 60ee e6bf
000001c0: e483 dabd 2fc6 e9bd 8275 433f 3e37 993d
000001d0: 7d84 54be aa37 dabe d1a6 c2be 5242 543e
000001e0: d073 903d 3f8b 58bd a67d e2be df26 9e3e
000001f0: 8bf2 6d3c aab7 cfbd 7c14 abbd 5472 57be
00000200: 8c8d 513f 5ed9 96bf a7d2 53be 0c6b 2bbe
00000210: 5249 873e 288c b23d f03c 3f3f 9854 c43d
00000220: 2759 b63e 495a e8be a499 583e 5df6 c93e
00000230: aef1 943e 3c89 e13e d53e 0bbe 5827 e13d
00000240: 558b 44be ef08 373f 6f92 42bc 7b86 4f3f
00000250: 2708 ebbd b49b c2be 1aa7 bb3d 14e1 853e
00000260: d482 6a3e 3179 233f a87f 873b 73ab 19bb
00000270: 3b2b 703f e4bd b3be 1863 46be e5aa 93be
00000280: 53bb efbf 03b6 883f 2258 873e 2147 02be
00000290: 99fc 7ebf 0e1d 23be 4cde 5ebf 6f84 363f
000002a0: d424 7b3f 272a e43e 0bc2 39be a414 acbf
000002b0: 4add 8bbd 24d6 3f3d c3ed 80bf 1ebe 473f
000002c0: b292 04be 43be 98bf f1a4 383f c9db fe3e
000002d0: a09d c73e 20ce 94bd cf20 10bf f287 d6bd
000002e0: a9cf 58be 1893 69be 727d db3e 9972 e1be
000002f0: 2444 53bf b3b5 6c3e f83c 3b3e 894c 1abf
00000300: 8600 773d 8cce 3abe 7160 363e 75fd d1be
00000310: 50a7 163f ebb1 0b3d 28d9 fa3e 9516 edbe
00000320: e291 babe 344c ea3d 41b3 e53e 6bb2 143e
00000330: 6c68 2c3e e79d 2d3f 7f51 39be bc7c 85be
00000340: 48d5 3e3f e4d9 0b3f 177e ea3d df96 2a3e
00000350: 517c 1f3f 7325 a1be f072 8a3f 7199 dc3d
00000360: 2e0f 283f 3870 30be da59 8abf f24c 2cbf
00000370: 015d 4cbe 7ef4 8dbf 335f 1cbe 30f2 3a3e
00000380: 782f c4be 0d89 02bf 2365 bb3e 60bb 8e3f
00000390: 9268 85bf 4e54 aabe ea43 36bf 89dd 90be
000003a0: b1a7 13bf e1e0 a3be 5851 5e3f 8b58 d3be
000003b0: b12b bb3e 9dae b0bd 8fd3 8a3c b471 eabe
000003c0: ad3a fabe 7945 2fbf f422 963c ac47 153d
000003d0: 0b34 7cbf 2070 be3e cf4f a93e 202a 943e
000003e0: 181c e6bc cb8c 0cbf e875 cbbe f096 d1be
000003f0: 9fc9 22bf 9b68 2a3f 7f0e c23f f99d 713f

network_body._body_endoder.seq_layers.0.bias f4 [128]
-0.011088825 0.025138134 0.025887826 0.005689807 0.029349837 0.038527098 0.008532856 0.014976626
-0.0023862263 -0.021424834 0.0062861736 0.03214116 0.012600435 -0.0121802185 -0.012872007 0.037963364
0.0020739967 -0.001611412 0.022990905 0.0319369 -0.018136974 0.03266136 -0.020345446 0.031428903
0.0054780394 0.0013825168 0.030694047 0.022859994 -0.0028424633 -0.011099892 0.02803219 -0.005163539
0.029437857 0.02133848 0.009294608 0.03461805 0.03433825 -0.02164387 0.028813476 0.0014725495
8.1849554e-05 -0.03468724 -0.019401632 -0.024040882 0.009537194 0.030043907 0.037614167 -0.014838493
0.01288309 6.6413704e-05 -0.011003245 -0.03156106 -0.015514963 -0.0003191728 -0.0046393205 -0.030906692
-0.02241618 0.016892973 0.000546963 0.014239997 -0.008575034 -0.01632508 -0.034547567 0.005202688
-0.023693018 -0.014805179 0.0068214657 0.032543764 0.038893115 -0.017858492 -0.023276536 0.03356898
0.008772509 0.020043816 0.029190026 -0.0049530296 0.014205101 -0.02877685 0.016286632 -0.0129645495
-0.028949186 -0.026797751 0.0270723 0.016208425 0.025422225 0.00090634986 -0.015066661 0.019238487
0.02148745 -0.018930903 0.03879548 0.03819739 0.018012714 -0.0011935913 -0.008898045 -0.024735678
-0.008995158 0.011691588 0.0012008391 -0.023770513 0.026918259 0.03880082 -0.028989574 0.0048469584
-0.0016851178 0.024754774 -0.021283012 0.005084609 -0.015425468 0.021430882 0.01926872 -0.026408955
-0.014309013 0.0025424056 0.021405164 0.021070715 -0.017372366 -0.014614777 0.016578179 0.037156183
-0.029891377 -0.0047458992 0.029990597 -0.017619126 0.016879084 0.029018573 -0.0064039137 0.032473058
00000000: e7ad 35bc 7dee cd3c b512 d43c 8f71 ba3b
00000010: 126f f03c 97ce 1d3d 64cd 0b3c 8660 753c
00000020: 3c62 1cbb 2283 afbc 3ffc cd3b 73a6 033d
00000030: 0e72 4e3c 8a8f 47bc 1ce5 52bc 797f 1b3d
00000040: e4eb 073b 0436 d3ba 6c57 bc3c 44d0 023d
00000050: fe93 94bc ebc7 053d 7eab a6bc 98bb 003d
00000060: 2081 b33b 9135 b53a 1572 fb3c e244 bb3c
00000070: 9f48 3abb 52dc 35bc c3a3 e53c e832 a9bb
00000080: a927 f13c 09ce ae3c 6948 183c a8cb 0d3d
00000090: 44a6 0c3d 7c4e b1bc 3d0a ec3c 9002 c13a
000000a0: a5a6 ab38 3514 0ebd 2cf0 9ebc 62f1 c4bc
000000b0: e441 1c3c a41e f63c 5011 1a3d 271d 73bc
000000c0: 9913 533c 9647 8b38 f446 34bc 2c46 01bd
000000d0: 7932 7ebc a656 a7b9 7105 98bb 0830 fdbc
000000e0: 23a2 b7bc 2263 8a3c 1162 0f3a e04e 693c
000000f0: 4d7e 0cbc 2dbc 85bc c081 0dbd 4f7b aa3b
00000100: dc17 c2bc 6c91 72bc 9a86 df3b 9c4c 053d
00000110: 634e 1f3d f94b 92bc 6fae bebc a07f 093d
00000120: 92ba 0f3c ee32 a43c ec1f ef3c 064d a2bb
00000130: 83bc 683c 6ebd ebbc 8b6b 853c 4369 54bc
00000140: d826 edbc f586 dbbc bac6 dd3c 88c7 843c
00000150: 4542 d03c 1c98 6d3a 28da 76bc 089a 9d3c
00000160: 7306 b03c fb14 9bbc 02e8 1e3d de74 1c3d
00000170: 668f 933c 4772 9cba 1bc9 11bc 7aa2 cabc
00000180: 6d60 13bc 138e 3f3c 7965 9d3a 61ba c2bc
00000190: ae83 dc3c 9ced 1e3d 8b7b edbc 3cd3 9e3b
000001a0: 2cdf dcba 86ca ca3c b659 aebc cb9c a63b
000001b0: 1abb 7cbc d18f af3c 6fd9 9d3c 9857 d8bc
000001c0: 5a70 6abc 7d9e 263b e259 af3c 7e9c ac3c
000001d0: 7e50 8ebc d172 6fbc f6ce 873c 1531 183d
000001e0: c3de f4bc 7d83 9bbb d7ae f53c fc55 90bc
000001f0: 0146 8a3c 5cb8 ed3c ecd7 d1bb 7802 053d

network_body._body_endoder.seq_layers.2.weight f4 [128, 128]
-0.012122093 -0.08771477 0.02365623 0.13324977 -0.22905344 -0.09051157 -0.058156975 0.086472124
-0.061207168 0.1059792 0.018789118 -0.006299264 -0.0029143898 -0.042717256 0.011437332 -0.06528939
0.021341302 0.03652367 -0.050284274 -0.06667265 0.16633251 0.1386343 0.2041894 -0.13052091
0.028919917 0.07392489 0.038216833 -0.024653986 0.040056303 0.04037053 0.10683724 0.07868764
-0.07050654 0.011604555 0.06204127 -0.031075789 0.03460474 -0.096765265 -0.009632524 -0.03779065
-0.053113677 -0.013361122 -0.023868784 -0.096928984 -0.12222957 -0.09292875 -0.025513617 -0.010915252
-0.2321302 0.017646685 0.12549183 0.022797754 0.078075044 0.23835741 -0.043576524 0.1334158
0.032169625 0.009320163 0.06011719 -0.0016821463 0.018500822 0.17714751 -0.05845087 -0.032521572
0.09163332 0.03188312 0.05664576 -0.07280888 0.018470196 -0.13894431 -0.011071595 -0.029802166
0.07562298 0.037534453 0.054142002 -0.029062852 -0.107201345 0.016722722 -0.26104668 0.10810059
0.03194616 0.0058206217 -0.0850949 0.033042777 -0.009236168 0.043952256 -0.17946826 0.040273495
-0.031051053 0.054341342 -0.052341755 -0.013910692 -0.058425836 -0.0464953 0.042520825 0.011588334
-0.053444646 0.09954363 0.062098015 0.03138328 -0.08565017 -0.051056303 -0.004759999 -0.17450683
0.03615052 -0.21738636 0.04600095 0.05200503 -0.0045731943 0.019650925 -0.014483073 0.092854775
0.13182582 0.09247882 -0.062220473 0.10599465 0.1749664 0.12759459 -0.020359727 0.059411377
-0.028685845 0.14820951 0.021759743 0.0019495614 -0.0034126765 0.009654249 0.050650157 -0.0042797257
0.12611203 -0.11370026 -0.03721095 -0.054635845 0.029029861 -0.08505259 0.07065058 -0.089568
-0.06977435 -0.112030126 -0.013736345 0.17322254 -0.11922892 0.076818556 -0.024857044 0.08795895
-0.020109206 0.08084321 0.061394546 0.05316647 -0.022067202 -0.010698671 -0.021452332 -0.086035475
0.017988881 -0.045969136 -0.012921198 0.02690459 0.13116112 0.0035885025 -0.008547843 -0.10304149
0.047249 -0.02668969 -0.021908801 0.00404903 -0.008209333 -0.05958979 -0.061870165 0.06193157
-0.15694042 0.029826349 0.019232202 0.037420172 -0.07831691 -0.045526877 0.035713453 0.13652493
-0.19043283 0.097778805 0.07411474 -0.09197567 0.10799874 0.038031247 0.017724946 -0.0029660568
0.12526692 -0.07242071 -0.071507476 -0.050624747 -0.15924248 -0.008718553 0.030631611 -0.001276276
-0.017083943 0.08094249 0.055375464 -0.0723305 0.024494769 -0.046288203 0.08590278 0.02239914
-0.011216599 0.11438 -0.123222195 0.14089473 -0.16964196 -0.0919468 -0.003414954 0.034554224
0.057036478 0.16276899 0.10812665 0.065002635 0.009465918 0.06711349 -0.35379055 0.023812696
-0.07825643 0.07829852 0.029926686 -0.019034898 -0.060626257 0.10952243 0.16126579 -0.031646173
0.19583657 -0.063122906 0.011874512 -0.12085266 -0.23159339 0.011239674 -0.0005521389 -0.03201503
-0.0838502 0.061685883 -0.10757796 -0.07234981 0.11250946 0.015477943 0.018543767 -0.008024797
0.12216532 0.032482438 0.05660331 -0.17249978 -0.12105195 -0.08492575 0.03513049 -0.0022003672
0.023969932 0.01843927 -0.10607663 0.03666246 -0.02575898 0.038774382 -0.007507851 0.11532362
00000000: be9b 46bc cda3 b3bd b6ca c13c a172 083e
00000010: fc8c 6abe 215e b9bd 0236 6ebd 4c18 b13d
00000020: 5eb4 7abd 9f0b d93d a3eb 993c 0e6a cebb
00000030: 59ff 3ebb 4af8 2ebd a663 3b3c 72b6 85bd
00000040: f4d3 ae3c d899 153d e2f6 4dbd ac8b 88bd
00000050: 1253 2a3e 26f6 0d3e 0717 513e 46a7 05be
00000060: 76e9 ec3c ef65 973d 4189 1c3d 28f7 c9bc
00000070: 1412 243d 925b 253d 7ccd da3d fc26 a13d
00000080: bc65 90bd 0821 3e3c fd1e 7e3d a792 febc
00000090: b3bd 0d3d de2c c6bd bcd1 1dbc 5eca 1abd
000000a0: ba8d 59bd 9ce8 5abc 7888 c3bc b482 c6bd
000000b0: 7f53 fabd 6e51 bebd ef01 d1bc e3d5 32bc
000000c0: 8ab3 6dbe c88f 903c ee80 003e 5bc2 ba3c
000000d0: cfe5 9f3d f713 743e 4c7d 32bd 279e 083e
000000e0: 4cc4 033d 99b3 183c 713d 763d 777b dcba
000000f0: 098f 973c 2866 353e 2e6a 6fbd 5735 05bd
00000100: 40aa bb3d e097 023d 6205 683d d21c 95bd
00000110: cf4e 973c 6b47 0ebe a365 35bc ac23 f4bc
00000120: 39e0 9a3d babd 193d 01c4 5d3d 3815 eebc
00000130: 618c dbbd 17fe 883c e9a7 85be d863 dd3d
00000140: fad9 023d eaba be3b 3c46 aebd dd57 073d
00000150: 4c53 17bc 4807 343d 87c6 37be d2f5 243d
00000160: c75e febc 0795 5e3d 4f64 56bd ace9 63bc
00000170: ee4f 6fbd db71 3ebd 512a 2e3d ffdc 3d3c
00000180: c6e8 5abd 88dd cb3d 7d5a 7e3d c18b 003d
00000190: 5b69 afbd 6a20 51bd c4f9 9bbb ebb1 32be
000001a0: 9112 143d 889a 5ebe 7e6b 3c3d 3a03 553d
000001b0: bcda 95bb fafa a03c 694a 6dbc a52a be3d
000001c0: 59fd 063e 8965 bd3d e5da 7ebd b913 d93d
000001d0: 642a 333e 28a8 023e 71c9 a6bc 5859 733d
000001e0: 94fe eabc 3cc4 173e 7d41 b23c 6d88 ff3a
000001f0: 36a7 5fbb db2c 1e3c 8a76 4f3d f13c 8cbb
00000200: 8323 013e afdb e8bd 826a 18bd d6c9 5fbd
00000210: 08d0 ed3c 0d30 aebd 40b1 903d 6d6f b7bd
00000220: dbe5 8ebd 0d70 e5bd 680e 61bc 4061 313e
00000230: 4b2e f4bd 0c53 9d3d 00a1 cbbc d223 b43d
00000240: 10bc a4bc 2091 a53d d978 7b3d 16c5 593d
00000250: 47c6 b4bc 7b49 2fbc cdbc afbc 5e33 b0bd
00000260: 6b5d 933c 224a 3cbd 6fb3 53bc 0467 dc3c
00000270: 1a4f 063e 152d 6b3b 410c 0cbc 6b07 d3bd
00000280: 2b88 413d 56a4 dabc 167a b3bc baad 843b
00000290: 7080 06bc 6c14 74bd 926b 7dbd f5ab 7d3d
000002a0: fdb4 20be 6356 f43c da8c 9d3c e545 193d
000002b0: 9e64 a0bd 647a 3abd 4548 123d 31cd 0b3e
000002c0: d300 43be 4140 c83d 78c9 973d bd5d bcbd
000002d0: 722e dd3d a7c6 1b3d e833 913c 2d62 42bb
000002e0: f945 003e 4f51 94bd 8372 92bd e55b 4fbd
000002f0: 7610 23be 43d8 0ebc 25ef fa3c b748 a7ba
00000300: a0f3 8bbc 2dc5 a53d 62d1 623d 0322 94bd
00000310: 41a9 c83c b398 3dbd cced af3d 677e b73c
00000320: d3c5 37bc 1040 ea3d eb5b fcbd b546 103e
00000330: 9fb6 2dbe 9b4e bcbd 6ccd 5fbb bb88 0d3d
00000340: 159f 693d eaac 263e 8171 dd3d 1a20 853d
00000350: f016 1b3c cc72 893d 0924 b5be d812 c33c
00000360: e844 a0bd f95a a03d cf28 f53c 13ef 9bbc
00000370: 3d53 78bd 4c4d e03d dc22 253e 6b9f 01bd
00000380: 6289 483e 9546 81bd 508d 423c 9981 f7bd
00000390: d126 6dbe 9c26 383c 6abd 10ba 3122 03bd
000003a0: a7b9 abbd 56aa 7c3d d551 dcbd 232c 94bd
000003b0: 5c6b e63d 3397 7d3c 19e9 973c 707a 03bc
000003c0: d031 fa3d 4e0c 053d dfd8 673d c8a3 30be
000003d0: 16ea f7bd 8ded adbd fde4 0f3d 0934 10bb
000003e0: 975c c43c f40d 973c b43e d9bd 602b 163d
000003f0: 7f04 d3bc e3d1 1e3d 6b04 f6bb ca2e ec3d

network_body._body_endoder.seq_layers.2.bias f4 [128]
-0.030656712 -0.0050932444 0.030256808 0.018175747 -0.02951741 0.019181682 -0.008115333 0.012911978
-0.01891522 -0.019344479 0.020865405 -0.020253822 -0.01863841 0.02411423 0.023430016 -0.028827425
0.023959411 -0.034600306 0.027544674 0.021685632 -0.024791254 -0.009858391 -0.030938203 0.014362071
-0.028262926 0.014725005 0.012780954 0.0118836 -0.0073569934 0.025332674 0.0019725307 0.028239574
-0.024713984 -0.02379846 0.024954844 0.029678226 -0.02067319 -0.02942736 -0.02502202 -0.037397463
-0.036225565 0.023122368 -0.020977201 -0.026003651 -0.008896192 0.018137544 0.017266044 -0.02359673
0.038959824 0.03309477 0.023163224 -0.00962688 -0.011378518 -0.012895843 -0.029179394 -0.018846167
-0.011281802 -0.0062457165 0.021692026 0.026166122 -0.0073918663 0.018006673 -0.016462656 0.02917979
-0.02070064 0.03061432 0.029287895 -0.03723803 0.020803528 -0.00068705133 0.039544705 -0.030872392
0.0051082424 0.020729994 0.035784084 0.025120327 -0.009181227 -0.02050499 0.002974156 -0.014167589
-0.02260777 0.008409236 -0.03240832 -0.02036195 0.034675445 -0.010605794 0.030346578 -0.01987426
-0.020544423 0.02206592 0.024154164 -0.021385064 -0.015946448 -0.013776884 0.0347225 0.028067198
-0.0028873053 0.017867 0.023164883 0.022420015 -0.012044181 -0.008603358 0.023636669 0.0246072
-0.0244615 -0.041743226 -0.022131331 0.0151669495 0.016652653 0.021157948 -0.016181907 0.021481963
0.032771397 0.032897927 -0.01935584 0.027091268 0.03203165 -0.01733522 -0.0026802828 -0.012067752
0.0136678815 -0.033754323 0.02481019 0.0073060724 -0.03318009 -0.021174895 -0.00649063 0.009933262
00000000: c923 fbbc 3be5 a6bb 20dd f73c 4ee5 943c
00000010: 7fce f1bc e722 9d3c 2cf6 04bc c38c 533c
00000020: 17f4 9abc 5078 9ebc eded aa3c 58eb a5bc
00000030: 94af 98bc 358b c53c 4ef0 bf3c 7e27 ecbc
00000040: 8746 c43c 0db9 0dbd 5ea5 e13c 11a6 b13c
00000050: 0717 cbbc 1785 21bc 1d72 fdbc e44e 6b3c
00000060: a787 e7bc 2641 713c 3567 513c 6eb3 423c
00000070: ef12 f1bb 7886 cf3c 9345 013b ae56 e73c
00000080: fb74 cabc fdf4 c2bc 1a6e cc3c c01f f33c
00000090: d25a a9bc a611 f1bc fbfa ccbc 152e 19bd
000000a0: 4261 14bd 1f6b bd3c 61d8 abbc 9c05 d5bc
000000b0: 55c1 11bc 3095 943c 8571 8d3c ee4d c1bc
000000c0: 5694 1f3d 628e 073d cdc0 bd3c 10ba 1dbc
000000d0: f76c 3abc 1649 53bc a009 efbc 4763 9abc
000000e0: 4fd7 38bc dea8 ccbb 7ab3 b13c 565a d63c
000000f0: 7837 f2bb bb82 933c b1dc 86bc 740a ef3c
00000100: 6394 a9bc e2ca fa3c 2bed ef3c e886 18bd
00000110: 296c aa3c 3c1b 34ba a1f9 213d 19e8 fcbc
00000120: 0b63 a73b f3d1 a93c 5592 123d 25c9 cd3c
00000130: db6c 16bc 15fa a7bc 0fea 423b 2d1f 68bc
00000140: ee33 b9bc e4c6 093c 96be 04bd 1bce a6bc
00000150: d707 0e3d edc3 2dbc 6399 f83c 58cf a2bc
00000160: c74c a8bc 97c3 b43c f4de c53c bb2f afbc
00000170: 20a2 82bc 71b8 61bc 2e39 0e3d 2eed e53c
00000180: f238 3dbb d15d 923c 48c4 bd3c 2eaa b73c
00000190: f554 45bc 19f5 0cbc b0a1 c13c 0a95 c93c
000001a0: 7c63 c8bc f2fa 2abd c44c b5bc cc7e 783c
000001b0: 256b 883c 6f53 ad3c eb8f 84bc f1fa af3c
000001c0: 4d3b 063d fabf 063d 2390 9ebc 82ee dd3c
000001d0: 9f33 033d 9702 8ebc afa7 2fbb d2b7 45bc
000001e0: 40ef 5f3c f941 0abd bd3e cb3c c767 ef3b
000001f0: d9e7 07bd f976 adbc 5aaf d4bb 1fbf 223c

action_model._continuous_distribution.log_sigma f4 [1, 2]
-0.0075840508 -0.020287842
00000000: a183 f8bb b032 a6bc

action_model._continuous_distribution.mu.weight f4 [2, 128]
0.0048694164 -0.013929452 -0.011823649 -0.01817568 0.012808589 -0.0077097784 0.027211457 -0.036129434
0.006003644 0.011638476 -0.018847845 0.0042636567 0.020512832 0.0149916 -0.0029576363 -0.007149497
-0.014043799 0.0027848454 -0.00930556 0.03747584 0.016010009 -0.0074369013 -0.00967991 -0.032662835
-0.011159551 -0.010611268 -0.023936098 0.03161846 0.025722275 0.03536804 -0.0023301728 0.02130885
0.02143961 0.029724963 0.0010395581 0.0057010655 0.011195584 0.014543518 0.017394064 0.0066983076
-0.002202819 -0.0068476833 -0.010190705 -0.006550812 0.0049245963 0.012273234 -0.026494844 -0.0056808805
-0.004016721 -0.012990192 0.02648803 0.01910654 0.025956418 0.0009403002 -0.00063176063 -0.018174239
0.03786061 0.057651687 -0.016996035 0.013261993 0.0074040825 0.027967786 0.012937009 -0.004851652
0.007317838 0.021195533 -0.019973809 0.0054606902 0.014725728 0.012310229 0.001835366 0.008952274
-0.030711705 -0.022302939 0.004283998 -0.03276847 -0.014292922 -0.0019522485 0.022818126 0.0059636883
0.0021040903 -0.03376822 -0.006632453 0.0109037785 0.00034929637 -0.02023404 0.017048014 0.0058523016
-0.03304702 0.033699952 -0.00017900673 -0.016526157 -0.022374917 -0.011955366 -0.002366725 -0.011592406
-0.020543102 0.03125441 -0.013419301 -0.008707282 -0.021760466 0.032205198 0.0032088973 -0.010536757
-0.0078719305 0.003643249 0.009332246 -0.031865295 0.010730982 -0.005699087 0.012884709 -0.021257687
0.0046011717 0.0024643478 0.02706774 -0.015314932 -0.012008607 0.008827877 -0.022579983 0.029709872
-0.013542711 0.0033498674 -0.0024968518 -0.037811216 0.0044824136 -0.0016854235 -0.027603103 0.015960064
-0.021475876 -0.0046228413 0.01847431 0.012652572 -0.04472085 0.007304575 -0.008746033 0.008311045
-0.0088885585 -0.0063791904 0.024742004 -0.01922459 -0.013588676 0.02593448 0.008748326 -0.031611126
0.018912556 -0.032855712 0.016543018 0.028699521 -0.016065078 -0.014111559 -0.02732933 0.0060217706
-0.022672717 0.0133875655 0.006591788 0.012878226 -0.004795388 0.034330867 -0.002831736 0.030533655
-0.028364023 -0.019063372 0.02107142 0.006715959 -0.015725598 -0.035034377 -0.022104973 -0.031453792
-0.033251863 0.018558787 -0.02100488 -0.023142716 0.003350773 0.0100093335 0.01607236 -0.021072967
0.037718825 0.027105682 0.029758226 -0.003290869 -0.012066222 -0.002338534 -0.02536984 -0.03135909
-0.0025127772 -0.017122164 0.011924305 0.038713116 0.007963426 0.024912925 -0.006942023 0.012548586
-0.031010266 0.038062416 0.06388876 -0.02395671 0.030957652 -0.0043702857 0.015595438 -0.048291165
0.007701309 0.01481962 0.039829504 0.030415209 -0.0077588605 -0.025567409 0.007403552 -0.0004392066
-0.02228348 0.007138649 -0.052459553 -0.0194288 0.05957015 -0.017553648 0.04325563 -0.0078881
-0.049734984 0.035098124 0.01440383 -0.013346982 -0.0249993 -0.0106326565 0.041073967 0.025968442
-0.013053355 0.019775497 0.011385946 0.033696786 -0.006370063 -0.0027770859 0.019202728 0.013403361
-0.028826352 -0.025129074 -0.023379559 0.008205868 0.0052229543 0.014301462 -0.0056717303 0.029525535
0.021548012 0.021198135 -0.024699513 0.024030866 0.03321106 -0.006492249 -0.0028122424 -0.014318853
0.0041570393 -0.0392755 0.024474189 0.009363703 -0.034348857 -0.009695021 -0.0034000482 0.0059735365
00000000: a08f 9f3b 5b38 64bc fab7 41bc 2ae5 94bc
00000010: 1edb 513c 4fa2 fcbb 90ea de3c 75fc 13bd
00000020: 37ba c43b 4eaf 3e3c cc66 9abc 25b6 8b3b
00000030: 870a a83c 549f 753c e7d4 41bb 5446 eabb
00000040: f617 66bc f481 363b 5976 18bc 4480 193d
00000050: 6c27 833c 40b1 f3bb 7c98 1ebc 77c9 05bd
00000060: 8dd6 36bc e2da 2dbc a315 c4bc 5c82 013d
00000070: 85b7 d23c 14de 103d d0b5 18bb e68f ae3c
00000080: 1fa2 af3c c481 f33c c841 883a 01d0 ba3b
00000090: af6d 373c f047 6e3c ff7d 8e3c 7a7d db3b
000000a0: 2c5d 10bb 8862 e0bb eaf6 26bc 32a8 d6bb
000000b0: 825e a13b ad15 493c b70b d9bc ae26 babb
000000c0: b39e 83bb d0d4 54bc 6dfd d83c 5285 9c3c
000000d0: 8ea2 d43c 7a7e 763a bd9c 25ba 24e2 94bc
000000e0: ba13 1b3d 2d24 6c3d 453b 8bbc d548 593c
000000f0: f29d f23b b31c e53c c0f5 533c 9bfa 9ebb
00000100: 79ca ef3b 41a2 ad3c 1da0 a3bc 97ef b23b
00000110: 2e44 713c d8b0 493c aa90 f03a 8fac 123c
00000120: 1d97 fbbc a7b4 b6bc c860 8c3b 3b38 06bd
00000130: dc2c 6abc 97e2 ffba 14ed ba3c 0b6b c33b
00000140: c7e4 093b 8c50 0abd 0c55 d9bb c3a5 323c
00000150: c421 b739 dcc1 a5bc 47a8 8b3c aac4 bf3b
00000160: 505c 07bd f608 0a3d c1b3 3bb9 dd61 87bc
00000170: 9a4b b7bc 70e0 43bc 0e1b 1bbb 13ee 3dbc
00000180: 024a a8bc a004 003d a1dc 5bbc fda8 0ebc
00000190: 0143 b2bc 99e9 033d 5d4c 523b 5da2 2cbc
000001a0: 45f9 00bc 93c3 6e3b 47e6 183c 2f85 02bd
000001b0: 00d1 2f3c 68bf babb 631a 533c 9a24 aebc
000001c0: 6dc5 963b e580 213b 2abd dd3c 7beb 7abc
000001d0: c0bf 44bc cda2 103c a8f9 b8bc 1e62 f33c
000001e0: 3fe2 5dbc 7389 5b3b 39a2 23bb efdf 1abd
000001f0: 36e1 923b 6ee9 dcba e71f e2bc aebe 823c
00000200: 2dee afbc 347b 97bb 7057 973c bc4c 4f3c
00000210: 362d 37bd 375b ef3b 854b 0fbc 0d2b 083c
00000220: 51a1 11bc 8708 d1bb beaf ca3c e37c 9dbc
00000230: 0aa3 5ebc 8c74 d43c 2455 0f3c ab7a 01bd
00000240: 81ee 9a3c b693 06bd 3985 873c 421b eb3c
00000250: e99a 83bc 2b34 67bc c2e1 dfbc 4652 c53b
00000260: 22bc b9bc 8557 5b3c edff d73b 32ff 523c
00000270: a122 9dbb 869e 0c3d a694 39bb b721 fa3c
00000280: ab5b e8bc ca2a 9cbc f89d ac3c 8c11 dc3b
00000290: f8d2 80bc 3580 0fbd 7d15 b5bc b1d5 00bd
000002a0: 1b33 08bd 9908 983c 6d12 acbc cb95 bdbc
000002b0: a498 5b3b 30fe 233c 2faa 833c 37a1 acbc
000002c0: 0e7f 1a3d bc0c de3c 86c7 f33c 9fab 57bb
000002d0: 67b1 45bc 1742 19bb 69d4 cfbc 6472 00bd
000002e0: 68ad 24bb c843 8cbc 295e 433c a591 1e3d
000002f0: 0879 023c 3116 cc3c e979 e3bb 9698 4d3c
00000300: 3e09 febc 56e7 1b3d 1cd8 823d dd40 c4bc
00000310: e79a fd3c 9d34 8fbb 0284 7f3c f5cc 45bd
00000320: 435b fc3b fecd 723c 4324 233d 5129 f93c
00000330: 0a3e febb be72 d1bc 7f99 f23b 5045 e6b9
00000340: d88b b6bc 54eb e93b d4df 56bd 2629 9fbc
00000350: d4ff 733d abcc 8fbc d12c 313d 173d 01bc
00000360: e9b6 4bbd 0dc3 0f3d 0bfe 6b3c 4dad 5abc
00000370: 55cb ccbc 9834 2ebc 2d3d 283d c5bb d43c
00000380: bddd 55bc 3900 a23c 1e8c 3a3c a405 0a3d
00000390: f6bb d0bb c5ff 35bb 0a4f 9d3c c599 5b3c
000003a0: 3e25 ecbc 7ddb cdbc 7d86 bfbc e871 063c
000003b0: 5125 ab3b ae50 6a3c ecd9 b9bb 89df f13c
000003c0: 7585 b03c b6a7 ad3c a256 cabc 61dc c43c
000003d0: 5208 083d efbc d4bb 994d 38bb 9f99 6abc
000003e0: c637 883b 59df 20bd 187e c83c 386a 193c
000003f0: 63b1 0cbd ded7 1ebc 58d3 5ebb a8bd c33b

action_model._continuous_distribution.mu.bias f4 [2]
-0.0029669665 0.02695146
00000000: 7071 42bb 4fc9 dc3c

exp_avg f4 [128, 3]
0.00059023715 0.00027264273 0.000888588 6.672606e-08 -4.7188623e-05 -1.3626111e-06 -0.000756857 -0.00037421772
-0.0011384863 2.7310738e-05 3.9397037e-06 4.134021e-05 9.723908e-05 2.375998e-05 0.00014690246 7.440841e-06
-9.273238e-05 1.1843581e-05 -4.785659e-05 2.9710793e-07 -7.214858e-05 3.158901e-05 -4.6328314e-05 4.544767e-05
0.0008853298 0.00027995527 0.0013337275 -0.00011623742 2.4809735e-05 -0.00017465661 7.773183e-05 6.5608234e-05
0.00011797953 -8.6209366e-05 -0.000108209235 -0.00012902643 -0.00019764749 -0.000101627396 -0.00029720494 -0.0007381318
-0.00021964095 -0.0011124993 0.00028110176 7.34482e-05 0.00042351618 -0.0003975189 -0.00018558242 -0.00059735094
-0.00020683713 -6.0239658e-05 -0.0003122709 0.001051529 0.00036759127 0.0015829363 9.494082e-05 -7.488509e-06
0.0001440243 -0.00016054334 -5.5503446e-05 -0.00024092833 5.255343e-05 3.7952166e-05 7.936252e-05 0.0005702707
0.00015920436 0.0008598757 -0.000615344 -0.00019566213 -0.0009270947 -1.976435e-05 -4.033095e-05 -3.056092e-05
0.00076879526 0.000258319 0.0011587326 -1.3275419e-05 -5.938583e-05 -1.9668125e-05 -5.601735e-05 -6.0102935e-05
-8.372182e-05 -0.0011547667 -0.00045787805 -0.0017395542 -3.684093e-05 1.4660126e-05 -5.5881814e-05 -0.0007875574
-0.00029002575 -0.0011863523 0.00014085388 -4.6407094e-06 0.00021213178 0.00017495385 4.83212e-05 0.00026306245
-0.0007560573 -0.00037769123 -0.0011390297 6.278869e-05 -2.0237849e-05 9.404666e-05 -8.388681e-06 -2.8972512e-05
-1.2799323e-05 -4.1419e-05 -6.735085e-05 -6.103527e-05 -0.00042038833 -0.00022014245 -0.000632018 3.511785e-06
2.491377e-05 6.310191e-06 -3.688138e-05 -9.787922e-05 -5.4397788e-05 -0.00018019348 -6.952358e-05 -0.00027320965
0.00010131569 9.173123e-05 0.00015320169 -8.504646e-05 6.353921e-06 -0.0001294187 0.0005126714 0.00018453378
0.00077158754 -2.274714e-05 1.7812526e-05 -3.4176966e-05 -0.00086478394 -0.0003240088 -0.0013013037 1.7402634e-05
-7.858835e-06 2.6252665e-05 0.00021839312 2.1946462e-05 0.00032961674 8.135614e-05 3.5771183e-05 0.00012191615
-0.00034816278 -0.0001743035 -0.00052445533 0.0003918207 0.000135652 0.0005899125 6.601659e-05 4.773228e-06
9.879946e-05 0.00026171986 0.00010984236 0.00039345017 0.0006718557 0.00026289804 0.0010110424 3.412645e-05
1.525725e-05 4.9855258e-05 -2.7366666e-05 -1.6999016e-05 -4.1552266e-05 0.00040669102 0.00015970979 0.0006111398
0.00075891917 0.0002736687 0.0011426235 -2.950899e-05 1.9061474e-05 -4.3258795e-05 5.0268125e-05 -2.7951408e-05
7.5172386e-05 4.968644e-05 3.1195577e-05 7.563716e-05 9.3107796e-05 4.4849352e-05 0.00014009062 3.4184053e-05
2.2966942e-05 5.1495164e-05 -6.085432e-05 3.056983e-05 -9.1699425e-05 6.683413e-05 3.9594604e-05 0.00010074102
-2.6696878e-06 3.806481e-05 -4.225941e-06 0.00020465793 8.634086e-05 0.00030900625 -2.9152081e-05 -4.9584437e-06
-4.3976866e-05 -0.00064825633 -0.0003406883 -0.0009753295 -8.2882594e-05 -6.887496e-05 -0.00012336235 0.0006705949
0.00023474301 0.0010095143 0.0005333 0.00017754879 0.00080285413 -0.00033363543 -0.00019091902 -0.00050232996
1.5013964e-05 -2.3553866e-06 2.2659218e-05 1.2234271e-05 -1.4690695e-05 1.7971157e-05 5.5019158e-05 9.903852e-07
8.296643e-05 -0.00036913579 -0.00015333635 -0.000556426 1.4158171e-06 -1.359059e-05 1.5155501e-06 -2.0209196e-05
3.0460202e-05 -3.0038054e-05 0.0009726532 0.0003313759 0.0014649935 -1.1205899e-08 3.814425e-05 1.1500186e-06
9.922969e-06 1.9419806e-05 1.4912429e-05 0.0005314385 0.00024354878 0.0007992136 -0.00041828412 -0.00019568636
-0.0006291822 -3.092004e-05 3.237706e-06 -4.529067e-05 0.00028434742 7.1238144e-05 0.00042835757 0.0002035254
00000000: 25ba 1a3a 7df1 8e39 22f0 683a 0a4b 8f33
00000010: 66ec 45b8 f6e2 b6b5 d067 46ba a732 c4b9
00000020: 4339 95ba 5d19 e537 cc31 8436 b664 2d38
00000030: d5ec cb38 2b50 c737 d409 1a39 56ac f936
00000040: 5179 c2b8 cbb3 4637 9fb9 48b8 3482 9f34
00000050: 794e 97b8 717e 0438 a650 42b8 109f 3e38
00000060: 7a15 683a f6c6 9239 78d0 ae3a 7dc4 f3b8
00000070: 801e d037 0724 37b9 f503 a338 2797 8938
00000080: c76b f738 4dcb b4b8 64ee e2b8 454b 07b9
00000090: 983f 4fb9 cb20 d5b8 2cd2 9bb9 307f 41ba
000000a0: 6b4f 66b9 48d1 91ba d760 9339 3408 9a38
000000b0: 610b de39 156a d0b9 e798 42b9 8b97 1cba
000000c0: 6be2 58b9 d7a9 7cb8 4ab8 a3b9 75d3 893a
000000d0: 44b9 c039 877a cf3a f71a c738 cd45 fbb6
000000e0: 3b05 1739 8657 28b9 5fcc 68b8 b5a1 7cb9
000000f0: d16c 5c38 d42e 1f38 6e6f a638 387e 153a
00000100: 18f0 2639 4869 613a 094f 21ba a72a 4db9
00000110: 4608 73ba 9ecb a5b7 0729 29b8 8a2e 00b8
00000120: fa88 493a fd6e 8739 9de0 973a 7eb9 5eb7
00000130: 0d15 79b8 fafc a4b7 2cf4 6ab8 0917 7cb8
00000140: cf93 afb8 8a5b 97ba 5a0f f0b9 c101 e4ba
00000150: a685 1ab8 c3f4 7537 a462 6ab8 1574 4eba
00000160: 990e 98b9 617f 9bba 2db2 1339 64b7 9bb6
00000170: b16f 5e39 d173 3739 7eac 4a38 a5eb 8939
00000180: 2632 46ba dc04 c6b9 7f4b 95ba 6cad 8338
00000190: 73c4 a9b7 eb3a c538 1cbd 0cb7 ff09 f3b7
000001a0: acbc 56b7 50b9 2db8 b63e 8db8 1000 80b8
000001b0: 9167 dcb9 0ad6 66b9 03ae 25ba 02ac 6b36
000001c0: eafd d037 21bc d336 15b1 1ab8 8244 cdb8
000001d0: 2e29 64b8 52f2 3cb9 30cd 91b8 943d 8fb9
000001e0: 7279 d438 d45f c038 c4a4 2039 f85a b2b8
000001f0: c433 d536 91b4 07b9 cc64 063a 697f 4139
00000200: 5d44 4a3a 1cd1 beb7 1c6c 9537 3d59 0fb8
00000210: abb2 62ba badf a9b9 8290 aaba dffb 9137
00000220: 70d9 03b7 2b39 dc37 7500 6539 ab19 b837
00000230: 69d0 ac39 bf9d aa38 0409 1638 3cad ff38
00000240: 9e89 b6b9 3dc5 36b9 9a7b 09ba 496d cd39
00000250: ce3d 0e39 5ca4 1a3a 6372 8a38 b729 a036
00000260: 8e32 cf38 7237 8939 2b5b e638 fd47 ce39
00000270: 791f 303a 94d5 8939 f484 843a ff22 0f38
00000280: 64f9 7f37 ad1b 5138 7891 e5b7 1c99 8eb7
00000290: 6848 2eb8 2539 d539 c577 2739 e634 203a
000002a0: 34f2 463a 317b 8f39 15c4 953a 138a f7b7
000002b0: 34e6 9f37 c770 35b8 fdd6 5238 3179 eab7
000002c0: dea5 9d38 6966 5038 ffd7 0238 649f 9e38
000002d0: de42 c338 a01c 3c38 4ae5 1239 d960 0f38
000002e0: 22a9 c037 83fc 5738 d43d 7fb8 1b38 0038
000002f0: c14e c0b8 4d29 8c38 6212 2638 ec44 d338
00000300: e328 33b6 c7a7 1f38 8fcc 8db6 7299 5639
00000310: e511 b538 1e02 a239 9e8b f4b7 b560 a6b6
00000320: cd73 38b8 bfef 29ba 699e b2b9 41ad 7fba
00000330: 41d1 adb8 f670 90b8 d45a 01b9 ddca 2f3a
00000340: 5925 7639 ae51 843a 28cd 0b3a 642c 3a39
00000350: a176 523a caeb aeb9 6f31 48b9 cbae 03ba
00000360: 7ce4 7b37 3c11 1eb6 4d14 be37 cb41 4d37
00000370: 0e78 76b7 c4c0 9637 5fc4 6638 60ed 8435
00000380: 43fe ad38 9188 c1b9 eac8 20b9 1edd 11ba
00000390: 1b07 be35 2403 64b7 e869 cb35 eb86 a9b7
000003a0: c984 ff37 3bfa fbb7 a7f9 7e3a 85bc ad39
000003b0: 0605 c03a 1184 40b2 14fd 1f38 575a 9a35
000003c0: d47a 2637 b7e7 a237 6530 7a37 3c50 0b3a
000003d0: 2161 7f39 5182 513a 254d dbb9 2831 4db9
000003e0: b4ef 24ba 24b0 01b8 5e47 5936 7df6 3db8
000003f0: 7714 9539 b065 9538 2e95 e039 6f69 5539

exp_avg_sq f4 [128, 3]
6.729965e-07 3.2591387e-08 1.2697543e-06 7.5153287e-07 4.9672305e-08 8.127163e-08 1.9806982e-06 1.3216902e-07
4.201402e-06 6.402803e-08 9.690487e-09 1.5297529e-08 2.8016922e-07 2.990424e-08 4.6775736e-07 1.085685e-06
1.4096432e-07 2.0986464e-07 2.9524736e-08 1.2318683e-09 6.5448886e-09 6.160473e-07 3.325727e-08 1.3375539e-07
9.020451e-07 3.2600557e-08 1.4941877e-06 8.9202736e-08 9.959783e-09 1.0441698e-07 1.288783e-07 5.633169e-09
1.4258832e-08 1.1322718e-06 8.9197464e-08 1.1693593e-06 1.5699996e-07 6.336902e-09 1.8269942e-07 2.481006e-06
8.319671e-08 4.479198e-06 1.8526826e-07 6.3167e-09 3.879726e-07 5.756838e-07 3.7728075e-08 1.2458767e-06
2.0446109e-07 7.0798016e-09 2.6088804e-07 8.211056e-07 3.613309e-08 1.7038722e-06 2.382084e-07 1.4185008e-08
7.3879775e-08 5.8477852e-08 1.9956511e-08 8.4158025e-08 2.8156344e-07 9.861751e-09 2.268339e-08 1.0258622e-06
7.567809e-08 1.7768627e-06 8.2230054e-07 3.418687e-08 1.6592393e-06 1.8592509e-07 2.3665947e-08 1.9161469e-08
1.063536e-06 3.947689e-08 1.5528743e-06 1.5581575e-07 9.109132e-09 2.7208898e-07 2.1118294e-07 3.6706854e-08
2.3341917e-07 1.867123e-06 1.1436787e-07 2.8821632e-06 1.8984504e-07 4.989323e-09 1.5254408e-08 1.0907245e-06
4.919491e-08 2.1053354e-06 5.8723924e-07 3.2768003e-08 6.815255e-07 1.9129105e-07 7.4161375e-09 4.0066394e-07
5.544746e-07 8.770304e-08 4.506351e-07 7.3265954e-07 4.3292438e-08 5.10333e-08 1.690224e-08 2.2435143e-09
1.2817478e-08 8.34289e-07 5.375999e-08 1.7939593e-06 6.401341e-07 4.2928317e-08 1.272369e-06 2.9140764e-07
1.6636594e-08 2.7853286e-08 1.4250755e-06 6.044414e-08 3.020424e-06 8.8261356e-07 2.412129e-08 1.4610029e-07
2.4954016e-07 1.2082712e-08 4.8372815e-08 5.3250415e-07 4.8780695e-08 1.0197255e-06 1.0289622e-06 4.7943907e-08
6.993608e-07 2.6936056e-07 1.0959787e-08 1.9839e-08 8.271249e-07 4.0801137e-08 1.8322368e-06 6.1918875e-08
1.2373307e-08 1.0711277e-08 2.5386606e-07 2.2116016e-08 4.5007278e-07 1.3624499e-07 6.6367805e-09 2.9699362e-07
1.8879075e-07 1.755698e-08 1.3104581e-07 2.0475086e-07 7.661902e-09 2.7550698e-07 1.5203045e-07 8.670979e-09
5.1571362e-08 1.16274364e-07 9.157304e-09 2.4856502e-07 4.1760885e-07 2.1461096e-08 6.158759e-07 6.059768e-07
1.7104082e-08 5.351198e-07 5.4180763e-08 6.6713084e-09 4.493963e-08 1.0213766e-06 4.4581856e-08 2.2388726e-06
4.1239065e-07 2.2822121e-08 8.937603e-07 2.8450546e-07 2.244185e-08 4.3470394e-08 8.9779604e-08 5.758185e-09
2.804216e-08 9.7649426e-08 1.6386455e-08 7.1958375e-08 3.5589206e-08 1.3590724e-09 4.0282364e-09 2.021758e-08
2.7266482e-09 6.711975e-09 5.9611104e-08 1.4072323e-08 9.1805454e-08 1.1739111e-07 5.1532245e-09 1.6678676e-08
1.4697537e-07 7.876386e-09 7.713317e-08 1.867735e-07 1.7803833e-08 5.8011633e-08 5.4301417e-08 2.5184117e-09
1.7562982e-08 1.4345638e-06 9.7662436e-08 2.968924e-06 4.6610666e-07 4.755859e-08 8.001726e-07 9.819058e-07
7.2442255e-08 1.039064e-06 1.8465626e-07 1.3695597e-08 2.8517866e-07 1.3538072e-06 1.4039547e-07 1.1504785e-06
1.05271944e-07 4.7175845e-09 1.1616846e-08 2.3701969e-07 1.0821015e-08 1.5690045e-08 3.5339593e-07 1.9368468e-08
3.2107543e-08 3.5099868e-07 1.4730169e-08 6.6414947e-07 1.8194149e-07 7.383394e-09 3.0678898e-08 2.398777e-07
1.2179416e-08 5.0209533e-08 1.0336336e-06 4.4295387e-08 2.1358112e-06 2.2604978e-07 9.092442e-09 4.8639144e-08
3.0127826e-08 4.0986445e-09 1.4398792e-08 1.1991486e-06 4.8387058e-08 2.6379564e-06 3.0871172e-07 2.1763793e-08
6.320881e-07 1.5666085e-06 5.0902614e-08 1.152911e-07 2.8884833e-07 1.6386634e-08 5.4371617e-07 1.7051663e-07
00000000: f8a7 3435 9cfa 0b33 6d6c aa35 f2bc 4935
00000010: 4757 5533 8d87 ae33 23ec 0436 58ea 0d34
00000020: c5f9 8c36 c87f 8933 367b 2632 9f67 8332
00000030: 2a6a 9634 0f70 0033 1520 fb34 dab7 9135
00000040: fa5b 1734 2757 6134 959d fd32 834e a930
00000050: 73e1 e031 735e 2535 c1d6 0e33 679e 0f34
00000060: 1124 7235 b104 0c33 e68b c835 b98f bf33
00000070: 971b 2b32 d83b e033 cc61 0a34 e18d c131
00000080: 02f7 7432 90f8 9735 d38c bf33 e1f2 9c35
00000090: d293 2834 fbbb d931 092c 4434 5c7f 2636
000000a0: e0a9 b233 054c 9636 27ee 4634 480a d931
000000b0: 8c4a d034 b188 1a35 750a 2233 ff37 a735
000000c0: d689 5b34 9842 f331 2e10 8c34 f269 5c35
000000d0: c130 1b33 9ab0 e435 3ac6 7f34 53b2 7332
000000e0: d6a7 9e33 1429 7b33 d56c ab32 5dba b433
000000f0: c929 9734 716c 2932 4dd9 c232 5bb0 8935
00000100: 7884 a233 8a7c ee35 10bc 5c35 dcd4 1233
00000110: 07b3 de35 b3a2 4734 f849 cb32 8498 a432
00000120: d2be 8e35 4d8d 2933 5b6c d035 4f4e 2734
00000130: 637e 1c32 a013 9234 86c1 6234 9da7 1d33
00000140: c6a1 7a34 dc99 fa35 679a f533 306b 4136
00000150: 35d8 4b34 8d6e ab31 cc08 8332 0265 9235
00000160: 604a 5333 6349 0d36 c6a2 1d35 cdbc 0c33
00000170: 13f2 3635 af65 4d34 09d1 fe31 d51a d734
00000180: 34d7 1435 4257 bc33 d1ee f134 fbab 4435
00000190: 8af0 3933 b52f 5b33 6b30 9132 522c 1a31
000001a0: dd33 5c32 e7f3 5f35 bce5 6633 f9c7 f035
000001b0: aed5 2b35 2f60 3833 44c6 aa35 c372 9c34
000001c0: 42e8 8e32 0642 ef32 3945 bf35 84cd 8133
000001d0: 7db2 4a36 beec 6c35 4733 cf32 bedf 1c34
000001e0: 8af8 8534 5494 4f32 79c2 4f33 68f1 0e35
000001f0: f182 5133 80dd 8835 df1a 8a35 e2ea 4d33
00000200: b5bb 3b35 a29c 9034 a749 3c32 6c6a aa32
00000210: 9707 5e35 533d 2f33 2deb f535 43f8 8433
00000220: 6192 5432 b204 3832 164b 8834 a2f9 bd32
00000230: 88a1 f134 bd4a 1234 bd09 e431 7e72 9f34
00000240: 68b6 4a34 35d0 9632 99b5 0c34 7dd9 5b34
00000250: 67a1 0332 64e9 9334 d03d 2334 5ef7 1432
00000260: 507f 5d33 82b2 f933 4052 1d32 8472 8534
00000270: b933 e034 7359 b832 ab52 2535 69aa 2235
00000280: 46ec 9232 27a5 0f35 61b4 6833 7339 e531
00000290: a503 4133 3c16 8935 457a 3f33 8a3f 1636
000002a0: 8a66 dd34 600a c432 bdea 6f35 22be 9834
000002b0: 26c6 c032 34b4 3a33 dccc c033 88d9 c531
000002c0: 5de1 f032 57b3 d133 32c2 8c32 8987 9a33
000002d0: bfda 1833 1cca ba30 be68 8a31 eeaa ad32
000002e0: b45f 3b31 289f e631 8d03 8033 bbc2 7132
000002f0: 9526 c533 7218 fc33 3e10 b131 cc44 8f32
00000300: 48d0 1d34 b650 0732 69a4 a533 e98b 4834
00000310: 0bef 9832 7728 7933 0a39 6933 5e10 2d31
00000320: 68dd 9632 3d8b c035 7eba d133 ba3d 4736
00000330: 363d fa34 3943 4c33 71cb 5635 07ca 8335
00000340: 8d91 9b33 f875 8b35 ed45 4634 df49 6b32
00000350: a81a 9934 76b4 b535 9dbf 1634 246a 9a35
00000360: dd11 e233 5018 a231 6e93 4732 7a7f 7e34
00000370: 54e7 3932 c6c6 8632 5eba bd34 b65f a632
00000380: 9ee6 0933 e470 bc34 f80f 7d32 0148 3235
00000390: b25b 4334 05b1 fd31 cec3 0333 8ac8 8034
000003a0: a33d 5132 f7a5 5733 61bb 8a35 4b3f 3e33
000003b0: f554 0f36 17b8 7234 fc34 1c32 4ee7 5033
000003c0: e565 0133 0fd4 8c31 8f5e 7732 6ff2 a035
000003d0: 22d2 4f33 bf07 3136 04bd a534 16f3 ba32
000003e0: c3ac 2935 4244 d235 04a0 5a33 f495 f733
000003f0: 0313 9b34 97c2 8c32 e4f3 1135 4117 3734

exp_avg f4 [128]
0.00054521294 -9.434066e-05 -0.0007483399 7.884872e-06 4.7540718e-05 -0.00018537597 5.8984625e-07 -9.264386e-05
0.00055989425 4.9593258e-05 0.00013121904 -0.00021633676 -0.00020323323 -0.0004392458 0.00014689377 -0.00037112032
-0.00012049642 0.00073512347 -1.4930613e-05 -0.00011098962 7.5870616e-05 0.00031840216 -0.00039129567 -8.0646045e-05
0.0005166478 -0.00011873607 -0.000120185876 -0.00091566093 2.9298582e-05 -0.00058001565 -9.2328855e-06 9.664043e-05
-0.00075528416 -4.0438354e-05 -5.793437e-05 -0.00013465602 -0.00044021616 4.981935e-05 -0.00019570401 -0.00013906871
0.0001834237 1.2706134e-05 0.00036900034 3.5597775e-05 -0.00064796186 -1.5704225e-05 4.3916218e-05 7.152924e-05
-0.0003485727 0.00027127453 9.54483e-06 0.00021965877 0.0005257348 3.0479488e-05 -3.398347e-05 0.0003193665
0.00054729945 3.8126378e-05 -5.5878067e-05 6.240149e-05 8.968478e-05 4.5915425e-05 6.11265e-05 7.917157e-05
7.609194e-05 0.00017268659 -9.923696e-06 -0.00068127626 -0.00013770502 0.0004694287 0.00035507628 -0.000381737
-4.7145504e-06 -2.9362105e-05 2.0166108e-06 -0.00030664506 -2.7179274e-05 6.088741e-05 0.0006627123 7.626976e-05
3.8828333e-05 0.00048700674 -0.00039133342 6.522139e-06 0.0001424941 0.00022543414 0.00061467156 -1.4751203e-05
-0.00014787403 0.00032398157 -0.00015150318 -8.130334e-05 -5.5223878e-05 -0.00027166997 -0.00030725717 0.00016622477
6.881614e-05 6.355491e-05 -2.1469618e-06 0.00012924519 -0.00011275915 -3.2592085e-05 0.00054926367 2.5601574e-05
0.00021936501 -0.00055446284 0.000115042036 -4.1512627e-05 5.2758827e-05 -0.0005488807 -8.268406e-05 -0.000119513075
3.994645e-05 -0.00029154602 -8.2003506e-05 -4.9580958e-05 1.5694153e-05 2.9667206e-05 0.00043940707 -8.130372e-05
-0.00014722187 2.2658382e-05 -0.000111080786 -8.836621e-05 -7.462273e-05 -5.893777e-05 -0.00030814426 -4.8274975e-05
00000000: 9fec 0e3a c2d8 c5b8 3e2c 44ba 4449 0437
00000010: 7566 4738 7c61 42b9 ed55 1e35 cb49 c2b8
00000020: dec5 123a 5b02 5038 d897 0939 75d8 62b9
00000030: 011b 55b9 934a e6b9 7f07 1a39 ed92 c2b9
00000040: 06b3 fcb8 4db5 403a 7f7e 7ab7 19c3 e8b8
00000050: ba1c 9f38 37ef a639 d126 cdb9 8420 a9b8
00000060: a66f 073a f101 f9b8 4d0c fcb8 f708 70ba
00000070: 3ac6 f537 310c 18ba f1e6 1ab7 70ab ca38
00000080: 43fe 45ba 5a9c 29b8 8efe 72b8 7332 0db9
00000090: d0cc e6b9 1ff5 5038 e535 4db9 f9d2 11b9
000000a0: 6d55 4039 6e2c 5537 6376 c139 d24e 1538
000000b0: fcdb 29ba 91bc 83b7 ae32 3838 f801 9638
000000c0: a3c0 b6b9 da39 8e39 bc22 2037 3454 6639
000000d0: 77d1 093a 34ae ff37 7989 0eb8 a570 a739
000000e0: a578 0f3a e3e9 1f38 9e5e 6ab8 8bdd 8238
000000f0: 2615 bc38 5095 4038 0a31 8038 ea08 a638
00000100: 8d93 9f38 3413 3539 f37d 26b7 ad97 32ba
00000110: e964 10b9 a71d f639 8829 ba39 df23 c8b9
00000120: ae31 9eb6 a44e f6b7 1c55 0736 34c5 a0b9
00000130: 0cff e3b7 5c61 7f38 dfb9 2d3a 04f3 9f38
00000140: 9bdb 2238 f054 ff39 e22b cdb9 bfd8 da36
00000150: 786a 1539 8462 6c39 e921 213a ef7b 77b7
00000160: a20e 1bb9 12dc a939 d3dc 1eb9 6681 aab8
00000170: 30a0 67b8 ed6e 8eb9 5c17 a1b9 9f4c 2e39
00000180: 6251 9038 c848 8538 8614 10b6 fe85 0739
00000190: 1c79 ecb8 7cb3 08b8 76fc 0f3a f6c2 d637
000001a0: 5905 6639 5f59 11ba b942 f138 d81d 2eb8
000001b0: 5c49 5d38 c3e2 0fba ab66 adb8 18a3 fab8
000001c0: 2d8c 2738 a5da 98b9 4cf9 abb8 26f5 4fb8
000001d0: f0a6 8337 d7dd f837 3860 e639 9a81 aab8
000001e0: 925f 1ab9 8112 be37 0bf4 e8b8 3f51 b9b8
000001f0: c67e 9cb8 f333 77b8 6c8e a1b9 dc7a 4ab8

exp_avg_sq f4 [128]
1.3003707e-07 1.979958e-07 5.255049e-07 3.8467604e-08 1.1904715e-07 5.566107e-07 5.0808615e-09 1.3345485e-07
1.3024543e-07 3.9774537e-08 2.1758762e-08 3.5287889e-07 2.5494666e-08 3.336467e-07 2.5286212e-08 1.5076755e-07
2.8572229e-08 1.4456701e-07 5.729659e-08 7.983828e-08 3.9015465e-08 3.026487e-07 1.3702844e-07 9.475873e-08
1.5725611e-07 3.6312954e-08 1.4634129e-07 4.5582465e-07 2.0557371e-08 1.9732659e-07 1.2980249e-07 2.9778581e-08
3.4750158e-07 1.7056921e-07 8.793091e-09 2.1372625e-07 1.7148999e-07 6.7015655e-08 2.4205147e-07 1.0000856e-07
4.818141e-08 1.9529578e-07 1.8914788e-07 4.2826283e-08 1.6301209e-07 4.925184e-08 8.812746e-08 2.6556052e-08
6.883844e-08 3.065236e-08 3.4029636e-08 3.642809e-08 8.567287e-08 7.05574e-08 2.6529925e-08 1.7824883e-07
9.082516e-08 8.694206e-08 2.30442e-08 6.428952e-08 5.4773004e-09 1.0953994e-08 5.645378e-08 2.0578115e-08
3.1220125e-08 7.03296e-08 1.026119e-08 3.8915204e-07 1.8938394e-07 2.812823e-07 5.4269968e-08 5.5598355e-07
1.9279877e-08 4.3259117e-08 7.551288e-08 5.8965455e-08 3.0255716e-08 4.832512e-08 1.7741127e-07 3.6984147e-08
1.6484451e-08 1.9267753e-07 8.670548e-08 1.9676776e-07 6.5429774e-08 4.363371e-08 1.3922981e-07 1.316698e-07
5.383022e-08 5.8893793e-08 1.3029121e-07 1.7164146e-07 4.1797556e-08 5.3104422e-08 9.769762e-08 7.093128e-08
1.8039344e-08 8.491608e-08 1.6941298e-08 1.09587575e-08 1.7412162e-07 1.0294158e-07 3.3198447e-07 3.811039e-08
3.5802938e-08 1.5235963e-07 1.5418134e-08 1.633603e-08 1.6366535e-07 1.3220503e-07 2.6763828e-07 1.14607516e-07
9.8625975e-08 1.5748671e-07 6.8494906e-08 1.3747271e-07 4.8378602e-08 1.1563187e-08 1.6657893e-07 2.1536088e-07
1.6130934e-07 8.142484e-09 2.139101e-07 1.3243157e-07 4.0852942e-08 1.18763825e-08 5.70433e-08 6.086818e-08
00000000: 51a0 0b34 ac98 5434 6c10 0d35 9437 2533
00000010: dda6 ff33 ff69 1535 bb93 ae31 ca4b 0f34
00000020: 97d9 0b34 91d4 2a33 06e8 ba32 4e73 bd34
00000030: 5dff da32 0e20 b334 f834 d932 abe2 2134
00000040: ff6e f532 473a 1b34 4416 7633 8f73 ab33
00000050: f591 2733 b87b a234 1722 1334 2a7e cb33
00000060: 3bda 2834 84f6 1b33 fd21 1d34 10b8 f434
00000070: 2396 b032 b8e0 5334 d65f 0b34 cbcb ff32
00000080: 4190 ba34 b525 3734 6c10 1732 a07c 6534
00000090: cf22 3834 3fea 8f33 4df3 8134 4ac4 d633
000000a0: 05f0 4e33 7fb2 5134 9318 4b34 ffef 3733
000000b0: 6c08 2f34 f988 5333 9540 bd33 601d e432
000000c0: 55d4 9333 a0a6 0333 fb27 1233 1c75 1c33
000000d0: 29fb b733 5785 9733 ece3 e332 aa64 3f34
000000e0: a90b c333 e7b4 ba33 bbf2 c532 8a0f 8a33
000000f0: d832 bc31 2d30 3c32 9677 7233 c1c3 b032
00000100: e416 0633 1b08 9733 3149 3032 a6ec d034
00000110: 7659 4b34 2503 9734 7616 6933 e63e 1535
00000120: e69c a532 e7cb 3933 a529 a233 3441 7d33
00000130: 83f2 0133 088e 4f33 707e 3e34 80d8 1e33
00000140: b199 8d32 cce2 4e34 d732 ba33 1c47 5334
00000150: 6682 8c33 c667 3b33 337f 1534 1e61 0d34
00000160: f432 6733 69f2 7c33 2de6 0b34 724c 3834
00000170: e684 3333 ee14 6433 d6cd d133 e252 9833
00000180: f0f4 9a32 1c5b b633 4f86 9132 2045 3c32
00000190: 30f6 3a34 bb10 dd33 993b b234 d1ae 2333
000001a0: bfc5 1933 4c98 2334 d670 8432 4f53 8c32
000001b0: fdbb 2f34 3ef4 0d34 edaf 8f34 261e f633
000001c0: 34cc d333 9e19 2934 7917 9333 369c 1334
000001d0: d6c8 4f33 6fa7 4632 dedc 3234 f33d 6734
000001e0: 6034 2d34 06e3 0b32 29af 6534 8332 0e34
000001f0: 4976 2f33 e208 4c32 c6ff 7433 a3b6 8233
