python/results/minion_walk_002/Minion/Minion-4898.onnx (onnx, 71890 bytes, 7 tensors)

network_body._body_endoder.seq_layers.0.weight f4 [128, 3]
0.05413065 -0.3170289 0.07380945 -0.40565646 0.29037783 -0.22530247 0.19916302 0.7771363
0.8379858 0.38059938 1.093076 -0.73352766 -0.079709955 0.29187748 1.845233 -0.07198945
1.4535604 -0.4970905 -0.18229954 -0.28339934 -0.7065077 -0.25251564 -0.12047288 -0.636516
0.043306604 -0.0058383592 0.3489897 0.1529506 -0.832166 -0.7170978 -0.20822136 -0.0141197415
-0.17556398 -0.7962862 0.38717008 0.54605794 0.63301075 0.5256229 0.14419356 1.189462
-1.1956593 -0.20840813 0.39828143 0.1737094 0.05199757 1.104249 0.29907227 -0.5827117
-0.3351941 -1.0830345 0.702656 0.07414835 -0.7194302 0.3918891 -0.2603135 0.2992276
-0.01747612 0.54335755 0.6382287 -0.62250537 -0.54429215 -0.24105313 0.98935324 0.4797296
0.7589798 0.957916 0.6860967 0.11965139 -0.24317257 -0.43624014 0.8681861 -1.0754806
-0.15554456 0.40622178 0.6568652 0.6079085 0.67215073 -0.22238219 0.46602702 0.015106726
-0.43333682 -0.52518624 0.9718342 1.0106056 -0.47548738 -0.52062345 -0.54585415 0.5838135
-0.5683069 0.51874083 -0.3672781 0.02146336 0.42132446 1.1862634 -0.23033437 -0.09774124
-0.3543605 1.2704235 0.039798897 -0.9891074 0.71670663 -0.3713613 0.32265 0.36119705
-0.5232329 0.051309668 -0.14012869 0.47418043 0.3216296 0.6144137 -0.14147778 -1.8041496
-0.106696874 -0.11414754 0.7635118 0.0748124 -0.20753665 -0.42620593 -0.38017896 0.20728424
0.070533395 -0.05286717 -0.44236487 0.3088903 0.014523159 -0.10142453 -0.083535165 -0.21039706
0.8185661 -1.1785085 -0.20685826 -0.16740054 0.26423126 0.08718139 0.7470236 0.095864475
0.35614893 -0.45381382 0.21152359 0.39445773 0.29090637 0.44050014 -0.13598187 0.10993832
-0.19193776 0.71498007 -0.011875733 0.81064576 -0.11476164 -0.38009417 0.091627315 0.26148283
0.2290147 0.638568 0.004135091 -0.002344814 0.93815964 -0.35105813 -0.19373739 -0.2884132
-1.8729042 1.0680546 0.26434427 -0.12722446 -0.99604183 -0.15929052 -0.8705795 0.7129583
0.9810307 0.4456341 -0.18140428 -1.3443799 -0.06829317 0.04683508 -1.0072559 0.7802447
-0.12946585 -1.1933063 0.7212668 0.49777058 0.38987446 -0.07265878 -0.5630006 -0.10475148
-0.21172966 -0.22810018 0.42869145 -0.44032744 -0.8252585 0.23116188 0.18284976 -0.60273033
0.060303234 -0.18242854 0.17810227 -0.41013685 0.5884905 0.034105223 0.48993802 -0.4630629
-0.36439425 0.11440316 0.44863322 0.14521186 0.16836709 0.67819065 -0.18097495 -0.26071727
0.7454419 0.5462935 0.11449831 0.16659115 0.62299067 -0.31473884 1.0816326 0.10771454
0.6564816 -0.17230308 -1.080867 -0.6730491 -0.19957353 -1.1090238 -0.1527069 0.1825645
-0.38317466 -0.5099037 0.366006 1.1150932 -1.0422537 -0.33267444 -0.7119738 -0.28294018
-0.5767775 -0.32007506 0.8684287 -0.4127849 0.3655677 -0.08627055 0.016946582 -0.45789874
-0.4887289 -0.6846538 0.018327214 0.036445305 -0.9851691 0.3719492 0.33068702 0.2893839
-0.028089568 -0.54902333 -0.39738393 -0.4093547 -0.635889 0.66565865 1.5160674 0.9438167
00000000: 1ab8 5d3d 9d51 a2be 6929 973d 34b2 cfbe
00000010: 67ac 943e b1b5 66be 64f1 4b3e 68f2 463f
00000020: 3d86 563f ecdd c23e eae9 8b3f 78c8 3bbf
00000030: f93e a3bd f770 953e 9830 ec3f 346f 93bd
00000040: 440e ba3f a582 febe bbac 3abe b819 91be
00000050: b0dd 34bf bb49 81be 7cba f6bd b6f2 22bf
00000060: 4462 313d b54f bfbb c7ae b23e 159f 1c3e
00000070: d508 55bf b993 37bf fb37 55be 7d56 67bc
00000080: 0bc7 33be 6ad9 4bbf 283b c63e 74ca 0b3f
00000090: fe0c 223f 398f 063f 7aa7 133e 4a40 983f
000000a0: 5d0b 99bf f168 55be 8beb cb3e e1e0 313e
000000b0: 67fb 543d 0858 8d3f 0020 993e 982c 15bf
000000c0: 909e abbe e0a0 8abf 43e1 333f 17db 973d
000000d0: 942c 38bf b0a5 c83e d047 85be 5c34 993e
000000e0: 142a 8fbc 7b19 0b3f f562 233f 835c 1fbf
000000f0: bb56 0bbf a2d6 76be 4146 7d3f 1e9f f53e
00000100: 804c 423f fc39 753f 09a4 2f3f ca0b f53d
00000110: 3b02 79be de5a dfbe 7241 5e3f 59a9 89bf
00000120: 1347 1fbe 4dfc cf3e 5128 283f e49f 1b3f
00000130: 1212 2c3f 28b8 63be 189b ee3e 3482 773c
00000140: 53de ddbe 9b72 06bf 20ca 783f 865b 813f
00000150: 1573 f3be 9447 05bf 19bd 0bbf cd74 153f
00000160: 907c 11bf 33cc 043f e00b bcbe eed3 af3c
00000170: d7b7 d73e 7bd7 973f c6dc 6bbe 8f2c c8bd
00000180: bd6e b5be 3d9d a23f 2b04 233d 2436 7dbf
00000190: 167a 373f 1123 bebe 6132 a53e d2ee b83e
000001a0: 97f2 05bf 162a 523d e57d 0fbe c7c7 f23e
000001b0: a3ac a43e 374a 1d3f 8ddf 10be 60ee e6bf
000001c0: e483 dabd 2fc6 e9bd 8275 433f 3e37 993d
000001d0: 7d84 54be aa37 dabe d1a6 c2be 5242 543e
000001e0: d073 903d 3f8b 58bd a67d e2be df26 9e3e
000001f0: 8bf2 6d3c aab7 cfbd 7c14 abbd 5472 57be
00000200: 8c8d 513f 5ed9 96bf a7d2 53be 0c6b 2bbe
00000210: 5249 873e 288c b23d f03c 3f3f 9854 c43d
00000220: 2759 b63e 495a e8be a499 583e 5df6 c93e
00000230: aef1 943e 3c89 e13e d53e 0bbe 5827 e13d
00000240: 558b 44be ef08 373f 6f92 42bc 7b86 4f3f
00000250: 2708 ebbd b49b c2be 1aa7 bb3d 14e1 853e
00000260: d482 6a3e 3179 233f a87f 873b 73ab 19bb
00000270: 3b2b 703f e4bd b3be 1863 46be e5aa 93be
00000280: 53bb efbf 03b6 883f 2258 873e 2147 02be
00000290: 99fc 7ebf 0e1d 23be 4cde 5ebf 6f84 363f
000002a0: d424 7b3f 272a e43e 0bc2 39be a414 acbf
000002b0: 4add 8bbd 24d6 3f3d c3ed 80bf 1ebe 473f
000002c0: b292 04be 43be 98bf f1a4 383f c9db fe3e
000002d0: a09d c73e 20ce 94bd cf20 10bf f287 d6bd
000002e0: a9cf 58be 1893 69be 727d db3e 9972 e1be
000002f0: 2444 53bf b3b5 6c3e f83c 3b3e 894c 1abf
00000300: 8600 773d 8cce 3abe 7160 363e 75fd d1be
00000310: 50a7 163f ebb1 0b3d 28d9 fa3e 9516 edbe
00000320: e291 babe 344c ea3d 41b3 e53e 6bb2 143e
00000330: 6c68 2c3e e79d 2d3f 7f51 39be bc7c 85be
00000340: 48d5 3e3f e4d9 0b3f 177e ea3d df96 2a3e
00000350: 517c 1f3f 7325 a1be f072 8a3f 7199 dc3d
00000360: 2e0f 283f 3870 30be da59 8abf f24c 2cbf
00000370: 015d 4cbe 7ef4 8dbf 335f 1cbe 30f2 3a3e
00000380: 782f c4be 0d89 02bf 2365 bb3e 60bb 8e3f
00000390: 9268 85bf 4e54 aabe ea43 36bf 89dd 90be
000003a0: b1a7 13bf e1e0 a3be 5851 5e3f 8b58 d3be
000003b0: b12b bb3e 9dae b0bd 8fd3 8a3c b471 eabe
000003c0: ad3a fabe 7945 2fbf f422 963c ac47 153d
000003d0: 0b34 7cbf 2070 be3e cf4f a93e 202a 943e
000003e0: 181c e6bc cb8c 0cbf e875 cbbe f096 d1be
000003f0: 9fc9 22bf 9b68 2a3f 7f0e c23f f99d 713f

network_body._body_endoder.seq_layers.0.bias f4 [128]
-0.011088825 0.025138134 0.025887826 0.005689807 0.029349837 0.038527098 0.008532856 0.014976626
-0.0023862263 -0.021424834 0.0062861736 0.03214116 0.012600435 -0.0121802185 -0.012872007 0.037963364
0.0020739967 -0.001611412 0.022990905 0.0319369 -0.018136974 0.03266136 -0.020345446 0.031428903
0.0054780394 0.0013825168 0.030694047 0.022859994 -0.0028424633 -0.011099892 0.02803219 -0.005163539
0.029437857 0.02133848 0.009294608 0.03461805 0.03433825 -0.02164387 0.028813476 0.0014725495
8.1849554e-05 -0.03468724 -0.019401632 -0.024040882 0.009537194 0.030043907 0.037614167 -0.014838493
0.01288309 6.6413704e-05 -0.011003245 -0.03156106 -0.015514963 -0.0003191728 -0.0046393205 -0.030906692
-0.02241618 0.016892973 0.000546963 0.014239997 -0.008575034 -0.01632508 -0.034547567 0.005202688
-0.023693018 -0.014805179 0.0068214657 0.032543764 0.038893115 -0.017858492 -0.023276536 0.03356898
0.008772509 0.020043816 0.029190026 -0.0049530296 0.014205101 -0.02877685 0.016286632 -0.0129645495
-0.028949186 -0.026797751 0.0270723 0.016208425 0.025422225 0.00090634986 -0.015066661 0.019238487
0.02148745 -0.018930903 0.03879548 0.03819739 0.018012714 -0.0011935913 -0.008898045 -0.024735678
-0.008995158 0.011691588 0.0012008391 -0.023770513 0.026918259 0.03880082 -0.028989574 0.0048469584
-0.0016851178 0.024754774 -0.021283012 0.005084609 -0.015425468 0.021430882 0.01926872 -0.026408955
-0.014309013 0.0025424056 0.021405164 0.021070715 -0.017372366 -0.014614777 0.016578179 0.037156183
-0.029891377 -0.0047458992 0.029990597 -0.017619126 0.016879084 0.029018573 -0.0064039137 0.032473058
00000000: e7ad 35bc 7dee cd3c b512 d43c 8f71 ba3b
00000010: 126f f03c 97ce 1d3d 64cd 0b3c 8660 753c
00000020: 3c62 1cbb 2283 afbc 3ffc cd3b 73a6 033d
00000030: 0e72 4e3c 8a8f 47bc 1ce5 52bc 797f 1b3d
00000040: e4eb 073b 0436 d3ba 6c57 bc3c 44d0 023d
00000050: fe93 94bc ebc7 053d 7eab a6bc 98bb 003d
00000060: 2081 b33b 9135 b53a 1572 fb3c e244 bb3c
00000070: 9f48 3abb 52dc 35bc c3a3 e53c e832 a9bb
00000080: a927 f13c 09ce ae3c 6948 183c a8cb 0d3d
00000090: 44a6 0c3d 7c4e b1bc 3d0a ec3c 9002 c13a
000000a0: a5a6 ab38 3514 0ebd 2cf0 9ebc 62f1 c4bc
000000b0: e441 1c3c a41e f63c 5011 1a3d 271d 73bc
000000c0: 9913 533c 9647 8b38 f446 34bc 2c46 01bd
000000d0: 7932 7ebc a656 a7b9 7105 98bb 0830 fdbc
000000e0: 23a2 b7bc 2263 8a3c 1162 0f3a e04e 693c
000000f0: 4d7e 0cbc 2dbc 85bc c081 0dbd 4f7b aa3b
00000100: dc17 c2bc 6c91 72bc 9a86 df3b 9c4c 053d
00000110: 634e 1f3d f94b 92bc 6fae bebc a07f 093d
00000120: 92ba 0f3c ee32 a43c ec1f ef3c 064d a2bb
00000130: 83bc 683c 6ebd ebbc 8b6b 853c 4369 54bc
00000140: d826 edbc f586 dbbc bac6 dd3c 88c7 843c
00000150: 4542 d03c 1c98 6d3a 28da 76bc 089a 9d3c
00000160: 7306 b03c fb14 9bbc 02e8 1e3d de74 1c3d
00000170: 668f 933c 4772 9cba 1bc9 11bc 7aa2 cabc
00000180: 6d60 13bc 138e 3f3c 7965 9d3a 61ba c2bc
00000190: ae83 dc3c 9ced 1e3d 8b7b edbc 3cd3 9e3b
000001a0: 2cdf dcba 86ca ca3c b659 aebc cb9c a63b
000001b0: 1abb 7cbc d18f af3c 6fd9 9d3c 9857 d8bc
000001c0: 5a70 6abc 7d9e 263b e259 af3c 7e9c ac3c
000001d0: 7e50 8ebc d172 6fbc f6ce 873c 1531 183d
000001e0: c3de f4bc 7d83 9bbb d7ae f53c fc55 90bc
000001f0: 0146 8a3c 5cb8 ed3c ecd7 d1bb 7802 053d

network_body._body_endoder.seq_layers.2.weight f4 [128, 128]
-0.012122093 -0.08771477 0.02365623 0.13324977 -0.22905344 -0.09051157 -0.058156975 0.086472124
-0.061207168 0.1059792 0.018789118 -0.006299264 -0.0029143898 -0.042717256 0.011437332 -0.06528939
0.021341302 0.03652367 -0.050284274 -0.06667265 0.16633251 0.1386343 0.2041894 -0.13052091
0.028919917 0.07392489 0.038216833 -0.024653986 0.040056303 0.04037053 0.10683724 0.07868764
-0.07050654 0.011604555 0.06204127 -0.031075789 0.03460474 -0.096765265 -0.009632524 -0.03779065
-0.053113677 -0.013361122 -0.023868784 -0.096928984 -0.12222957 -0.09292875 -0.025513617 -0.010915252
-0.2321302 0.017646685 0.12549183 0.022797754 0.078075044 0.23835741 -0.043576524 0.1334158
0.032169625 0.009320163 0.06011719 -0.0016821463 0.018500822 0.17714751 -0.05845087 -0.032521572
0.09163332 0.03188312 0.05664576 -0.07280888 0.018470196 -0.13894431 -0.011071595 -0.029802166
0.07562298 0.037534453 0.054142002 -0.029062852 -0.107201345 0.016722722 -0.26104668 0.10810059
0.03194616 0.0058206217 -0.0850949 0.033042777 -0.009236168 0.043952256 -0.17946826 0.040273495
-0.031051053 0.054341342 -0.052341755 -0.013910692 -0.058425836 -0.0464953 0.042520825 0.011588334
-0.053444646 0.09954363 0.062098015 0.03138328 -0.08565017 -0.051056303 -0.004759999 -0.17450683
0.03615052 -0.21738636 0.04600095 0.05200503 -0.0045731943 0.019650925 -0.014483073 0.092854775
0.13182582 0.09247882 -0.062220473 0.10599465 0.1749664 0.12759459 -0.020359727 0.059411377
-0.028685845 0.14820951 0.021759743 0.0019495614 -0.0034126765 0.009654249 0.050650157 -0.0042797257
0.12611203 -0.11370026 -0.03721095 -0.054635845 0.029029861 -0.08505259 0.07065058 -0.089568
-0.06977435 -0.112030126 -0.013736345 0.17322254 -0.11922892 0.076818556 -0.024857044 0.08795895
-0.020109206 0.08084321 0.061394546 0.05316647 -0.022067202 -0.010698671 -0.021452332 -0.086035475
0.017988881 -0.045969136 -0.012921198 0.02690459 0.13116112 0.0035885025 -0.008547843 -0.10304149
0.047249 -0.02668969 -0.021908801 0.00404903 -0.008209333 -0.05958979 -0.061870165 0.06193157
-0.15694042 0.029826349 0.019232202 0.037420172 -0.07831691 -0.045526877 0.035713453 0.13652493
-0.19043283 0.097778805 0.07411474 -0.09197567 0.10799874 0.038031247 0.017724946 -0.0029660568
0.12526692 -0.07242071 -0.071507476 -0.050624747 -0.15924248 -0.008718553 0.030631611 -0.001276276
-0.017083943 0.08094249 0.055375464 -0.0723305 0.024494769 -0.046288203 0.08590278 0.02239914
-0.011216599 0.11438 -0.123222195 0.14089473 -0.16964196 -0.0919468 -0.003414954 0.034554224
0.057036478 0.16276899 0.10812665 0.065002635 0.009465918 0.06711349 -0.35379055 0.023812696
-0.07825643 0.07829852 0.029926686 -0.019034898 -0.060626257 0.10952243 0.16126579 -0.031646173
0.19583657 -0.063122906 0.011874512 -0.12085266 -0.23159339 0.011239674 -0.0005521389 -0.03201503
-0.0838502 0.061685883 -0.10757796 -0.07234981 0.11250946 0.015477943 0.018543767 -0.008024797
0.12216532 0.032482438 0.05660331 -0.17249978 -0.12105195 -0.08492575 0.03513049 -0.0022003672
0.023969932 0.01843927 -0.10607663 0.03666246 -0.02575898 0.038774382 -0.007507851 0.11532362
00000000: be9b 46bc cda3 b3bd b6ca c13c a172 083e
00000010: fc8c 6abe 215e b9bd 0236 6ebd 4c18 b13d
00000020: 5eb4 7abd 9f0b d93d a3eb 993c 0e6a cebb
00000030: 59ff 3ebb 4af8 2ebd a663 3b3c 72b6 85bd
00000040: f4d3 ae3c d899 153d e2f6 4dbd ac8b 88bd
00000050: 1253 2a3e 26f6 0d3e 0717 513e 46a7 05be
00000060: 76e9 ec3c ef65 973d 4189 1c3d 28f7 c9bc
00000070: 1412 243d 925b 253d 7ccd da3d fc26 a13d
00000080: bc65 90bd 0821 3e3c fd1e 7e3d a792 febc
00000090: b3bd 0d3d de2c c6bd bcd1 1dbc 5eca 1abd
000000a0: ba8d 59bd 9ce8 5abc 7888 c3bc b482 c6bd
000000b0: 7f53 fabd 6e51 bebd ef01 d1bc e3d5 32bc
000000c0: 8ab3 6dbe c88f 903c ee80 003e 5bc2 ba3c
000000d0: cfe5 9f3d f713 743e 4c7d 32bd 279e 083e
000000e0: 4cc4 033d 99b3 183c 713d 763d 777b dcba
000000f0: 098f 973c 2866 353e 2e6a 6fbd 5735 05bd
00000100: 40aa bb3d e097 023d 6205 683d d21c 95bd
00000110: cf4e 973c 6b47 0ebe a365 35bc ac23 f4bc
00000120: 39e0 9a3d babd 193d 01c4 5d3d 3815 eebc
00000130: 618c dbbd 17fe 883c e9a7 85be d863 dd3d
00000140: fad9 023d eaba be3b 3c46 aebd dd57 073d
00000150: 4c53 17bc 4807 343d 87c6 37be d2f5 243d
00000160: c75e febc 0795 5e3d 4f64 56bd ace9 63bc
00000170: ee4f 6fbd db71 3ebd 512a 2e3d ffdc 3d3c
00000180: c6e8 5abd 88dd cb3d 7d5a 7e3d c18b 003d
00000190: 5b69 afbd 6a20 51bd c4f9 9bbb ebb1 32be
000001a0: 9112 143d 889a 5ebe 7e6b 3c3d 3a03 553d
000001b0: bcda 95bb fafa a03c 694a 6dbc a52a be3d
000001c0: 59fd 063e 8965 bd3d e5da 7ebd b913 d93d
000001d0: 642a 333e 28a8 023e 71c9 a6bc 5859 733d
000001e0: 94fe eabc 3cc4 173e 7d41 b23c 6d88 ff3a
000001f0: 36a7 5fbb db2c 1e3c 8a76 4f3d f13c 8cbb
00000200: 8323 013e afdb e8bd 826a 18bd d6c9 5fbd
00000210: 08d0 ed3c 0d30 aebd 40b1 903d 6d6f b7bd
00000220: dbe5 8ebd 0d70 e5bd 680e 61bc 4061 313e
00000230: 4b2e f4bd 0c53 9d3d 00a1 cbbc d223 b43d
00000240: 10bc a4bc 2091 a53d d978 7b3d 16c5 593d
00000250: 47c6 b4bc 7b49 2fbc cdbc afbc 5e33 b0bd
00000260: 6b5d 933c 224a 3cbd 6fb3 53bc 0467 dc3c
00000270: 1a4f 063e 152d 6b3b 410c 0cbc 6b07 d3bd
00000280: 2b88 413d 56a4 dabc 167a b3bc baad 843b
00000290: 7080 06bc 6c14 74bd 926b 7dbd f5ab 7d3d
000002a0: fdb4 20be 6356 f43c da8c 9d3c e545 193d
000002b0: 9e64 a0bd 647a 3abd 4548 123d 31cd 0b3e
000002c0: d300 43be 4140 c83d 78c9 973d bd5d bcbd
000002d0: 722e dd3d a7c6 1b3d e833 913c 2d62 42bb
000002e0: f945 003e 4f51 94bd 8372 92bd e55b 4fbd
000002f0: 7610 23be 43d8 0ebc 25ef fa3c b748 a7ba
00000300: a0f3 8bbc 2dc5 a53d 62d1 623d 0322 94bd
00000310: 41a9 c83c b398 3dbd cced af3d 677e b73c
00000320: d3c5 37bc 1040 ea3d eb5b fcbd b546 103e
00000330: 9fb6 2dbe 9b4e bcbd 6ccd 5fbb bb88 0d3d
00000340: 159f 693d eaac 263e 8171 dd3d 1a20 853d
00000350: f016 1b3c cc72 893d 0924 b5be d812 c33c
00000360: e844 a0bd f95a a03d cf28 f53c 13ef 9bbc
00000370: 3d53 78bd 4c4d e03d dc22 253e 6b9f 01bd
00000380: 6289 483e 9546 81bd 508d 423c 9981 f7bd
00000390: d126 6dbe 9c26 383c 6abd 10ba 3122 03bd
000003a0: a7b9 abbd 56aa 7c3d d551 dcbd 232c 94bd
000003b0: 5c6b e63d 3397 7d3c 19e9 973c 707a 03bc
000003c0: d031 fa3d 4e0c 053d dfd8 673d c8a3 30be
000003d0: 16ea f7bd 8ded adbd fde4 0f3d 0934 10bb
000003e0: 975c c43c f40d 973c b43e d9bd 602b 163d
000003f0: 7f04 d3bc e3d1 1e3d 6b04 f6bb ca2e ec3d

network_body._body_endoder.seq_layers.2.bias f4 [128]
-0.030656712 -0.0050932444 0.030256808 0.018175747 -0.02951741 0.019181682 -0.008115333 0.012911978
-0.01891522 -0.019344479 0.020865405 -0.020253822 -0.01863841 0.02411423 0.023430016 -0.028827425
0.023959411 -0.034600306 0.027544674 0.021685632 -0.024791254 -0.009858391 -0.030938203 0.014362071
-0.028262926 0.014725005 0.012780954 0.0118836 -0.0073569934 0.025332674 0.0019725307 0.028239574
-0.024713984 -0.02379846 0.024954844 0.029678226 -0.02067319 -0.02942736 -0.02502202 -0.037397463
-0.036225565 0.023122368 -0.020977201 -0.026003651 -0.008896192 0.018137544 0.017266044 -0.02359673
0.038959824 0.03309477 0.023163224 -0.00962688 -0.011378518 -0.012895843 -0.029179394 -0.018846167
-0.011281802 -0.0062457165 0.021692026 0.026166122 -0.0073918663 0.018006673 -0.016462656 0.02917979
-0.02070064 0.03061432 0.029287895 -0.03723803 0.020803528 -0.00068705133 0.039544705 -0.030872392
0.0051082424 0.020729994 0.035784084 0.025120327 -0.009181227 -0.02050499 0.002974156 -0.014167589
-0.02260777 0.008409236 -0.03240832 -0.02036195 0.034675445 -0.010605794 0.030346578 -0.01987426
-0.020544423 0.02206592 0.024154164 -0.021385064 -0.015946448 -0.013776884 0.0347225 0.028067198
-0.0028873053 0.017867 0.023164883 0.022420015 -0.012044181 -0.008603358 0.023636669 0.0246072
-0.0244615 -0.041743226 -0.022131331 0.0151669495 0.016652653 0.021157948 -0.016181907 0.021481963
0.032771397 0.032897927 -0.01935584 0.027091268 0.03203165 -0.01733522 -0.0026802828 -0.012067752
0.0136678815 -0.033754323 0.02481019 0.0073060724 -0.03318009 -0.021174895 -0.00649063 0.009933262
00000000: c923 fbbc 3be5 a6bb 20dd f73c 4ee5 943c
00000010: 7fce f1bc e722 9d3c 2cf6 04bc c38c 533c
00000020: 17f4 9abc 5078 9ebc eded aa3c 58eb a5bc
00000030: 94af 98bc 358b c53c 4ef0 bf3c 7e27 ecbc
00000040: 8746 c43c 0db9 0dbd 5ea5 e13c 11a6 b13c
00000050: 0717 cbbc 1785 21bc 1d72 fdbc e44e 6b3c
00000060: a787 e7bc 2641 713c 3567 513c 6eb3 423c
00000070: ef12 f1bb 7886 cf3c 9345 013b ae56 e73c
00000080: fb74 cabc fdf4 c2bc 1a6e cc3c c01f f33c
00000090: d25a a9bc a611 f1bc fbfa ccbc 152e 19bd
000000a0: 4261 14bd 1f6b bd3c 61d8 abbc 9c05 d5bc
000000b0: 55c1 11bc 3095 943c 8571 8d3c ee4d c1bc
000000c0: 5694 1f3d 628e 073d cdc0 bd3c 10ba 1dbc
000000d0: f76c 3abc 1649 53bc a009 efbc 4763 9abc
000000e0: 4fd7 38bc dea8 ccbb 7ab3 b13c 565a d63c
000000f0: 7837 f2bb bb82 933c b1dc 86bc 740a ef3c
00000100: 6394 a9bc e2ca fa3c 2bed ef3c e886 18bd
00000110: 296c aa3c 3c1b 34ba a1f9 213d 19e8 fcbc
00000120: 0b63 a73b f3d1 a93c 5592 123d 25c9 cd3c
00000130: db6c 16bc 15fa a7bc 0fea 423b 2d1f 68bc
00000140: ee33 b9bc e4c6 093c 96be 04bd 1bce a6bc
00000150: d707 0e3d edc3 2dbc 6399 f83c 58cf a2bc
00000160: c74c a8bc 97c3 b43c f4de c53c bb2f afbc
00000170: 20a2 82bc 71b8 61bc 2e39 0e3d 2eed e53c
00000180: f238 3dbb d15d 923c 48c4 bd3c 2eaa b73c
00000190: f554 45bc 19f5 0cbc b0a1 c13c 0a95 c93c
000001a0: 7c63 c8bc f2fa 2abd c44c b5bc cc7e 783c
000001b0: 256b 883c 6f53 ad3c eb8f 84bc f1fa af3c
000001c0: 4d3b 063d fabf 063d 2390 9ebc 82ee dd3c
000001d0: 9f33 033d 9702 8ebc afa7 2fbb d2b7 45bc
000001e0: 40ef 5f3c f941 0abd bd3e cb3c c767 ef3b
000001f0: d9e7 07bd f976 adbc 5aaf d4bb 1fbf 223c

action_model._continuous_distribution.log_sigma f4 [1, 2]
-0.0075840508 -0.020287842
00000000: a183 f8bb b032 a6bc

action_model._continuous_distribution.mu.weight f4 [2, 128]
0.0048694164 -0.013929452 -0.011823649 -0.01817568 0.012808589 -0.0077097784 0.027211457 -0.036129434
0.006003644 0.011638476 -0.018847845 0.0042636567 0.020512832 0.0149916 -0.0029576363 -0.007149497
-0.014043799 0.0027848454 -0.00930556 0.03747584 0.016010009 -0.0074369013 -0.00967991 -0.032662835
-0.011159551 -0.010611268 -0.023936098 0.03161846 0.025722275 0.03536804 -0.0023301728 0.02130885
0.02143961 0.029724963 0.0010395581 0.0057010655 0.011195584 0.014543518 0.017394064 0.0066983076
-0.002202819 -0.0068476833 -0.010190705 -0.006550812 0.0049245963 0.012273234 -0.026494844 -0.0056808805
-0.004016721 -0.012990192 0.02648803 0.01910654 0.025956418 0.0009403002 -0.00063176063 -0.018174239
0.03786061 0.057651687 -0.016996035 0.013261993 0.0074040825 0.027967786 0.012937009 -0.004851652
0.007317838 0.021195533 -0.019973809 0.0054606902 0.014725728 0.012310229 0.001835366 0.008952274
-0.030711705 -0.022302939 0.004283998 -0.03276847 -0.014292922 -0.0019522485 0.022818126 0.0059636883
0.0021040903 -0.03376822 -0.006632453 0.0109037785 0.00034929637 -0.02023404 0.017048014 0.0058523016
-0.03304702 0.033699952 -0.00017900673 -0.016526157 -0.022374917 -0.011955366 -0.002366725 -0.011592406
-0.020543102 0.03125441 -0.013419301 -0.008707282 -0.021760466 0.032205198 0.0032088973 -0.010536757
-0.0078719305 0.003643249 0.009332246 -0.031865295 0.010730982 -0.005699087 0.012884709 -0.021257687
0.0046011717 0.0024643478 0.02706774 -0.015314932 -0.012008607 0.008827877 -0.022579983 0.029709872
-0.013542711 0.0033498674 -0.0024968518 -0.037811216 0.0044824136 -0.0016854235 -0.027603103 0.015960064
-0.021475876 -0.0046228413 0.01847431 0.012652572 -0.04472085 0.007304575 -0.008746033 0.008311045
-0.0088885585 -0.0063791904 0.024742004 -0.01922459 -0.013588676 0.02593448 0.008748326 -0.031611126
0.018912556 -0.032855712 0.016543018 0.028699521 -0.016065078 -0.014111559 -0.02732933 0.0060217706
-0.022672717 0.0133875655 0.006591788 0.012878226 -0.004795388 0.034330867 -0.002831736 0.030533655
-0.028364023 -0.019063372 0.02107142 0.006715959 -0.015725598 -0.035034377 -0.022104973 -0.031453792
-0.033251863 0.018558787 -0.02100488 -0.023142716 0.003350773 0.0100093335 0.01607236 -0.021072967
0.037718825 0.027105682 0.029758226 -0.003290869 -0.012066222 -0.002338534 -0.02536984 -0.03135909
-0.0025127772 -0.017122164 0.011924305 0.038713116 0.007963426 0.024912925 -0.006942023 0.012548586
-0.031010266 0.038062416 0.06388876 -0.02395671 0.030957652 -0.0043702857 0.015595438 -0.048291165
0.007701309 0.01481962 0.039829504 0.030415209 -0.0077588605 -0.025567409 0.007403552 -0.0004392066
-0.02228348 0.007138649 -0.052459553 -0.0194288 0.05957015 -0.017553648 0.04325563 -0.0078881
-0.049734984 0.035098124 0.01440383 -0.013346982 -0.0249993 -0.0106326565 0.041073967 0.025968442
-0.013053355 0.019775497 0.011385946 0.033696786 -0.006370063 -0.0027770859 0.019202728 0.013403361
-0.028826352 -0.025129074 -0.023379559 0.008205868 0.0052229543 0.014301462 -0.0056717303 0.029525535
0.021548012 0.021198135 -0.024699513 0.024030866 0.03321106 -0.006492249 -0.0028122424 -0.014318853
0.0041570393 -0.0392755 0.024474189 0.009363703 -0.034348857 -0.009695021 -0.0034000482 0.0059735365
00000000: a08f 9f3b 5b38 64bc fab7 41bc 2ae5 94bc
00000010: 1edb 513c 4fa2 fcbb 90ea de3c 75fc 13bd
00000020: 37ba c43b 4eaf 3e3c cc66 9abc 25b6 8b3b
00000030: 870a a83c 549f 753c e7d4 41bb 5446 eabb
00000040: f617 66bc f481 363b 5976 18bc 4480 193d
00000050: 6c27 833c 40b1 f3bb 7c98 1ebc 77c9 05bd
00000060: 8dd6 36bc e2da 2dbc a315 c4bc 5c82 013d
00000070: 85b7 d23c 14de 103d d0b5 18bb e68f ae3c
00000080: 1fa2 af3c c481 f33c c841 883a 01d0 ba3b
00000090: af6d 373c f047 6e3c ff7d 8e3c 7a7d db3b
000000a0: 2c5d 10bb 8862 e0bb eaf6 26bc 32a8 d6bb
000000b0: 825e a13b ad15 493c b70b d9bc ae26 babb
000000c0: b39e 83bb d0d4 54bc 6dfd d83c 5285 9c3c
000000d0: 8ea2 d43c 7a7e 763a bd9c 25ba 24e2 94bc
000000e0: ba13 1b3d 2d24 6c3d 453b 8bbc d548 593c
000000f0: f29d f23b b31c e53c c0f5 533c 9bfa 9ebb
00000100: 79ca ef3b 41a2 ad3c 1da0 a3bc 97ef b23b
00000110: 2e44 713c d8b0 493c aa90 f03a 8fac 123c
00000120: 1d97 fbbc a7b4 b6bc c860 8c3b 3b38 06bd
00000130: dc2c 6abc 97e2 ffba 14ed ba3c 0b6b c33b
00000140: c7e4 093b 8c50 0abd 0c55 d9bb c3a5 323c
00000150: c421 b739 dcc1 a5bc 47a8 8b3c aac4 bf3b
00000160: 505c 07bd f608 0a3d c1b3 3bb9 dd61 87bc
00000170: 9a4b b7bc 70e0 43bc 0e1b 1bbb 13ee 3dbc
00000180: 024a a8bc a004 003d a1dc 5bbc fda8 0ebc
00000190: 0143 b2bc 99e9 033d 5d4c 523b 5da2 2cbc
000001a0: 45f9 00bc 93c3 6e3b 47e6 183c 2f85 02bd
000001b0: 00d1 2f3c 68bf babb 631a 533c 9a24 aebc
000001c0: 6dc5 963b e580 213b 2abd dd3c 7beb 7abc
000001d0: c0bf 44bc cda2 103c a8f9 b8bc 1e62 f33c
000001e0: 3fe2 5dbc 7389 5b3b 39a2 23bb efdf 1abd
000001f0: 36e1 923b 6ee9 dcba e71f e2bc aebe 823c
00000200: 2dee afbc 347b 97bb 7057 973c bc4c 4f3c
00000210: 362d 37bd 375b ef3b 854b 0fbc 0d2b 083c
00000220: 51a1 11bc 8708 d1bb beaf ca3c e37c 9dbc
00000230: 0aa3 5ebc 8c74 d43c 2455 0f3c ab7a 01bd
00000240: 81ee 9a3c b693 06bd 3985 873c 421b eb3c
00000250: e99a 83bc 2b34 67bc c2e1 dfbc 4652 c53b
00000260: 22bc b9bc 8557 5b3c edff d73b 32ff 523c
00000270: a122 9dbb 869e 0c3d a694 39bb b721 fa3c
00000280: ab5b e8bc ca2a 9cbc f89d ac3c 8c11 dc3b
00000290: f8d2 80bc 3580 0fbd 7d15 b5bc b1d5 00bd
000002a0: 1b33 08bd 9908 983c 6d12 acbc cb95 bdbc
000002b0: a498 5b3b 30fe 233c 2faa 833c 37a1 acbc
000002c0: 0e7f 1a3d bc0c de3c 86c7 f33c 9fab 57bb
000002d0: 67b1 45bc 1742 19bb 69d4 cfbc 6472 00bd
000002e0: 68ad 24bb c843 8cbc 295e 433c a591 1e3d
000002f0: 0879 023c 3116 cc3c e979 e3bb 9698 4d3c
00000300: 3e09 febc 56e7 1b3d 1cd8 823d dd40 c4bc
00000310: e79a fd3c 9d34 8fbb 0284 7f3c f5cc 45bd
00000320: 435b fc3b fecd 723c 4324 233d 5129 f93c
00000330: 0a3e febb be72 d1bc 7f99 f23b 5045 e6b9
00000340: d88b b6bc 54eb e93b d4df 56bd 2629 9fbc
00000350: d4ff 733d abcc 8fbc d12c 313d 173d 01bc
00000360: e9b6 4bbd 0dc3 0f3d 0bfe 6b3c 4dad 5abc
00000370: 55cb ccbc 9834 2ebc 2d3d 283d c5bb d43c
00000380: bddd 55bc 3900 a23c 1e8c 3a3c a405 0a3d
00000390: f6bb d0bb c5ff 35bb 0a4f 9d3c c599 5b3c
000003a0: 3e25 ecbc 7ddb cdbc 7d86 bfbc e871 063c
000003b0: 5125 ab3b ae50 6a3c ecd9 b9bb 89df f13c
000003c0: 7585 b03c b6a7 ad3c a256 cabc 61dc c43c
000003d0: 5208 083d efbc d4bb 994d 38bb 9f99 6abc
000003e0: c637 883b 59df 20bd 187e c83c 386a 193c
000003f0: 63b1 0cbd ded7 1ebc 58d3 5ebb a8bd c33b

action_model._continuous_distribution.mu.bias f4 [2]
-0.0029669665 0.02695146
00000000: 7071 42bb 4fc9 dc3c
