python/results/minion_walk_002/Minion/Minion-1762.onnx (onnx, 71890 bytes, 7 tensors)

network_body._body_endoder.seq_layers.0.weight f4 [128, 3]
00000000: a442 023f 8b54 cf3e 9df4 093f c9b0 c3bd
00000010: aba9 4ebf caa8 40bf 0827 b0bc 3cf6 3dbf
00000020: d00c 1abe 2918 72be d7e1 303f 47e1 353f
00000030: 64d4 c9bb b1dd 743f e160 513f ef36 12bf
00000040: 449a 27be 48c2 00be 70fd 683e 1eff 18bf
00000050: 6db2 61bf cd4e c8be d72a 68be 04a1 abbc
00000060: 9665 e4be feb9 67be dc98 22bf 39b6 f0be
00000070: 78fc 4a3d e537 833e 7e54 0f3f 27a5 92bd
00000080: e546 2cbf 7860 893e 4635 51be d5e5 6cbf
00000090: d802 a3bf 1bce 17bf 757d a43d 2871 5fbf
000000a0: b2b3 ef3e 50c7 1b3f d1f6 333f 6e13 2c3c
000000b0: 9144 68be 0c9d fbbe f233 613e d5b3 73bf
000000c0: 7023 973e 8351 52bf 47fb 67be bba7 cf3f
000000d0: 9827 ab3e 4e01 4ebc c448 b63e 6b58 84bc
000000e0: ff46 ea3e 985e b2bc 5d32 79bb 9705 0c3f
000000f0: f26c 00bf 18f8 90bd 08ca fb3e 3b52 7fbf
00000100: 45b2 03bf c75e c6bd 91d9 193f b592 48bc
00000110: e4a9 45bf 2313 0a3f 76bd 923e 4100 c53f
00000120: 63fe 3bbf deb7 a3be 8e00 8f3d 55ad dcbe
00000130: 2f76 48be bb7c b43e fd71 e5bd 776e be3b
00000140: ad0b 81be d827 813e 69ec 583f 0a8a fa3d
00000150: ad29 89bb a311 dc3d 1ae2 aabe 060a 6e3d
00000160: 95ff 39bf 9fbf 20bf 7334 7bbd 25fc 233f
00000170: 0517 3f3f 0333 dcbd cc0c b3be 1115 1f3e
00000180: 5693 803f a9a6 b7be eedf 513e f434 9ebf
00000190: aa2c bd3e 601f 81bf cdf8 ddbe 7776 57be
000001a0: 7de9 1dbf fa10 2bbf 72aa 1cbd eff6 4bbe
000001b0: 94d8 443f 751a 6e3e 1704 9ebe e977 7b3e
000001c0: db1a 583f d091 093f eb85 c63d 2355 1cbf
000001d0: 837a aa3e e19f 2e3d c23f 8ebf 0215 083f
000001e0: 0c4b a8be a37e f63e f173 563d eb44 e83d
000001f0: 2a6c 1f3e 3e8a 7d3f bedb 283d 7287 593e
00000200: be7b 593e 3cc8 893e 4712 04bf f88c 4dbf
00000210: 9e53 b0be ab6d c03f 785c 9e3d a3ce bdbe
00000220: dfc0 d63e 1e05 00be d8f6 213e 7cfc 833e
00000230: b7ab 90be 8e2c b8be 2855 25bf 45eb 45be
00000240: 292a b1bf 5545 30bf 41c1 2cbf 5c21 3ebf
00000250: c82f 9b3e ddf4 9bbf 8fea bebd d189 68be
00000260: 9165 833f 040c ed3e 10c1 1c3f c25c 02bf
00000270: 3997 3cbf e888 9c3e 5127 ee3e af2f 853f
00000280: 21f1 23bf 682d 92be 0822 fbbe 61c7 2c3f
00000290: 8f3b ca3e 690c 9ebd 335e 7c3f 3d78 fd3e
000002a0: 826a 853e 701d 5ebd 0f2c c53f 32c3 d0bd
000002b0: 3c97 413f 3665 b53e 4029 f2be 0f53 693e
000002c0: 0344 2cbe 4845 1bbe 138c 12bf ccf9 423e
000002d0: 0557 e6be cbff 63be 8867 1fbf 1c52 21bf
000002e0: 5ffc 2cbf 28a7 3d3e c9f5 a63d 186f e53e
000002f0: 026d 97be fc0a 383f bfe2 343f 2c2b 203d
00000300: 09a4 11bf 62ff 6d3f d247 15be 7167 f13e
00000310: 0aa8 05bf 8144 563e 20e7 be3e 0612 6cbe
00000320: c4fb 203e 46eb 013f 8b93 063d 124f 23be
00000330: 140a 4dbf f6e1 15be 66fd b2be 8882 ebbd
00000340: 94a2 34bf 54a0 8fbd d189 25bf 3176 303f
00000350: 193c 64be 25e1 c2be 1a13 20be aff0 243e
00000360: 0bfd 08be 6c01 a53e 6d35 0e3f 4d5e 2dbf
00000370: e2a2 f4be 3afe cdbd b5d8 963f e923 633f
00000380: b4fe 7bbf c9cd 283e 8342 03bf e652 9dbe
00000390: 0f20 87be 7075 69bf 2379 3e3f c3fc e5be
000003a0: ae8d d53e 72c1 b8bd 544b 933e 1791 233f
000003b0: 6099 4a3f 0e20 b5bd 0db0 5bbf 8d0a 6e3f
000003c0: b885 38bc d635 6abf f2b5 b63e c2ce 67be
000003d0: 9204 51be bff0 a23e f2c5 bd3f 33ae 593e
000003e0: 3421 29bf e088 03bf 17dc 80be f5a1 103e
000003f0: 9fbe a43e e85e 83be 671d 083f f4c0 2abf
0.50882936 0.4049419 0.53888875 -0.095552035 -0.8072764 -0.7525755 -0.021502987 -0.7420385
-0.1504395 -0.23642029 0.69094604 0.7104687 -0.006159352 0.95650774 0.8178845 -0.5711507
-0.16367441 -0.12574112 0.22752929 -0.5976428 -0.8816288 -0.3912262 -0.22672592 -0.020950802
-0.44608754 -0.22629544 -0.63514495 -0.47014025 0.04955718 0.25628582 0.559883 -0.071604066
-0.67295676 0.26831412 -0.20430478 -0.92538196 -1.2735243 -0.59298867 0.080317415 -0.8728204
0.46816784 0.60851 0.70298487 0.010502679 -0.22682406 -0.49143255 0.21992472 -0.95196277
0.29519224 -0.82155627 -0.22654448 1.6223062 0.33428645 -0.012573553 0.3560239 -0.016155442
0.4575729 -0.021773621 -0.0038024404 0.5469603 -0.5016624 -0.0707857 0.49177575 -0.9973485
-0.5144389 -0.09686046 0.60097605 -0.012242009 -0.7721236 0.5393545 0.28660172 1.5390702
-0.7343504 -0.31976217 0.06982528 -0.43100992 -0.19576333 0.35251412 -0.11203382 0.0058115083
-0.2520422 0.2522571 0.84735733 0.1223336 -0.0041858763 0.107455514 -0.33375627 0.058115028
-0.7265561 -0.6279239 -0.061329316 0.6405662 0.746445 -0.10751917 -0.349707 0.1553538
1.0044963 -0.3586934 0.20495579 -1.235991 0.36948138 -1.00877 -0.43353882 -0.21041285
-0.616844 -0.6682278 -0.038248487 -0.19918416 0.7689297 0.2325228 -0.30862495 0.24557461
0.8441598 0.5373812 0.096935116 -0.6106741 0.33296594 0.04263294 -1.1113207 0.53157055
-0.32869756 0.4814349 0.052356664 0.1134127 0.15568605 0.99039066 0.041225187 0.21243075
0.2123861 0.2691058 -0.5159039 -0.80293226 -0.34438795 1.5033468 0.07732481 -0.37071714
0.41944024 -0.12501952 0.1581682 0.25778568 -0.28256008 -0.35971493 -0.64583063 -0.1932803
-1.3840991 -0.6885579 -0.6748238 -0.7426965 0.30309892 -1.2184101 -0.09322082 -0.22708823
1.0265371 0.4629823 0.6123209 -0.5092279 -0.7366825 0.305732 0.4651437 1.0405177
-0.6403981 -0.28550267 -0.490494 0.6749173 0.39498565 -0.07717211 0.98581237 0.49505797
0.26057822 -0.054227293 1.5404071 -0.101934806 0.7562139 0.3542878 -0.47297096 0.2278559
-0.1682282 -0.15163147 -0.57244986 0.19040602 -0.44988266 -0.22265546 -0.6226735 -0.63015914
-0.6757259 0.18520796 0.081523485 0.4481132 -0.29575354 0.7189176 0.7065849 0.039103672
-0.5689092 0.9296781 -0.14578179 0.47149232 -0.5220953 0.2092457 0.3728571 -0.2305375
0.15721041 0.50749624 0.03285555 -0.15948132 -0.80093503 -0.14636979 -0.34958953 -0.11499506
-0.70560575 -0.07013002 -0.64663416 0.68930346 -0.2228855 -0.38062397 -0.15632287 0.16107439
-0.13377778 0.32227647 0.5555027 -0.67722017 -0.4778052 -0.100582555 1.1784884 0.8872667
-0.9843552 0.16484751 -0.51273364 -0.3072731 -0.26391646 -0.9119482 0.7440359 -0.44919404
0.41709656 -0.09021272 0.28768408 0.63893265 0.7914028 -0.088440046 -0.8581551 0.9298485
-0.01126235 -0.914884 0.35685688 -0.22637466 -0.204119 0.318243 1.4826033 0.21257858
-0.6606629 -0.5138073 -0.25167915 0.14124282 0.32176682 -0.25658345 0.53169864 -0.66700673

network_body._body_endoder.seq_layers.0.bias f4 [128]
00000000: 117e 1c3c 2d2d bcbb 074b 10bc efff 303c
00000010: 2798 c13b 5194 993b 550f 30bc 809c 48bc
00000020: abc5 b33b 3dbb 083b bff6 fa3b eeac 07bc
00000030: a83d 3bbc 06f6 1a3c 7776 263c 4fa8 3e3c
00000040: 2b48 ccbb c40e 27bb c981 1fbc 4841 4b3b
00000050: 46f0 bfbb 6872 42bc 8237 043b 7718 cfba
00000060: 3887 183c 191f bbbb c2fb ddbb d20b 443c
00000070: 0e77 b73b f016 253a 2e1b 243c 5c0b 3fbb
00000080: f201 d8bb 1ab5 16bb c45a 213c 663d 403c
00000090: ac14 fa3b 752c 353c dae3 2ebc 8409 a03a
000000a0: 2476 a13b 23b1 06bc 63f5 08bc e5b3 763b
000000b0: 8192 8d3b c701 f13b 9aa5 443c 65a1 23bc
000000c0: 60c6 093c 35c6 803b 7df7 eabb 4e77 37ba
000000d0: 5a1b 88bb 9398 243c 7a9c 423c 9655 1abb
000000e0: ed67 f73b e119 563c 9c62 27bc 4537 2fbc
000000f0: 14da 873a 86d9 41bc 4c7b afb9 3692 353c
00000100: b303 623a 850e 53bc eee5 fb3b 03a6 92bb
00000110: a72e 0e3c 9936 7c3b 5e3b 223c 70bc e13b
00000120: 97c2 343c 6861 3a3c 107c 103c a0cc 0f3c
00000130: c70b e03a aa51 68bb de66 f33b 6ce6 313a
00000140: 6beb 44ba 5763 da3b acda c0bb c52a a339
00000150: 4398 bfbb 6792 a33b e92a c2bb af13 db3b
00000160: 86e1 cf3b 9af2 b33b 0eeb 8fbb a52a 8abb
00000170: 88e5 b13a 4a4a 0f3c 4853 af3b 2f16 333c
00000180: b1c8 1d3c e263 64bb fddd 9a3b 66d7 34bc
00000190: b716 bebb 377f 50ba 728e 153b f89a 27bc
000001a0: 3323 0a3c eb5b bfbb 6e4a 54bc 3452 ebbb
000001b0: f31d 073c b438 8839 a31c 0fbb 1ed3 823b
000001c0: 063f b0bb 5b96 1b3c 48f6 13bc 3df1 6d3b
000001d0: 04d9 f1bb 3443 fd38 7ea3 bfbb b2d2 70b9
000001e0: 709c 13bc 49a2 ba3a 7c4b 2fbc bd33 bd3a
000001f0: 185e 02bb f994 4a3b bf59 583b 3a8c 343c
0.009551541 -0.00574269 -0.00880695 0.010803207 0.0059080306 0.00468687 -0.010745843 -0.012244344
0.0054862103 0.0020863556 0.007658809 -0.008280976 -0.011428274 0.009458071 0.01016008 0.011636808
-0.006234189 -0.0025490979 -0.009735533 0.0031014252 -0.0058575002 -0.011868097 0.0020174687 -0.0015800138
0.009309582 -0.0057104942 -0.0067743966 0.011965709 0.005598909 0.00062976684 0.010016246 -0.0029151058
-0.006592029 -0.0022996129 0.0098483 0.0117333885 0.007631859 0.011057963 -0.010674441 0.0012209867
0.0049274135 -0.008220944 -0.008359286 0.0037643847 0.004320443 0.007354948 0.012002373 -0.00998721
0.008409113 0.003929878 -0.007170616 -0.0006998674 -0.004153651 0.010046142 0.011878127 -0.0023549548
0.0075502307 0.013067693 -0.010216381 -0.01069433 0.0010364675 -0.011831647 -0.00033470464 0.011082223
0.0008621767 -0.01288188 0.007687322 -0.0044753565 0.008678115 0.0038484691 0.00990185 0.0068889186
0.011032722 0.0113757625 0.008818641 0.008776814 0.0017093354 -0.0035449066 0.007428034 0.00067863497
-0.00075118867 0.0066646743 -0.0058854427 0.00031121648 -0.0058470084 0.0049918178 -0.0059255254 0.006685696
0.006344023 0.005491567 -0.0043920344 -0.0042165094 0.0013572434 0.008745739 0.005350504 0.010930582
0.009630368 -0.0034849574 0.00472617 -0.011037683 -0.0058010477 -0.0007953527 0.00228205 -0.0102298185
0.008431244 -0.005839815 -0.012957199 -0.0071814302 0.008246887 0.00025982189 -0.0021837137 0.0039924523
-0.0053786067 0.009496297 -0.009030886 0.003630712 -0.0073806066 0.00012076498 -0.005848347 -0.00022966674
-0.009009466 0.0014239039 -0.010699149 0.0014434975 -0.001989251 0.0030911549 0.0033012477 0.011019761

network_body._body_endoder.seq_layers.2.weight f4 [128, 128]
00000000: fd84 8abe 0a52 023d 9d9c 6bbd 1f70 1fbe
00000010: ac82 65bd 745f babd ddb0 b1bd b813 d33d
00000020: 2f41 84bb ef71 1cbd cacd 763d da48 c0bc
00000030: 265c d93d 6dc2 45be 64e2 a4bd ce23 9e3b
00000040: 381a 103e 33a7 b23d 84cf 0a3e c5a5 89bd
00000050: eeba c6bc 034a 0d3e 2d09 9b3d d680 80bb
00000060: dc49 17be d8d9 873d a4bc 17bb f8bd ef3d
00000070: 3b06 1dbe 9d14 5e3c f6b6 203e 13f9 123e
00000080: b754 64bd bb29 1cbd 368e 82bd 027d fe3d
00000090: 6a6b e13d 86f1 cc3d 8bc3 ac3c c765 c4bd
000000a0: c679 bebd 8928 5c3d 1dbb 093e 3aff 23be
000000b0: 5f94 49be 1fb7 81bd e611 d53d 407b e5bd
000000c0: 7283 673d a1a0 a2bc b0eb 5f3c 7f75 8bbd
000000d0: 58c6 bd3d a0e3 48bd 2723 23bd 1a8f abbd
000000e0: bf7e 373d 8393 cebc 54ee 8f3c d28f 783d
000000f0: f706 e7bd c224 74bd 38b5 65bd 7466 23bc
00000100: 1563 433e 9905 bf3d 8cf0 253e 6851 04bd
00000110: 199b 773d 9f1a e33d 78de cbbd 0d14 c1bd
00000120: 2996 4cbd ad7b e43d bbda 4f3b 1e49 0fbe
00000130: 3557 7c3d 8b71 1ebe 15da 14bc 1b37 c9bd
00000140: e68d 5e3d 1c46 f43d 36ea bb3d 61f2 2c3d
00000150: 11a5 36bc a8c2 82bd 5262 063d 369b 43bc
00000160: 23db 253d 1619 92bd 78a7 edbb cbc5 033e
00000170: 3ecd cabd 9d47 3e3e 5605 033d d100 0e3b
00000180: 9d55 183d c084 aebc 22a2 1dbe 33e5 5cbd
00000190: cc48 0e3d 90b9 95bc 89b9 0a3a 5ea8 93bd
000001a0: 08d6 1fbe e0ae 79bd 7b3b 193d 0a3e c3bd
000001b0: e2b2 843d 2f9a 8b3d 1c04 93bd 61cd 48bb
000001c0: 6084 e43d 5fa7 b53c 02d6 0b3e 6bc7 5cbd
000001d0: 0552 6a3c 73fc 4a3d 0550 d6bc 2ef2 48be
000001e0: 558e 723d eba8 1ebc cea3 d4bd ba56 9b3d
000001f0: 5b11 42bd 2166 ad3c 7692 7a3d 6d6c 83bc
00000200: 2242 00bd d74d a5bc f0e1 013b a30b 253e
00000210: a522 823d 1fcd 65bd 9488 00bc 864d b5bd
00000220: 3851 183e cfe5 3a3e 1642 afbd 0532 59be
00000230: 9fcf 4fbe 090c 90bd 3340 02bb f148 ccbd
00000240: e91c e83d 8700 9bbc b628 cebc f1f1 71bd
00000250: 2aea 0a3c 1614 903d 70b1 c2bc e260 4abe
00000260: b433 3abc ac22 0b3d 65cf d7bc ad76 c1bd
00000270: 91fc a83d 6536 5b3d e0ac 27be 5f6c d83c
00000280: 93af 213d c9e6 50bd 76fb 6cbe 39c8 07be
00000290: 8b63 0d3e 4b00 fb3d e120 363d 9f9a dabd
000002a0: 3dc9 623e f6cb 06bd ae3b bebb 693a 0dbe
000002b0: ca87 aa3c 594a 88bb fec7 72bd 22f3 fabd
000002c0: 9ba4 d4bc e658 a93d bbac 153e 17a4 5a3e
000002d0: 24a8 d23d 4ced 8a3b e457 8f3d c2cc c1bd
000002e0: efe0 c63c 09d2 a93c cf2f 8b3d 41b4 8d3b
000002f0: 7801 88bd f913 9bbd 667f da3d 1359 763d
00000300: e96f febd 5285 ea3c 8562 08be 7902 0e3d
00000310: 85ba 4bbc 339d 02be 154a 853d c57f 8cbd
00000320: db4a b9bd 3b35 f3bd 4358 a83c 2ba2 8c3a
00000330: 0e79 74bd c05f c5bc 50f6 4e3d 3876 85bb
00000340: 4559 0d3d 8fef 04be a21b 26be 718a 2ebd
00000350: c849 7f3d 39ce f83b 758e 01be f0bc 883d
00000360: e998 ec3b 2b40 e0bc cd94 a13d 0a94 ee3d
00000370: ed8a 033d 7e13 a4bb 79cb 0f3d 4aad 2d3d
00000380: 8db7 3abd 112d b0bd 0382 863d 8c43 71bd
00000390: 5c11 cd3d da19 02be db79 a23d c958 58bd
000003a0: f36b 84bd 1650 2abe 2332 98bd 7187 ccbd
000003b0: 9487 e43d 0f89 a33c e3e2 ef3c 08db 8e3d
000003c0: 9001 4fbd 766d a03d b223 c8bd 0bbc 0a3d
000003d0: 9bec e03d 3442 56bb 5243 963d 863a fdbd
000003e0: c320 ab3d 9fe5 2d3d 42d9 4b3e 2e4a a2bd
000003f0: 3279 103d 506b 1a3d 0d8e 7a3d e136 d0bd
-0.27054587 0.03181652 -0.057522405 -0.15570115 -0.05603282 -0.091002375 -0.08676312 0.103064954
-0.004036091 -0.038194593 0.06025485 -0.023472238 0.10613279 -0.19312449 -0.08050993 0.0048260456
0.14072502 0.08723297 0.13555723 -0.06721071 -0.024259057 0.13797764 0.075701095 -0.0039216084
-0.14774269 0.06633347 -0.002315321 0.117061555 -0.15334408 0.013554719 0.15694794 0.14352827
-0.055744853 -0.038125735 -0.06374781 0.12426187 0.11006816 0.100070044 0.021089336 -0.09589725
-0.0930057 0.053749595 0.13450284 -0.1601533 -0.19685505 -0.06333756 0.104038045 -0.11205149
0.05652184 -0.019851984 0.013667032 -0.0680952 0.09266347 -0.049045205 -0.039828446 -0.08376904
0.04479861 -0.025216823 0.017569698 0.060684033 -0.11280625 -0.059605367 -0.056081027 -0.009973157
0.19080766 0.093272395 0.16205043 -0.032304198 0.060450647 0.11089062 -0.09954542 -0.094276525
-0.04994789 0.11156402 0.0031716067 -0.13992736 0.061606605 -0.15473 -0.009085198 -0.09824964
0.054334544 0.11927435 0.091755316 0.042223338 -0.011147753 -0.06384784 0.03280861 -0.011938861
0.04049219 -0.07133691 -0.00725263 0.12868421 -0.09902428 0.18582006 0.03198751 0.0021667967
0.037191022 -0.021303535 -0.1539388 -0.05392952 0.034737393 -0.01827696 0.0005291929 -0.07209848
-0.1560899 -0.06095779 0.03741024 -0.095333174 0.06479432 0.068165176 -0.07178518 -0.0030639993
0.11158061 0.022174535 0.13655856 -0.053901117 0.014301782 0.04955716 -0.026161203 -0.19623634
0.05921777 -0.009683828 -0.10382806 0.07584901 -0.047379833 0.021166863 0.061174832 -0.016042912
-0.03131307 -0.020178718 0.0019818507 0.1611772 0.06354264 -0.05610382 -0.007845063 -0.08852677
0.14874732 0.18251728 -0.08557527 -0.21210487 -0.20294045 -0.070335455 -0.0019874691 -0.0997485
0.11333639 -0.01892115 -0.025165897 -0.059068624 0.008478681 0.07035081 -0.02376625 -0.1976352
-0.011364866 0.033968613 -0.02634401 -0.09446464 0.08251298 0.05351867 -0.1637454 0.026418863
0.03947408 -0.051001344 -0.231428 -0.13259973 0.13807504 0.12255915 0.04446495 -0.10674023
0.22147079 -0.032909356 -0.005805454 -0.13791813 0.020816702 -0.0041592536 -0.05927276 -0.12253405
-0.025957396 0.08268909 0.14616673 0.21351658 0.102859765 0.004239714 0.06999186 -0.094628826
0.024277179 0.020730035 0.06796228 0.0043244665 -0.06640905 -0.07572169 0.106688306 0.06014354
-0.12423689 0.028628025 -0.13318832 0.034670327 -0.012434606 -0.12755279 0.06508271 -0.068603076
-0.09047481 -0.11875387 0.020549899 0.0010729482 -0.05968576 -0.024093509 0.05052787 -0.0040729307
0.034508962 -0.1298201 -0.16221479 -0.042612497 0.062326223 0.007592943 -0.12652 0.06676662
0.0072203767 -0.027374348 0.078897096 0.1164933 0.03211491 -0.0050072065 0.035106156 0.04240159
-0.045585204 -0.08602346 0.065677665 -0.05890231 0.10013077 -0.12705174 0.07933398 -0.052819047
-0.06465902 -0.16632113 -0.07431438 -0.09986771 0.11158672 0.019962816 0.029282993 0.06975371
-0.0505386 0.07833378 -0.09772433 0.033870738 0.10982629 -0.0032693269 0.07337059 -0.12364678
0.08355858 0.042455312 0.19907096 -0.07924305 0.03527183 0.037699997 0.061170626 -0.10166717

network_body._body_endoder.seq_layers.2.bias f4 [128]
00000000: cc1e 2dbc 205d 2dbc e52b 7ebb 5531 49bc
00000010: 73fa 1d3c e4c2 0bbc 4309 423b 5def 183c
00000020: 37b6 4dbc 4606 83ba 48ca 323c ad78 153c
00000030: bc16 bf3b 3f9f 2138 d9c9 06bc 6064 333c
00000040: 5eeb f6bb 8f79 5abc c4be 26bc 3238 ee3a
00000050: 4bb6 47bc 1e93 c6bb 83b2 cc3b 455a 5c3c
00000060: 3d11 1a3c 147a 923a fd5a bc3b 8e43 3c3c
00000070: 42a2 f83b 9040 473c 9082 d2bb 6450 0c3c
00000080: be36 ba3a 2ace eabb c5a7 47bc ec15 413c
00000090: 9505 2bbc 6c53 053b 7e90 2ebc def8 dcbb
000000a0: b3d2 313c 9e09 35bc 6944 d5bb c7b5 29bc
000000b0: 5251 41bc 8258 15bc fdd8 473c f65d aaba
000000c0: fc8c 343c dbb1 053c 2d6a 18bb 8c38 023c
000000d0: 3e97 1c3c 7ab6 0bbc d0c5 0ebb 0cd3 1abc
000000e0: 682f fe3b 8250 01bb 1741 453c 7cc7 333c
000000f0: ab8b 1abc c47c 103c b0dd e43b 70cd 89bb
00000100: 6c16 113c d758 72bb 4baa d2bb ea1b f0ba
00000110: 4307 41bc 2846 1f3c 7a23 04bc 1eb4 2c3c
00000120: 93aa 4abc a067 1abc c926 933b bfa1 2c3c
00000130: 21a9 50bc 2e35 a0ba 8461 9bbb de5d fdbb
00000140: 7e27 263c 8c34 0bbc 4e38 943b a9f5 123c
00000150: 854a 2dbb 5c93 1f3c 0ac3 103c fdce 5b3b
00000160: 73f5 ee3b 5233 233c e9cd d13b d07e 3abc
00000170: 0f7b c93b 8ec6 1a3c 5972 42bc 7b4f 0dbc
00000180: 1a7c 3b3c e3eb 56b9 7f40 183c 70db c93b
00000190: d34f e2bb 774b 1e3c d29b 2dbb 73ed 25bc
000001a0: d10d 1c3c f0c1 32bc 337e e839 311e 143c
000001b0: 5619 b83b 1b0c 443c 8e0e 323c 9f8b 1a3c
000001c0: 792d 49bc 38e7 0f3c 4403 8d3b bef3 2a3c
000001d0: 2347 99bb 0073 a6bb e836 3b3c 4b67 ddba
000001e0: 0081 2ebb c4f3 14bc 69c5 43bc 2cdf e5bb
000001f0: 01e7 313c 830a d93b 0ce3 2e3c f66d 01bb
-0.010566425 -0.010581285 -0.0038783487 -0.012279828 0.009642231 -0.008530352 0.0029607571 0.009334412
-0.01255565 -0.0009996376 0.010912485 0.00912301 0.0058315676 3.85337e-05 -0.008226835 0.010949224
-0.007535382 -0.013334646 -0.010177318 0.0018174706 -0.012189458 -0.006060018 0.006246866 0.013449256
0.009403524 0.0011175298 0.0057481513 0.011490716 0.007587702 0.012161389 -0.0064242557 0.0085640885
0.0014206988 -0.00716569 -0.0121859955 0.011785012 -0.010438343 0.0020343913 -0.010654567 -0.0067435345
0.010853457 -0.011049656 -0.0065083993 -0.0103582805 -0.011799173 -0.00911534 0.01219773 -0.0012997973
0.011019941 0.00816008 -0.0023256645 0.007948052 0.009557543 -0.0085273925 -0.0021785386 -0.009449732
0.007757116 -0.0019731824 0.012039444 0.010972854 -0.0094327135 0.008818809 0.006984435 -0.0042053983
0.008855443 -0.0036979222 -0.006428992 -0.0018318866 -0.0117815165 0.009721316 -0.008065099 0.01054099
-0.01236977 -0.00942412 0.0044907075 0.01053661 -0.012735636 -0.001222288 -0.0047418494 -0.007732137
0.010141252 -0.008496415 0.0045233136 0.008969703 -0.0026442122 0.009739723 0.008835563 0.0033540123
0.0072924434 0.009960966 0.00640272 -0.0113827735 0.006148703 0.009446753 -0.011868083 -0.008624907
0.011443162 -0.00020496505 0.009292721 0.006160192 -0.0069064884 0.009661547 -0.0026490581 -0.010127413
0.009524778 -0.010910496 0.00044344514 0.009040401 0.0056182547 0.011965777 0.010867728 0.009432702
-0.012278908 0.008783154 0.004303368 0.010434089 -0.0046776696 -0.005079627 0.011426665 -0.0016891746
-0.0026627183 -0.009091321 -0.011948922 -0.0070151296 0.010858298 0.0066235675 0.010674249 -0.001974938

action_model._continuous_distribution.log_sigma f4 [1, 2]
00000000: 6343 d53b 0e5f 74bb
0.0065082773 -0.0037288102

action_model._continuous_distribution.mu.weight f4 [2, 128]
00000000: cab8 553c 35e2 16bc d0ea 073d 2aa3 96bc
00000010: 8015 493c a5e3 c6bc 2ecd 303d 4988 013d
00000020: 9a66 4dbc c963 b1bc 2f21 7bba 4433 38bc
00000030: f901 aa3c 4b43 bfbc c03d 903c 75a8 a03c
00000040: e711 183c 8399 2d39 196c 9f3c 1a40 8e3c
00000050: f131 553b 7d48 07bc 4fe6 413c bef7 3f3c
00000060: 3b82 f0bb a4e7 68bc 1b27 c0bc 0485 b3ba
00000070: 5069 02bc 9612 c23b 236c c63c 1a63 33bc
00000080: 0443 193d 6b66 1ebc 5380 90bc 0f7d 773b
00000090: 42cc 15bb b448 1d3d 1017 95bb 7c2e a23c
000000a0: eb85 a93a 8b3d 47bc 0f9c edbc 88fe 853c
000000b0: 8c90 08bc 4adf d2ba e94f 593b 613a b3bc
000000c0: 122e 673c dad5 54bc 6fe3 e83b 5a4f 91bc
000000d0: fb84 00bc 1acb 183c 27f4 b63c f203 b13b
000000e0: be38 a5bc e8ad 193d 6e72 ca3a 75e5 2b3b
000000f0: 754c c2bc ab01 f9bb 11f3 1b3d 70bb a8bc
00000100: f806 033d 48c5 84bc 0b51 a7bc 691c 893c
00000110: 3995 e1bc c2ac e23a 3083 a73c 9268 0f3d
00000120: b2cb cc3a 251d 9cbc a628 f2bb 1082 d43c
00000130: c71d 8cbc 16ad 3b3c febd 31bd cbab 023d
00000140: fa4f 37bb 9c44 e53c 1be6 3cbd 8b1f a6bb
00000150: 3e39 753c 446f b3bb 875e 26bc 5284 9c3c
00000160: 19c8 13bc ab44 823c 54a0 2e3d fc83 9dbc
00000170: 00dd 87bc 69da 3c3c 9a69 81bc 27c1 e03b
00000180: 87af 673b be58 853c 9485 473c 5c40 803c
00000190: da05 833c 2125 b0bc 61dc 573c 7dd0 22bb
000001a0: 08af 98bc a94f 10ba 10e0 e0bc e08e 00bc
000001b0: 40fb 263d 1d31 903a fe2e 553c 3e31 d93c
000001c0: 4174 ecbb 34f4 83bc e47d 40bc 3fc5 e43b
000001d0: 9497 2e3c 5b51 d73c e34c 593c 1451 1dbd
000001e0: f7dc f73c fd72 ce3b a58b ae39 e740 fd3c
000001f0: 02f1 463b b348 92bc e9d0 7b3b a4be 003c
00000200: 1951 0bbd 03df adbb e8d5 3dbc 1c88 0dbd
00000210: a519 1a3c 11cf fbbb 240a ce3b adc3 b33c
00000220: 3683 edbc cf09 e6b9 dede 823b bd9c 1d3c
00000230: a75a 1c3c 852b 153c 2073 cabc de3d 7f3d
00000240: 5e50 42bc a101 48bc f436 e6bc deef 5cba
00000250: ef92 27bc 68dc cfba 5db9 2b3b fd0d 883c
00000260: 252d 563c ef32 003b 5d9d 8a3c 7319 263d
00000270: d02e b83b 83c7 eb3c 4586 8abc b0ea 383c
00000280: db24 38ba 137b 03bc bd9b f4bc dfbf a83c
00000290: 531e b3bc b667 cc3a a363 29bc bb0f 2ebc
000002a0: 7c22 ba3b c3cc 6dbc 1103 eebb 7fa7 17bd
000002b0: f863 34bd 0c2c 29bd a331 8b3c 36d7 5e3b
000002c0: 8b48 843c 5c9b 2c3c 82e0 d2ba 1951 803c
000002d0: da26 853c 5bd9 95bc 95e4 b0bb 673f 2dbd
000002e0: 9f18 a03c ced5 51bc 62d9 293d 791b 843c
000002f0: 0199 b5bc c20b 4a3c e6e5 7c3c 67ae 273b
00000300: ded5 b63c eb8e 25bb 4b4b 25bc 269a 18bb
00000310: 452e 3ebd e650 8f3c 3150 c3bc 7482 223d
00000320: aa4c 14bd 380e 44bc 0f71 f838 568c d73c
00000330: a340 1cbd a99f afba 3c17 24bc 3ff3 ebbc
00000340: e37f c53b 8cb0 d1bc ad66 7c3c 3f2f 063c
00000350: 5010 b2bb 48eb 683c c09f 673c f128 903b
00000360: 07b1 c93b ca07 403c b99c 5d3c e1fb 6cbc
00000370: c67f e53b ab18 3b3c ef55 12bd 9a07 88bc
00000380: a1d5 ed3c 646b 89bb 7b77 883c a4c6 683b
00000390: baef 99bc dd01 0c3d 56a8 a5bb 5182 4bbc
000003a0: 896b 0a3d 1a41 05bd 7721 5d3b c575 413c
000003b0: c7c7 383c 0750 553b b286 4f3c 8f3d 883c
000003c0: b891 6dbc eb80 a93c 542d 323c 7d01 cc3b
000003d0: aea5 bebb e0d1 70bc fe3c 0c3d fc9e e6bb
000003e0: bacd 12bc 3f2f 8fbc cf5b b1bc 1a4e debc
000003f0: 1573 a93b 50ac db3b 5702 643c ae4f cfbb
0.013044545 -0.009209205 0.03318292 -0.01838835 0.012273192 -0.024278471 0.043164425 0.031624112
-0.012536669 -0.021654027 -0.0009579835 -0.011242691 0.020752894 -0.023347517 0.01760757 0.019611577
0.009281612 0.00016555753 0.019460725 0.01736455 0.0032530988 -0.008257029 0.011834695 0.011716781
-0.0073397434 -0.014215384 -0.023456147 -0.0013696258 -0.007959679 0.005922626 0.024221485 -0.010948921
0.037417427 -0.009667973 -0.017639315 0.003776375 -0.0022857343 0.038399413 -0.0045498684 0.019797556
0.0012933587 -0.012160669 -0.029005079 0.016356722 -0.008335244 -0.0016088274 0.0033159202 -0.021878423
0.014110105 -0.012990439 0.0071071903 -0.017738033 -0.007844205 0.009325767 0.022333218 0.0054020816
-0.020168658 0.037519366 0.001544548 0.0026229296 -0.023718098 -0.007599076 0.038073603 -0.02059719
0.031989068 -0.016207352 -0.020424386 0.01673718 -0.027536975 0.0017293917 0.020448297 0.035011835
0.0015624671 -0.019056866 -0.0073900996 0.025940925 -0.017104043 0.011454841 -0.04339408 0.031902116
-0.0027971254 0.027986817 -0.046117883 -0.005069678 0.014967261 -0.0054759104 -0.010154373 0.019106064
-0.009019875 0.015901884 0.04263337 -0.019227974 -0.016584873 0.011526682 -0.015797425 0.006858963
0.0035352425 0.016277667 0.012177844 0.015655689 0.015994001 -0.02150208 0.013175101 -0.0024843507
-0.018638149 -0.00055050344 -0.027450591 -0.007846564 0.040766954 0.0011000965 0.013011692 0.026512738
-0.007216007 -0.016107656 -0.011748765 0.0069815214 0.010656256 0.02628391 0.01326296 -0.0384074
0.030256731 0.0063003288 0.0003329191 0.030914737 0.0030356054 -0.017856931 0.003842408 0.007857952
-0.034012888 -0.005306126 -0.011586644 -0.034553632 0.009405528 -0.0076845963 0.00628783 0.021943891
-0.02899323 -0.00043876327 0.003993853 0.009619889 0.009543098 0.009104614 -0.024713099 0.06231486
-0.011859981 -0.01220742 -0.028102376 -0.0008428077 -0.010227903 -0.0015858533 0.0026203014 0.016608233
0.013072287 0.0019561609 0.01692074 0.040551614 0.005620815 0.028781658 -0.016909728 0.011286423
-0.0007024535 -0.008024949 -0.029859418 0.020599304 -0.021865046 0.0015594873 -0.010338697 -0.010623868
0.0056803804 -0.014514151 -0.007263549 -0.03702497 -0.04404065 -0.041301772 0.016991442 0.0034002787
0.016147872 0.010535087 -0.0016088637 0.01566367 0.016253877 -0.01829212 -0.005398343 -0.042296793
0.01954299 -0.012807323 0.041467078 0.016126381 -0.022167685 0.012331905 0.015435671 0.002558613
0.022318777 -0.0025262188 -0.010088752 -0.002328524 -0.046430845 0.01749463 -0.02384195 0.03967519
-0.036205925 -0.011966281 0.0001184662 0.026312035 -0.03814758 -0.0013399023 -0.010015305 -0.028802512
0.006027208 -0.02559688 0.015405339 0.008189975 -0.0054340735 0.014216252 0.014137208 0.004399412
0.0061551365 0.011720607 0.013526135 -0.0144643495 0.007003757 0.0114194555 -0.035726484 -0.016605187
0.02903253 -0.00419371 0.016658535 0.003551879 -0.018791068 0.034181464 -0.0050554676 -0.012421207
0.03379396 -0.03253279 0.003374187 0.011807864 0.011278099 0.003254892 0.012666391 0.016630916
-0.014500074 0.020691356 0.010875065 0.0062257634 -0.0058180904 -0.014698476 0.034237854 -0.0070379954
-0.008960182 -0.017478583 -0.021650223 -0.027136851 0.0051711896 0.006703891 0.0139165735 -0.006326637

action_model._continuous_distribution.mu.bias f4 [2]
00000000: 4e79 a83a ac1c 333c
0.0012853534 0.010932129
