python/results/minion_walk_002/Minion/Minion-50007.onnx (onnx, 71890 bytes, 7 tensors)

network_body._body_endoder.seq_layers.0.weight f4 [128, 3]
0.67980933 0.6031012 0.10529864 0.6505278 -0.02420441 1.189184 -1.0890892 -0.48467824
0.008516213 0.0061615873 -0.08056797 0.3087911 0.3936826 -0.8605343 -0.043841284 -0.480059
0.31587592 0.44423294 0.2312379 0.9339219 0.1340403 -0.2793023 0.08536411 -0.20423333
0.9338363 0.7997873 -1.3436488 -0.3621965 0.10012796 -0.8445188 -0.0865516 -0.41970292
1.0154349 0.16273339 0.6924781 -0.41458154 0.60181653 0.029011708 -0.69371086 -0.25606287
0.32712373 0.30884656 -0.6089589 -0.14855704 0.020891374 0.6963056 0.19856985 0.6802434
0.60261774 -0.026100066 -0.24732776 -0.4937079 -0.37458473 0.43194118 0.08041166 0.644641
-0.51719016 0.08736623 0.12117064 0.4205409 -0.41230887 -0.26669192 -0.48678172 -0.13282232
0.029491588 0.024618821 -0.6207068 0.19805317 0.29307267 -0.02769874 0.61178 -0.005462952
0.13302726 -0.41391513 0.08058011 0.6203154 0.5645278 0.2629715 0.8003897 0.43512043
0.9353398 -0.8839649 0.44343367 -0.4749271 -0.46069893 -0.17134249 0.12726034 0.020804409
0.24436764 0.9217887 -0.0077980077 -0.2597445 0.20373012 -0.2264682 0.28034446 -0.043906573
0.6720162 -0.67991596 0.3179835 0.17694058 0.41898653 0.41527846 0.25186086 -0.074608214
0.46064135 0.28871852 0.9629874 -0.068398416 0.11483266 0.2421091 0.1620617 1.1682231
0.4603372 -0.5190836 -0.778682 0.35417813 -0.094939634 -2.163866 0.29731005 0.29836905
-0.5343493 0.6618922 0.20548853 -0.20314942 -0.88826317 -0.5168417 -0.17688556 -0.6725448
2.200552 -0.055943124 0.5987581 -0.44452736 0.2115392 -0.94944817 0.5972414 -0.89070064
0.6652945 0.16189395 -1.0356779 0.08026401 -0.19285765 0.25213906 -0.04024449 -0.40704736
-0.56001085 0.4346706 -0.013691436 -0.20104554 0.19263972 0.33417693 0.038551897 0.6175947
0.5460824 -0.46823472 -0.60969806 -0.27172366 -0.80090666 -0.038013753 -0.11586763 -0.24890399
0.69884014 0.47471723 -0.07182272 0.105231 -0.30518252 -0.5107693 0.065595336 -0.25206855
0.1991378 0.20654008 0.55961114 0.0016599038 -0.5125579 0.15765078 -0.5161319 -0.79196256
-0.11055907 0.33463132 -0.9444923 0.34700152 -0.38322216 0.026672436 -0.770115 0.32877192
0.14977545 -0.08548934 1.1966206 -0.3386537 -0.12800157 0.38913026 -0.14752765 -0.6130856
0.69368446 -0.08437035 0.04756495 0.43219146 -0.097106114 -0.8485522 0.5407755 0.2638454
-0.47371137 -0.42225996 0.48777255 0.39500314 0.31132144 -0.3560702 -0.3679661 0.027174221
-1.2590064 1.4044012 0.09590503 0.66269004 0.20851387 -0.09561793 -0.3550047 0.0024213053
-0.27297488 0.5877708 0.34370917 0.3713696 -0.37818658 0.54180557 0.041550096 -0.45837954
0.6588912 -0.18735766 -0.11198196 -1.3247252 0.9883514 0.63302124 0.13934943 -0.22389556
0.7350653 0.1428115 -0.35855713 0.004885768 -0.32459947 0.7106955 1.2843089 0.36964774
-0.24986444 0.4442884 -0.15758991 -0.32303423 -0.11102526 0.025044452 -0.12000559 0.15971278
-0.07077835 0.15365253 -0.1072742 0.34313452 0.3017133 -0.10521941 1.0925505 -0.7045595
00000000: fc07 2e3f d764 1a3f d0a6 d73d fd88 263f
00000010: 5448 c6bc 2e37 983f 4667 8bbf bf27 f8be
00000020: 9687 0b3c 24e7 c93b d200 a5bd de19 9e3e
00000030: c490 c93e fa4b 5cbf eb92 33bd 4bca f5be
00000040: 7dba a13e 8072 e33e a1c9 6c3e 8115 6f3f
00000050: dc41 093e b600 8fbe 61d3 ae3d 8b22 51be
00000060: e50f 6f3f dcbe 4c3f affc abbf d271 b9be
00000070: e30f cd3d 6232 58bf f741 b1bd 4de3 d6be
00000080: c5f9 813f 95a3 263e 3f46 313f 0844 d4be
00000090: a610 1a3f f6a9 ed3c 0997 31bf ac1a 83be
000000a0: c37c a73e 2321 9e3e bbe4 1bbf 561f 18be
000000b0: 6324 ab3c 1541 323f e555 4b3e 6e24 2e3f
000000c0: 2845 1a3f cecf d5bc 7d43 7dbe 48c7 fcbe
000000d0: 92c9 bfbe 6527 dd3e deae a43d 3107 253f
000000e0: 9366 04bf 11ed b23d 5028 f83d 2351 d73e
000000f0: 261a d3be d88b 88be 743b f9be 9302 08be
00000100: 5898 f13c 69ad c93c a4e6 1ebf 73ce 4a3e
00000110: 9f0d 963e 78e8 e2bc 9d9d 1c3f 9002 b3bb
00000120: 4c38 083e afec d3be 2f07 a53d fdcc 1e3f
00000130: e584 103f 33a4 863e 57e6 4c3f 1bc8 de3e
00000140: 6e72 6f3f 864b 62bf bd09 e33e a529 f3be
00000150: bbe0 ebbe 6874 2fbe 8950 023e 026e aa3c
00000160: 833b 7a3e 58fa 6b3f 6e86 ffbb 3bfd 84be
00000170: a19e 503e 48e7 67be 4f89 8f3e 61d7 33bd
00000180: 4109 2c3f f90e 2ebf bcce a23e e92f 353e
00000190: 6785 d63e 619f d43e e8f3 803e 31cc 98bd
000001a0: 2fd9 eb3e ead2 933e 5886 763f 7814 8cbd
000001b0: 632d eb3d 73eb 773e 81f3 253e 5688 953f
000001c0: 51b1 eb3e aae2 04bf b457 47bf d656 b53e
000001d0: b66f c2bd c87c 0ac0 0639 983e d4c3 983e
000001e0: 1ecb 08bf c471 293f 966b 523e 6706 50be
000001f0: 3765 63bf bd4f 04bf 7d21 35be e52b 2cbf
00000200: d8d5 0c40 9e24 65bd 3648 193f 1799 e3be
00000210: bb9d 583e 090f 73bf d0e4 183f f504 64bf
00000220: be50 2a3f 87c7 253e 1891 84bf 7561 a43d
00000230: 7a7c 45be 5f18 813e 68d7 24bd 8368 d0be
00000240: df5c 0fbf 258d de3e 0b52 60bc e2de 4dbe
00000250: 5943 453e 3d19 ab3e 98e8 1d3d b01a 1e3f
00000260: 0ecc 0b3f 76bc efbe 2c15 1cbf 5d1f 8bbe
00000270: 3808 4dbf 4fb4 1bbd 024c edbd b0e0 7ebe
00000280: 30e7 323f 230e f33e ca17 93bd 5a83 d73d
00000290: e240 9cbe c7c1 02bf d956 863d 210f 81be
000002a0: c8ea 4b3e 3e7f 533e ad42 0f3f 2191 d93a
000002b0: ff36 03bf 356f 213e 3821 04bf 0fbe 4abf
000002c0: cb6c e2bd cc54 ab3e 3fca 71bf 2faa b13e
000002d0: b235 c4be 2780 da3c 4226 45bf cb54 a83e
000002e0: bc5e 193e 0915 afbd dd2a 993f 0564 adbe
000002f0: d812 03be 153c c73e 7d11 17be 2ef3 1cbf
00000300: 4e95 313f 5dca acbd 77d3 423d 3348 dd3e
00000310: 92df c6bd b83a 59bf 4370 0a3f bf16 873e
00000320: 4c8a f2be 7532 d8be 53bd f93e da3d ca3e
00000330: 8665 9f3e d54e b6be 0d66 bcbe 799c de3c
00000340: 1f27 a1bf 6bc3 b33f db69 c43d 0ea6 293f
00000350: a984 553e 55d3 c3bd 2dc3 b5be c3ae 1e3b
00000360: 5dc3 8bbe 2678 163f a6fa af3e 2824 be3e
00000370: aca1 c1be c5b3 0a3f 6f30 2a3d b9b0 eabe
00000380: 18ad 283f b0da 3fbe cc56 e5bd 9890 a9bf
00000390: 9904 7d3f ae0d 223f 9eb1 0e3e e144 65be
000003a0: 3d2d 3c3f 2e3d 123e cd94 b7be cb18 a03b
000003b0: e731 a6be 24f0 353f 3c64 a43f 7842 bd3e
000003c0: 77dc 7fbe c579 e33e 405f 21be be64 a5be
000003d0: 3661 e3bd 062a cd3c 7ec5 f5bd bf8b 233e
000003e0: 3df4 90bd 1757 1d3e 93b2 dbbd 54af af3e
000003f0: 2a7a 9a3e 467d d7bd b2d8 8b3f 035e 34bf

network_body._body_endoder.seq_layers.0.bias f4 [128]
0.013554582 0.00686837 -0.0534012 0.0047583547 -0.0043162275 0.0013239416 0.011430929 0.016341921
0.02626513 0.0021696491 -0.030286929 0.0048902375 -0.010963901 -0.00024476 0.041963376 -0.014429419
-0.00068176555 -0.007930219 -0.009670509 0.022674838 -0.004612316 -0.0282618 0.0038405776 0.023450188
0.018590398 0.02388806 -0.010822515 0.0069395914 -0.0247845 -0.01361352 0.0034856913 -0.0047990386
0.0056628142 -0.00853076 -0.017726151 0.01317647 0.00043213545 -0.013745458 0.013909306 -0.020708522
-0.014986013 -0.028297583 0.011019714 -0.0038490384 -0.014240208 0.025253408 -0.027226826 -0.010382633
0.002046787 -0.010617267 -0.006474659 -0.017171295 -0.037884425 0.016276635 -0.005080912 0.03625188
0.00751278 -0.000662641 -0.013174289 -0.0073615145 -0.011900027 -0.020892177 -0.00021321408 -0.008791454
0.020214727 -0.005589652 0.0005572154 -0.04239109 -0.003915226 -0.0053252247 0.005481552 -0.022577606
-0.0036724135 0.0014650361 -0.019192161 -0.016413277 -0.020438664 -0.028620783 0.031739548 0.00682479
0.0047320477 -0.011633661 -0.001745227 -0.001014715 0.006486064 0.009612639 0.0009633595 -0.044305343
-0.031912517 -0.022567146 0.020175884 -0.0038740446 -0.030979283 -0.007608186 -0.004890807 -0.0029132457
-0.0006093946 0.028002571 0.0062707188 -0.0009441973 -0.005113463 -0.036274504 0.03288475 -0.004361457
0.0022160087 -0.0027435087 -0.016116085 -0.03023663 -0.011921576 0.013211396 -0.014104963 0.012924353
0.015833434 -0.026607798 -0.008413823 0.011889483 0.019450527 -0.04300076 -0.00969253 -0.010427592
0.026986176 0.041071318 -0.024643088 0.037466273 -0.014384764 0.0060225003 -0.01592237 -0.010808002
00000000: 0a14 5e3c 1010 e13b 37bb 5abd f9eb 9b3b
00000010: 246f 8dbb 1c88 ad3a cb48 3b3c 7edf 853c
00000020: f829 d73c ac30 0e3b 4b1c f8bc 493e a03b
00000030: efa1 33bc 2253 80b9 cae1 2b3d 5f69 6cbc
00000040: 83b8 32ba c0ed 01bc 0e71 1ebc 95c0 b93c
00000050: e922 97bb 4a85 e7bc 33b2 7b3b 9c1a c03c
00000060: e44a 983c e5b0 c33c eb50 31bc 8365 e33b
00000070: dd08 cbbc 3e0b 5fbc 3270 643b 4141 9dbb
00000080: 218f b93b 9ac4 0bbc 6f36 91bc 1fe2 573c
00000090: 3d90 e239 a134 61bc dce3 633c eba4 a9bc
000000a0: e587 75bc 55d0 e7bc 088c 343c 2640 7cbb
000000b0: c34f 69bc 3ce0 ce3c cb0a dfbc eb1b 2abc
000000c0: 6323 063b 0cf4 2dbc 6029 d4bb d1aa 8cbc
000000d0: b32c 1bbd 9456 853c c77d a6bb da7c 143d
000000e0: c42d f63b 16b5 2dba f9d8 57bc dc38 f1bb
000000f0: 55f8 42bc 1226 abbc 3892 5fb9 080a 10bc
00000100: 5b99 a53c 6629 b7bb 1812 123a 48a2 2dbd
00000110: 4c4b 80bb 397f aebb 979e b33b acf4 b8bc
00000120: e0ac 70bb 7406 c03a e138 9dbc 2375 86bc
00000130: fc6e a7bc 2276 eabc 5401 023d 7da2 df3b
00000140: 4b0f 9b3b 1c9b 3ebc 1ac0 e4ba 2f00 85ba
00000150: 0c89 d43b 557e 1d3c f689 7c3a 8579 35bd
00000160: b3b6 02bd bcde b8bc e547 a53c afe3 7dbb
00000170: 44c8 fdbc 174e f9bb 1043 a0bb 27ec 3ebb
00000180: c8bf 1fba a665 e53c 9a7a cd3b 0284 77ba
00000190: d68e a7bb 9394 14bd 29b2 063d 8eea 8ebb
000001a0: 753a 113b 70cc 33bb e105 84bc cfb2 f7bc
000001b0: b752 43bc 9c74 583c 8118 67bc aac0 533c
000001c0: 1eb5 813c 99f8 d9bc 22da 09bc 1bcc 423c
000001d0: b656 9f3c 9121 30bd 6bcd 1ebc 7ed8 2abc
000001e0: 1d12 dd3c 663a 283d 4de0 c9bc 3c76 193d
000001f0: 13ae 6bbc 6558 c53b a16f 82bc 0c14 31bc

network_body._body_endoder.seq_layers.2.weight f4 [128, 128]
0.049347494 -0.022090863 -0.021005763 -0.12226064 -0.013479677 -0.11390168 -0.123645626 -0.013934762
-0.021431277 0.14642908 0.02363959 0.0600712 -0.066003956 -0.0031204491 -0.01993837 0.01694239
-0.019074889 0.08087898 -0.064167514 0.031255625 0.06639916 -0.052864667 0.1538142 -0.0025005164
0.023185814 -0.041387886 -0.08429372 0.013452471 0.15240054 -0.20350187 -0.081311435 -0.103627436
0.0015491523 -0.08930895 0.090117864 -0.017304758 0.1416215 0.06330328 0.04910855 -0.007930205
0.13616528 -0.07226868 -0.070427135 0.022323433 -0.1078159 0.09551413 -0.01681755 0.06823425
-0.083987914 0.035508376 -0.022865014 -0.09904464 -0.03793076 0.027952807 -0.16173334 -0.038557433
0.11934977 0.12245855 -0.02415565 -0.13398606 0.021900838 -0.07426377 -0.10054138 -0.20851198
0.12603906 -0.11755298 -0.054553002 0.040261663 -0.0012219123 -0.0044116373 -0.14156193 -0.09824604
-0.090762086 0.016062139 -0.15646642 -0.13754952 -0.07477285 0.06622972 0.076572925 0.0785586
0.10117483 -0.0072396672 0.15342782 0.036390115 -0.043316636 -0.07761163 -0.037572123 -0.06947696
0.05478796 0.07890215 -0.00016425662 -0.043336418 -0.034171578 0.011156508 0.04947586 -0.046225958
-0.08948832 -0.09228766 0.07669372 -0.010499292 0.046377473 0.008812263 0.1773948 -0.05528616
-0.17345735 -0.08305857 -0.03291803 -0.044528738 0.023835037 0.026538713 0.07680781 -0.10274312
-0.031678937 0.13832603 -0.05418111 -0.096753955 0.10676625 -0.14428514 -0.06308345 -0.04566488
0.09975841 -0.13698022 0.019738715 -0.13786878 0.035909764 0.13197523 -0.006732712 -0.021306068
-0.10727197 0.04967472 -0.011002429 0.071255684 0.17303601 0.26822484 0.007905441 0.112145595
0.10491011 0.16598603 -0.07201108 0.100256294 0.13187173 0.080861315 -0.08385598 -0.022549944
0.024973236 -0.07127556 0.004193027 -0.1097014 0.06112564 -0.11637077 0.12560503 0.009999821
-0.065452 0.020302875 0.11551932 0.2403158 0.10384485 0.13513744 0.016733635 -0.02204793
-0.0037066755 -0.017244311 0.1552186 0.12507409 -0.05631338 -0.039982263 -0.01701454 -0.057523075
-0.07161943 -0.015947074 0.004449089 -0.071364395 0.013375537 0.15485238 0.011932462 -0.0022768497
0.05560857 -0.12695052 -0.09125305 0.0012146236 0.0654583 0.05092285 0.062258072 -0.025378093
0.053497884 0.02179516 -0.01821465 0.0060614115 -0.01316295 0.0475404 0.10975245 -0.023203833
-0.069694005 0.06969054 -0.14638124 0.03348894 0.02212406 0.2108506 0.09022104 -0.063474394
-0.019655613 0.018029738 -0.0517255 0.091758125 -0.041587714 0.09371084 0.10770592 0.04156127
-0.028828163 -0.009413812 0.13996057 0.004122652 -0.058065224 0.09525197 0.0410409 -0.0111293215
-0.113676555 0.07765184 -0.108398505 0.013487135 0.029874409 0.024091436 -0.13792118 0.018841555
-0.049780577 0.005967753 -0.11692421 0.1127063 0.03538132 0.0030342988 0.09491191 -0.08965794
0.008937881 0.07697924 0.07123357 -0.033347785 0.026348418 0.060063113 -0.040803496 -0.030296333
0.09261022 -0.003049925 -0.10709418 -0.009454328 0.028871024 -0.110607736 0.06942861 -0.002544415
-0.01611896 -0.04946034 0.05744082 -0.06431829 -0.0280694 -0.17950746 0.0042464323 -0.019536117
00000000: 9920 4a3d e6f7 b4bc 4714 acbc c963 fabd
00000010: ddd9 5cbc 4945 e9bd eb39 fdbd a14e 64bc
00000020: a590 afbc 81f1 153e d0a7 c13c 380d 763d
00000030: 152d 87bd 7380 4cbb cb55 a3bc c4ca 8a3c
00000040: f142 9cbc e1a3 a53d 426a 83bd e605 003d
00000050: 48fc 873d 9f88 58bd 7881 1d3e b4df 23bb
00000060: 2df0 bd3c 5886 29bd 30a2 acbd c167 5c3c
00000070: e30e 1c3e cb62 50be 9c86 a6bd 9f3a d4bd
00000080: ed0c cb3a 9ce7 b6bd b78f b83d b5c2 8dbc
00000090: 3a05 113e 26a5 813d 0c26 493d b1ed 01bc
000000a0: e96e 0b3e 9a01 94bd 1a3c 90bd a2df b63c
000000b0: 95ce dcbd ea9c c33d f5c4 89bc 66be 8b3d
000000c0: db01 acbd 3b71 113d 694f bbbc ebd7 cabd
000000d0: 495d 1bbd 49fd e43c 6d9d 25be 66ee 1dbd
000000e0: a76d f43d 8ccb fa3d 12e2 c5bc a433 09be
000000f0: 6369 b33c 9a17 98bd a4e8 cdbd 2a84 55be
00000100: 6210 013e 9ebf f0bd f872 5fbd 6ae9 243d
00000110: 9328 a0ba 7f8f 90bb 9cf5 10be 3835 c9bd
00000120: 79e1 b9bd bf94 833c bc38 20be c8d9 0cbe
00000130: 8222 99bd 73a3 873d 44d2 9c3d 55e3 a03d
00000140: c034 cf3d bb3a edbb 2f1c 1d3e cd0d 153d
00000150: c96c 31bd d9f2 9ebd 3ae5 19bd f049 8ebd
00000160: 5769 603d 7397 a13d 4d3c 2cb9 8781 31bd
00000170: 7ff7 0bbd c9c9 363c 33a7 4a3d 6e57 3dbd
00000180: a745 b7bd 5001 bdbd 9911 9d3d 3905 2cbc
00000190: 4ef6 3d3d 4f61 103c fca6 353e be73 62bd
000001a0: ce9e 31be 9d1a aabd 0ed5 06bd c463 36bd
000001b0: b241 c33c b767 d93c 6a4d 9d3d fc6a d2bd
000001c0: c6c1 01bd 57a5 0d3e 03ed 5dbd f026 c6bd
000001d0: 44a8 da3d 7cbf 13be e531 81bd 190b 3bbd
000001e0: 234e cc3d 8b44 0cbe 16b3 a13c 792d 0dbe
000001f0: 1e16 133d 8424 073e 159e dcbb 108a aebc
00000200: 68b1 dbbd b877 4b3d 8843 34bc 80ee 913d
00000210: 5a30 313e c454 893e d385 013c 97ac e53d
00000220: 1ddb d63d 3ef8 293e 8c7a 93bd 2c53 cd3d
00000230: 6209 073e 9e9a a53d afbc abbd a9ba b8bc
00000240: ac94 cc3c ecf8 91bd a965 893b 21ab e0bd
00000250: e15e 7a3d cc53 eebd 9b9e 003e 4ad6 233c
00000260: b30b 86bd 3752 a63c 6595 ec3d 5815 763e
00000270: 9cac d43d 7861 0a3e fa14 893c dc9d b4bc
00000280: b2eb 72bb f143 8dbc a0f1 1e3e 6c13 003e
00000290: dca8 66bd 71c4 23bd 1462 8bbc 519d 6bbd
000002a0: 35ad 92bd 70a3 82bc aac9 913b 7f27 92bd
000002b0: 1125 5b3c 9f91 1e3e 6080 433c 3337 15bb
000002c0: d0c5 633d 51ff 01be e1e2 babd 0134 9f3a
000002d0: 000f 863d 7a94 503d 5202 7f3d b8e5 cfbc
000002e0: 9920 5b3d c38b b23c e436 95bc ce9e c63b
000002f0: 6aa9 57bc b9b9 423d e4c5 e03d f715 bebc
00000300: bbbb 8ebd eab9 8e3d f7e4 15be b32b 093d
00000310: 843d b53c 38e9 573e cfc5 b83d ddfe 81bd
00000320: cf04 a1bc 1ab3 933c 1ede 53bd afeb bb3d
00000330: e157 2abd 78eb bf3d ec94 dc3d 263c 2a3d
00000340: 0a29 ecbc 643c 1abc d351 0f3e 5017 873b
00000350: cdd5 6dbd 7713 c33d 811a 283d c257 36bc
00000360: 41cf e8bd ee07 9f3d 0900 debd 25f9 5c3c
00000370: 2dbb f43c 675b c53c 363b 0dbe 9b59 9a3c
00000380: b8e6 4bbd 248d c33b f675 efbd 90d2 e63d
00000390: 01ec 103d 16db 463b 2d61 c23d 959e b7bd
000003a0: 3170 123c 4ba7 9d3d e8e2 913d b097 08bd
000003b0: a3d8 d73c bd04 763d 9121 27bd 0430 f8bc
000003c0: 6daa bd3d 40e1 47bb 3254 dbbd 53e6 1abc
000003d0: ed82 ec3c 4f86 e2bd 9630 8e3d 33c0 26bb
000003e0: e90b 84bc ed96 4abd 1147 6b3d 4fb9 83bd
000003f0: ccf1 e5bc ced0 37be a825 8b3b 350a a0bc

network_body._body_endoder.seq_layers.2.bias f4 [128]
0.0031390116 0.0010238801 -0.033456836 -0.0017529008 0.020514905 0.00042903132 -0.02128123 -0.03572234
-0.008890663 -0.0015319119 0.039574064 -0.018534923 -0.0082621025 0.0006537108 0.021693468 0.020882152
0.005226714 0.00084878784 0.00047472908 -0.0019295211 -0.002665739 0.0056872815 -0.009171961 0.003927546
0.011673447 -0.039673697 0.0031745522 -0.013073574 0.016804287 -0.0005755166 -0.010839196 7.338384e-05
-0.008253917 -0.0064784503 -0.004767274 -0.026979217 -0.010765448 0.027462445 -0.017799292 0.0029628945
-0.000994097 0.00835653 -0.0024255768 -0.0036364184 -0.0009783749 0.005154978 0.042151164 0.002260509
0.008630709 0.00031966035 0.005493512 -0.018689185 0.01867074 0.01955553 0.03842978 3.298005e-05
0.016303789 -0.0035159076 0.0048631295 -0.01643314 -0.0047720475 -0.004231998 -0.0083315205 -0.0012206774
-0.0020178854 0.0070907506 0.008499631 0.04203747 0.0041248207 0.03217787 -0.0061881244 -0.010726558
0.03812694 0.004492494 -0.0016208084 0.0022632282 0.0035088665 0.011100927 -0.002646313 -0.0120888185
-0.004522225 0.0026139922 -0.0041000796 0.004210916 -0.0001462428 0.0008847206 -0.004991147 -0.012084945
0.0035955997 -0.0066530323 0.008784406 0.012838842 -0.006191962 0.025773793 -0.0041538347 -0.0042694984
-0.0051767807 0.003316845 0.012532959 0.012569658 -0.0027432023 0.013969008 0.010055177 -0.005448972
0.002849724 0.0045764833 0.005524378 -0.0012407847 -0.004877608 -0.0024853128 0.010838644 0.0043808906
0.0347029 -0.0013227572 -0.0071656294 0.006044596 0.03231112 0.024169955 0.0019512005 0.051156584
-0.0012267184 0.008986311 0.0025334444 0.0115368785 0.042285178 0.010050364 -0.0016330415 -0.006705637
00000000: e0b7 4d3b b733 863a 090a 09bd 97c1 e5ba
00000010: e00e a83c 9cef e039 f955 aebc 9751 12bd
00000020: 25aa 11bc 6fca c8ba 6a18 223d 8dd6 97bc
00000030: c55d 07bc ca5d 2b3a 80b6 b13c 0c11 ab3c
00000040: db44 ab3b 3081 5e3a 0fe5 f839 fce7 fcba
00000050: aeb3 2ebb 605c ba3b fe45 16bc a5b2 803b
00000060: fc41 3f3c e380 22bd 260c 503b 8b32 56bc
00000070: 25a9 893c 44de 16ba e296 31bc a6e5 9938
00000080: 703b 07bc 2e49 d4bb cb36 9cbb 8503 ddbc
00000090: 9061 30bc ecf8 e03c d2cf 91bc 1f2d 423b
000000a0: 5c4c 82ba d4e9 083c 6df6 1ebb fa50 6ebb
000000b0: d03c 80ba 17eb a83b b3a6 2c3d 0c25 143b
000000c0: d167 0d3c 1698 a739 eb02 b43b 101a 99bc
000000d0: 61f3 983c eb32 a03c 8c68 1d3d 0f54 0a38
000000e0: 868f 853c 246b 66bb e35a 9f3b cb9e 86bc
000000f0: d65e 9cbb 93ac 8abb ee80 08bc 23ff 9fba
00000100: 803e 04bb 8759 e83b 0942 0b3c 7b2f 2c3d
00000110: 8129 873b f1cc 033d c0c5 cabb 72be 2fbc
00000120: ff2a 1c3d c535 933b 4e71 d4ba ab52 143b
00000130: 03f5 653b aae0 353c c46d 2dbb 2e10 46bc
00000140: 2c2f 94bb 834f 2b3b f659 86bb b9fb 893b
00000150: c158 19b9 98ec 673a c78c a3bb efff 45bc
00000160: 27a4 6b3b ae01 dabb 78ec 0f3c 025a 523c
00000170: f1e5 cabb 9023 d33c e41c 88bb 26e7 8bbb
00000180: fca1 a9bb 6d5f 593b 0a57 4d3c f8f0 4d3c
00000190: 4cc7 33bb 44de 643c 78be 243c 4a8d b2bb
000001a0: 6fc2 3a3b 53f6 953b d705 b53b d3a1 a2ba
000001b0: 57d4 9fbb a1e0 22bb 9194 313c 938d 8f3b
000001c0: a124 0e3d 5e60 adba a8cd eabb bf11 c63b
000001d0: aa58 043d 1200 c63c 6dbf ff3a 9189 513d
000001e0: d7c9 a0ba 523b 133c 2508 263b 2d05 3d3c
000001f0: 3933 2d3d 48aa 243c c80b d6ba f6ba dbbb

action_model._continuous_distribution.log_sigma f4 [1, 2]
-0.022318164 -0.0013035559
00000000: 95d4 b6bc 14dc aaba

action_model._continuous_distribution.mu.weight f4 [2, 128]
0.028277103 0.016777823 -0.016417107 -0.0021719944 0.031835373 0.008640326 0.009967211 -0.007147723
0.018622112 0.012344558 0.04281336 -0.004760741 0.0011903021 -0.010239803 0.03136096 -0.050420586
-0.011608194 -0.027048256 -0.01701655 -0.006415937 0.02803466 0.03498355 0.009657535 -0.056210585
0.025974905 0.004002476 -0.03209585 -0.037463803 -0.022312917 0.02354423 0.00046213318 0.011933535
0.016891409 0.011994332 0.006337223 -0.0037142285 0.0019088698 0.034717318 0.014957905 0.03098103
0.009335748 -0.03305072 0.005215308 0.0047909585 -0.03433054 -0.040703125 0.05980916 0.012915558
-0.028986976 -0.005127928 0.011287302 -0.0058057825 0.016429067 0.026320744 0.07448366 -0.0056044697
-0.031705193 0.00012543992 0.018781535 -0.02614645 0.03536297 -0.014460134 0.00044217054 -0.0037318892
0.0028032945 -0.039237347 -0.021726431 0.057231106 -0.013616978 0.052746583 0.016436204 -0.01675381
0.035150424 -0.038200174 -0.0018991093 -0.021694621 -0.04278491 0.009292905 0.0026009518 0.01767846
-0.005640956 -0.022382893 -0.036365833 -0.013352009 0.009696502 -0.0040183878 0.009790915 -0.030254329
0.016870193 0.011076416 -0.057248008 0.016786296 0.026075035 0.044005457 0.011675429 0.009685233
-0.043489967 -0.0067791287 0.027094968 -0.059322026 0.022729509 0.019099537 0.041069265 -0.04709018
-0.007457106 0.01211847 0.02068175 0.006354141 -0.03393563 0.029345805 -0.014799779 -0.042639658
0.048589755 0.013218892 0.013122666 -0.038681936 0.053186465 -0.042486202 -0.012347651 0.111543454
0.012258879 -0.009944574 0.028456165 -0.040309835 0.033561517 0.031568997 0.01183347 0.012936335
-0.0028446983 -0.024381828 -0.0096032005 0.014472485 -0.0041896836 -0.0038053498 -0.015090209 0.009367977
0.002799482 -0.0028926206 0.0046206005 -0.02762861 -0.0054573542 0.006623573 0.0013318466 0.009700727
-0.018007636 -0.003082364 -0.023869807 -0.0047237314 0.012709509 -0.020973027 -0.015018062 -0.005317442
-0.00076850195 0.000924157 0.020768398 -0.002147868 -0.010798695 -0.007851187 -0.0034413058 -0.006487201
-0.007363772 -0.033514462 -0.008119058 -0.02689915 -0.005491321 -0.0015285033 -0.005970998 -0.0057050465
0.0043155053 0.0147896195 0.011462682 0.011580526 0.013139257 -0.016160179 -0.0017978424 -0.015487705
-0.0059337886 0.014906722 -0.019900039 0.013278796 0.0025597473 0.009641782 0.00039404616 0.041353203
0.009826008 -0.0008262129 0.02184291 -0.033573985 0.04939163 -0.00086821034 -0.008493754 -0.028019805
-0.023861397 -0.013065812 -0.024425484 -0.01008977 -0.012976894 -0.009084959 -0.024774628 -0.015123664
-0.0030344136 -0.029259661 0.037379432 -0.005146232 -0.0006873752 0.0053690854 0.019444065 0.017648287
0.015495967 -0.026760291 -0.016588295 0.02949271 -0.01165685 0.0067297122 -0.015073054 -0.00590576
0.011983116 -0.011376234 0.017839089 -0.0076977643 0.02350431 -0.013024329 -0.0016883365 0.020742211
-0.0017415761 0.002431781 0.0023744823 0.00015502902 -0.031386044 -0.013212659 -0.029905872 -0.012212731
-0.00016097067 0.030205257 -0.009016405 -0.010961703 -0.027256556 0.020572899 0.008129908 -0.0044849254
-0.014640801 0.009902065 -0.032332473 0.024607625 -0.015230204 -0.0008522855 -0.012697222 -0.017087435
-0.031948406 0.0014838029 0.014614757 0.023830028 -0.0037853147 0.016776735 -0.023126498 -0.009499368
00000000: 62a5 e73c a571 893c 2b7d 86bc 0558 0ebb
00000010: cf65 023d 2790 0d3c 834d 233c 7237 eabb
00000020: 668d 983c d440 4a3c 105d 2f3d fdff 9bbb
00000030: e903 9c3a d9c4 27bc 5a74 003d d185 4ebd
00000040: 4b30 3ebc 4e94 ddbc 4b66 8bbc c83c d2bb
00000050: f1a8 e53c e94a 0f3d a33a 1e3c 123d 66bd
00000060: 53c9 d43c 3427 833b f076 03bd a573 19bd
00000070: 94c9 b6bc d4df c03c 774a f239 e084 433c
00000080: da5f 8a3c e083 443c 7ba8 cf3b 6a6a 73bb
00000090: 0b33 fa3a bf33 0e3d 0012 753c eecb fd3c
000000a0: f7f4 183c 3160 07bd 2de5 aa3b 79fd 9c3b
000000b0: 2e9e 0cbd 52b8 26bd 73fa 743d c79b 533c
000000c0: 1876 edbc 2e08 a8bb 60ee 383c 6f3e bebb
000000d0: 4096 863c 9a9e d73c e48a 983d b3a5 b7bb
000000e0: 4edd 01bd 8688 0339 bcdb 993c 1431 d6bc
000000f0: c3d8 103d 33ea 6cbc 20d3 e739 b692 74bb
00000100: 7ab7 373b 57b7 20bd a1fb b1bc 2a6b 6a3d
00000110: bf19 5fbc cd0c 583d 38a5 863c 493f 89bc
00000120: e4f9 0f3d c977 1cbd 89eb f8ba ebb8 b1bc
00000130: 3b3f 2fbd 4541 183c bb74 2a3b 6bd2 903c
00000140: c5d7 b8bb 545c b7bc 57f4 14bd 62c2 5abc
00000150: 14de 1e3c aeac 83bb 136a 203c edd7 f7bc
00000160: 5c33 8a3c db79 353c e37c 6abd 6a83 893c
00000170: 509b d53c 113f 343d 4c4a 3f3c d0ae 1e3c
00000180: 8922 32bd 7423 debb 44f6 dd3c a7fb 72bd
00000190: 3c33 ba3c a276 9c3c 3f38 283d a2e1 40bd
000001a0: bd5a f4bb 8c8c 463c c66c a93c 6636 d03b
000001b0: 1600 0bbd 9d66 f03c c67a 72bc eca6 2ebd
000001c0: 0d06 473d 0d94 583c 7300 573c f370 1ebd
000001d0: 0dda 593d 0306 2ebd cd4d 4abc e570 e43d
000001e0: 77d9 483c 91ee 22bc e71c e93c ed1b 25bd
000001f0: cd77 093d 7e4e 013d 2ce1 413c ecf2 533c
00000200: 1e6e 3abb 66bc c7bc be56 1dbc 001e 6d3c
00000210: 9d49 89bb 2d63 79bb ed3c 77bc 257c 193c
00000220: 8477 373b 1f92 3dbb 6868 973b 6555 e2bc
00000230: 9bd3 b2bb 8f0a d93b 5b91 ae3a ccef 1e3c
00000240: c084 93bc 7d01 4abb 9d8a c3bc 88c9 9abb
00000250: 8b3b 503c a0cf abbc 510e 76bc f03d aebb
00000260: 4b75 49ba 2043 723a 7d22 aa3c 3fc3 0cbb
00000270: 02ed 30bc 44a2 00bc 8887 61bb 9692 d4bb
00000280: cc4b f1bb 7646 09bd cc05 05bc 9b5b dcbc
00000290: 8af0 b3bb 0f58 c8ba 5da8 c3bb 66f1 babb
000002a0: 1569 8d3b 2950 723c f9cd 3b3c 3fbc 3d3c
000002b0: 0a46 573c 5a62 84bc 95a5 ebba 25c0 7dbc
000002c0: 3a70 c2bb 533b 743c 6805 a3bc 4f8f 593c
000002d0: 6fc1 273b 91f8 1d3c fb97 ce39 fa61 293d
000002e0: 44fd 203c 3696 58ba e7ef b23c e084 09bd
000002f0: e14e 4a3d 9c98 63ba 6329 0bbc ca89 e5bc
00000300: fa78 c3bc fd11 56bc f417 c8bc 904f 25bc
00000310: 0a9d 54bc 14d9 14bc 29f4 cabc 3fc9 77bc
00000320: 03dd 46bb f5b1 efbc 2d1b 193d b9a1 a8bb
00000330: f830 34ba 27ef af3b 2949 9f3c 2493 903c
00000340: cce2 7d3c 6638 dbbc 2de4 87bc b29a f13c
00000350: 5ffc 3ebc eb84 dc3b f8f4 76bc 1b85 c1bb
00000360: d554 443c 6263 3abc 4823 923c 873d fcbb
00000370: 1c8c c03c ff63 55bc 2c4b ddba 92eb a93c
00000380: 9945 e4ba 845e 1f3b 349d 1b3b 498f 2239
00000390: a78e 00bd e979 58bc 29fd f4bc e817 48bc
000003a0: 3cca 28b9 0471 f73c 8bb9 13bc b798 33bc
000003b0: 2449 dfbc 7f88 a83c 4e33 053c 48f6 92bb
000003c0: f8df 6fbc 453c 223c 0e6f 04bd ee95 c93c
000003d0: 1b88 79bc e96b 5fba 0208 50bc f3fa 8bbc
000003e0: 55dc 02bd 2a7c c23a bc72 6f3c 3137 c33c
000003f0: 0b13 78bb 5d6f 893c c873 bdbc 3da3 1bbc

action_model._continuous_distribution.mu.bias f4 [2]
0.005406616 0.00067225884
00000000: fb29 b13b 873a 303a
