python/results/minion_walk_001/Minion/Minion-19584.onnx (onnx, 71890 bytes, 7 tensors)

network_body._body_endoder.seq_layers.0.weight f4 [128, 3]
00000000: b1e2 3abd 149d bf3e 3989 93bf af52 823d
00000010: 519c 88be 6d28 30bf eec6 c7be a386 923e
00000020: 39ae 3cbd e368 6a3f a392 513e 1264 e4be
00000030: 48f8 213f e335 473e 2d88 2fbf 7ee8 39be
00000040: 8428 953c a336 e63e 1073 d4bd df00 593f
00000050: cacc 823e c383 a4be d4f2 d93e 40f7 2fbf
00000060: a807 51bf 14ab 14bf 3e05 50bf a616 e03e
00000070: 8b1d 113d 562a 58bf 2d5e 4abf 33ca 373f
00000080: 2fd1 1fbe ce48 6b3f 5c88 873e f046 7d3e
00000090: 72f4 03bd 2621 343e ef93 933e 4b0d c33e
000000a0: 9429 833e 0253 c53e 8ae5 d43e b07d 86be
000000b0: 9f35 d7be 696a dcbe 0d05 44be 8bc9 eabe
000000c0: 8381 383f 4227 9abf ad0b 40bd 9da3 0a3f
000000d0: 2732 7cbf b6bd ad3e feed 4d3e 04fe 8dbd
000000e0: 8e1b 1abf c0fc fd3d b044 bf3d d056 d03e
000000f0: 7e99 7d3f 2483 353e 3e5d 05bf 90d3 83bf
00000100: 3232 b9bf 4fea c53e b3fd 5dbe 8e99 8e3e
00000110: 1bda 6ebe a041 1fbf 7488 84be 3559 cd3f
00000120: 7dec 843e 5719 54be bae7 b93e 56de 8b3d
00000130: 36bb c0bd 0263 403d 466d ef3d 5b2d 7abf
00000140: 42fd 10bf 21d3 973e 7f17 053f 62b6 54be
00000150: 5405 2b3f 714c 82bf e28b 7ebe dab6 563f
00000160: a100 ecbb e3ba 15bb 1ffd bc3d 35cb 113f
00000170: cdc7 1ebf 8f80 663e 60a4 3bbf dffd d13e
00000180: f535 db3e d44f a43c 7e08 293f b7a9 ffbe
00000190: 724d f7be e66a 8a3f 93d8 4fbe 92a7 c33d
000001a0: 6470 6dbe 1354 5fbe 1bb5 93be 1159 e3be
000001b0: ea7e e5bc 4187 33bf affe 3fbe 0517 883f
000001c0: eca6 8abe 3702 623e f461 173f 5d09 033d
000001d0: b183 1fbf ba93 48be 5bd4 2abf 2eb6 16bf
000001e0: 0086 993f 9cea 52bf 3932 733f 20a7 93be
000001f0: 7239 1abf 4af7 103e 27de 02bf 210e ef3e
00000200: e3b2 d2be dba8 5f3e d416 80bf 36ef 023f
00000210: 5ebb 343f 2b7e ebbe b722 a0bf ba7c 52bf
00000220: eae3 1f3f 8160 58be 9fb8 e3be 41dc 6bbf
00000230: 07b1 7d3e 99b2 353f dced 5c3f 7034 54be
00000240: 9cee 6cbe b193 063f 2823 58bd f88a 3c3f
00000250: d1b1 eabe 7a62 16bf 4ad7 20be 45d4 9c3e
00000260: 6dd9 d63e 2ad0 5bbf 9037 e83d e318 da3e
00000270: d94e 1ebf ee38 a83e 654e 063d 6e1b cbbd
00000280: 19de dbbe ea92 0fbe 19a1 683e ae7e 143e
00000290: 9fb0 2fbf b26d b33f e0ee 0bbe 9716 1dbc
000002a0: 894c 1cbf 49f5 27bf 845e f5be 2323 74be
000002b0: 4ee5 06bd 144e cb3f 2327 293e 0651 113f
000002c0: 80d6 2b3f 45a2 09bd dc9c 233f 4ba8 1f3f
000002d0: a928 19be 588c d5bd a6c0 043f 274f 0dbe
000002e0: c7eb 23bf 6be7 0cbe 1c27 8dbf a008 8a3f
000002f0: d9e0 e33d 4caf 82bf 0933 d93f d26a a5bc
00000300: 4a2f 66be 4b39 803e 0b7d 7d3d 79e7 29bf
00000310: cb80 5cbe 71b7 0cbf 2e6e 2abe c42f 92bf
00000320: a19b c6be 0031 69bd 23ed 58bc 2ece c83d
00000330: eee8 da3e f5ac b53d 2c95 05bf 3d48 bcbe
00000340: 7279 81bf 1592 f1be c0eb f43d 32a2 16bb
00000350: 1c80 5d3f 365a b0bf 29c2 09bf 5349 8e3e
00000360: ba43 47be cb60 193f fef9 f43b 20e0 03be
00000370: 9a1a fdbe 456a 9fbe 3b4e b23e c935 053f
00000380: 3f2f 1bbd 7f0c e83e ae77 16bf 1f66 eb3d
00000390: 1cc0 2cbf 9d76 88bf 9302 30bf bb03 51bf
000003a0: 46d1 4f3e bbeb 50bf 4392 14bf ba44 8cbf
000003b0: b20d bdbe 9c0a 58be 28f0 2fbf 1fa7 84be
000003c0: d0c3 093f 2fa9 f53d 65de c93e 1a26 1f3f
000003d0: 3889 b1be 35e3 4d3f 9377 cb3d 9025 fabe
000003e0: 8f2a cd3e aa13 123f 09fd 203f 2234 383f
000003f0: 7d2a 853f f01b 6abf 3d9d f23e 8f15 813e
-0.045626346 0.3742453 -1.1526252 0.06363427 -0.2668176 -0.68811685 -0.3901896 0.28618345
-0.04606459 0.91566294 0.20466094 -0.44607598 0.6326947 0.1945415 -0.6856716 -0.18155095
0.018207796 0.4496356 -0.10373509 0.84766954 0.25546867 -0.32131776 0.42568076 -0.6873665
-0.8165231 -0.58073545 -0.81258 0.4376728 0.035428565 -0.844396 -0.7904995 0.71792907
-0.15607141 0.91907966 0.2647122 0.24734092 -0.032215543 0.1759077 0.28823802 0.3809608
0.2561766 0.38539892 0.41581374 -0.26267767 -0.42033097 -0.43049935 -0.19142552 -0.4585689
0.7207262 -1.204323 -0.046886135 0.54155904 -0.98514026 0.339338 0.20110318 -0.06933215
-0.60198295 0.12401724 0.09339273 0.40691233 0.99062335 0.17725807 -0.520954 -1.0298939
-1.4468443 0.38655326 -0.2167881 0.27851528 -0.23325388 -0.6220951 -0.25885355 1.6042849
0.25961676 -0.20712791 0.36309606 0.068295166 -0.09410708 0.04696942 0.11690764 -0.97725457
-0.5663644 0.29653266 0.5198898 -0.20772699 0.66805005 -1.0179578 -0.24858049 0.8387276
-0.0072022234 -0.002284699 0.092279665 0.56950694 -0.6202362 0.22509979 -0.7329769 0.41014
0.42814603 0.020057596 0.66028583 -0.4993417 -0.48301274 1.0813873 -0.2029746 0.09553446
-0.23187405 -0.21809416 -0.2884911 -0.4440389 -0.028014619 -0.70128256 -0.18749498 1.0632025
-0.27080476 0.22071157 0.5913384 0.03199135 -0.6231032 -0.19587603 -0.6673028 -0.58871734
1.1994019 -0.82389235 0.9499851 -0.28838444 -0.60243905 0.14156833 -0.5112023 0.46690467
-0.41152105 0.21841757 -1.0006967 0.51146257 0.705984 -0.45994696 -1.2510594 -0.8222157
0.62457144 -0.21130563 -0.44476792 -0.92132956 0.24774562 0.70975643 0.86300445 -0.20723128
-0.23137897 0.5256911 -0.052767903 0.7364955 -0.45838788 -0.58744013 -0.15707126 0.306307
0.41962758 -0.8586451 0.11338723 0.42597112 -0.6183906 0.32855934 0.032789607 -0.09917341
-0.42942885 -0.14020887 0.22717704 0.1450145 -0.6862888 1.4017851 -0.13665342 -0.009587905
-0.61054283 -0.6560865 -0.47923672 -0.23841529 -0.032933526 1.5883203 0.16518836 0.56764257
0.67124176 -0.033602018 0.63911223 0.6236617 -0.14956917 -0.10427159 0.5185646 -0.13799725
-0.6403164 -0.13760154 -1.102756 1.0783882 0.11126871 -1.0209746 1.69687 -0.020192537
-0.22478977 0.2504371 0.06188683 -0.66368824 -0.21533506 -0.5496741 -0.16643593 -1.1420827
-0.3879061 -0.056931496 -0.013240132 0.09804951 0.42755836 0.088708796 -0.52180743 -0.36773863
-1.0115187 -0.47181764 0.11959028 -0.002298486 0.86523604 -1.377753 -0.5381189 0.27790317
-0.1945943 0.5991332 0.0074760905 -0.12878466 -0.49434358 -0.31135765 0.3482531 0.52035195
-0.037886854 0.45322034 -0.58776367 0.114940874 -0.67480636 -1.0661198 -0.6875393 -0.8164632
0.20294675 -0.81609696 -0.5803568 -1.0958474 -0.3692451 -0.21097797 -0.68725824 -0.25908753
0.5381441 0.1199516 0.39427486 0.62167513 -0.34675002 0.80424815 0.09934916 -0.48856783
0.40071532 0.57061255 0.628861 0.7195455 1.0403591 -0.9144888 0.47385588 0.2521176

network_body._body_endoder.seq_layers.0.bias f4 [128]
00000000: 0000 0000 0000 0000 0000 0000 0000 0000
00000010: 0000 0000 0000 0000 0000 0000 0000 0000
00000020: 0000 0000 0000 0000 0000 0000 0000 0000
00000030: 0000 0000 0000 0000 0000 0000 0000 0000
00000040: 0000 0000 0000 0000 0000 0000 0000 0000
00000050: 0000 0000 0000 0000 0000 0000 0000 0000
00000060: 0000 0000 0000 0000 0000 0000 0000 0000
00000070: 0000 0000 0000 0000 0000 0000 0000 0000
00000080: 0000 0000 0000 0000 0000 0000 0000 0000
00000090: 0000 0000 0000 0000 0000 0000 0000 0000
000000a0: 0000 0000 0000 0000 0000 0000 0000 0000
000000b0: 0000 0000 0000 0000 0000 0000 0000 0000
000000c0: 0000 0000 0000 0000 0000 0000 0000 0000
000000d0: 0000 0000 0000 0000 0000 0000 0000 0000
000000e0: 0000 0000 0000 0000 0000 0000 0000 0000
000000f0: 0000 0000 0000 0000 0000 0000 0000 0000
00000100: 0000 0000 0000 0000 0000 0000 0000 0000
00000110: 0000 0000 0000 0000 0000 0000 0000 0000
00000120: 0000 0000 0000 0000 0000 0000 0000 0000
00000130: 0000 0000 0000 0000 0000 0000 0000 0000
00000140: 0000 0000 0000 0000 0000 0000 0000 0000
00000150: 0000 0000 0000 0000 0000 0000 0000 0000
00000160: 0000 0000 0000 0000 0000 0000 0000 0000
00000170: 0000 0000 0000 0000 0000 0000 0000 0000
00000180: 0000 0000 0000 0000 0000 0000 0000 0000
00000190: 0000 0000 0000 0000 0000 0000 0000 0000
000001a0: 0000 0000 0000 0000 0000 0000 0000 0000
000001b0: 0000 0000 0000 0000 0000 0000 0000 0000
000001c0: 0000 0000 0000 0000 0000 0000 0000 0000
000001d0: 0000 0000 0000 0000 0000 0000 0000 0000
000001e0: 0000 0000 0000 0000 0000 0000 0000 0000
000001f0: 0000 0000 0000 0000 0000 0000 0000 0000
0.0 0.0 0.0 0.0 0.0 0.0 0.0 0.0
0.0 0.0 0.0 0.0 0.0 0.0 0.0 0.0
0.0 0.0 0.0 0.0 0.0 0.0 0.0 0.0
0.0 0.0 0.0 0.0 0.0 0.0 0.0 0.0
0.0 0.0 0.0 0.0 0.0 0.0 0.0 0.0
0.0 0.0 0.0 0.0 0.0 0.0 0.0 0.0
0.0 0.0 0.0 0.0 0.0 0.0 0.0 0.0
0.0 0.0 0.0 0.0 0.0 0.0 0.0 0.0
0.0 0.0 0.0 0.0 0.0 0.0 0.0 0.0
0.0 0.0 0.0 0.0 0.0 0.0 0.0 0.0
0.0 0.0 0.0 0.0 0.0 0.0 0.0 0.0
0.0 0.0 0.0 0.0 0.0 0.0 0.0 0.0
0.0 0.0 0.0 0.0 0.0 0.0 0.0 0.0
0.0 0.0 0.0 0.0 0.0 0.0 0.0 0.0
0.0 0.0 0.0 0.0 0.0 0.0 0.0 0.0
0.0 0.0 0.0 0.0 0.0 0.0 0.0 0.0

network_body._body_endoder.seq_layers.2.weight f4 [128, 128]
00000000: 8088 603e 130a d1bd e041 80bd 6de6 193d
00000010: 30a4 f9bb 0112 4b3d 52df b63d 4d38 56bd
00000020: eb58 2e3e 6862 b3bd 6213 233d a545 353d
00000030: 8cce 6d3d 2ee3 bb3d e155 02be 0ee0 a639
00000040: 97a9 a83c df8e 0bbc d4ee 6aba d573 ef3d
00000050: a457 3fbd 67d6 e1bd a78b 18bd a9f1 483b
00000060: 6f07 0abd 2493 2b3c 2cbb fe3d 7ddb 0d3d
00000070: 1251 783c c3ea 86bd 5462 543d b943 a33d
00000080: fb35 33bc 3ea6 84bd 9254 0a3e 2055 f9bd
00000090: ebcc 143d 1498 803d a0b0 1c3e 014f f6bd
000000a0: 1d98 d1ba 17fb cc3d d14d 093e 59cf 9a3c
000000b0: 1681 cabd 4dcb c5bd 484c 12bd 6af4 eebd
000000c0: da58 57ba abde 3e3c 2b30 f6bd ee8a 3abd
000000d0: f101 013e 94dc c5bd 7212 28bd b7a4 873d
000000e0: 1f41 92bd 7d9e 873c d7c2 d83d 9b26 a8bd
000000f0: b994 cabd 412d 2abe ba46 2e3d 0073 0cbe
00000100: 3781 babd 0ec4 5e3c 0256 19be f8a1 3bbc
00000110: a1e9 283c 1289 ccbd 4d9f 81bc 3d79 91bd
00000120: b32c 15bd 17b7 9d3c d3a4 ccbc 8fb2 ddbc
00000130: 1eac c4bc 5b7e 2bbe 4929 be3d ff91 fa3d
00000140: 0c3a e53d 7d7e 083e 401c ac3d 90c3 0b3e
00000150: 516b 63bd 6593 b63d 225c a33c 6b62 823d
00000160: 1054 143d c195 90bd bd53 0f3d 6c91 5f3d
00000170: dff4 573d cb01 02bd e3de 29bd ac0d 1ebc
00000180: a073 fa3b 4dd5 223b 323b 243e 37c2 2b3d
00000190: 24c7 a5bd acff fcbd 1453 983d 300f e03d
000001a0: 2100 12be 9f4f b03d 2340 1e3e 4a7a debc
000001b0: c286 433b 46a8 b23c 7ae9 febd 1127 2c3d
000001c0: 9d3d 113e 6d00 4f3d ff02 c1bc 4c84 52bb
000001d0: 415d de3d 47c2 513d a23c a63d d167 803d
000001e0: 5bfa f5bc a522 ae3c 5288 9dbc 246b 8f3d
000001f0: dc5a 6c3e 207d e43d d2ec e33c b6f5 0fbd
00000200: 3414 e13c df56 3ebd fe60 db3d cddd abbd
00000210: b8df d93c f3a7 953d 85e0 cdba 4e3d 7cbe
00000220: eea4 003d 69fd a4bd aa32 293d 0f96 3dbd
00000230: 6f7e 083e 2f5c 353e feb0 ad3d 90e6 d43d
00000240: ec2b a2bc 9fff eb3c ead0 6f3d 1212 0bbd
00000250: 5948 783d 33de cc3d 3e9d c43d 06c0 eebd
00000260: 1321 0d3e 8f91 09bd a1d8 eebd ec91 e03d
00000270: b35d c53d 77b0 3dbd 264c 2ebd c722 ee3c
00000280: 5f10 44be 91b8 87bd a204 703d 5448 913d
00000290: 641d 973d 9941 8c3d a508 113e 20d0 66bd
000002a0: 9824 61bd 5518 f13c a4dd 0f3e af8d 65bd
000002b0: e967 193e d55f 093d 2995 4b3d bfb9 723d
000002c0: 69f7 f23d e174 65bc bb0b dabd 30f7 d5bb
000002d0: 10c1 70bd 04e1 10bd adcc 8dbb d38d bbbc
000002e0: d376 2abe 3eb6 c3bc 34f8 fd3d a350 db3d
000002f0: 9102 13bd ca31 a4bd e2e7 e6bd 31c1 6abd
00000300: faea 8d3d b13d 52be 560f ccbd f3c8 033d
00000310: f10d 8ebd 0bb0 013c 16c4 e2bd 0634 87bd
00000320: a5f1 bbbd 3e0d 913c 13f4 61bd 6b6a 263d
00000330: c8e1 0fbc 898e 72bc 4965 9d3d cfda 803d
00000340: 336e 07bd a0b9 05bd 34a6 f8bd a600 87bc
00000350: 6f80 e2bd fb1a cd3d 1dde 693d 9ef2 693d
00000360: 3a20 ff3d 584c 2e3d bad3 b6bd a7b2 adbc
00000370: 2920 8d3d 76aa 82bc 02b1 9d3d ee7b 70bd
00000380: 27b1 f03c f5cf c13d 759d 5c3d 09d1 e9bc
00000390: 0299 7d3d fc41 17be 7689 cebd c61a ef3d
000003a0: a957 aa3d d5a8 2f3c fc66 b6bd 3ec9 803d
000003b0: dd13 a6bc 2ecf febc 9767 afbd fb6b 03be
000003c0: b90a e33c e812 2e3e f4b1 a33d fa08 13be
000003d0: 697f c93c 3f8c e7bd 2ff3 723d 364b 00bb
000003e0: 5319 79bc 31d1 ddbd 60e9 6e3d 0321 ef3d
000003f0: b043 abbd 660e 90bb fd07 e5bd 661e 003e
0.2192707 -0.10207 -0.06262565 0.037573267 -0.0076184496 0.049577717 0.08929314 -0.052299786
0.17026107 -0.08759004 0.039813407 0.04425587 0.058058307 0.091741905 -0.12728073 0.0003182892
0.02058868 -0.00851795 -0.000896198 0.11692015 -0.04671444 -0.11027222 -0.037242558 0.0030661619
-0.033698495 0.010472093 0.12438044 0.03463315 0.015156047 -0.06587746 0.051851586 0.079719014
-0.010938163 -0.06477021 0.13508824 -0.121744394 0.036328238 0.062790066 0.15301752 -0.120267875
-0.0015990768 0.10008829 0.13408591 0.0188977 -0.098879024 -0.09657917 -0.03571728 -0.11667712
-0.0008214839 0.011649768 -0.12020906 -0.04554265 0.12598397 -0.096612126 -0.041033216 0.06623214
-0.07141327 0.016555065 0.10584038 -0.082104884 -0.09891648 -0.16618825 0.04254792 -0.13715744
-0.09106677 0.013596548 -0.14974216 -0.011452191 0.010309608 -0.099870816 -0.01582303 -0.071032025
-0.03641958 0.019252343 -0.024980938 -0.027062682 -0.024007853 -0.1674742 0.09285218 0.12234878
0.11192712 0.13329501 0.08403826 0.1364882 -0.055522267 0.08914832 0.019941393 0.06366428
0.03621298 -0.07059813 0.03499197 0.054582044 0.05272376 -0.03173999 -0.041472327 -0.009646814
0.007643178 0.0024846375 0.16038206 0.041933265 -0.08094624 -0.12353453 0.07437721 0.10940397
-0.14257862 0.086089365 0.15454154 -0.027157921 0.002983496 0.021808755 -0.12446876 0.042029444
0.1418366 0.050537515 -0.023560999 -0.0032122312 0.108576305 0.051210668 0.081170335 0.062698014
-0.030026605 0.021256754 -0.019230042 0.07002857 0.23081535 0.11156678 0.027822886 -0.035146438
0.027475454 -0.046469565 0.10711859 -0.083919145 0.026595935 0.073074244 -0.0015707171 -0.24632761
0.03140729 -0.08056147 0.041308083 -0.046285685 0.1332948 0.17710947 0.08481024 0.10395539
-0.019796334 0.028808413 0.058548845 -0.03395278 0.06061587 0.10003319 0.09600304 -0.11657719
0.13782148 -0.03358608 -0.116624124 0.109653324 0.09637012 -0.046310868 -0.04255309 0.029069318
-0.1914687 -0.06627 0.05859817 0.070938736 0.07378653 0.06848449 0.14163454 -0.056350827
-0.05496654 0.029430548 0.14049393 -0.056043323 0.14981045 0.03353866 0.049702797 0.059259173
0.11863596 -0.014004917 -0.10646769 -0.006529711 -0.05877787 -0.03537084 -0.004327378 -0.022894775
-0.1664689 -0.02389061 0.124008566 0.107087396 -0.03589112 -0.08017309 -0.11274697 -0.057313148
0.06929584 -0.20531346 -0.099638626 0.032174062 -0.06936253 0.007915507 -0.11072557 -0.066017196
-0.091769494 0.01770651 -0.055164408 0.04062883 -0.008781858 -0.014804491 0.07685334 0.062917344
-0.03306408 -0.03264773 -0.12141076 -0.016479801 -0.11059653 0.10014912 0.05709659 0.057116143
0.124573186 0.042553276 -0.089271024 -0.021203352 0.068909 -0.015950423 0.07699777 -0.05871194
0.029381348 0.09463493 0.0538611 -0.028542059 0.061913498 -0.14771265 -0.10084812 0.116750285
0.08317501 0.010721405 -0.089063615 0.06288384 -0.020273143 -0.03110465 -0.0856468 -0.1283416
0.027715074 0.169994 0.07992926 -0.14358893 0.024596887 -0.11306047 0.05931395 -0.001957608
-0.015203792 -0.10830916 0.058328032 0.11676218 -0.0836252 -0.0043962477 -0.11183164 0.12511596

network_body._body_endoder.seq_layers.2.bias f4 [128]
00000000: 0000 0000 0000 0000 0000 0000 0000 0000
00000010: 0000 0000 0000 0000 0000 0000 0000 0000
00000020: 0000 0000 0000 0000 0000 0000 0000 0000
00000030: 0000 0000 0000 0000 0000 0000 0000 0000
00000040: 0000 0000 0000 0000 0000 0000 0000 0000
00000050: 0000 0000 0000 0000 0000 0000 0000 0000
00000060: 0000 0000 0000 0000 0000 0000 0000 0000
00000070: 0000 0000 0000 0000 0000 0000 0000 0000
00000080: 0000 0000 0000 0000 0000 0000 0000 0000
00000090: 0000 0000 0000 0000 0000 0000 0000 0000
000000a0: 0000 0000 0000 0000 0000 0000 0000 0000
000000b0: 0000 0000 0000 0000 0000 0000 0000 0000
000000c0: 0000 0000 0000 0000 0000 0000 0000 0000
000000d0: 0000 0000 0000 0000 0000 0000 0000 0000
000000e0: 0000 0000 0000 0000 0000 0000 0000 0000
000000f0: 0000 0000 0000 0000 0000 0000 0000 0000
00000100: 0000 0000 0000 0000 0000 0000 0000 0000
00000110: 0000 0000 0000 0000 0000 0000 0000 0000
00000120: 0000 0000 0000 0000 0000 0000 0000 0000
00000130: 0000 0000 0000 0000 0000 0000 0000 0000
00000140: 0000 0000 0000 0000 0000 0000 0000 0000
00000150: 0000 0000 0000 0000 0000 0000 0000 0000
00000160: 0000 0000 0000 0000 0000 0000 0000 0000
00000170: 0000 0000 0000 0000 0000 0000 0000 0000
00000180: 0000 0000 0000 0000 0000 0000 0000 0000
00000190: 0000 0000 0000 0000 0000 0000 0000 0000
000001a0: 0000 0000 0000 0000 0000 0000 0000 0000
000001b0: 0000 0000 0000 0000 0000 0000 0000 0000
000001c0: 0000 0000 0000 0000 0000 0000 0000 0000
000001d0: 0000 0000 0000 0000 0000 0000 0000 0000
000001e0: 0000 0000 0000 0000 0000 0000 0000 0000
000001f0: 0000 0000 0000 0000 0000 0000 0000 0000
0.0 0.0 0.0 0.0 0.0 0.0 0.0 0.0
0.0 0.0 0.0 0.0 0.0 0.0 0.0 0.0
0.0 0.0 0.0 0.0 0.0 0.0 0.0 0.0
0.0 0.0 0.0 0.0 0.0 0.0 0.0 0.0
0.0 0.0 0.0 0.0 0.0 0.0 0.0 0.0
0.0 0.0 0.0 0.0 0.0 0.0 0.0 0.0
0.0 0.0 0.0 0.0 0.0 0.0 0.0 0.0
0.0 0.0 0.0 0.0 0.0 0.0 0.0 0.0
0.0 0.0 0.0 0.0 0.0 0.0 0.0 0.0
0.0 0.0 0.0 0.0 0.0 0.0 0.0 0.0
0.0 0.0 0.0 0.0 0.0 0.0 0.0 0.0
0.0 0.0 0.0 0.0 0.0 0.0 0.0 0.0
0.0 0.0 0.0 0.0 0.0 0.0 0.0 0.0
0.0 0.0 0.0 0.0 0.0 0.0 0.0 0.0
0.0 0.0 0.0 0.0 0.0 0.0 0.0 0.0
0.0 0.0 0.0 0.0 0.0 0.0 0.0 0.0

action_model._continuous_distribution.log_sigma f4 [1, 2]
00000000: ef32 4a3e ef32 4a3e
0.19745992 0.19745992

action_model._continuous_distribution.mu.weight f4 [2, 128]
00000000: 0b93 c73c 12f8 cebc 8fbe 35bc 5701 2abc
00000010: 5b54 e23c 3b5c 11bd fa0a a33b f749 773c
00000020: 660d 243a 6546 373b ef5c 0d3c 8697 3e3c
00000030: e3c5 aebc 9793 0d3d 4a9f fd3c cfd4 b73b
00000040: bdf1 453c 22fe 0c3c e563 9fbc d4fb 38bc
00000050: 3b96 d03c f571 d7bb 0828 c3bc 57b6 9a3c
00000060: a5e1 b73b c344 e0ba fa15 adb9 ddc6 863c
00000070: 669c 48bc e780 14bc 0fcf 5abc a96f 133c
00000080: 72e2 21bc 8a7d 5bbc d807 e33b 6492 c83c
00000090: 12b6 1cbc e7a4 a1bb 0a13 593c fbc1 d2bc
000000a0: caed 8ebc 61be c03c 78ec e73a 8014 53bc
000000b0: 8f50 11bc e2db 893c d35a 0cbc 919e b1bb
000000c0: 6a6e 57bd 7a2e eabc 3b8f 0fbc 8732 2abc
000000d0: 2525 e93b 2f14 54bc 5b94 2bbc 938e a83c
000000e0: d528 db3c eb0f 583c 8351 e2bb 9bfb 1fb9
000000f0: b04c f53b b396 c03c 4787 60bc 5822 043b
00000100: 7087 aa3c f22c a8bc ab66 d4bb f4c9 1a3d
00000110: 1ecf abbb b8ee 2abd 7bd0 673c b9f8 8f3c
00000120: fb8d bd3b 99c6 813c 461d 993c 3f15 8e3c
00000130: 3237 eabb 1dcf 45bc 0bfc 1d3c e42e 8b3c
00000140: 1302 b5bc 3b8d f13b 4aa9 12bd 5944 32bc
00000150: 5865 c7bb fccd 09bd 5d97 793b 3bf2 acbc
00000160: 6d0c d33b d19c bdbb af74 2bbd dd39 f73b
00000170: dfe8 a6bc 072a 263b c345 b5bc e1b5 13bc
00000180: 9226 233c 8c26 88bc 1208 563c 07df f13a
00000190: 0f3c 0cbc 0bf3 88bc b718 4bbc 4fb6 0e3c
000001a0: 47f6 d93b d5c2 28bc a312 77ba 2be7 88bc
000001b0: 4325 2cbc c7d0 e23c a7b3 a6ba 5a90 8bbc
000001c0: 874e 34bc f064 0a3a 832d e639 9d81 033c
000001d0: 3cc8 90bc 0a1e 443b 83ad f5bc 70f7 8b3b
000001e0: 3e84 0abc 6d21 d33b e828 02bd 1fa6 423c
000001f0: 8288 f83c faec 193c aa75 533b 5719 253d
00000200: 91c1 4bbc 51ab 9ebc d266 9fba ba1e bc3c
00000210: a68b a1bc a22f d4bb de7b 9c3c 1134 14bb
00000220: 7bf9 07bb 777a 293c e551 783c bf0e 813c
00000230: 14f3 223b 857c 9f3b 7757 a9bb c3cd 4d3c
00000240: ce35 3f3c efe7 86bb 5ba5 c83a 89f3 b23b
00000250: 8fed 713a 787a 69bc 1942 263a a320 5a3c
00000260: 82e2 c83c 735d 8bbc 2c94 13bc 544c 20bc
00000270: 0b0a 2d38 e3b7 953c 0e5e 883c 4e8e 86bc
00000280: eb39 e9ba 6200 1e3c 320e acbc 9915 2a3c
00000290: c41e be3c c749 2739 3b22 10bb a075 cfbc
000002a0: c4be 843c a39a c03c d393 2bbc c188 98bc
000002b0: 6744 96bb 3bda 333b ad4c 0d3b 2cdb a03c
000002c0: 2713 8e3c 3f84 9c3c d0a7 d3bb 075e b83c
000002d0: 59a2 353c 64a7 3f3d 3383 383b 0881 d7bb
000002e0: d135 8f3c baae 7abc 8e48 1abc 6de7 2e3c
000002f0: c139 a63c 2afb 8bbc 76ae bbbc 6ed0 0ebb
00000300: 0522 0f3d 4ff8 02bc 7711 24bc d53b 6f3a
00000310: d790 133c 8753 763c 818c b8bb a51d d23b
00000320: 5327 f8bc fa93 fd39 4fca aabc 2056 a73b
00000330: 3e1d a13c 1292 353d abe9 7cbc fa3e 873c
00000340: 6257 a8bb 3fd1 13bc 69fe 04bd 1b76 9c3c
00000350: b049 e4bc 1c0f 4c3c ad72 91bc ad4b f6bb
00000360: 9296 bcba fc80 1a3c 4ff0 e63c cc6f c03c
00000370: 9fab d3bb f20e 433c 0d28 e4ba 80ab 94bc
00000380: c191 943c d5f7 77bc 33ce 39bd 6c06 25bc
00000390: ba3d 8bbc 22ae c9bc 3d67 4fbc a3d6 8c3c
000003a0: 13ae 853b 3898 f9bb 603e 523b 55af 823c
000003b0: 8192 2a3c 3600 16bd 0651 823c 05ac adbb
000003c0: 7537 ee3b 4f58 b1bb 1984 8c3b b32a 1fbd
000003d0: f7f7 31bd fbc6 86bc e92a a23c 60b4 923c
000003e0: 8cb8 9e3c cf70 57bc 3762 1a3b d1e3 903b
000003f0: 18c9 683c cbfc 7fbc 588d d93c a3ae 9ebc
0.024362108 -0.025264774 -0.011092796 -0.010376296 0.027628114 -0.03548835 0.0049756737 0.015093318
0.00062581 0.0027965542 0.008628114 0.011632806 -0.021334594 0.03456458 0.030959744 0.0056100856
0.012081561 0.008605512 -0.019456813 -0.011290509 0.02546226 -0.006574864 -0.0238228 0.018885775
0.0056116157 -0.0017110336 -0.00033013505 0.016452247 -0.01224432 -0.009063936 -0.013355031 0.00899879
-0.009880649 -0.01339663 0.0069284253 0.024483867 -0.009564893 -0.004932988 0.013249168 -0.025727263
-0.017447371 0.02352828 0.0017694375 -0.012883306 -0.008869304 0.016828481 -0.008566576 -0.005420514
-0.052595533 -0.028586615 -0.008762176 -0.010388023 0.0071150237 -0.012944265 -0.010472382 0.020575797
0.026752869 0.013187389 -0.0069066896 -0.00015257152 0.0074859485 0.023509359 -0.013704128 0.0020162072
0.020816535 -0.020529244 -0.0064819655 0.037790254 -0.005243196 -0.041731566 0.014148827 0.017574655
0.0057847477 0.015841769 0.018690716 0.017344115 -0.007147693 -0.012073305 0.009642611 0.016990133
-0.022095716 0.0073715723 -0.035805978 -0.010880553 -0.006085079 -0.033643708 0.0038084604 -0.021111598
0.0064406903 -0.0057865162 -0.041859325 0.0075447396 -0.020374713 0.002535464 -0.022127992 -0.009015531
0.009957926 -0.016619943 0.013063448 0.0018453308 -0.008559241 -0.016717454 -0.012396029 0.008710458
0.006651673 -0.010300358 -0.00094250793 -0.016711792 -0.010506931 0.027687443 -0.0012718335 -0.017036606
-0.0110050505 0.0005279323 0.00043902927 0.008026508 -0.017673604 0.0029925131 -0.029989963 0.00427144
-0.008454381 0.0064431936 -0.031777292 0.011880427 0.03033853 0.0093948785 0.0032266178 0.04030737
-0.012436287 -0.0193688 -0.001216138 0.02296387 -0.01971991 -0.006475405 0.019102033 -0.0022614042
-0.0020748067 0.010344139 0.015156244 0.015754102 0.0024864124 0.004867139 -0.0051678973 0.012561264
0.011670543 -0.004117004 0.0015308069 0.0054611606 0.00092288194 -0.01425039 0.0006342247 0.013313445
0.02452207 -0.017012333 -0.009007495 -0.009783823 4.1255767e-05 0.01827616 0.016646411 -0.016425278
-0.001779375 0.009643646 -0.021002863 0.010381126 0.02320803 0.00015953845 -0.002199306 -0.025324643
0.016204245 0.023511237 -0.010472256 -0.018619897 -0.004585791 0.0027443308 0.0021560595 0.01963576
0.017343117 0.019106029 -0.006459214 0.022505773 0.01108607 0.046790496 0.0028154373 -0.006576661
0.017481716 -0.015300447 -0.009416712 0.010675293 0.020291211 -0.017087538 -0.022910338 -0.0021791714
0.034944553 -0.007993772 -0.01001393 0.0009126042 0.0090067005 0.015034563 -0.0056319837 0.0064122253
-0.030292189 0.00048366172 -0.020848421 0.0051067024 0.019667264 0.044328757 -0.01543657 0.016509522
-0.00513737 -0.009022056 -0.032469187 0.019099286 -0.027867168 0.012454774 -0.017754877 -0.0075163455
-0.0014388135 0.009430166 0.02819076 0.023490809 -0.006459668 0.011905419 -0.0017406956 -0.018148184
0.018135907 -0.015134771 -0.045362663 -0.010072332 -0.016997207 -0.024619166 -0.012658891 0.01719219
0.004079589 -0.007617023 0.0032080635 0.015952745 0.010410906 -0.036621295 0.015907776 -0.0053000473
0.0072697946 -0.0054121385 0.004288208 -0.03885908 -0.04344937 -0.016452303 0.019795852 0.017908275
0.019375108 -0.013149454 0.0023557076 0.004421689 0.014208101 -0.015624235 0.026556656 -0.019370383

action_model._continuous_distribution.mu.bias f4 [2]
00000000: 0000 0000 0000 0000
0.0 0.0
